DCNModel/DCN_PD_NN_Models/NN_DCN_model_iter_id_30_epoch_100_lr_0.001.pth (torch_old, 828778 bytes, 14 tensors)

shared1.weight f4 [200, 25]
-0.06080178 0.19825493 0.15458326 0.031544138 -0.055970505 -0.17579399 -0.34477124 -0.11232899
-0.066697754 -0.23634252 0.16232267 -0.21822271 -0.3076192 -0.2738974 -0.2713407 -0.03571402
0.043365143 0.0073843123 0.070158206 -0.05396337 -0.09009054 -0.21366744 -0.19003972 0.20657098
0.23238285 -0.108804144 -0.110928945 -0.11976691 0.057719726 -0.020538116 0.07437757 -0.13857435
0.017319055 -0.13633338 -0.016856942 -0.13726664 0.12372929 0.085351564 -0.26085648 0.02205006
-0.24261646 -0.18723296 -0.057865534 0.014599166 0.07658633 -0.026117178 0.11365578 -0.16345595
0.001023331 0.029096305 0.11393965 -0.09731729 0.0074546984 -0.027167361 -0.033280417 -0.08761972
-0.2276118 -0.02826592 -0.029941102 -0.118068255 0.12858756 -0.2429498 -0.27610537 -0.2781569
-0.05676227 -0.027814101 0.03551533 -0.08839126 -0.035037283 0.08690016 -0.090744026 -0.08120868
-0.09136294 0.23684964 -0.03415791 0.0735345 -0.04865128 -0.07382825 -0.1919151 0.0010257037
0.009898817 -0.006452278 -0.15613197 0.05310325 0.07136184 -0.186671 0.09117937 -0.105913475
-0.09561052 -0.108642206 -0.096782334 0.0007020992 -0.19988106 0.11699002 -0.15781046 -0.19773105
0.2012352 -0.020846829 -0.039813083 -0.049159203 0.04120593 0.010784386 0.13414752 0.016205281
0.0258943 0.20281382 -0.03588438 0.082430124 0.13206203 -0.06727796 -0.105474435 -0.027597414
0.1096465 -0.1726248 0.21783389 -0.17549296 -0.051236276 -0.2800141 -0.0044741356 0.0026419626
-0.19366823 -0.019212328 0.0052183825 -0.029398644 -0.21570817 0.19519445 -0.061884575 0.13743858
0.009315834 -0.057135798 -0.31677765 -0.049678117 -0.21181706 -0.15821534 -0.109075725 0.003803632
-0.30218166 -0.29547495 -0.085296914 -0.13100669 -0.0332323 -0.17534468 0.13499172 -0.24257609
0.23722608 -7.029271e-05 -0.44346678 -0.04114018 0.10244419 -0.1491441 0.013509932 -0.008494698
-0.044853672 0.09637806 0.049187917 0.027924923 -0.18133083 -0.14601518 -0.2645755 0.00119129
-0.07181245 -0.022136046 -0.13023958 0.024687324 -0.03070441 -0.14123851 0.014696648 -0.03287084
-0.15469724 0.027829591 -0.15889554 -0.10712002 -0.29923195 -0.13288783 -0.008647365 -0.10085092
-0.0713918 -0.0099254465 0.007389019 -0.09232264 -0.051375758 -0.096587904 0.15815236 -0.024245417
-0.24497989 -0.0405446 -0.05786967 -0.08762881 -0.16855615 -0.20952056 -0.1652139 0.020700773
-0.015647713 0.10190857 -0.13913552 0.087355465 -0.062427584 -0.028644627 0.05733727 0.0815327
0.16866452 0.08092168 -0.0013731566 -0.13674353 0.06287465 0.034294207 -0.020944899 -0.16812858
0.16376682 -0.22941439 0.05188261 0.2543114 -0.28244385 -0.012597578 -0.08718347 -0.07682842
-0.010417578 -0.28982455 0.24133386 -0.16594487 -0.09588201 0.15651642 0.089765824 -0.20214896
-0.23803464 0.13346377 -0.15286413 -0.031229895 0.10421995 0.095091775 0.13723835 0.016354753
-0.095067605 0.11051459 0.090200305 -0.24021451 0.032316614 0.0012902138 -0.20277041 -0.14136393
-0.26051262 -0.30094576 -0.1178881 -0.113523304 0.1646822 0.052955188 -0.23840468 -0.17019916
0.05247736 0.012732995 0.10309081 0.035626277 0.0007665809 -0.13827719 -0.1348777 0.010766852
00000000: 4a0b 79bd 5703 4b3e 134b 1e3e 6d34 013d
00000010: 5441 65bd 5703 34be db85 b0be be0c e6bd
00000020: d598 88bd c603 72be ea37 263e c675 5fbe
00000030: 4480 9dbe 483c 8cbe 2bed 8abe dd48 12bd
00000040: a69f 313d 1af8 f13b 1baf 8f3d b208 5dbd
00000050: 6481 b8bd a3cb 5abe c699 42be 5887 533e
00000060: c5f5 6d3e b5d4 debd b72e e3bd 5b48 f5bd
00000070: 856b 6c3d 8d3f a8bc 4453 983d 6fe6 0dbe
00000080: b1e0 8d3c fa9a 0bbe 9217 8abc a08f 0cbe
00000090: c865 fd3d cdcc ae3d fb8e 85be 54a2 b43c
000000a0: 7370 78be ffb9 3fbe 6904 6dbd 5731 6f3c
000000b0: 4bd9 9c3d b1f3 d5bc 5dc4 e83d ff60 27be
000000c0: 4a21 863a 605b ee3c 3159 e93d 4a4e c7bd
000000d0: 8b46 f43b 168e debc 0c51 08bd f871 b3bd
000000e0: 1113 69be ee8d e7bc 0b47 f5bc c5cd f1bd
000000f0: 75ac 033e d5c7 78be af5d 8dbe 956a 8ebe
00000100: 8e7f 68bd 66da e3bc 8678 113d 7a06 b5bd
00000110: 4183 0fbd b6f8 b13d 01d8 b9bd bd50 a6bd
00000120: 7e1c bbbd b688 723e 2ae9 0bbd 4299 963d
00000130: 9146 47bd 4433 97bd 6485 44be e870 863a
00000140: a62e 223c a16d d3bb 0fe1 1fbe cb82 593d
00000150: 2826 923d af26 3fbe 40bc ba3d 2ae9 d8bd
00000160: 73cf c3bd ce7f debd d135 c6bd 140d 383a
00000170: 9fad 4cbe 7798 ef3d 1199 21be 027a 4abe
00000180: 9a10 4e3e f8c6 aabc 0b13 23bd 295b 49bd
00000190: 8dc7 283d feb0 303c f85d 093e f0c0 843c
000001a0: 4820 d43c 6dae 4f3e 80fb 12bd 20d1 a83d
000001b0: 453b 073e 07c9 89bd fb02 d8bd f913 e2bc
000001c0: 588e e03d 8ec4 30be d90f 5f3e 6db4 33be
000001d0: 21dd 51bd 025e 8fbe c59b 92bb c724 2d3b
000001e0: f750 46be 2c63 9dbc f7fe aa3b 6dd5 f0bc
000001f0: 9ae2 5cbe 0ee1 473e ae7a 7dbd b3bc 0c3e
00000200: 71a1 183c 3a07 6abd ae30 a2be 487b 4bbd
00000210: 92e6 58be 3403 22be 1863 dfbd 5b46 793b
00000220: 8eb7 9abe 7e48 97be 26b0 aebd 9e26 06be
00000230: 981e 08bd 8e8d 33be 453b 0a3e de65 78be
00000240: 65eb 723e 1c6a 93b8 140e e3be 9b82 28bd
00000250: 42ce d13d 3bb9 18be c358 5d3c 592d 0bbc
00000260: 7cb8 37bd dc61 c53d 4579 493d cfc2 e43c
00000270: caae 39be 0185 15be 7176 87be 0f25 9c3a
00000280: 6812 93bd a756 b5bc 865d 05be 123d ca3c
00000290: d187 fbbc d4a0 10be 36ca 703c 93a3 06bd
000002a0: f468 1ebe e2fa e33c 83b5 22be be61 dbbd
000002b0: ee34 99be bf13 08be adad 0dbc ed8a cebd
000002c0: dd35 92bd 579e 22bc 951f f23b a713 bdbd
000002d0: 636f 52bd e1cf c5bd b1f2 213e 539e c6bc
000002e0: 02dc 7abe 1812 26bd bf08 6dbd bc76 b3bd
000002f0: fc99 2cbe 8f8c 56be d52d 29be ab94 a93c
00000300: a22f 80bc 71b5 d03d 8b79 0ebe 6ce7 b23d
00000310: 11b4 7fbd 23a8 eabc 7cda 6a3d 9efa a63d
00000320: 64b6 2c3e 44ba a53d 7dfb b3ba 7f06 0cbe
00000330: 6dc4 803d 1578 0c3d a394 abbc e629 2cbe
00000340: 7db2 273e 9beb 6abe dc82 543d 1b35 823e
00000350: 7b9c 90be 1266 4ebc 3f8d b2bd 3858 9dbd
00000360: 7dae 2abc e263 94be 3920 773e 74ed 29be
00000370: ca5d c4bd d745 203e 25d7 b73d 2300 4fbe
00000380: 5abf 73be baaa 083e 6a88 1cbe d6d5 ffbc
00000390: 4571 d53d 7abf c23d 3688 0c3e 67fa 853c
000003a0: ceb2 c2bd 7955 e23d f0ba b83d cbfa 75be
000003b0: 6d5e 043d 641c a93a 0ca3 4fbe b5c1 10be
000003c0: e961 85be 9015 9abe 516f f1bd e87e e8bd
000003d0: 73a2 283e 8ae7 583d 5b20 74be b048 2ebe
000003e0: 80f2 563d 0d9e 503c 4621 d33d dcec 113d
000003f0: 60f4 483a 8998 0dbe 611d 0abe 7367 303c

shared1.bias f4 [200]
-0.11822337 -0.15328427 -0.12164375 -0.13943863 -0.13549002 -0.024765264 -0.13599078 -0.123907864
-0.19922651 -0.1291285 -0.033543963 -0.13504273 -0.17191827 -0.05729395 -0.19715373 -0.031068286
-0.03776214 -0.08015026 -0.077069424 -0.13490038 -0.09531991 -0.058842648 -0.08892576 -0.16980767
-0.080688424 -0.17427622 -0.06774635 -0.1310624 -0.11224101 -0.07640556 -0.11505144 -0.081616014
-0.10815183 -0.110156946 -0.1873696 -0.014257365 -0.08653923 -0.08701449 -0.06925499 -0.09136992
-0.083562255 -0.07142649 -0.11310076 -0.053209417 -0.15711401 -0.07587146 -0.009422141 -0.07118331
-0.19904518 -0.14517903 -0.19164805 -0.089813784 -0.123538695 -0.17134811 -0.1690281 -0.09605638
-0.11702701 -0.05013965 -0.08024441 -0.14496973 -0.030323338 -0.058086142 -0.108246475 -0.124639
-0.099144235 -0.08438192 -0.08249298 -0.10398071 -0.07916097 -0.035787307 -0.119036764 -0.09629127
-0.061460335 -0.056964166 -0.069897115 -0.032968644 -0.11865413 -0.11832885 -0.09288139 -0.14176583
-0.14386736 -0.09836408 -0.106607 -0.052019104 -0.111195974 -0.13103083 -0.21321216 -0.08406422
-0.0780301 -0.15215568 -0.11052997 -0.16262563 -0.13751343 -0.14948983 -0.15372619 -0.13853335
-0.153921 -0.054773796 -0.076068945 -0.089706205 -0.14567105 -0.09062597 -0.061177857 -0.09692208
-0.10270518 -0.13006578 -0.16670558 -0.082769915 -0.115371756 0.072503686 -0.099146605 -0.04496812
-0.18043104 -0.14265539 -0.19009806 -0.11452039 -0.1104108 -0.07336263 -0.10705426 -0.19298296
-0.10674623 -0.09204846 -0.19449794 -0.1262248 -0.12880464 -0.09646312 -0.12029268 -0.13723971
-0.06911513 -0.07940646 -0.087663814 -0.09144185 -0.07091853 -0.05296517 -0.2018567 -0.12195127
-0.06750381 -0.15324417 -0.101407036 -0.114008375 -0.121935114 -0.13973531 -0.12104454 -0.05726509
-0.1268251 -0.16818614 -0.12082896 -0.1859277 -0.08849689 -0.11289529 -0.10281606 -0.13111971
-0.12001813 -0.11561055 -0.12572 -0.16849221 -0.15880854 -0.120613374 -0.11859172 -0.074347116
-0.040919855 -0.027871773 -0.042224504 -0.09705136 -0.16245875 -0.10340993 -0.09467093 -0.1243539
-0.057893157 -0.1444239 -0.12328682 -0.15144274 -0.10476571 -0.19419122 -0.11427957 -0.08551353
-0.06735587 -0.1357442 -0.13348483 -0.10410515 -0.16169362 -0.017469471 -0.1550858 -0.15360452
-0.09036599 -0.03895236 -0.08197846 -0.13186075 -0.14733906 -0.067573205 -0.032269202 -0.103598885
-0.11030904 -0.19944593 -0.14060672 -0.17665325 -0.06666968 -0.08170749 -0.17141274 -0.044258535
00000000: 181f f2bd 8df6 1cbe 5c20 f9bd 00c9 0ebe
00000010: e5bd 0abe 86e0 cabc 2b41 0bbe 68c3 fdbd
00000020: 0902 4cbe 433a 04be 6565 09bd a448 0abe
00000030: 580b 30be 10ad 6abd abe2 49be eb82 febc
00000040: 79ac 1abd d225 a4bd 93d6 9dbd 5323 0abe
00000050: 1637 c3bd fd04 71bd b51e b6bd 10e2 2dbe
00000060: f93f a5bd 7775 32be 99be 8abd 3935 06be
00000070: 9dde e5bd 857a 9cbd 17a0 ebbd 4c26 a7bd
00000080: b57e ddbd f799 e1bd d1dd 3fbe b997 69bc
00000090: 7b3b b1bd a734 b2bd 8fd5 8dbd 2720 bbbd
000000a0: b022 abbd 0d48 92bd 5fa1 e7bd 1ef2 59bd
000000b0: 7fe2 20be 7f62 9bbd 535f 1abc 8ec8 91bd
000000c0: 80d2 4bbe d0a9 14be 633f 44be 4af0 b7bd
000000d0: db01 fdbd e175 2fbe b415 2dbe 35b9 c4bd
000000e0: dbab efbd 3c5f 4dbd 2e57 a4bd f272 14be
000000f0: a668 f8bc bceb 6dbd 54b0 ddbd bb42 ffbd
00000100: 220c cbbd 6ed0 acbd 14f2 a8bd d7f3 d4bd
00000110: 261f a2bd b695 12bd 8cc9 f3bd 5b34 c5bd
00000120: d5bd 7bbd 4253 69bd 3826 8fbd 210a 07bd
00000130: f000 f3bd 6556 f2bd 9938 bebd 102b 11be
00000140: f751 13be 1b73 c9bd c554 dabd fc11 55bd
00000150: b7ba e3bd f22c 06be 4a54 5abe dd29 acbd
00000160: 3fce 9fbd b3ce 1bbe 895d e2bd 5587 26be
00000170: 52d0 0cbe dd13 19be 666a 1dbe b0db 0dbe
00000180: 779d 1dbe 7d5a 60bd 09ca 9bbd e3b7 b7bd
00000190: cb2a 15be 1c9a b9bd a295 7abd 157f c6bd
000001a0: 1857 d2bd f72f 05be deb4 2abe 4683 a9bd
000001b0: 0748 ecbd d07c 943d 600d cbbd 7e30 38bd
000001c0: eac2 38be 4114 12be 11a9 42be ab89 eabd
000001d0: 0f1f e2bd 263f 96bd 443f dbbd 539d 45be
000001e0: c49d dabd e783 bcbd 782a 47be 1341 01be
000001f0: 5de5 03be 758e c5bd 025c f6bd 9188 0cbe
00000200: 3c8c 8dbd db9f a2bd 1689 b3bd dd45 bbbd
00000210: bc3d 91bd 02f2 58bd 86b3 4ebe 96c1 f9bd
00000220: 703f 8abd 0aec 1cbe 7eae cfbd 397d e9bd
00000230: 1eb9 f9bd c616 0fbe 33e6 f7bd cd8e 6abd
00000240: 70de 01be fd38 2cbe 2c75 f7bd d563 3ebe
00000250: dc3d b5bd a535 e7bd 3a91 d2bd 3f44 06be
00000260: 11cc f5bd 39c5 ecbd bebc 00be 3989 2cbe
00000270: b59e 22be 2504 f7bd 37e0 f2bd 4d43 98bd
00000280: 949b 27bd 5853 e4bc 9af3 2cbd ddc2 c6bd
00000290: 965b 26be 96c8 d3bd d5e2 c1bd 42ad febd
000002a0: 6021 6dbd dce3 13be cd7d fcbd ce13 1bbe
000002b0: 688f d6bd 10da 46be 680b eabd b821 afbd
000002c0: e0f1 89bd 8700 0bbe 3fb0 08be 1535 d5bd
000002d0: 0393 25be 231c 8fbc d0ce 1ebe 814a 1dbe
000002e0: ce11 b9bd 838c 1fbd 53e4 a7bd 8106 07be
000002f0: 0de0 16be d263 8abd b62c 04bd a72b d4bd
00000300: b5e9 e1bd 8e3b 4cbe 35fb 0fbe 97e4 34be
00000310: 1d8a 88bd 4256 a7bd d286 2fbe 7048 35bd

shared2.weight f4 [200, 200]
-0.21404009 -0.0003737968 0.18051423 -0.12838909 -0.027861658 -0.13305874 -0.2669864 0.008026395
-0.11972228 0.009154772 0.01623814 -0.10238753 0.018890845 0.23461694 -0.29671848 0.07691551
0.010317237 0.01924731 -0.06605194 0.039365213 0.068064295 -0.037450053 0.0738126 -0.057577003
0.0632128 -0.09767739 -0.057318483 -0.019133454 0.09251066 0.18584731 0.10657135 0.08652595
-0.10084769 0.0016637926 -0.10882376 0.06041912 0.10562591 -0.07964713 -0.03596921 0.075702935
-0.029493842 -0.02777892 0.053965334 -0.14048676 0.06791825 -0.113036804 -0.07976732 0.04897254
0.10901549 0.15557654 -0.035990134 -0.09190731 -0.123835176 -0.02107799 0.013708276 -0.09202936
-0.1227729 -0.041855805 0.25473848 -0.02892764 0.031303048 0.18871486 0.09009364 0.03373345
0.101586856 -0.1374315 -0.01991849 0.0897393 -0.081855424 0.028478641 -0.025644733 0.17693105
0.09334034 0.12059829 0.035316177 -0.062971435 0.06865031 -0.044604365 0.10396899 -0.17201762
-0.22763546 0.0010584786 -0.19759405 0.029371535 -0.11544761 0.13054155 -0.024616417 -0.11657637
-0.21273413 0.058612574 -0.022248238 0.0033019343 0.027036542 -0.16218577 0.11446903 -0.10389143
-0.13583386 -0.17507333 0.1616676 -0.011185499 0.03328084 -0.12174481 -0.0065765204 -0.18917704
0.0042021475 -0.07276102 0.01122777 -0.111426614 -0.021869669 -0.28942543 -0.13141635 0.14042254
-0.042527977 0.06376326 0.10087982 0.05663648 0.033611953 -0.18144086 -0.0657932 -0.017239572
0.0011538616 0.047610946 -0.1279784 -0.10469568 -0.011917639 -0.11487802 0.014531491 0.10649157
0.13546702 0.055330474 0.09482457 0.023942964 -0.012320288 0.009338292 0.057260785 -0.064290665
-0.13698506 -0.09631924 -0.03492376 -0.13630074 0.07215969 -0.014497237 0.12612909 -0.020712951
-0.02797059 0.08102528 -0.09789602 -0.12813312 0.061015148 0.19662584 0.07096075 0.050413027
0.24727839 0.021784266 0.11707609 0.029991403 -0.12477974 0.021815777 0.13051243 0.00523605
-0.12744823 -0.062209394 -0.009315662 0.053882822 0.021144895 0.11945398 -0.025728935 -0.11276387
0.060995877 -0.100895464 -0.005898902 -0.24184038 0.017852327 -0.16099106 0.00926677 0.061442625
-0.147882 -0.1392348 -0.025273327 -0.2277353 -0.134671 -0.01459723 -0.11482158 -0.04850578
0.048210315 -0.06867349 -0.089330755 -0.1644012 -0.0059950426 -0.03892069 -0.100382365 0.048189696
-0.08722774 -0.013814507 0.035157997 0.23261942 -0.125512 -0.08252363 -0.07444243 0.17398517
-0.05151545 -0.13644122 -0.031860895 -0.063722484 -0.007400158 -0.19819386 -0.07122148 -0.12981257
0.03667223 -0.0490162 -0.06542582 0.08805059 -0.033592723 -0.11181267 0.27222082 -0.11878645
0.057765182 -0.031794593 0.013853194 0.050772443 -0.14859375 -0.117491424 0.03010515 -0.02969682
0.09860428 -0.043026432 0.09104736 -0.01564151 -0.015513029 -0.1961214 -0.013605338 -0.019788176
0.05319257 -0.036999907 -0.05595409 -0.040325798 -0.05709061 -0.14740007 -0.025708286 0.003943908
-0.082136706 0.15900697 0.12895079 -0.16796467 0.08017292 0.027732912 -0.09868895 -0.12599789
0.0377417 0.00739805 -0.09545936 -0.09182324 0.15277489 0.056383073 0.071358524 0.0035630793
00000000: 532d 5bbe 28fa c3b9 b9d8 383e 6e78 03be
00000010: 223e e4bc 8d40 08be 71b2 88be 2481 033c
00000020: f430 f5bd e6fd 153c d905 853c 8eb0 d1bd
00000030: f9c0 9a3c 6c3f 703e 7ceb 97be e185 9d3d
00000040: a109 293c 89ac 9d3c 3d46 87bd 6b3d 213d
00000050: 4b65 8b3d 3a65 19bd 0f2b 973d ddd5 6bbd
00000060: b675 813d 150b c8bd c9c6 6abd c3bd 9cbc
00000070: 3b76 bd3d c24e 3e3e 1442 da3d 8434 b13d
00000080: 3c89 cebd 9e13 da3a fede debd 0a7a 773d
00000090: 6652 d83d 091e a3bd 7354 13bd 240a 9b3d
000000a0: 129d f1bc 9e90 e3bc c10a 5d3d c3db 0fbe
000000b0: b918 8b3d d77f e7bd 0c5d a3bd 6e97 483d
000000c0: 8343 df3d 754f 1f3e 646a 13bd e639 bcbd
000000d0: 4c9d fdbd c0ab acbc ad98 603c e479 bcbd
000000e0: 5c70 fbbd fe70 2bbd 156d 823e a8f9 ecbc
000000f0: a037 003d 783e 413e 0483 b83d 162c 0a3d
00000100: c50c d03d d8ba 0cbe 1a2c a3bc 3dc9 b73d
00000110: d1a3 a7bd 0a4c e93c e714 d2bc 6a2d 353e
00000120: 3829 bf3d 3cfc f63d b2a7 103d 2bf7 80bd
00000130: 8998 8c3d 11b3 36bd b2ed d43d 6325 30be
00000140: 4519 69be a6bc 8a3a 1856 4abe 939c f03c
00000150: cc6f ecbd afac 053e 5ea8 c9bc 98bf eebd
00000160: fad6 59be bd13 703d f041 b6bc 4465 583b
00000170: bd7b dd3c 0714 26be bd6e ea3d 08c5 d4bd
00000180: 0818 0bbe 6c46 33be 318c 253e 6243 37bc
00000190: 7d51 083d 5855 f9bd da7f d7bb a0b7 41be
000001a0: 2bb2 893b bb03 95bd aef4 373c a333 e4bd
000001b0: 0528 b3bc 922f 94be 0292 06be edca 0f3e
000001c0: d131 2ebd 5096 823d 149a ce3d a7fb 673d
000001d0: b0ac 093d a2cb 39be 96be 86bd 013a 8dbc
000001e0: 2c3d 973a b203 433d c50c 03be b06a d6bd
000001f0: 3342 43bc 2b45 ebbd 7e15 6e3c 4118 da3d
00000200: deb7 0a3e 35a2 623d 6233 c23d 0924 c43c
00000210: 09db 49bc a3ff 183c 498a 6a3d d3aa 83bd
00000220: d045 0cbe 0643 c5bd 370c 0fbd 6c92 0bbe
00000230: 76c8 933d d285 6dbc fc27 013e 35ae a9bc
00000240: 9422 e5bc 95f0 a53d b57d c8bd 5435 03be
00000250: 05eb 793d 4958 493e df53 913d e47d 4e3d
00000260: 8c36 7d3e eb74 b23c 97c5 ef3d 88b0 f53c
00000270: 858c ffbd 00b7 b23c 0da5 053e 2c93 ab3b
00000280: ca81 02be 47cf 7ebd b8a0 18bc 3cb4 5c3d
00000290: 0f38 ad3c 4aa4 f43d 7dc5 d2bc bef0 e6bd
000002a0: d0d6 793d 48a2 cebd 944b c1bb 01a5 77be
000002b0: 0b3f 923c d7da 24be a7d3 173c 43ab 7b3d
000002c0: 616e 17be 9193 0ebe 020a cfbc 7133 69be
000002d0: 32e7 09be 3829 6fbc 9427 ebbd ffad 46bd
000002e0: 2e78 453d b0a4 8cbd 0bf3 b6bd ca58 28be
000002f0: 1072 c4bb 4d6b 1fbd 4595 cdbd 8f62 453d
00000300: 75a4 b2bd 3e56 62bc d501 103d c933 6e3e
00000310: 3886 00be 2602 a9bd 4675 98bd 2b29 323e
00000320: dd01 53bd 3fb7 0bbe 9280 02bd ef80 82bd
00000330: 067d f2bb 55f3 4abe 91dc 91bd 96ed 04be
00000340: 9f35 163d 36c5 48bd f9fd 85bd de53 b43d
00000350: 8698 09bd 0bfe e4bd 8760 8b3e 4f46 f3bd
00000360: 2f9b 6c3d 0c3b 02bd 82f8 623c c4f6 4f3d
00000370: f628 18be 589f f0bd 139f f63c bf46 f3bc
00000380: 0af1 c93d 7c3c 30bd 0a77 ba3d a022 80bc
00000390: 5c2a 7ebc 0cd4 48be ece8 5ebc d01a a2bc
000003a0: 74e0 593d 378d 17bd 1e30 65bd aa2c 25bd
000003b0: d8d7 69bd 0bf0 16be 2f9a d2bc e63b 813b
000003c0: 4a37 a8bd b9d2 223e ad0b 043e eefe 2bbe
000003d0: b331 a43d 2230 e33c 6f1d cabd 9705 01be
000003e0: 0a97 1a3d 576b f23b 3280 c3bd d30d bcbd
000003f0: 0571 1c3e f0f1 663d 6b24 923d 8d82 693b

shared2.bias f4 [200]
0.0664534 -0.16913301 -0.032414366 -0.13608707 -0.07036377 -0.21324793 -0.06251866 -0.19768403
0.06707961 -0.19325927 -0.19587323 -0.15013763 -0.02341324 0.046822347 -0.19860421 -0.17160466
-0.096816055 -0.11934322 -0.26393056 -0.13791843 -0.04776132 -0.10515356 0.041477356 -0.11171481
-0.17697601 -0.20804611 -0.06986826 -0.1740021 -0.11825837 -0.17489049 -0.1996806 -0.22022662
-0.11296844 -0.18895052 -0.23464514 -0.08174891 -0.20803136 0.16183387 -0.0011892385 -0.18058513
-0.12682523 -0.020680306 -0.18912949 -0.13364898 -0.1454224 0.04453658 -0.16448511 -0.021671172
-0.22027665 -0.1712152 -0.19122334 -0.14090455 -0.2019477 -0.1877982 -0.05868242 -0.1900607
-0.11934686 -0.0052291327 -0.093253806 -0.15741648 -0.12434481 -0.21904685 -0.106008306 -0.123418994
-0.14548618 -0.077469744 0.034234375 -0.19587867 -0.08218646 -0.07073291 -0.15287803 -0.17429829
-0.28310862 -0.0788595 -0.18863812 0.0058947843 -0.048825648 -0.18249407 0.081044205 -0.21877009
-0.0053697685 -0.14246929 -0.087934114 -0.21944506 0.12542182 -0.26872724 -0.16501394 -0.124331035
-0.19795904 -0.13659401 -0.056075264 -0.030857375 -0.013073333 -0.2068624 -0.107962675 -0.1754196
-0.19111007 -0.20433074 -0.10628937 -0.13288046 -0.13401982 -0.13731249 -0.2312177 -0.1954856
-0.19514865 -0.24448846 -0.096619725 -0.17063619 -0.24805203 0.0580814 0.16641375 -0.28473043
-0.06197451 0.031493198 -0.23941122 -0.27549234 -0.18081504 -0.2192987 -0.16110288 -0.21107557
-0.13848858 -0.17677186 -0.21344015 -0.086177655 -0.19568363 0.0966574 -0.22849318 -0.07166114
-0.18404365 -0.1223727 -0.09159364 0.063497715 -0.12433432 -0.10405495 -0.058341675 -0.17782098
-0.17348285 -0.14138927 -0.14631072 0.012269295 -0.07903885 -0.17792796 -0.22644196 -6.864938e-05
-0.27571717 -0.29654875 -0.12985441 -0.18946087 -0.23299074 -0.113520205 -0.09220298 -0.09360258
-0.2558595 -0.13227114 -0.22221808 -0.18364738 -0.12674797 -0.18133964 -0.16542667 -0.0738127
0.09240403 -0.23816508 -0.12841886 -0.09764415 -0.11133356 0.09374615 -0.09351923 -0.16025954
-0.10775921 -0.15861817 -0.06330591 0.17501907 -0.16654573 -0.2289256 -0.09062945 -0.21795559
-0.019872542 -0.17241134 -0.005554502 -0.16239406 -0.048906192 -0.1963845 -0.215225 -0.16306539
-0.17406595 -0.19916353 -0.16483589 -0.2699709 -0.12690108 -0.13591605 0.053368147 -0.20383826
0.17782202 -0.18302049 -0.020044683 -0.20057298 -0.14178361 -0.23257585 -0.19977407 -0.25191602
00000000: b818 883d 3431 2dbe edc4 04bd 695a 0bbe
00000010: e11a 90bd aa5d 5abe c909 80bd af6d 4abe
00000020: 0961 893d c2e5 45be fe92 48be aebd 19be
00000030: 20cd bfbc cac8 3f3d e75e 4bbe 22b9 2fbe
00000040: 7f47 c6bd 386a f4bd e821 87be 7d3a 0dbe
00000050: 60a1 43bd c05a d7bd 29e4 293d bcca e4bd
00000060: 3339 35be 0a0a 55be 1717 8fbd 9b2d 32be
00000070: 7231 f2bd 7e16 33be 1279 4cbe 1683 61be
00000080: ff5b e7bd 3f7c 41be d146 70be f96b a7bd
00000090: 2c06 55be c7b7 253e 39e0 9bba 4feb 38be
000000a0: 79de 01be bf69 a9bc 29ab 41be 47db 08be
000000b0: 9ce9 14be fd6b 363d c96e 28be be87 b1bc
000000c0: 3490 61be 0a53 2fbe 0dd0 43be 4849 10be
000000d0: 61cb 4ebe 2c4e 40be fa5c 70bd 469f 42be
000000e0: 206c f4bd 2559 abbb dafb bebd c931 21be
000000f0: 7ea8 febd d14d 60be e21a d9bd 19c3 fcbd
00000100: 54fa 14be 75a8 9ebd 5839 0c3d 6b94 48be
00000110: 6051 a8bd 6adc 90bd 0f8c 1cbe 407b 32be
00000120: 9df3 90be 1781 a1bd 5a2a 41be 0929 c13b
00000130: 67fd 47bd badf 3abe 81fa a53d 4405 60be
00000140: e2f4 afbb 78e3 11be cd16 b4bd 35b6 60be
00000150: 946e 003e 9e96 89be 6af9 28be 45a1 febd
00000160: c6b5 4abe 4ddf 0bbe 2daf 65bd 9bc8 fcbc
00000170: 8831 56bc bdd3 53be 891b ddbd 32a1 33be
00000180: 5cb2 43be 143c 51be 3eae d9bd d111 08be
00000190: 7e3c 09be a59b 0cbe 55c4 6cbe 612d 48be
000001a0: 0cd5 47be 2f5b 7abe 90e0 c5bd 41bb 2ebe
000001b0: 5a01 7ebe c3e6 6d3d 5e68 2a3e 30c8 91be
000001c0: fcd8 7dbd 03ff 003d 3728 75be 550d 8dbe
000001d0: 9427 39be d78f 60be 27f8 24be 3224 58be
000001e0: f3cf 0dbe af03 35be 0e90 5abe e97d b0bd
000001f0: 4a61 48be 51f4 c53d 1efa 69be 13c3 92bd
00000200: f075 3cbe 8a9e fabd 7295 bbbd 170b 823d
00000210: fea2 febd c31a d5bd aef7 6ebd b416 36be
00000220: 7da5 31be 59c8 10be 7ad2 15be 2705 493c
00000230: 1fdf a1bd bf32 36be 67e0 67be dbf7 8fb8
00000240: cd2a 8dbe 3dd5 97be 8ef8 04be 0802 42be
00000250: 2095 6ebe 487d e8bd ead4 bcbd b6b2 bfbd
00000260: 0400 83be 1672 07be 238d 63be 0f0e 3cbe
00000270: 38ca 01be 19b1 39be 9c65 29be 1d2b 97bd
00000280: 533e bd3d 8ce1 73be 3c80 03be a8f9 c7bd
00000290: d902 e4bd fbfd bf3d 0387 bfbd 141b 24be
000002a0: dcb0 dcbd cd6c 22be 87a6 81bd 3338 333e
000002b0: f78a 2abe 796b 6abe ef9b b9bd c02f 5fbe
000002c0: becb a2bc 998c 30be 8a02 b6bb a14a 26be
000002d0: dc51 48bd 0519 49be f163 5cbe 9dfa 26be
000002e0: 583e 32be 86f1 4bbe bdca 28be a039 8abe
000002f0: 5bf2 01be 942d 0bbe 8f98 5a3d faba 50be
00000300: fa16 363e b969 3bbe bf34 a4bc 0163 4dbe
00000310: b92f 11be 5d28 6ebe 9391 4cbe 23fb 80be

hidden1_Y1.weight f4 [200, 200]
-0.050898686 0.0004104711 -0.14040764 -0.07413649 0.103290394 -0.030952493 0.050524537 0.035005946
0.029322736 0.12764916 -0.041362543 0.06464284 -0.14433067 -0.15614018 -0.001211532 0.06361987
-0.04686356 -0.13452607 0.04086301 0.029711965 0.0155997155 -0.070477664 0.08915783 0.15854917
0.11332478 0.07127042 -0.021329258 0.079577655 0.01702205 -0.12192233 -0.038686123 -0.009577797
-0.11656748 0.1226658 0.023555394 -0.20912369 0.15417713 -0.07307029 0.071959876 0.15312451
0.08819893 0.048153527 -0.08789204 -0.057986587 0.016571397 -0.21280052 -0.015110338 0.03099902
0.03756447 -0.043803763 0.04771934 0.05495633 0.0033456741 0.010300642 0.10683563 -0.024163008
-0.02754279 0.072998576 -0.094087385 -0.018028291 0.21219474 0.11739383 0.043991584 -0.046492267
-0.14683819 0.047208544 -0.09957183 0.080018096 0.076362126 -0.04878698 -0.07850013 -0.10350782
-0.1236962 0.022461217 0.03306521 0.022674723 -0.012356122 0.02291057 0.05949981 -0.20672259
-0.0258818 -0.058247276 -0.0001466712 0.13085695 -0.2509244 0.07599085 -0.27284566 -0.11737709
-0.09758884 -0.08173205 -0.043291785 -0.11238339 0.030850025 0.0570907 0.018347545 0.1532225
0.029611383 0.0682168 -0.02920143 -0.067068644 -0.11908658 -0.12716024 0.07560292 -0.08568605
0.119385794 0.018667372 -0.00041407737 0.096906096 0.09661272 -0.06622496 -0.06443403 -0.04040207
-0.00038324238 0.009779299 0.023157598 0.030744009 -0.0966784 -0.023805765 -0.021412399 0.06443402
-0.09216446 -0.015626287 0.05508845 -0.071264334 -0.10418563 -0.086022295 -0.008194454 -0.04371236
0.051585793 -0.05927235 -0.00015420902 -0.0013918251 -0.15187456 -0.10708111 0.041966703 -0.047063634
-0.008892688 0.076688655 -0.06434478 0.053324573 -0.08323028 -0.08942023 -0.11004416 -0.06109108
-0.16444995 0.13265704 -0.069048375 0.008307055 0.06441231 -0.07236548 -0.1728756 -0.010760126
-0.062252186 0.06506036 0.12302331 0.008080398 -0.07642989 0.09250132 0.0072737266 -0.086287394
-0.02847746 0.07307071 -0.06567928 0.009746616 0.02225989 0.21900697 -0.107399225 0.004935669
-0.057720806 -0.0856903 -0.018127656 0.006907192 0.083552994 -0.04078102 -0.084916115 -0.10398127
-0.08883076 0.044139598 0.07625206 0.1846153 0.15483807 0.0012963264 -0.04810068 0.11792828
-0.09337926 0.031426683 -0.044559054 0.009872841 -0.01745037 0.05631348 0.06993264 -0.019234836
0.02240133 0.08064601 0.124395035 0.016804222 -0.10199067 0.050606325 0.061392166 -0.080413304
0.14899886 -0.0018755598 0.091164045 -0.038530428 -0.08847242 0.023573529 0.021667968 0.047663856
-0.09154389 -0.16379853 0.055006955 0.01120009 0.062626936 -0.062427714 -0.07250184 -0.015315781
0.06316956 -0.030195385 0.031085167 0.018007092 -0.02579185 -0.019663546 -0.007456775 0.00644852
-0.08488773 -0.011381289 -0.02617922 -0.10627528 -0.0074309846 0.035152353 -0.031744312 -0.09754842
-0.01440837 -0.16885218 -0.05571135 0.020896997 -0.08510913 -0.028728679 -0.009549359 -0.26116917
0.15854856 0.04053794 -0.07647467 -0.21713077 -0.047773458 0.013200557 -0.21853597 0.05740234
-0.21694034 -0.15911765 -0.014124161 -0.1594885 0.083107345 0.06062257 -0.013436597 -0.018421017
00000000: 247b 50bd 8034 d739 05c7 0fbe dfd4 97bd
00000010: ea89 d33d 1590 fdbc d1f2 4e3d 6562 0f3d
00000020: 3c36 f03c 76b6 023e c56b 29bd 7763 843d
00000030: 6bcb 13be 36e3 1fbe 45cc 9eba 224b 823d
00000040: 01f4 3fbd 34c1 09be f95f 273d 8266 f33c
00000050: f395 7f3c 9856 90bd 6198 b63d b75a 223e
00000060: d216 e83d 3af6 913d b2ba aebc 9cf9 a23d
00000070: d471 8b3c 6ab2 f9bd 5775 1ebd 31ec 1cbc
00000080: eeba eebd 3538 fb3d 3ef7 c03c 8524 56be
00000090: 9ce0 1d3e e0a5 95bd b35f 933d accc 1c3e
000000a0: a4a1 b43d a23c 453d be00 b4bd 5883 6dbd
000000b0: bdc0 873c 61e8 59be 5a91 77bc a8f1 fd3c
000000c0: 34dd 193d 936b 33bd 5b75 433d e419 613d
000000d0: 1943 5b3b 06c4 283c a4cc da3d 80f1 c5bc
000000e0: 6ba1 e1bc 4780 953d e3b0 c0bd 11b0 93bc
000000f0: 9449 593e 2d6c f03d 8530 343d ad6e 3ebd
00000100: c05c 16be bf5d 413d 51ec cbbd 87e0 a33d
00000110: bf63 9c3d dbd4 47bd adc4 a0bd e8fb d3bd
00000120: 6f54 fdbd 9600 b83c 636f 073d 57c0 b93c
00000130: 5571 4abc f3ae bb3c 13b6 733d 16af 53be
00000140: 1206 d4bc b294 6ebd c0cb 19b9 5dff 053e
00000150: 2a79 80be 17a1 9b3d 6db2 8bbe 6663 f0bd
00000160: a8dc c7bd 2263 a7bd ba52 31bd 4329 e6bd
00000170: 31b9 fc3c f0d7 693d 974d 963c 5ce6 1c3e
00000180: 9293 f23c 40b5 8b3d d637 efbc 495b 89bd
00000190: aae3 f3bd 4b36 02be b4d5 9a3d 2b7c afbd
000001a0: 8a80 f43d 51ec 983c 8618 d9b9 b476 c63d
000001b0: e4dc c53d f4a0 87bd fdf5 83bd a47c 25bd
000001c0: eced c8b9 5a39 203c 01b5 bd3c dcda fb3c
000001d0: 53ff c5bd 4f04 c3bc 0e69 afbc fcf5 833d
000001e0: b8c0 bcbd b302 80bc 6da4 613d 09f3 91bd
000001f0: 475f d5bd 752c b0bd 0842 06bc bb0b 33bd
00000200: a04b 533d 90c7 72bd 2bb3 21b9 e76d b6ba
00000210: 0185 1bbe 574d dbbd 47e5 2b3d ccc5 40bd
00000220: a3b2 11bc f10e 9d3d 32c7 83bd de6a 5a3d
00000230: a374 aabd f421 b7bd d55e e1bd a43a 7abd
00000240: 9165 28be 3fd7 073e 3c69 8dbd 501a 083c
00000250: 9aea 833d 5a34 94bd 4d06 31be 3d4b 30bc
00000260: 26fc 7ebd 5e3e 853d a5f3 fb3d a563 043c
00000270: 4687 9cbd 5571 bd3d 7158 ee3b 72b7 b0bd
00000280: 9049 e9bc 19a6 953d dc82 86bd 45b0 1f3c
00000290: 5f5a b63c 5d43 603e 20f4 dbbd 64bb a13b
000002a0: a76c 6cbd 657e afbd 7380 94bc ba55 e23b
000002b0: d51d ab3d 000a 27bd 80e8 adbd 22f4 d4bd
000002c0: e7ec b5bd b9cb 343d 0a2a 9c3d cb0b 3d3e
000002d0: df8d 1e3e 7fe9 a93a 3805 45bd 6284 f13d
000002e0: a03d bfbd 44b9 003d 8e83 36bd b2c1 213c
000002f0: 14f4 8ebc f7a8 663d d838 8f3d 6092 9dbc
00000300: fe82 b73c bc29 a53d d3c2 fe3d 02a9 893c
00000310: 7ce0 d0bd 9448 4f3d 5a76 7b3d bbaf a4bd
00000320: 2893 183e 58d5 f5ba 37b4 ba3d 15d2 1dbd
00000330: 0731 b5bd 461d c13c 0681 b13c 2d3b 433d
00000340: 5d7b bbbd cdba 27be f94e 613d 9580 373c
00000350: 8d42 803d 34b4 7fbd d87b 94bd 0bef 7abc
00000360: 0b5f 813d 505c f7bc 52a6 fe3c 9c83 933c
00000370: 6e49 d3bc 7215 a1bc f657 f4bb 1b4e d33b
00000380: 9ed9 adbd 9678 3abc ce75 d6bc dba6 d9bd
00000390: 9e7f f3bb eafb 0f3d 5306 02bd 77c7 c7bd
000003a0: 1511 6cbc 96e7 2cbe 9631 64bd 2e30 ab3c
000003b0: b24d aebd 6858 ebbc ea74 1cbc f7b7 85be
000003c0: 8e5a 223e 1c0b 263d c09e 9cbd 8757 5ebe
000003d0: 1aae 43bd 2647 583c e5c7 5fbe b71e 6b3d
000003e0: 9c25 5ebe bdef 22be 0669 67bc f450 23be
000003f0: 2f34 aa3d 5f4f 783d 2c25 5cbc ace7 96bc

hidden1_Y1.bias f4 [200]
-0.18065552 -0.027025837 -0.05129942 -0.044178896 -0.07896345 0.19350943 -0.0491457 -0.16529453
-0.09133412 -0.064965755 -0.081512146 -0.07191012 0.14522812 -0.14513949 -0.107996315 -0.12424773
-0.0074005974 -0.063652776 -0.120700836 -0.07380684 -0.08086863 -0.041799944 -0.016824564 0.05694778
-0.14559083 0.075272486 -0.07461564 -0.18279195 -0.052925795 -0.05954286 0.039268885 -0.05708848
-0.10875716 -0.012876731 0.020060565 -0.096489 0.15707228 -0.15278323 0.024880141 -0.02576479
-0.020157274 -0.13058771 -0.13319735 -0.11326775 -0.10548976 -0.024779826 -0.15960987 0.0063785277
-0.0057343193 -0.04905492 0.07562842 -0.12188868 -0.10141458 0.13783874 0.072725035 0.048121702
0.12318848 0.02833543 -0.14132011 0.12735997 -0.011783359 0.057203867 -0.17097247 0.16783269
-0.11083683 -0.03576773 -0.14681034 0.03103149 -0.06369423 0.11110142 0.22374576 -0.08953183
-0.11365162 -0.059915386 0.18245703 -0.10550869 0.07376565 0.1466047 -0.15128127 0.084793545
-0.13444057 -0.08909484 -0.13108596 0.10380551 -0.040151283 -0.0762371 -0.07366106 0.030190911
0.06098588 0.10681053 -0.03950362 -0.12533404 0.06559058 -0.10407682 -0.053340103 -0.12032046
-0.06194894 -0.017180936 -0.0979294 0.02213292 0.17096248 -0.0795986 0.02371302 -0.0855597
-0.002158858 0.07824143 -0.11193095 -0.11884397 0.14334619 -0.10841033 0.026654016 -0.11532452
-0.08961579 0.103230715 -0.06637017 0.0072596776 0.111153625 -0.1284182 -0.11092114 0.034809086
0.0409324 -0.15141632 -0.022636047 -0.037617408 -0.09616845 0.09054995 0.010910069 -0.029026508
-0.034687173 -0.038093116 -0.024147224 0.11625499 -0.08669635 -0.091488816 -0.105069935 -0.06586753
-0.038666736 -0.09358174 -0.071403675 -0.11027833 -0.11867468 -0.067106135 -0.086517684 0.082543984
-0.10561668 -0.050396595 -0.12730993 0.029065628 0.021509344 -0.09013512 -0.01632843 -0.086514674
0.041017648 -0.15127325 -0.1778324 -0.086060725 0.013218013 -0.09028301 -0.061594028 0.032471094
-0.10581794 -0.015501311 -0.1654673 0.0034640708 -0.045849286 -0.112943776 -0.019171013 -0.039592296
0.027381396 -0.085075706 -0.09590397 0.117091596 -0.12162208 0.10270388 -0.08142087 -0.10771395
-0.10899571 -0.10392107 -0.10426159 -0.059807397 0.040087305 -0.011272162 -0.11949467 0.05972477
-0.069744274 -0.1212775 -0.03607165 -0.087855406 0.11974507 -0.1473163 -0.11378669 -0.1355553
-0.13295153 -0.11826408 -0.049336288 -0.12861261 -0.07476985 -0.027196044 0.06694761 0.041788056
00000000: c3fd 38be 4a65 ddbc 571f 52bd eef4 34bd
00000010: 97b7 a1bd 5627 463e 004d 49bd f842 29be
00000020: 620d bbbd c40c 85bd d7ef a6bd 9d45 93bd
00000030: aeb6 143e 729f 14be 2c2d ddbd 9875 febd
00000040: b680 f2bb 635c 82bd 0032 f7bd 0a28 97bd
00000050: 749e a5bd 6b36 2bbd abd3 89bc 1342 693d
00000060: c315 15be 7628 9a3d 16d0 98bd d02d 3bbe
00000070: b8c8 58bd 37e3 73bd 69d8 203d 9cd5 69bd
00000080: 13bc debd edf8 52bc 0e56 a43c 069c c5bd
00000090: 8ed7 203e 3573 1cbe 70d1 cb3c ae10 d3bc
000000a0: de20 a5bc c9b8 05be e364 08be ecf8 e7bd
000000b0: 040b d8bd 10ff cabc c570 23be f802 d13b
000000c0: f5e6 bbbb d0ed 48bd 13e3 9a3d c6a0 f9bd
000000d0: 73b2 cfbd 9925 0d3e ddf0 943d 431b 453d
000000e0: 3e4a fc3d b41f e83c 38b6 10be a76a 023e
000000f0: fd0e 41bc 9a4e 6a3d 6813 2fbe 55dc 2b3e
00000100: 6cfe e2bd 2f81 12bd 7355 16be c035 fe3c
00000110: 1f72 82bd 2489 e33d 9c1d 653e 775c b7bd
00000120: 2ec2 e8bd d669 75bd 04d6 3a3e f114 d8bd
00000130: 7212 973d 8b1f 163e 7ae9 1abe 3da8 ad3d
00000140: caaa 09be 5b77 b6bd 663b 06be fc97 d43d
00000150: ac75 24bd 3222 9cbd 9cdb 96bd ee52 f73c
00000160: 55cc 793d 7bbf da3d 8cce 21bd 9157 00be
00000170: 5b54 863d 3a26 d5bd 277b 5abd 936a f6bd
00000180: 2cbe 7dbd 09bf 8cbc 368f c8bd 1950 b53c
00000190: ca10 2f3e 9704 a3bd cf41 c23c ed39 afbd
000001a0: a17b 0dbb 0b3d a03d 0e3c e5bd 7864 f3bd
000001b0: 58c9 123e 3c06 debd 8659 da3c 432f ecbd
000001c0: 7c88 b7bd a06a d33d 15ed 87bd 97e2 ed3b
000001d0: 83a4 e33d 1080 03be 9f2a e3bd f993 0e3d
000001e0: bba8 273d e10c 1bbe 3b6f b9bc b614 1abd
000001f0: f7f3 c4bd 4172 b93d 25c0 323c 00c9 edbc
00000200: 2314 0ebd 8707 1cbd 66d0 c5bc 1917 ee3d
00000210: db8d b1bd 7d5e bbbd e82e d7bd 8ee5 86bd
00000220: 0361 1ebd c9a7 bfbd 173c 92bd 9bd9 e1bd
00000230: b60b f3bd f16e 89bd 2f30 b1bd d20c a93d
00000240: 8f4d d8bd a96c 4ebd 895d 02be 0a1b ee3c
00000250: 5d34 b03c c398 b8bd 33c3 85bc 9b2e b1bd
00000260: 1f02 283d 60e7 1abe b219 36be 9b40 b0bd
00000270: 5d90 583c 4ce6 b8bd 054a 7cbd 6900 053d
00000280: 13b7 d8bd 36f9 7dbc 4370 29be 7705 633b
00000290: 76cc 3bbd 114f e7bd 870c 9dbc 882b 22bd
000002a0: f34e e03c 2c3c aebd 4d69 c4bd b8cd ef3d
000002b0: ff14 f9bd 6956 d23d fcbf a6bd 2299 dcbd
000002c0: 2539 dfbd 92d4 d4bd 1a87 d5bd 9af8 74bd
000002d0: 9632 243d e0ae 38bc 9fb9 f4bd f6a1 743d
000002e0: 16d6 8ebd 5760 f8bd debf 13bd 89ed b3bd
000002f0: e73c f53d 16da 16be ff08 e9bd 02cf 0abe
00000300: 7224 08be 7034 f2bd d914 4abd 06b3 03be
00000310: ef20 99bd 3dca debc d41b 893d f429 2b3d

hidden2_Y1.weight f4 [200, 200]
-0.08705417 -0.03127492 0.0008947748 0.0004576681 -0.07931608 -0.06371228 -0.009439293 -0.039007377
0.092773244 -0.08031454 -0.08944407 0.038057134 -0.002412445 0.13201001 -0.118153036 -0.024514597
0.026986912 0.115105644 -0.08623858 -0.057221692 -0.033948127 -0.036540024 -0.09148388 0.07517555
0.029208384 -0.07741261 -0.056106213 0.048539873 0.06408782 0.0705687 0.015261894 -0.054063257
-0.07141645 0.009755087 -0.03620211 0.07238698 -0.07182221 0.094325714 -0.011311047 -0.0017577594
0.025636008 -0.00890364 0.034145966 -0.039380472 0.001918109 -0.06779342 -0.053598423 0.05926948
0.07878281 -0.08417908 -0.13966225 0.11887355 -0.10366004 -0.14720784 -0.11865569 0.03833007
0.019636173 -0.06919143 -0.11147465 -0.117569946 0.0005108798 0.027399024 -0.040521625 -0.057333767
0.08576246 -0.10618343 -0.02989909 -0.11858012 0.09884761 0.037823483 0.023597408 0.09222289
-0.0120310765 0.07186966 0.0041705556 -0.038167395 -0.14563943 0.017340474 0.039626382 -0.0080210045
-0.09168723 -0.026936553 -0.013608547 -0.09138192 -0.054939616 -0.09115356 -0.033041112 -0.12278489
-0.051130496 0.039638694 -0.0475473 -0.1014581 -0.07412813 0.010749002 0.057262305 -0.092541695
0.100660734 0.026965061 -0.018125068 -0.1138271 -0.027823344 -0.015171179 -0.08025463 0.087381326
0.016291142 -0.09429581 -0.10206936 -0.034118786 0.07373323 -0.12211367 0.008519557 0.011286825
0.013134269 -0.14429638 0.07911677 0.050807614 -0.15735714 -0.028780743 0.06108428 -0.09204252
-0.007462797 0.12098665 0.03999983 0.09170851 -0.05727124 -0.15297842 0.07041259 -0.04885631
0.07575477 0.047163483 0.034339406 -0.08710221 -0.04886695 -0.0114113875 -0.06964959 -0.045084264
0.09140159 -0.102929056 -0.077368654 -0.04614705 -0.045077525 0.047182806 0.1123788 0.032934118
-0.029536642 0.05007305 -0.042777393 0.094061345 -0.1239229 -0.038300652 -0.09777184 0.011857538
0.011533458 0.046320274 0.012294286 0.031855218 -0.12737724 0.08765666 -0.041761756 -0.09323155
-0.059647538 -0.07071414 0.039147347 -0.01640084 -0.038730726 -0.09675497 -0.13564466 0.12420107
-0.04628673 -0.04394961 0.11952206 -0.046442285 0.107079834 -0.023237215 -0.09524982 -0.07475359
-0.0013288547 0.08688534 -0.12950994 0.06201941 -0.03915052 0.016166167 0.07186852 0.07219128
-0.058973648 0.019607756 0.0021867147 -0.08363329 -0.011824724 0.12185262 0.088533275 0.0056955297
0.021042135 -0.10617045 -0.004483964 0.016536115 -0.1136447 0.08214645 -0.1557637 0.090501934
0.17798692 0.033910118 -0.34688836 0.10734207 -0.21178913 0.092227355 -0.18453243 -0.08108469
-0.13948138 0.19155334 -0.092591055 0.011980472 0.06408975 -0.11213209 -0.10311705 -0.019858658
-0.041845396 0.033611085 -0.04019982 0.037136216 -0.14968127 -0.11138754 -0.19622162 -0.23123908
-0.11866628 -0.038415395 -0.1455081 -0.1361525 -0.103849284 0.07811663 0.012353305 -0.20894292
0.075443685 -0.10183097 -0.13456416 -0.010948303 -0.04701644 0.0005191614 -0.1015306 -0.042938706
-0.23852251 0.106314376 0.062043358 -0.058985714 -0.048274595 -0.22204062 -0.042306345 -0.3104562
-0.010910977 0.10380954 -0.13702537 -0.057669614 -0.03704708 -0.011787539 0.10437139 -0.237335
00000000: 7549 b2bd 211a 00bd 528f 6a3a 2cf3 ef39
00000010: 7870 a2bd 957b 82bd 44a7 1abc 33c6 1fbd
00000020: e6ff bd3d f37b a4bd 742e b7bd cce1 1b3d
00000030: 1c1a 1ebb a22d 073e 38fa f1bd d6d2 c8bc
00000040: a813 dd3c 82bc eb3d da9d b0bd 4b61 6abd
00000050: 310d 0bbd feaa 15bd e75b bbbd a4f5 993d
00000060: 6c46 ef3c 818a 9ebd a1cf 65bd bfd1 463d
00000070: 7a40 833d 5386 903d 060d 7a3c 6f71 5dbd
00000080: ca42 92bd cdd3 1f3c aa48 14bd a03f 943d
00000090: 8617 93bd d72d c13d f851 39bc 9e64 e6ba
000000a0: 9b02 d23c 93e0 11bc a4dc 0b3d 6b4d 21bd
000000b0: 0f69 fb3a 47d7 8abd 058a 5bbd 8ec4 723d
000000c0: e258 a13d 1566 acbd 9f03 0fbe fa73 f33d
000000d0: b74b d4bd a7bd 16be c101 f3bd feff 1c3d
000000e0: 0adc a03c 3db4 8dbd d24c e4bd 83c8 f0bd
000000f0: 90ec 053a eb73 e03c 01fa 25bd d0d6 6abd
00000100: 3ba4 af3d b376 d9bd f0ee f4bc 22da f2bd
00000110: 9e70 ca3d ccec 1a3d 5a4f c13c 5bdf bc3d
00000120: fe1d 45bc 6630 933d 28a9 883b 6a55 1cbd
00000130: 8122 15be 9c0d 8e3c 464f 223d 886a 03bc
00000140: 84c6 bbbd 0caa dcbc 62f6 5ebc 7226 bbbd
00000150: 5d08 61bd b8ae babd 1e56 07bd a576 fbbd
00000160: 366e 51bd 2f5c 223d f5c0 42bd 44c9 cfbd
00000170: 7dd0 97bd 951c 303c e18b 6a3d 8086 bdbd
00000180: 3727 ce3d d5e5 dc3c 067b 94bc 2f1e e9bd
00000190: c8ed e3bc 8990 78bc 8a5c a4bd fbf4 b23d
000001a0: 0075 853c 291e c1bd be09 d1bd 24c0 0bbd
000001b0: 7301 973d bb16 fabd 9d95 0b3c 60ec 383c
000001c0: 1e31 573c 6ec2 13be f907 a23d a51b 503d
000001d0: 3b22 21be 98c5 ebbc 8333 7a3d ca80 bcbd
000001e0: 7b8a f4bb d9c7 f73d ddd6 233d acd1 bb3d
000001f0: 3f95 6abd 60a6 1cbe 7a34 903d 8e1d 48bd
00000200: 5125 9b3d 7f2e 413d 7aa7 0c3d a562 b2bd
00000210: b628 48bd d4f6 3abc 72a4 8ebd 47aa 38bd
00000220: c230 bb3d 78cc d2bd 7573 9ebd b004 3dbd
00000230: 36a3 38bd c242 413d db26 e63d ede5 063d
00000240: d4f6 f1bc 6619 4d3d 5937 2fbd 3ca3 c03d
00000250: 4acb fdbd 25e1 1cbd 9a3c c8bd 1e46 423c
00000260: d4f6 3c3c 54ba 3d3d f96d 493c 9e7a 023d
00000270: 2e6f 02be 5685 b33d 600e 2bbd 2ff0 bebd
00000280: fa50 74bd 93d2 90bd f858 203d 0e5b 86bc
00000290: 1ca4 1ebd 7827 c6bd 6fe6 0abe 215d fe3d
000002a0: 2797 3dbd 8204 34bd fbc7 f43d 443a 3ebd
000002b0: ac4c db3d f95b bebc 5612 c3bd 6918 99bd
000002c0: f72c aeba f1f0 b13d 419e 04be 1108 7e3d
000002d0: 4c5c 20bd e96e 843c cd2f 933d 06d9 933d
000002e0: 5a8e 71bd 72a0 a03c fc4e 0f3b ee47 abbd
000002f0: 7dbc 41bc de8d f93d ef50 b53d 91a1 ba3b
00000300: 8e60 ac3c e56f d9bd 37ee 92bb bf76 873c
00000310: 8dbe e8bd 663c a83d 8580 1fbe 1459 b93d
00000320: 3442 363e 56e5 0a3d 5a9b b1be 29d6 db3d
00000330: 40df 58be b2e1 bc3d 12f6 3cbe bb0f a6bd
00000340: 35d4 0ebe 8f26 443e 61a0 bdbd be49 443c
00000350: 7d41 833d 82a5 e5bd 082f d3bd a0ae a2bc
00000360: 1466 2bbd c7ab 093d 91a8 24bd 251c 183d
00000370: 0c46 19be 271f e4bd 52ee 48be f0c9 6cbe
00000380: 4e07 f3bd 7659 1dbd 1300 15be 906b 0bbe
00000390: efae d4bd 9dfb 9f3d 8465 4a3c 22f5 55be
000003a0: 3882 9a3d c18c d0bd 30cb 09be 8360 33bc
000003b0: 5094 40bd 5518 083a 46ef cfbd 7fe0 2fbd
000003c0: 3f3f 74be 5abb d93d 2d21 7e3d 019b 71bd
000003d0: 95bb 45bd 9e5e 63be 6b49 2dbd 1df4 9ebe
000003e0: f4c3 32bc 199a d43d 6150 0cbe f936 6cbd
000003f0: aebe 17bd 8620 41bc abc0 d53d f207 73be

hidden2_Y1.bias f4 [200]
-0.09982346 0.2724469 0.3261313 -0.101473816 0.3619886 -0.02800488 -0.08716323 0.1668566
0.31563154 0.28265196 0.3156152 -0.023330133 -0.06498897 -0.051043652 0.32385528 0.23966771
0.16933605 -0.09349104 -0.093467064 -0.05442886 -0.0065301633 -0.13903338 -0.041050818 -0.12826611
-0.07815587 -0.12922484 0.3981035 0.034843307 0.30197993 0.19721803 -0.086289756 -0.08133494
-0.08742991 -0.049468763 -0.06106806 0.35231495 -0.03231629 0.20654471 -0.04976665 -0.103595674
0.3496573 -0.09506639 -0.08414143 -0.07974726 -0.09298928 -0.059053913 0.24457273 0.28867087
-0.05613077 0.24819604 -0.092391185 -0.006830013 0.043270968 -0.12195037 -0.036618702 -0.09074577
0.054839343 -0.028693706 -0.12507178 0.0020558038 0.26166746 -0.06371356 -0.1128734 -0.07393214
-0.07335333 0.24000993 -0.034796394 -0.11155141 -0.07885591 -0.119092114 -0.1306758 -0.082903415
-0.14541678 -0.08761203 -0.10228864 0.010936635 -0.12577523 -0.05845231 -0.11029285 -0.08269813
-0.14248027 0.40559888 0.19448924 -0.08887584 -0.09578688 -0.12095815 -0.10575072 -0.08066508
0.29141533 0.22809 -0.016111437 0.0070014866 -0.007672832 0.04018534 0.44996667 -0.085693054
0.34534812 0.20498757 0.30311933 0.27461645 -0.14316724 -0.07315158 -0.06344093 0.41113564
-0.034033135 0.30409783 0.36043674 -0.14329074 -0.1557497 0.17770602 -0.1264285 -0.111066595
-0.0565263 -0.100869 0.07380226 -0.035279248 0.239357 -0.047071494 0.31650436 -0.11031322
-0.123197265 -0.042853285 -0.057725586 -0.040335707 0.3486333 -0.0971422 -0.096168675 -0.08036078
0.068823345 -0.1300453 0.31055608 0.21321695 0.27001545 -0.08318374 -0.057942715 -0.12957379
-0.11626069 -0.11661062 -0.09423692 -0.07526259 0.30576602 0.29342908 0.20138575 -0.13063368
-0.06298658 -0.09514181 0.3600857 -0.13560666 -0.047644425 0.27627513 -0.093765415 -0.08363257
0.30411422 -0.07661556 -0.021143109 0.25112692 0.22945979 -0.07508855 0.33431554 -0.08185632
-0.10190185 0.38205847 0.35252243 -0.11900247 0.27367505 -0.109832436 -0.06235422 -0.10222168
-0.10233528 0.35367113 -0.10748264 -0.121737726 0.27166316 -0.0819692 0.26225433 -0.12801196
0.30166018 -0.07452462 -0.07567842 -0.03543044 -0.087384775 0.23033048 -0.0846563 -0.16903174
-0.08137061 -0.030934136 0.21408544 0.38595846 -0.04781191 -0.13282293 0.34949288 0.0009324326
0.2109494 -0.095365055 -0.10200014 -0.041548908 0.30378556 0.18694961 -0.011031937 -0.1013376
00000000: 3e70 ccbd 297e 8b3e affa a63e 81d1 cfbd
00000010: 9256 b93e 7d6a e5bc a382 b2bd 75dc 2a3e
00000020: 759a a13e c2b7 903e 5198 a13e d61e bfbc
00000030: f018 85bd 2613 51bd 5cd0 a53e 746b 753e
00000040: 6e66 2d3e 3b78 bfbd a96b bfbd ccf0 5ebd
00000050: fbfa d5bb c45e 0ebe e724 28bd 3158 03be
00000060: 2f10 a0bd 8453 04be 39d4 cb3e dbb7 0e3d
00000070: 1d9d 9a3e 86f3 493e afb8 b0bd ef92 a6bd
00000080: 740e b3bd c29f 4abd 8122 7abd a062 b43e
00000090: 165e 04bd 7580 533e 1dd8 4bbd f829 d4bd
000000a0: 4806 b33e 2bb2 c2bd 5852 acbd 8852 a3bd
000000b0: 2a71 bebd 84e2 71bd 4671 7a3e abcc 933e
000000c0: 61e9 65bd 1a27 7e3e 9737 bdbd 4dce dfbb
000000d0: e63c 313d 1ec1 f9bd 7efd 15bd ebd8 b9bd
000000e0: 389f 603d 100f ebbc d112 00be aaba 063b
000000f0: 47f9 853e 417c 82bd 2b2a e7bd bc69 97bd
00000100: 453a 96bd 2ac5 753e aa86 0ebd 1175 e4bd
00000110: 357f a1bd 91e6 f3bd e0cf 05be 44c9 a9bd
00000120: 23e8 14be f06d b3bd b57c d1bd 922f 333c
00000130: 39cb 00be b06b 6fbd 38e1 e1bd a35d a9bd
00000140: 59e6 11be a8aa cf3e 3028 473e 8904 b6bd
00000150: e92b c4bd e8b8 f7bd d593 d8bd bc33 a5bd
00000160: 6434 953e 6d90 693e 22fc 83bc ba6c e53b
00000170: 616c fbbb 6299 243d 0862 e63e d77f afbd
00000180: 78d1 b03e 43e8 513e 7532 9b3e 879a 8c3e
00000190: 6f9a 12be 7fd0 95bd 51ed 81bd 5f80 d23e
000001a0: 5466 0bbd b6b2 9b3e 2a8b b83e cfba 12be
000001b0: d97c 1fbe 91f8 353e 7976 01be e276 e3bd
000001c0: 1f88 67bd 6894 cebd a425 973d f980 10bd
000001d0: 001a 753e 0ace 40bd dc0c a23e e6eb e1bd
000001e0: d94e fcbd ed86 2fbd aa71 6cbd 0e37 25bd
000001f0: 1080 b23e 7df2 c6bd 15f4 c4bd 3194 a4bd
00000200: 41f3 8c3d 982a 05be 3501 9f3e 8b55 5a3e
00000210: 773f 8a3e 3d5c aabd 5755 6dbd feae 04be
00000220: 161a eebd 8cd1 eebd 49ff c0bd 4623 9abd
00000230: 5d8d 9c3e 563c 963e 1138 4e3e d6c4 05be
00000240: 1cff 80bd b6d9 c2bd 275d b83e 79dc 0abe
00000250: cd26 43bd ef73 8d3e 1508 c0bd 8e47 abbd
00000260: dcb4 9b3e 9ee8 9cbd 5034 adbc b593 803e
00000270: 82f7 6a3e 07c8 99bd 682b ab3e 49a4 a7bd
00000280: ebb1 d0bd 2b9d c33e d27d b43e 91b7 f3bd
00000290: 231f 8c3e d4ef e0bd 2367 7fbd 9a59 d1bd
000002a0: 2995 d1bd 6214 b53e dc1f dcbd a151 f9bd
000002b0: 6f17 8b3e 78df a7bd 3346 863e 9115 03be
000002c0: 3473 9a3e 5da0 98bd 4afd 9abd 821f 11bd
000002d0: caf6 b2bd c1db 6b3e 4860 adbd a816 2dbe
000002e0: a2a5 a6bd 9669 fdbc 3739 5b3e 599c c53e
000002f0: 6cd6 43bd bc02 08be bbf0 b23e 7e6e 743a
00000300: 1f03 583e c14e c3bd 73e5 d0bd 302f 2abd
00000310: c889 9b3e b86f 3f3e 4cbf 34bc 168a cfbd

out_Y1.weight f4 [1, 200]
-0.027017336 0.12006935 0.10264978 -0.06452494 0.13950656 -0.23669456 -0.018518867 0.09311886
0.10685519 0.114579014 0.13648225 0.11039266 -0.006576249 0.014954148 0.1466644 0.12061696
0.14379373 -0.11977602 -0.024659846 -0.004927278 -0.040952865 -0.013822142 0.0041371766 -0.096549645
-0.01635614 -0.02934156 0.18247518 -0.14127064 0.15408348 0.09962544 -0.08201901 0.010748898
0.04358352 -0.015022401 -0.13312505 0.121943414 -0.15002732 0.08134393 -0.19374923 -0.10258795
0.13635002 0.0025583215 -0.11383284 -0.09857284 0.026871026 -0.030373402 0.099434815 0.072388135
0.027115775 0.14441745 -0.07574304 -0.12614487 -0.1316946 -0.046225343 0.08941366 -0.015497197
-0.25691083 -0.016820641 0.011701441 -0.083206706 0.1666321 -0.14026034 -0.101046756 -0.081639044
0.05538018 0.11924537 -0.005081479 -0.033190127 -0.029137585 0.009012899 -0.037453406 -0.04552394
-0.008579483 0.010543104 0.10634883 -0.007915162 -0.008498781 -0.13796227 -0.01053397 -0.025706222
0.020401098 0.23837465 0.118436724 0.00058577134 -0.06122024 -0.08189214 0.022779163 0.011849709
0.07335281 0.05204789 -0.099148594 -0.07704803 -0.112167396 0.06738439 0.18489173 -0.03281658
0.1319035 0.07720276 0.07468423 0.13091809 -0.1059753 -0.013411051 0.1172785 0.1551939
-0.06371653 0.1267947 0.14505097 0.004342209 -0.10360287 0.04361249 -0.07384173 -0.014862187
0.04551303 -0.04537054 -0.22824082 -0.01676309 0.120432 -0.024828074 0.14912428 -0.01770325
0.015810816 -0.087806515 -0.009181741 0.017941112 0.17419596 -0.060248986 0.019757418 -0.080799565
0.1275257 -0.0013338418 0.16389698 0.08142608 0.102115214 0.024314249 0.0058717686 -0.058432337
-0.03549727 0.021727152 0.009038242 -0.028950896 0.06718669 0.13666697 0.095949985 -0.09398111
-0.01789242 -0.025108408 0.1268717 0.0034960436 -0.091806374 0.10388161 -0.0026940124 0.017813724
0.11834127 -0.008722828 -0.063998826 0.07392486 0.1197797 0.08828293 0.11909783 -0.013213444
-0.072968215 0.12973125 0.109604076 0.022439817 0.1492402 -0.085636154 0.021496309 -0.06353229
-0.046867814 0.16069011 -0.0887573 -0.0027230813 0.17044245 -0.0488812 0.09208238 -0.060513508
0.15181129 -0.019706508 -0.060225397 0.031026773 -0.038439237 0.071417965 0.0006716103 0.014531965
-0.0657715 0.0044080615 0.07676884 0.23248936 -0.0017562866 -0.029806528 0.13326356 -0.028081836
0.013802884 -0.13049828 -0.0044363383 -0.06684356 0.09482393 0.054813474 0.00070994726 -0.006470498
00000000: 7653 ddbc ebe6 f53d 0c3a d23d a725 84bd
00000010: cfda 0e3e 0f60 72be e1b4 97bc 1ab5 be3d
00000020: e5d6 da3d 67a8 ea3d 01c2 0b3e 8c15 e23d
00000030: 937d d7bb 3e02 753c 312f 163e 0606 f73d
00000040: aa3e 133e 214d f5bd 7203 cabc 0175 a1bb
00000050: 31be 27bd 4476 62bc 2791 873b d2bb c5bd
00000060: 50fd 85bc b65d f0bc c6da 3a3e 40a9 10be
00000070: 0fc8 1d3e 6c08 cc3d 95f9 a7bd 251c 303c
00000080: a284 323d 8420 76bc ef51 08be 78bd f93d
00000090: c3a0 19be a597 a63d 3366 46be a219 d2bd
000000a0: 579f 0b3e 83a9 273b 3121 e9bd 8fe0 c9bd
000000b0: a020 dc3c a4d1 f8bc 7ba4 cb3d 3b40 943d
000000c0: e721 de3c 2be2 133e 2b1f 9bbd 1f2c 01be
000000d0: f3da 06be c956 3dbd 821e b73d f5e7 7dbc
000000e0: d189 83be 71cb 89bc 67b7 3f3c 4768 aabd
000000f0: 9ba1 2a3e 68a0 0fbe 9af1 cebd 5f32 a7bd
00000100: 54d6 623d eb36 f43d 8982 a6bb 5ff2 07bd
00000110: f2b1 eebc d7aa 133c be68 19bd 5077 3abd
00000120: f690 0cbc fcbc 2c3c 6acd d93d 98ae 01bc
00000130: 793e 0bbc fb45 0dbe ac96 2cbc db95 d2bc
00000140: 3420 a73c 7c18 743e f48e f23d 738e 193a
00000150: 13c2 7abd 11b7 a7bd 5e9b ba3c 4825 423c
00000160: 003a 963d 2b30 553d 6b0e cbbd 5ccb 9dbd
00000170: 05b8 e5bd d400 8a3d 4254 3d3e ae6a 06bd
00000180: b611 073e 7b1c 9e3d 0cf4 983d 640f 063e
00000190: 9409 d9bd 06ba 5bbc b62f f03d 26eb 1e3e
000001a0: d07d 82bd 78d6 013e 3e88 143e 1749 8e3b
000001b0: be2d d4bd 03a3 323d 553a 97bd 8880 73bc
000001c0: df6b 3a3d 76d6 39bd f6b7 69be bf52 89bc
000001d0: 0da5 f63d 3f64 cbbc 09b4 183e 6806 91bc
000001e0: af85 813c e7d3 b3bd 036f 16bc 3df9 923c
000001f0: 6d60 323e a4c7 76bd 4fda a13c 3e7a a5bd
00000200: 1996 023e 4ed4 aeba 9cd4 273e b7c2 a63d
00000210: c821 d13d ad2e c73c f767 c03b bf56 6fbd
00000220: 9665 11bd 24fd b13c 2215 143c 6e2a edbc
00000230: 2d99 893d 6df2 0b3e 6d81 c43d 2b79 c0bd
00000240: 2093 92bc 26b0 cdbc a8ea 013e e11d 653b
00000250: fb04 bcbd e2bf d43d 078e 30bb 16ee 913c
00000260: e85c f23d 31ea 0ebc d111 83bd eb65 973d
00000270: 0f4f f53d aecd b43d 90e9 f33d 337d 58bc
00000280: 5c70 95bd 45d8 043e 1a78 e03d b5d3 b73c
00000290: 6cd2 183e 0262 afbd 0719 b03c 381d 82bd
000002a0: 77f8 3fbd f38b 243e 63c6 b5bd b975 32bb
000002b0: 7788 2e3e a737 48bd b095 bc3d 03dd 77bd
000002c0: 6b74 1b3e 8b6f a1bc e8ae 76bd dc2b fe3c
000002d0: 7672 1dbd 9543 923d 010f 303a 7b17 6e3c
000002e0: 35b3 86bd 8071 903b fb38 9d3d b111 6e3e
000002f0: 3333 e6ba d22c f4bc 3e76 083e e10b e6bc
00000300: 7e25 623c 57a1 05be b45e 91bb 47e5 88bd
00000310: 0c33 c23d 1884 603d c11b 3a3a 7906 d4bb
