DCNModel/DCN_PD_NN_Models/NN_DCN_model_iter_id_28_epoch_500_lr_0.001.pth (torch_old, 828766 bytes, 14 tensors)

shared1.weight f4 [200, 25]
0	0x3d4870ac	0.048935577
1	0xbdbb28ad	-0.09138618
2	0xbd9e4159	-0.07727308
3	0xbc0d598a	-0.008627305
4	0xbd8d6d61	-0.06905628
5	0xbcccf4de	-0.025019106
6	0xbe0a49e4	-0.1350475
7	0xbd705761	-0.05867708
8	0xbe4629e6	-0.1935192
9	0xbdd7235e	-0.10504793
10	0xbdd0fd3c	-0.102045506
11	0xbc32d02c	-0.01091389
12	0xbdf1a5a8	-0.117991745
13	0xbe510bf1	-0.20414712
14	0xbdd0e6b5	-0.10200254
15	0x3dc5a766	0.09651069
16	0xbd0334ef	-0.032032903
17	0xbe45ced4	-0.1931718
18	0x3e117fdd	0.14208932
19	0x3c982fe5	0.018577525
20	0xbd52e1d1	-0.051484887
21	0x3ceee87f	0.029163597
22	0x3d9db9b8	0.07701439
23	0xbceec79e	-0.02914792
24	0xbd7a3ecb	-0.06109504
25	0x3c97f441	0.018549087
26	0x3c3ccaf3	0.011522996
27	0x3c3807b4	0.011232305
28	0xbdfbf40e	-0.12302409
29	0x3dcb215c	0.09918472
30	0xbd67bf97	-0.0565792
31	0x3db0a409	0.08625037
32	0xbe17ea20	-0.14835405
33	0xbdc0664b	-0.09394511
34	0xbe3a3f5b	-0.1818823
35	0x3c9b9a90	0.0189946
36	0xbceeba3c	-0.029141538
37	0x3cd709dc	0.026249819
38	0xbe096eb2	-0.13421133
39	0xbe0864e1	-0.13319732
40	0x3d9f77a5	0.07786492
41	0x3b443bdf	0.0029942913
42	0xbe120268	-0.1425873
43	0xbde09c04	-0.109672576
44	0xbdb86fe3	-0.09005716
45	0xbd995823	-0.07487514
46	0xbe02a6e6	-0.12758979
47	0xbccb48d7	-0.024815006
48	0xbc7ad5a5	-0.015309726
49	0x3c278ed8	0.010226928
50	0x3d2427f8	0.04007718
51	0xbdac1c05	-0.08403782
52	0x3c348a09	0.011019238
53	0x3dab688b	0.08369549
54	0xbc0e53ea	-0.008686999
55	0xbddff3b4	-0.109351546
56	0x3d443aa2	0.04790748
57	0x3e3b3f09	0.18285765
58	0x3cdb3c4c	0.02676215
59	0xbd6818f6	-0.05666443
60	0x3d9e7b9e	0.07738422
61	0xbd7010a6	-0.058609627
62	0xbd3e7094	-0.04649408
63	0xbd3356ae	-0.043783836
64	0xbdd7503a	-0.10513349
65	0xbe234f3a	-0.15948191
66	0xbe4722f8	-0.19446933
67	0xbe06cfc1	-0.1316519
68	0x3c46cb7b	0.012133474
69	0x3c96f933	0.018429374
70	0x3a24bb9e	0.00062840607
71	0xbe348368	-0.17628253
72	0xbb9d696c	-0.004803827
73	0xbe044dc5	-0.12920292
74	0x3dd7eb7e	0.105429634
75	0xbd9fedd9	-0.07809038
76	0x3d01a14b	0.03164796
77	0xbda28289	-0.07935054
78	0x3d86fa87	0.06590753
79	0x3cf62399	0.030046271
80	0xbd8bec42	-0.06832172
81	0xbd6cad88	-0.05778268
82	0xbdb06297	-0.086125545
83	0xbd8797db	-0.06620761
84	0xbe36044f	-0.17775081
85	0xbd3cccaa	-0.04609362
86	0xbdd6bae2	-0.10484864
87	0xbe524418	-0.20533788
88	0x3ca62dc2	0.02028549
89	0xbe471030	-0.19439769
90	0xbe490365	-0.19630201
91	0xbe08c9d5	-0.13358243
92	0xbd504e58	-0.050855964
93	0x3da08c65	0.07839278
94	0x3de9b851	0.11412109
95	0xbdfd99b7	-0.123828344
96	0x3cd0ebff	0.025503157
97	0xbd4c1e2c	-0.04983346
98	0xbe1369bb	-0.14395802
99	0x3d0dde3f	0.03463578
100	0xbcc770f7	-0.024345858
101	0x3cdd5ebf	0.027022718
102	0x3b1cd9fd	0.0023933642
103	0x3d3bf513	0.045888018
104	0xbd9d2a7e	-0.0767412
105	0xbe076ec1	-0.13225843
106	0x3d40b9be	0.047052138
107	0xbcefe2ed	-0.029283011
108	0xbde6b31e	-0.11264633
109	0xba869cbe	-0.0010270101
110	0xbe0b5ef1	-0.13610436
111	0x3d8fcb59	0.07021207
112	0xbca0143b	-0.019540897
113	0xbdd209c8	-0.10255772
114	0xbd9b3418	-0.075782955
115	0xbe4420d1	-0.19153143
116	0xbe0527df	-0.13003491
117	0xbe35210c	-0.17688388
118	0xbab25217	-0.0013604787
119	0xbe9ec8c4	-0.31012547
120	0xbe705657	-0.23470436
121	0x3c92b024	0.017906256
122	0xbdc4725d	-0.095921256
123	0xbe1a2fbe	-0.15057275
124	0x3e777389	0.24165167
125	0x3da35328	0.07974845
126	0xbe4f92fc	-0.20270914
127	0xbc53fa84	-0.012938146
128	0x3dc49680	0.09599018
129	0x3a83d5f3	0.0010058269
130	0x3ef9d8a8	0.48798108
131	0xbf086856	-0.53284204
132	0x3eba786d	0.36420003
133	0xbe1a88b2	-0.15091208
134	0x3c0b944a	0.008519242
135	0x3df84eea	0.12124427
136	0xbeba7592	-0.36417824
137	0x3d3a2af6	0.045451127
138	0xbecda137	-0.4016206
139	0x3eeb77cf	0.45989844
140	0xbebb4a5b	-0.36580166
141	0x3e58ff9b	0.21191256
142	0xbec33ff6	-0.38134736
143	0x3dc9547f	0.098305695
144	0x3e86cd45	0.26328483
145	0x3e9149eb	0.28376707
146	0xbe08f742	-0.13375571
147	0x3eb6fd29	0.3574002
148	0x3e9e091c	0.30866325
149	0x3e8e15c1	0.27750972
150	0x3d478d1d	0.04871856
151	0xbd363642	-0.044485338
152	0xbbaf72b1	-0.0053542485
153	0x3ded9365	0.11600379
154	0x3b908bff	0.00441122
155	0xbd4f76a0	-0.05065024
156	0xbdb30797	-0.08741682
157	0xbdad270c	-0.08454713
158	0xbc274455	-0.010209163
159	0xbe2cdbe8	-0.16880763
160	0x3d726770	0.059180677
161	0x3d9a09a9	0.07521374
162	0x3dda0fce	0.10647546
163	0xbd8cdd8a	-0.06878193
164	0xbd5994a6	-0.053120278
165	0xbe437be4	-0.1909023
166	0xbe12a36e	-0.14320156
167	0xbd513db2	-0.051084228
168	0xbe2d99ae	-0.16953155
169	0x3c91863d	0.017764205
170	0xbcb36c9e	-0.021902379
171	0x3bc9dce5	0.006160366
172	0x3d81fa16	0.06346528
173	0xbe2576f8	-0.16158664
174	0xbdf9be95	-0.12194554
175	0xbe8ae903	-0.271309
176	0x3cf6ac26	0.030111384
177	0xbc69da46	-0.014273232
178	0xbe417316	-0.18891558
179	0x3e588aee	0.21146747
180	0x3d9e7a36	0.07738154
181	0xbe83e236	-0.25758523
182	0xbee31b29	-0.4435666
183	0xbf0090a9	-0.50220734
184	0x3cb03560	0.021509826
185	0xbedd4e8b	-0.43223986
186	0xbf09ce4c	-0.5383041
187	0xbf16673e	-0.58751285
188	0xbe559e6a	-0.20861211
189	0xbeae6985	-0.3406488
190	0xbe3553b7	-0.17707716
191	0x3df334fb	0.118753396
192	0xbe55739e	-0.20844886
193	0xbef74767	-0.48296663
194	0x3d30678a	0.043067493
195	0xbe53c0af	-0.20678972
196	0xbe84c58a	-0.2593196
197	0xbec6f45e	-0.38858312
198	0x3d14cd2b	0.036328476
199	0xbe730580	-0.23732567
200	0x3e6b7c3e	0.22996613
201	0x3df8658f	0.12128746
202	0x3e2297df	0.15878247
203	0x3e2a094c	0.16605109
204	0xbd114755	-0.03546842
205	0x3cdabf16	0.026702445
206	0xbe22d24c	-0.15900534
207	0xbeb65679	-0.35612848
208	0x3e0192e3	0.12653689
209	0xbd07f789	-0.033195052
210	0xbeda19dd	-0.42597857
211	0x3e037af5	0.12839873
212	0xbdf80730	-0.12110746
213	0xbdf11d10	-0.11773121
214	0xbe45dcf8	-0.19322574
215	0xbdc2a410	-0.09503949
216	0x3b5002a1	0.0031739848
217	0xbf20e48d	-0.6284874
218	0xbe7efb9b	-0.24900667
219	0xbe95bd76	-0.2924611
220	0xbf10dc12	-0.565858
221	0xbe25f9c1	-0.16208555
222	0xbdb6aec5	-0.089200534
223	0xbe2cd487	-0.16877948
224	0xbdf62f12	-0.12020697
225	0x3dc7955e	0.097452864
226	0x3e260870	0.16214156
227	0x3e5b5137	0.214177
228	0x3d10e06f	0.035370287
229	0xbe347e43	-0.1762629
230	0x3e1666ff	0.14687727
231	0x3e9201bf	0.28516957
232	0x3f337285	0.7009662
233	0xbe2b314a	-0.16718021
234	0x3dc7e6b4	0.097608
235	0xbea0e97b	-0.3142813
236	0x3e8d8107	0.27637503
237	0xbe93164c	-0.2872795
238	0xbedb50a2	-0.42834955
239	0xbef5a139	-0.47974566
240	0xbe31e1a8	-0.17371237
241	0x3e006061	0.12536766
242	0xbefb7844	-0.49115193
243	0x3e45567c	0.19271272
244	0x3e83523a	0.2564867
245	0x3d8c01b6	0.06836264
246	0xbe94616b	-0.28980574
247	0xbd48bcbd	-0.04900812
248	0xbecd084d	-0.40045395
249	0x3e088c4b	0.13334768
250	0x3e879d86	0.26487368
251	0xbd0cccab	-0.034374874
252	0xbe1b3ed8	-0.15160692
253	0x3cf5621d	0.02995401
254	0x3ea7b8ab	0.32758078
255	0x3e0ea37b	0.1392955

shared1.bias f4 [200]
0	0x3d8b6fd3	0.06808438
1	0xbdf09f70	-0.1174916
2	0xbe8aeeaf	-0.27135226
3	0xbd52eb74	-0.051494077
4	0xbe34de87	-0.17663012
5	0xbe4d8b81	-0.20072748
6	0xbe9cd35d	-0.30630007
7	0xbe93fc58	-0.2890346
8	0xbdf1dc3e	-0.11809586
9	0xbda07eb2	-0.07836665
10	0xbe9e9d6d	-0.3097948
11	0xbe4ee1c1	-0.20203306
12	0xbc901df9	-0.017592417
13	0xbea97001	-0.33093265
14	0xbda81a7d	-0.08208177
15	0xbec3ae8f	-0.38219115
16	0xbe021656	-0.12703833
17	0xbe808448	-0.25100923
18	0xbd88455a	-0.06653853
19	0xbe3a573a	-0.18197337
20	0xbc8ba08e	-0.017044332
21	0xbe99b5d8	-0.30021548
22	0xbe4a8c9d	-0.19780202
23	0xbda5b797	-0.080916576
24	0xbeb6ae3a	-0.356798
25	0xbdca4a91	-0.09877504
26	0xbe1bb443	-0.15205483
27	0xbe7ff386	-0.2499524
28	0xbe01dc04	-0.12681586
29	0xbe6eedd9	-0.23332919
30	0xbe808637	-0.25102398
31	0xbea5434c	-0.32277906
32	0xbedb4bfb	-0.42831406
33	0xbe8faced	-0.2806162
34	0xbe2c2611	-0.16811396
35	0xbdb56181	-0.08856488
36	0xbc8e3b50	-0.017362267
37	0xbe824af5	-0.25447813
38	0x3d0f7c49	0.035030637
39	0xbdbfcb66	-0.09364967
40	0xbe577e69	-0.21044315
41	0xbd2cf7f9	-0.042228673
42	0xbd0f5129	-0.03498951
43	0xbe632e1f	-0.22185563
44	0xbe8ecf35	-0.2789246
45	0xbe9b0aae	-0.30281585
46	0xbede8c23	-0.4346629
47	0xbce77829	-0.028255539
48	0xbdfaefc4	-0.12252763
49	0xbead5178	-0.33851218
50	0xbe06ab42	-0.13151267
51	0xbc310ff0	-0.010807022
52	0xbeb9d157	-0.36292526
53	0x3d21c672	0.039495893
54	0xbdac2410	-0.08405316
55	0xbea20a41	-0.31648448
56	0xbd5552a1	-0.052080754
57	0xbd727dd4	-0.05920203
58	0x3d28b014	0.041183546
59	0xba6ba3f9	-0.00089889724
60	0xbe10e9e1	-0.14151718
61	0x3b80ef66	0.0039347885
62	0xbe8bf605	-0.27336136
63	0xbe42efb0	-0.19036746
64	0xbe8fcdc9	-0.2808669
65	0xbd82d9c1	-0.063891895
66	0xbe6cebbe	-0.23136804
67	0xbe19ad5e	-0.1500754
68	0xbe30d59a	-0.17268983
69	0xbe5b9383	-0.2144299
70	0xbdc71481	-0.09720708
71	0xbea3e772	-0.32012516
72	0xbe988f27	-0.29796717
73	0xbea6679d	-0.32500926
74	0xbea87c0a	-0.32907134
75	0xbdeb5b22	-0.114919916
76	0xbe23a91a	-0.15982476
77	0xbd251093	-0.04029901
78	0xbdfcd43f	-0.1234517
79	0xbde0c4d9	-0.10975046
80	0xbe8066d0	-0.2507844
81	0xbe82bd99	-0.25535277
82	0xbe2da832	-0.16958693
83	0xbe0b9318	-0.1363033
84	0xbe7b9239	-0.24567498
85	0xbd9f63ae	-0.07782684
86	0xbeadfc13	-0.3398138
87	0xbe4615ca	-0.1934425
88	0x3d1adae0	0.03780639
89	0xbe17f724	-0.1484037
90	0xbcada944	-0.021198876
91	0xbe0405ce	-0.1289284
92	0xbe9f8547	-0.3115637
93	0xbefaf78a	-0.49016982
94	0xbe771e98	-0.24132764
95	0xbead0e6e	-0.3380007
96	0xbe77b356	-0.24189505
97	0xbe758a6f	-0.2397859
98	0xbe3a8a60	-0.18216848
99	0xbe0627a0	-0.13101053
100	0xbd877a1f	-0.066150896
101	0xbe7521ce	-0.23938677
102	0xbe83c380	-0.25735092
103	0xbe1fd9b1	-0.15610386
104	0xbd470d2f	-0.048596557
105	0xbe7ccbf4	-0.24687177
106	0xbdb462c2	-0.08807899
107	0x3a9d1eb5	0.0011987301
108	0xbeaa82e4	-0.33302987
109	0xbe4b771c	-0.19869655
110	0xbe219d7e	-0.15782735
111	0xbe1328e6	-0.1437107
112	0xbe0f8edb	-0.14019339
113	0xbe9f175a	-0.31072503
114	0xbe820289	-0.2539256
115	0xbdac04ad	-0.08399329
116	0xbe951d1f	-0.2912378
117	0x3de7c1f2	0.11316289
118	0xbd347b7d	-0.04406308
119	0xbe73e95d	-0.2381949
120	0xbe301f0e	-0.17199346
121	0xbea4f111	-0.3221517
122	0xbe1e94f3	-0.15486507
123	0xbe50d3ba	-0.20393267
124	0xbe948b93	-0.29012737
125	0xbe69eefd	-0.22845073
126	0xbdd3cd88	-0.10341936
127	0xbdc64ae7	-0.09682255
128	0xbdf31e97	-0.11871069
129	0xbe94046f	-0.28909633
130	0xbe9b2e67	-0.3030884
131	0x3d53eda5	0.051740307
132	0xbdf7b02b	-0.12094148
133	0xbe1b62fb	-0.15174477
134	0xbe7c8961	-0.24661781
135	0xbec5e408	-0.38650537
136	0xbea09a6f	-0.31367823
137	0x3d426f32	0.047469325
138	0xbe4d8726	-0.20071086
139	0xbde3025c	-0.110844344
140	0xbe08a5ae	-0.13344452
141	0xbe7cd04b	-0.24688832
142	0xbe219453	-0.15779237
143	0xbe3bfdf7	-0.18358599
144	0xbe31d858	-0.17367685
145	0xbeaf8bbc	-0.34286296
146	0xbdfe02f1	-0.12402905
147	0xbec04d42	-0.37558943
148	0xbe111ff5	-0.14172347
149	0xbe11fc83	-0.14256482
150	0xbe1a15e4	-0.15047413
151	0xbea4bce3	-0.3217536
152	0xbe3031ad	-0.1720645
153	0xbefa2450	-0.4885583
154	0xbdd14bae	-0.10219513
155	0xbe997228	-0.29969907
156	0xbea898f5	-0.32929197
157	0xbe8b12be	-0.27162737
158	0xbebe35ff	-0.3715057
159	0xbd89cd6f	-0.067286365
160	0xbdab4129	-0.08362038
161	0xbe01efc1	-0.12689115
162	0xbd03a13c	-0.032136187
163	0xbe7143cf	-0.23561023
164	0xbe09cda9	-0.1345736
165	0xbefd4c2e	-0.49472183
166	0xbe6db87b	-0.23214905
167	0xbe834e3a	-0.2564562
168	0xbe94532e	-0.2896971
169	0xbcc49a34	-0.023999311
170	0xbeb6c9a2	-0.3570071
171	0xbd3d2d0a	-0.04618553
172	0xbe0e5362	-0.13898996
173	0xbe2ac7ff	-0.16677855
174	0xbecece45	-0.40391746
175	0x3dc10fc8	0.09426838
176	0xbd8a9063	-0.06765821
177	0xbe6a9260	-0.229074
178	0xbe71642e	-0.23573372
179	0xbd297b77	-0.04137751
180	0xbe7372df	-0.23774289
181	0xbdfe956c	-0.12430844
182	0xbe613c03	-0.21995549
183	0xbe390cf1	-0.18071343
184	0xbeb3deb5	-0.3513085
185	0xbe85501c	-0.2603768
186	0xbe49f1d0	-0.1972115
187	0xbdad97bc	-0.08476207
188	0xbd10a086	-0.035309337
189	0xbe6cdda8	-0.2313143
190	0xbe2a1ee6	-0.1661335
191	0xbdf1e423	-0.11811092
192	0xbeb33ad6	-0.35005826
193	0xbe4dafb1	-0.20086552
194	0xbe285bd9	-0.16441287
195	0xbe2baef7	-0.16765963
196	0xbe8cd911	-0.2750936
197	0xbe861361	-0.2618666
198	0xbdb909b2	-0.09035052
199	0xbee8a8fc	-0.45441425

shared2.weight f4 [200, 200]
0	0xbc83f7a9	-0.016109305
1	0x3d1caad7	0.038248863
2	0x3e2ae6d3	0.16689615
3	0x3d0328c6	0.032021306
4	0xbe069ec4	-0.13146502
5	0xbea79a96	-0.32735127
6	0x3e1d6a06	0.15372476
7	0xbe3cc87d	-0.18435855
8	0xbea0b0dd	-0.31384936
9	0xbde7a10b	-0.113100134
10	0xbe6c0f2a	-0.2305266
11	0xbd436cef	-0.04771131
12	0x3e18bdd5	0.14916165
13	0xbd778929	-0.06043354
14	0x3e5f26f3	0.21792202
15	0x3edeeac5	0.4353849
16	0x3be8bad7	0.007102351
17	0xbe3869b4	-0.18009073
18	0xbd8547f4	-0.065078646
19	0xbe3867f6	-0.18008408
20	0x3db51c5c	0.088433
21	0xbd8a278c	-0.06745824
22	0x3cb6a258	0.022294208
23	0x3d843e4f	0.06457197
24	0x3cc6c387	0.024263157
25	0x3ebbf8ce	0.3671326
26	0x3df86650	0.121288896
27	0xbe96db0d	-0.29463997
28	0x3e02e40e	0.12782308
29	0xbd7612ee	-0.060076647
30	0x3d53d833	0.051719856
31	0xbe37729b	-0.17914812
32	0xbd7666d3	-0.060156655
33	0xbd2b8a09	-0.041879687
34	0x3e1b9c1b	0.15196268
35	0x3d3e3867	0.04644051
36	0xbc9794c9	-0.018503563
37	0xbcb736f6	-0.022365075
38	0xbdb73ea1	-0.089474924
39	0xbe34a8dc	-0.1764254
40	0x3e1f5903	0.15561299
41	0xbdb582a1	-0.08862806
42	0x3d32f9ee	0.043695383
43	0xbde927e6	-0.11384563
44	0xbedcc076	-0.43115586
45	0xbe54cbd7	-0.20780884
46	0xbec3bbf9	-0.3822935
47	0xbca8f4ef	-0.020624606
48	0x3d8923ad	0.06696258
49	0xbe196690	-0.1498053
50	0x3eda0616	0.42582768
51	0xbc88f0a6	-0.016716313
52	0xbdf1ce08	-0.118068755
53	0x3cbc0244	0.0229503
54	0xbcee82c4	-0.029115088
55	0x3e429a09	0.19004072
56	0x3c9ed392	0.019387994
57	0x3cacb23a	0.021081079
58	0x3e2fbe20	0.1716237
59	0xbe01b0de	-0.12665126
60	0x3c541218	0.012943767
61	0xbdb077ad	-0.08616576
62	0xbe2106da	-0.1572527
63	0xbdf49373	-0.11942186
64	0x3df1829e	0.117924914
65	0xbdd50cf2	-0.1040286
66	0xbd8f2d83	-0.069911025
67	0x3de0db18	0.10979289
68	0x3cd78d65	0.02631254
69	0xbde88391	-0.11353219
70	0x3d78f6d2	0.06078226
71	0x3e2cc6aa	0.1687266
72	0x3d223b42	0.039607294
73	0xbd2b6e8d	-0.041853476
74	0xbde8e33a	-0.11371465
75	0xbe8ef3f6	-0.27920502
76	0xbd16d81a	-0.036827184
77	0xbe4fe003	-0.20300297
78	0x3e1fa75b	0.15591185
79	0xbd95262a	-0.0728267
80	0xbc195387	-0.009358293
81	0xbc2365e3	-0.009973022
82	0x3e5e7d87	0.21727572
83	0xbe29be6a	-0.16576543
84	0xbd8704ae	-0.065926895
85	0xbcf71dec	-0.030165635
86	0xbe232857	-0.15933357
87	0xbd90338d	-0.070410825
88	0xbd3ffcba	-0.04687188
89	0x3e459f8f	0.19299148
90	0xbe858692	-0.26079232
91	0xbe19172f	-0.1495025
92	0x3e387492	0.18013218
93	0xbe4a33b6	-0.19746289
94	0x3cbf6eec	0.023368321
95	0xbe051148	-0.12994874
96	0xbe082138	-0.13293922
97	0xbddbfa8a	-0.10741146
98	0x3a7e8fbf	0.0009710751
99	0xbe14a6c6	-0.14516744
100	0x3d364597	0.04449996
101	0xbe108daf	-0.14116548
102	0x3d540bc4	0.051769033
103	0x3d9e38d5	0.077256836
104	0xbd0efa85	-0.034906883
105	0xbc9feb2f	-0.019521324
106	0x3c599375	0.013279785
107	0xbe578ef5	-0.21050628
108	0xbe346510	-0.17616677
109	0xbd1f9b81	-0.03896666
110	0x3e9a3974	0.30121958
111	0x3e0dcef6	0.1384848
112	0x3c71d0f5	0.014759292
113	0xbe85d2fe	-0.26137537
114	0xbd8f864b	-0.07008036
115	0xbe040c55	-0.1289533
116	0xbe5638f2	-0.2092016
117	0x3cd4b652	0.025965843
118	0x3c98c3d4	0.018648066
119	0xbe80b413	-0.25137386
120	0xbc9084a5	-0.017641375
121	0xbc189e5d	-0.0093151005
122	0xbdd75d5d	-0.105158545
123	0x3e13ea15	0.14444764
124	0xbe2ea1fa	-0.17053977
125	0xbcf574bd	-0.029962892
126	0xbe2b08a9	-0.16702522
127	0xbe8c0f9d	-0.27355662
128	0x3d9eaca6	0.07747774
129	0x3dfe549b	0.12418481
130	0x3d33cd03	0.043896686
131	0xbe6c981f	-0.23104905
132	0x3d5c10bb	0.053726893
133	0xbcf534e2	-0.029932443
134	0x3e0cf645	0.1376582
135	0xbe1f5f46	-0.15563688
136	0x3e2d2b06	0.16910943
137	0xbd4238e6	-0.047417544
138	0x3dbc4fac	0.09194884
139	0x3dfa5763	0.12223699
140	0x3e52d3b1	0.20588566
141	0xbd79f2b6	-0.061022483
142	0x3d9574f4	0.07297698
143	0xbe930308	-0.2871325
144	0xbe8175d9	-0.25285223
145	0xbe0a4e67	-0.1350647
146	0xbc8fb2b8	-0.017541274
147	0xbce27d4d	-0.027647639
148	0x3db5a300	0.088689804
149	0xbdc31490	-0.09525406
150	0x3b9fd3d3	0.0048775463
151	0xbb5126cf	-0.0031914
152	0xbcd19490	-0.025583535
153	0xbe8791a6	-0.26478308
154	0x3e30f030	0.17279124
155	0x3d0fc26d	0.03509753
156	0xbe3c94b5	-0.18416102
157	0xbe1b6a1b	-0.15177195
158	0x3d81e9bb	0.06343409
159	0xbe790506	-0.24318323
160	0xbdbcf819	-0.092270084
161	0x3d9dd9b6	0.07707541
162	0xbe1a4ae3	-0.1506763
163	0xbda14bcf	-0.078757875
164	0xbdd0559e	-0.1017258
165	0xbea62db4	-0.32456744
166	0xbe1d969b	-0.15389483
167	0xbe314b61	-0.17313911
168	0xbd39a441	-0.04532266
169	0x3d5cab53	0.053874325
170	0xbda717a8	-0.08158809
171	0x3e1e0e2c	0.15435094
172	0x3d971c97	0.073785
173	0x3d99c902	0.07509042
174	0x3e5bb3c2	0.21455291
175	0x3ccdcf1e	0.025123175
176	0x3df6cd37	0.120508604
177	0x3e81bd73	0.2533985
178	0x3e4c3449	0.1994182
179	0xbd9f3dd4	-0.07775465
180	0x3daaceae	0.08340202
181	0xbead457b	-0.33842072
182	0x3e289526	0.16463146
183	0x3ba660f9	0.005077478
184	0x3e05fa64	0.13083798
185	0x3da703ba	0.08155008
186	0x3da02e9d	0.07821391
187	0xbe3e97d6	-0.18612608
188	0xbd8ff68f	-0.07029449
189	0xbdc761f0	-0.09735477
190	0x3e378c7c	0.17924684
191	0x3cebea97	0.028798385
192	0xbe58867e	-0.21145055
193	0xbdae2ccf	-0.0850464
194	0xbcdfbaf3	-0.027310824
195	0xbde7c947	-0.113176875
196	0x3b8543e5	0.0040669315
197	0x3e32b6e8	0.17452586
198	0x3d06b40a	0.032886542
199	0xbd919076	-0.07107632
200	0x3c9662e5	0.018357703
201	0xbc90c4e3	-0.017672008
202	0xbd80038f	-0.06250679
203	0xbb4123b7	-0.002947075
204	0xbcf40acf	-0.02979031
205	0xbdc2770f	-0.09495365
206	0xbdcb2d99	-0.099208064
207	0xbe17377e	-0.14767262
208	0xbda78d74	-0.08181277
209	0xbe37adcc	-0.17937392
210	0xbde1bf9b	-0.11022874
211	0xbd5b1f2a	-0.053496517
212	0xbdc75136	-0.09732287
213	0xbe2ff27e	-0.17182347
214	0xbc950a73	-0.01819346
215	0xbdd7fb1a	-0.10545941
216	0x3dc1dcd7	0.0946595
217	0xbda9305c	-0.08261177
218	0xbce371e8	-0.027764276
219	0xbe01af5f	-0.12664555
220	0xbe56f927	-0.20993482
221	0xbe8e479e	-0.27789015
222	0xbd9cf056	-0.07663028
223	0xbda5ac0a	-0.080894545
224	0xbcba18d6	-0.02271692
225	0x3d2185db	0.039434295
226	0xbd6bb3b2	-0.057544418
227	0xbd14b276	-0.036303006
228	0xbc88cbaf	-0.016698686
229	0x3d1b1132	0.037858196
230	0x3cee2847	0.02907194
231	0x3dead099	0.11465568
232	0x3d481517	0.048848238
233	0x3dbfcb81	0.09364987
234	0x3d174677	0.036932435
235	0xbdc95c07	-0.09832006
236	0x3dafe285	0.08588127
237	0xbdc896e4	-0.09794405
238	0x3d6763d1	0.056491677
239	0x3db79329	0.089636154
240	0x3db8766c	0.09006962
241	0xbc9778a3	-0.018490141
242	0xbe0d62ec	-0.13807267
243	0xbe13e8ab	-0.14444225
244	0xbcc70023	-0.024292057
245	0xbe67c084	-0.22632033
246	0xbcec2d0f	-0.02883008
247	0xbdacca1c	-0.08436987
248	0xbd1f01e1	-0.03882015
249	0xbe1a6c19	-0.15080298
250	0x3e43b69c	0.19112629
251	0xbd3b4cab	-0.045727413
252	0x3e275cb1	0.16343953
253	0x3de5c248	0.11218697
254	0xbdd4073c	-0.10352942
255	0x3d6f89e7	0.058481123

shared2.bias f4 [200]
0	0x3d97c29a	0.07410164
1	0xbeaf3739	-0.3422182
2	0xbee92e6d	-0.45543233
3	0xbe8703cc	-0.26370084
4	0xbed2f582	-0.41202933
5	0xbec7f622	-0.39054972
6	0xbeba1443	-0.36343583
7	0x3e095bfb	0.13413994
8	0xbf1d2604	-0.6138613
9	0xbd86999f	-0.0657227
10	0x3d550cbe	0.052014105
11	0xbe1cd629	-0.1531607
12	0xbec20c5d	-0.37900057
13	0xbe19f62d	-0.15035315
14	0xbe89cb80	-0.2691307
15	0xbf12a049	-0.57275826
16	0x3d9accfa	0.075586274
17	0xbd9f4bc5	-0.07778124
18	0xbe5cafd3	-0.21551447
19	0x3d7356f8	0.05940911
20	0xbf041897	-0.5160002
21	0xbba5b2a6	-0.005056697
22	0xbeea122c	-0.4571699
23	0x3cb9bacb	0.022672078
24	0xbe97211f	-0.29517457
25	0xbef86b27	-0.4851925
26	0xbea70862	-0.32623583
27	0xbee49081	-0.44641498
28	0xbf01d9bb	-0.50722855
29	0xbe8de872	-0.27716404
30	0xbf15f362	-0.585745
31	0xbf345412	-0.7044078
32	0xbed1a3c6	-0.40945262
33	0xbec815eb	-0.39079222
34	0xbec54de9	-0.38536003
35	0xbed1d0ec	-0.40979707
36	0xbf1813f8	-0.5940547
37	0x3d1b9bec	0.037990496
38	0xbee85abc	-0.45381725
39	0xbec4c0b9	-0.38428286
40	0xbe93ba1e	-0.28852934
41	0xbf17e2d6	-0.593305
42	0xbdf26c0d	-0.11837015
43	0xbcbbb39d	-0.022912795
44	0xbeba796f	-0.3642077
45	0x3d584789	0.052802596
46	0xbeb4364a	-0.3519767
47	0xbece4f3e	-0.40294832
48	0xbd259f26	-0.04043498
49	0xbeabfae6	-0.33589858
50	0xbeb8efd8	-0.36120486
51	0xbecd3084	-0.40076077
52	0xbe64d462	-0.22346643
53	0xbece1835	-0.40252843
54	0x3e162db7	0.14665876
55	0xbc806ea7	-0.015677763
56	0xbee1b8a3	-0.4408618
57	0xbec266dc	-0.379691
58	0xbe032175	-0.12805732
59	0xbea35b2c	-0.31905496
60	0xbe468e21	-0.19390155
61	0xbea34d69	-0.31894997
62	0xbed042e1	-0.40676025
63	0xbe4b0b2b	-0.19828479
64	0xbe4c6ef6	-0.19964203
65	0xbf0f16fa	-0.55894434
66	0x3dca34e5	0.0987337
67	0xbf30b1d9	-0.69021374
68	0xbeb80cbc	-0.35947216
69	0xbf028a9b	-0.50992745
70	0xbd6ef55e	-0.05833947
71	0xbef54000	-0.4790039
72	0xbe9f0bc9	-0.3106368
73	0xbed3934b	-0.41323313
74	0xbeba9557	-0.36442062
75	0xbf2aec43	-0.66766757
76	0xbeffdeb1	-0.49974588
77	0xbe3dcecd	-0.1853592
78	0xbeb1981a	-0.34686357
79	0xbe81b1e2	-0.25331026
80	0xbe9aed4d	-0.3025917
81	0xbd360cc0	-0.044445753
82	0x3da23900	0.07921028
83	0xbedf9f82	-0.43676382
84	0x3dafbb8c	0.085806936
85	0x3e08ba11	0.13352229
86	0xbef68625	-0.4814922
87	0xbee74747	-0.45171568
88	0x3e814570	0.2524829
89	0xbec30d13	-0.38095912
90	0xbf029ce6	-0.5102066
91	0xbcedfa59	-0.02905004
92	0xbe0e086b	-0.13870399
93	0xbe429e0a	-0.190056
94	0xbe817fbe	-0.25292772
95	0xbf0f30b6	-0.559337
96	0xbdf6a0a1	-0.12042356
97	0xbe81f57f	-0.2538261
98	0xbf02f3a8	-0.5115304
99	0xbdb6f31e	-0.0893309
100	0xbf1b0048	-0.60547304
101	0xbec78b65	-0.38973537
102	0xbe8a31da	-0.2699116
103	0xbefcfe15	-0.494126
104	0x3e252650	0.16127896
105	0x3dd8d28d	0.105870344
106	0xbecd77ec	-0.40130556
107	0xbeb0dca8	-0.34543347
108	0xbe6e1557	-0.23250328
109	0xbe759827	-0.23983823
110	0xbe41bccc	-0.18919677
111	0xbede9419	-0.43472365
112	0xbe8c9c0a	-0.27462798
113	0xbeec1290	-0.46107912
114	0xbf0bd540	-0.5462227
115	0xbea4bef7	-0.32176945
116	0x3dd5c3a1	0.10437704
117	0xbeaa8444	-0.33304036
118	0xbf0870a7	-0.53296894
119	0xbedeb9fc	-0.4350127
120	0xbe6edf90	-0.2332747
121	0xbed3d3c2	-0.41372496
122	0xbe9592c7	-0.29213545
123	0x3d9d2239	0.07672543
124	0xbeeb02df	-0.45900628
125	0xbe9745bc	-0.2954539
126	0xbeb1a69c	-0.34697425
127	0x3e2bf68e	0.16793272
128	0xbeb61ce6	-0.35568923
129	0xbc39574a	-0.011312315
130	0xbed1b60e	-0.4095921
131	0xbf166271	-0.5874396
132	0xbe846078	-0.2585485
133	0xbe827b50	-0.25484705
134	0xbec7b5df	-0.39005944
135	0xbeabeebb	-0.33580574
136	0xbef8dbea	-0.4860528
137	0xbeac1b8d	-0.3361477
138	0xbf149f42	-0.5805551
139	0xbeb5910b	-0.35462222
140	0xbee217f7	-0.4415891
141	0xbee249c7	-0.44196913
142	0x3e8614cf	0.2618775
143	0xbef42cac	-0.47690332
144	0xbd3df8fa	-0.04638002
145	0xbdea4061	-0.114380606
146	0xbf1a4138	-0.60255766
147	0xbf07351b	-0.5281541
148	0x3e40c67f	0.1882572
149	0xbe5bc47e	-0.21461675
150	0xbcdc1118	-0.02686362
151	0xbea64472	-0.32474095
152	0xbcad1939	-0.021130191
153	0xbf1d828d	-0.6152733
154	0xba9ad655	-0.0011813144
155	0xbe8f56a6	-0.27995795
156	0xbeafd24d	-0.34340134
157	0xbd2deea8	-0.04246393
158	0xbed480a0	-0.41504383
159	0xbd18288b	-0.03714804
160	0xbf0e8c5b	-0.55682915
161	0xbf0e534f	-0.5559587
162	0xbe9d8d4a	-0.30771858
163	0x3bd3505c	0.0064487886
164	0xbeb42921	-0.3518763
165	0xbeb48df2	-0.35264546
166	0xbd15e28a	-0.036592998
167	0xbe8dd09a	-0.27698213
168	0xbf057b4a	-0.5214125
169	0xbef7d7a4	-0.48406708
170	0xbf0a99c7	-0.54140896
171	0xbef23fb9	-0.47314242
172	0x3e057efb	0.1303672
173	0xbee16516	-0.44022435
174	0xbef528e0	-0.47882748
175	0xbec88580	-0.39164352
176	0xbec52197	-0.3850219
177	0xbe9b0819	-0.30279616
178	0xbf1d1f68	-0.6137605
179	0xbe5439d1	-0.2072518
180	0xbebaaf65	-0.3646194
181	0xbe235ca6	-0.15953311
182	0xbf022a57	-0.50845855
183	0x3dbae5e3	0.09125879
184	0xbe8935ee	-0.26798958
185	0xbe8e9ac5	-0.27852455
186	0xbe25c3b0	-0.1618793
187	0xbeff9d7b	-0.49924836
188	0xbec2e6d2	-0.38066727
189	0xbee16616	-0.44023198
190	0xbefb2980	-0.490551
191	0xbe6406a2	-0.22268155
192	0xbeb8b8e8	-0.36078572
193	0xbf2178cd	-0.6307495
194	0xbf035a35	-0.5130952
195	0xbebe7e2a	-0.3720563
196	0xbee6ffef	-0.45117137
197	0xbec71b69	-0.388881
198	0x3d57a8b2	0.052651115
199	0xbea3cbef	-0.31991526

hidden1_Y1.weight f4 [200, 200]
0	0x3ca14615	0.019686738
1	0xbdc9c817	-0.09852617
2	0x3d80f4f7	0.06296723
3	0xbdca182c	-0.09867892
4	0xbe8c3106	-0.27381152
5	0x3c64a319	0.013954901
6	0xbdedb893	-0.1160747
7	0xbeffc4ef	-0.49954936
8	0xbc6ab984	-0.014326457
9	0x3ca7c1ed	0.020478213
10	0x3da6af09	0.08138854
11	0x3cccc11f	0.024994431
12	0x3dca3cc3	0.09874871
13	0xbdf7511d	-0.12076018
14	0x3e1c43c4	0.15260226
15	0xbd598504	-0.05310537
16	0x3c833134	0.016014673
17	0x3e5b8673	0.21438007
18	0x3ab2b978	0.0013635596
19	0xbe9603dc	-0.2929982
20	0xbd6db418	-0.05803308
21	0x3f06eaca	0.5270201
22	0xba79a3a3	-0.000952298
23	0x3c8d675d	0.017261202
24	0x3d5e0fc0	0.05421424
25	0xbe169a61	-0.14707328
26	0x3d062e5f	0.032759067
27	0xbd9fc042	-0.07800342
28	0x3e254550	0.16139722
29	0xbda62e84	-0.08114341
30	0x3caecc02	0.021337513
31	0x3ef7f2fe	0.48427576
32	0x3c503b0a	0.0127093885
33	0xbe09ddfe	-0.1346359
34	0x3e7856f2	0.24251917
35	0x3e101aab	0.14072673
36	0xbd82cbd8	-0.06386536
37	0xbce9a2f7	-0.02852009
38	0x3d9448ee	0.07240473
39	0x3d589bf8	0.05288312
40	0xbcf3e440	-0.029771924
41	0xbd72b21a	-0.059251882
42	0xbe2b9f0e	-0.16759893
43	0x3e00bfa7	0.1257311
44	0xbd8180cd	-0.06323395
45	0xbd4ef413	-0.050525736
46	0x3dc17838	0.09446758
47	0xbd5de6bd	-0.054175127
48	0x3d9f176f	0.077681415
49	0x3c658042	0.01400763
50	0x39ba64f6	0.00035551906
51	0x3cdb702b	0.026786884
52	0x3e9cb822	0.30609232
53	0xbd3ae868	-0.045631796
54	0xbe075afe	-0.13218305
55	0x3e46b294	0.1940406
56	0x3c0bd524	0.008534703
57	0xbdcbfcda	-0.09960337
58	0x3ec72e5f	0.38902566
59	0x3d9a1376	0.07523243
60	0xbe12f190	-0.14349961
61	0x3dc86890	0.09785569
62	0x3b05beb8	0.0020407867
63	0x3de5882f	0.112076156
64	0x3dc93f2a	0.09826501
65	0xbd70ae2c	-0.058759853
66	0xbcf54546	-0.029940259
67	0xbe411995	-0.18857415
68	0x3e47b44c	0.19502372
69	0x3c0ce6b1	0.008599923
70	0x3eb29646	0.34880275
71	0x3c6a26d4	0.014291484
72	0x3db002c5	0.08594278
73	0xbb66a73d	-0.0035194897
74	0xbe14b9eb	-0.14524047
75	0xbd287533	-0.041127395
76	0xbdbadb11	-0.09123815
77	0xbd706a81	-0.05869532
78	0xbdc78b94	-0.09743419
79	0xbe9e86b0	-0.30962133
80	0x3e0229f1	0.12711312
81	0x3e03b044	0.12860209
82	0x3e44ff29	0.19237961
83	0xbe35ccf2	-0.17753962
84	0x3cc4d794	0.024028577
85	0xbe594ace	-0.21219942
86	0x3d0f4591	0.034978453
87	0xbd8068c1	-0.0626998
88	0x3e99973c	0.29998195
89	0xbd98e35c	-0.0746524
90	0xbd9e109a	-0.0771801
91	0x3e1ce1a4	0.1532045
92	0x3dc65e3e	0.09685944
93	0x3e4a6f8b	0.19769113
94	0xbe8fecca	-0.28110343
95	0x3ec84d27	0.39121363
96	0xbcc36499	-0.02385168
97	0xbc158a1f	-0.009127169
98	0xbc3d50a7	-0.011554874
99	0xbe910bb3	-0.28329238
100	0xbe5c026f	-0.21485303
101	0x3d373b11	0.044734064
102	0x3e2a560b	0.16634385
103	0x3cf4bb0c	0.029874347
104	0x3e138007	0.14404307
105	0xbd5c7bbc	-0.05382894
106	0xbe5e6fb6	-0.21722302
107	0xbd8590a0	-0.06521726
108	0x3d1d4e7f	0.038404938
109	0x3db7962e	0.089641914
110	0xbd8e0c3c	-0.06935927
111	0xbe38a6f0	-0.18032432
112	0x3ea4ab71	0.3216205
113	0x3d0bc398	0.03412208
114	0x3e858551	0.26078275
115	0x3e049a0a	0.12949386
116	0x3d2cbf91	0.04217488
117	0xbe03384e	-0.12814447
118	0xbe38daca	-0.18052211
119	0xbe158b01	-0.14603807
120	0x3dda469f	0.10658001
121	0xbe11ba38	-0.14231193
122	0xbdbda5fe	-0.09260176
123	0xbd264240	-0.040590525
124	0xbe7474ba	-0.23872653
125	0x3d2b728e	0.041857295
126	0xbde7fa5a	-0.11327048
127	0x3ed8a879	0.42316034
128	0x3d823336	0.06357424
129	0xbd2a65ab	-0.041600864
130	0xb8d4f2fc	-0.00010154207
131	0xbd117daf	-0.03552025
132	0x3dd3c91a	0.103410915
133	0xbca20aaf	-0.019780485
134	0xbe1856b2	-0.14876822
135	0x3dbcb868	0.0921486
136	0x3e1fdb26	0.15610942
137	0xbea0235d	-0.3127698
138	0xbe3649db	-0.17801611
139	0x3e3cd897	0.18441997
140	0xbde9e149	-0.11419923
141	0xbdf67a83	-0.12035086
142	0xbeb3b4d9	-0.35098913
143	0xbd2569fa	-0.04038427
144	0x3d20ac3f	0.039226767
145	0x3cf06b2a	0.029347975
146	0xbe356252	-0.17713287
147	0x3df947e5	0.12171916
148	0x3e1649c6	0.1467658
149	0xbcf7b392	-0.030236993
150	0x3da3e6a2	0.08002974
151	0x3d5483ed	0.051883627
152	0x3e43c7c3	0.19119172
153	0x3cdaaa13	0.026692426
154	0xbd4cfc93	-0.05004556
155	0x3d3b2814	0.04569252
156	0x3d8b1af7	0.067922525
157	0x3df1a505	0.11799053
158	0xbe26c77c	-0.16287035
159	0x3e9a2c07	0.30111715
160	0xbe3b9bbc	-0.18321127
161	0x3d0e9dbe	0.034818403
162	0xbd9660c7	-0.073426776
163	0xbe21159f	-0.15730904
164	0xbe414508	-0.1887399
165	0xbe027742	-0.12740806
166	0xbee1eb3f	-0.4412479
167	0xbb3d3a8d	-0.002887401
168	0x3d0a6764	0.033790007
169	0x3e937ffd	0.28808585
170	0x3cb6be1e	0.022307452
171	0xbd8d86ab	-0.069104515
172	0x3e2f4b1e	0.17118499
173	0xbd90b5c8	-0.07065922
174	0x3c64312f	0.013927742
175	0x3d85fa3c	0.06541869
176	0x3e5d0831	0.21585156
177	0x3e200f54	0.15630847
178	0x3e327961	0.17429115
179	0xbe527320	-0.20551729
180	0xbe15793d	-0.1459703
181	0xbdabab4b	-0.08382281
182	0x3e1c03b5	0.15235789
183	0x3e53f2c4	0.20698076
184	0xbc5cb635	-0.013471176
185	0xbd8fae06	-0.07015614
186	0x3e2721e9	0.1632153
187	0xbda7b033	-0.08187904
188	0xbe87ed06	-0.26548022
189	0x3d34364f	0.043997105
190	0xbd6abe36	-0.057310306
191	0x3eb8b127	0.36072657
192	0x3cf0d169	0.02939673
193	0x3c2d3912	0.010572689
194	0xbe7986b6	-0.24367794
195	0xbdb4d1c6	-0.088290736
196	0xbe1e701e	-0.15472457
197	0xbd904dad	-0.070460655
198	0x3d3d9936	0.04628869
199	0x3c837172	0.016045306
200	0xbd55a0fa	-0.052155472
201	0x3d14d91a	0.036339857
202	0xbcce86cb	-0.025210759
203	0x3daf7dc6	0.08568911
204	0x3bc5a16b	0.0060312054
205	0xbe396bcc	-0.18107527
206	0xbe086d38	-0.13322914
207	0x3babf145	0.0052472674
208	0xbc26eb01	-0.010187865
209	0xbdd9a5ec	-0.1062735
210	0xbd8fe019	-0.07025165
211	0x3dcf916d	0.1013516
212	0x3db1735a	0.0866458
213	0xbe09b217	-0.13446842
214	0xbe04da11	-0.1297381
215	0xbe5bff78	-0.21484172
216	0xbe41cf28	-0.1892668
217	0xbe87926e	-0.26478904
218	0xbda34f80	-0.07974148
219	0xbde69613	-0.11259093
220	0xbe241100	-0.1602211
221	0xbe55aa5c	-0.20865768
222	0xbd3fc045	-0.046814222
223	0xbc962463	-0.018327897
224	0xbdb51be6	-0.08843212
225	0xbcd6f378	-0.026239142
226	0xbd4c9938	-0.04995081
227	0x3d445c0b	0.04793934
228	0x3ddc3d6e	0.10753904
229	0xbe37d639	-0.17952813
230	0xbcc5c31a	-0.024140883
231	0xbdc673ae	-0.09690033
232	0xbdf9e577	-0.1220197
233	0xbc3aae6a	-0.011394123
234	0x3db09112	0.0862142
235	0x3da87a98	0.08226508
236	0xbd55d307	-0.052203204
237	0x3b875d04	0.0041309614
238	0xbdeee08b	-0.11663922
239	0xbbfcd0c4	-0.0077153165
240	0xbd53f0a3	-0.05174316
241	0x3cb79d6e	0.022413936
242	0xbd9c2438	-0.07624096
243	0x3e39c3b5	0.18141063
244	0x3d26e610	0.04074675
245	0x3d8ded73	0.069300555
246	0x3e5f38aa	0.2179896
247	0x3e4249c5	0.18973453
248	0x3c48d644	0.012258116
249	0x3e39fab7	0.18162046
250	0x3dc8497c	0.09779641
251	0x3e2b8fab	0.16754024
252	0xbd6ce621	-0.057836656
253	0x3e19a2ee	0.15003559
254	0xbd29f600	-0.04149437
255	0x3e0e032e	0.138684

hidden1_Y1.bias f4 [200]
0	0xbe0fdd5c	-0.14049286
1	0xbe747105	-0.23871239
2	0xbe82dfcb	-0.25561365
3	0x3dd1e108	0.102479994
4	0xbec33304	-0.3812486
5	0xbe121fb8	-0.14269912
6	0xbc57947e	-0.013157962
7	0xbd5e9416	-0.054340445
8	0xbe03d727	-0.12875043
9	0xbdbc3989	-0.091906615
10	0xbe047957	-0.12936912
11	0xbe1aa2db	-0.15101187
12	0xbe48ed1f	-0.19621705
13	0xbe44946f	-0.19197248
14	0xbe524fa1	-0.20538189
15	0xbe88b72c	-0.2670225
16	0xbddc1ca5	-0.10747651
17	0xbc92e791	-0.017932685
18	0xbe311f7c	-0.17297167
19	0x3da79b82	0.08183958
20	0xbe508895	-0.20364602
21	0xbd8e6e91	-0.069546826
22	0xbdac78c2	-0.0842147
23	0x3e938074	0.2880894
24	0xbea8c5b3	-0.32963333
25	0x3e343ea1	0.17602016
26	0xbe8d03e9	-0.27542046
27	0xbe549fe2	-0.20764115
28	0xbe95a1a2	-0.2922488
29	0xbe86593c	-0.26239955
30	0xbea07897	-0.31342003
31	0xbe6d9f50	-0.23205304
32	0x3e87eec3	0.26549348
33	0x3d15fa18	0.03661546
34	0xbe276921	-0.16348697
35	0xbe6dd0fc	-0.23224252
36	0x3dd07494	0.101784855
37	0xbe128dc5	-0.14311893
38	0xbe79e142	-0.24402335
39	0xbe952adb	-0.2913426
40	0x3d998a5e	0.074970946
41	0xbeaf81d4	-0.34278738
42	0xbc5c66ac	-0.013452213
43	0xbe195b7b	-0.14976303
44	0x3d4a1ea0	0.049345613
45	0x3ce3d8f2	0.027813409
46	0xbedc08f7	-0.4297559
47	0xbd1c3ff6	-0.038146935
48	0xbdf9233b	-0.12164923
49	0x3e5bd3bb	0.21467488
50	0xbd5ae21d	-0.053438295
51	0x3cc38a57	0.023869677
52	0xbea02dfc	-0.31285083
53	0xbe37ce05	-0.17949684
54	0xbe4ad57c	-0.19808
55	0xbe60160d	-0.21883412
56	0xbea07986	-0.31342715
57	0xbe8b51c1	-0.2721081
58	0xbdf305cc	-0.1186634
59	0xbe85cf9a	-0.2613495
60	0xbea0e48a	-0.3142436
61	0x3e281ace	0.16416475
62	0xbda92695	-0.08259312
63	0xbe948ec4	-0.29015172
64	0xbd5469cf	-0.05185872
65	0x3d87dbb5	0.06633703
66	0xbe79e3c7	-0.24403296
67	0xbe5ecc33	-0.21757583
68	0xbe37ab46	-0.1793643
69	0x3e57bc2a	0.21067873
70	0xbe64c5e7	-0.22341119
71	0xbe6f60c8	-0.23376763
72	0xbea8d8b5	-0.32977834
73	0xbe6276d2	-0.22115639
74	0xbd9b6cc9	-0.075891085
75	0xbe7149b8	-0.23563278
76	0xbe80c117	-0.25147316
77	0xbe5dba22	-0.21653035
78	0xbb3ccb4b	-0.0028807695
79	0xbe35433c	-0.17701429
80	0xbe87a74b	-0.26494822
81	0xbd9c8eb6	-0.076444075
82	0x3e30e90e	0.17276403
83	0x3d9ab369	0.07553751
84	0xbe1c8c81	-0.15287973
85	0xbe482e86	-0.19548997
86	0xbea9148a	-0.33023483
87	0xbdaee2aa	-0.085393265
88	0xbe1541d4	-0.14575893
89	0x3aa55e70	0.0012616646
90	0xbe9108f1	-0.28327134
91	0xbe92743c	-0.28604305
92	0x3e4469d3	0.19180994
93	0xbebc31e5	-0.36756817
94	0x3d9b338d	0.07578192
95	0x3e078a92	0.13236454
96	0xbe61650e	-0.22011206
97	0xbe3f349e	-0.18672416
98	0x39916c63	0.0002773731
99	0xbde0ccf4	-0.10976592
100	0x3e62630d	0.22108097
101	0x3e252224	0.16126305
102	0xbe3df598	-0.18550718
103	0xbe95123e	-0.2911548
104	0x3c0ceb9a	0.008601094
105	0xbde54cdd	-0.11196301
106	0xbda743f3	-0.08167257
107	0x3cc82614	0.02443222
108	0x3ce86050	0.028366238
109	0xbe9b4447	-0.3032553
110	0xbeb55a1b	-0.35420308
111	0xbe0f2c7b	-0.13981812
112	0xbe8fc0c0	-0.28076744
113	0xbe51286c	-0.20425576
114	0xbe8e9011	-0.2784429
115	0x3e6b79cf	0.22995685
116	0x3e251ec1	0.16125013
117	0xbe6fcfe1	-0.23419143
118	0xbe9672f3	-0.29384574
119	0xbe88267f	-0.2659187
120	0xbec1cabe	-0.37849993
121	0xbe7dd74d	-0.24789162
122	0xbe378ddb	-0.17925207
123	0xbd877ba8	-0.066153824
124	0x3e79e857	0.24405037
125	0x3e53e413	0.20692472
126	0xbe805d71	-0.2507129
127	0xbe47c5a5	-0.19508989
128	0xbed2d6dc	-0.4117955
129	0xbe796cb1	-0.24357869
130	0xbdb04b37	-0.08608096
131	0xbe8a13e4	-0.269683
132	0xbea530af	-0.32263705
133	0xbc380508	-0.011231668
134	0xbebf651a	-0.37381822
135	0xbe90da1c	-0.28291404
136	0xbead88f4	-0.3389355
137	0xbe23b191	-0.15985705
138	0xbdc2687b	-0.09492584
139	0xbca14ced	-0.019690001
140	0xbd126816	-0.035743795
141	0xbe3c80e9	-0.1840855
142	0xbe446bb1	-0.19181706
143	0xbe29ce04	-0.16582495
144	0xbdc0ccc8	-0.09414059
145	0xbde9c73a	-0.114149526
146	0xbc1273eb	-0.00893877
147	0xbeab07e0	-0.33404446
148	0xbe8f6fd0	-0.28014994
149	0xbe963d46	-0.29343623
150	0xbe90051d	-0.281289
151	0x3ddb701a	0.10714741
152	0x3e4edd1a	0.20201531
153	0xbeae4312	-0.34035546
154	0xbe2f43d3	-0.17115717
155	0xbeb33542	-0.3500157
156	0x3dcd33a5	0.10019616
157	0xbeb1a19d	-0.34693614
158	0xbe2018e4	-0.15634495
159	0xbe8b4618	-0.27201915
160	0xbe60af19	-0.21941794
161	0xbe328063	-0.17431788
162	0xbe0a9cea	-0.1353642
163	0xbe9a7c16	-0.30172795
164	0xbe86a049	-0.26294163
165	0xbeb43721	-0.3519831
166	0xbe8b77b5	-0.27239767
167	0xbdc3b949	-0.09556825
168	0xbe635e6e	-0.22203991
169	0xbeb7e726	-0.3591854
170	0x3e6fdc17	0.23423801
171	0xbe1cc594	-0.15309745
172	0xbd1576c6	-0.036490224
173	0xbe44b22c	-0.19208592
174	0xbe1544c1	-0.14577009
175	0xbec46a5e	-0.38362402
176	0x3e414b42	0.18876365
177	0xbe2be0d6	-0.16784987
178	0xbe8ce75e	-0.2752027
179	0xbe84be60	-0.25926495
180	0xbe758539	-0.23976602
181	0xbe06fc59	-0.131822
182	0xbe4ff65e	-0.20308825
183	0xbdca9236	-0.09891169
184	0xbca0f529	-0.019648151
185	0xbdb89af0	-0.09013927
186	0xbdce10db	-0.10061809
187	0xbe379a30	-0.17929912
188	0x3d9446fa	0.072401
189	0xbe893a13	-0.2680212
190	0xbe7ba13d	-0.24573226
191	0x3e1c3e90	0.1525824
192	0xbdcd7572	-0.100321665
193	0xbe082c0a	-0.1329805
194	0xbebc36c1	-0.36760524
195	0xbe0f30f1	-0.13983513
196	0xbe9311dd	-0.28724566
197	0xbe7988ac	-0.24368542
198	0xbb7bb50a	-0.0038407468
199	0xbe874794	-0.26421797

hidden2_Y1.weight f4 [200, 200]
0	0x3b2b3d4f	0.0026129072
1	0xbd52324b	-0.051317494
2	0x3da8ff91	0.082518704
3	0xbd86ebbb	-0.06587931
4	0xbcc4453d	-0.023958797
5	0xbbd2b50b	-0.0064302734
6	0xbdd63523	-0.10459354
7	0xbcdf312e	-0.02724513
8	0x3db1d6d6	0.08683555
9	0x3e1b40bd	0.15161414
10	0xbe00fdc0	-0.12596798
11	0xbdbfe17f	-0.09369182
12	0xbc71ced3	-0.014758783
13	0x3deaff75	0.11474506
14	0xbe12d8dd	-0.1434054
15	0x3bf38b87	0.0074324044
16	0x3bd80fc4	0.0065936763
17	0xbd9dcdf3	-0.07705297
18	0x3e26e0ab	0.16296642
19	0xbe79ced3	-0.24395303
20	0xbd403d65	-0.04693355
21	0xbca46eeb	-0.020072421
22	0xbca3f332	-0.020013425
23	0xbea4df93	-0.32201824
24	0x3d12d50c	0.03584771
25	0xbe4cb931	-0.1999252
26	0xbca8a73c	-0.020587556
27	0xbe7c9c0b	-0.246689
28	0x3c9069f5	0.01762865
29	0x3ddd5385	0.10806946
30	0xbd43f578	-0.04784152
31	0x3e013edc	0.12621635
32	0xbdc413fb	-0.095741235
33	0xbe311f75	-0.17297156
34	0xbdb0db7c	-0.08635613
35	0x3b87da93	0.004145929
36	0xbd39055c	-0.045171127
37	0xbe23476d	-0.15945216
38	0x3d07c94d	0.03315096
39	0x3c9b323f	0.018944858
40	0xbdc05499	-0.09391136
41	0xbc056995	-0.0081428485
42	0x3ddeb4ca	0.108743265
43	0x3cf70d99	0.030157851
44	0xbe8bd146	-0.273081
45	0xbe633006	-0.22186288
46	0x3de86810	0.11347973
47	0xbe615ce1	-0.22008087
48	0xbd265c21	-0.040615205
49	0xbdbf9b51	-0.09355796
50	0x3cf6d03b	0.030128589
51	0x3c1ff5b2	0.009763168
52	0xbe4a318a	-0.1974546
53	0x3dc91947	0.098192744
54	0x3ddbf9d3	0.107410096
55	0xbea2c30b	-0.3178943
56	0xbe01540c	-0.12629718
57	0x3df185b6	0.117930815
58	0xbd1845b3	-0.037175845
59	0x3e129c61	0.14317466
60	0xbd4db9c6	-0.050225995
61	0xbe8ebff2	-0.27880818
62	0x3cd8b201	0.026452066
63	0x3bfd6b49	0.0077337367
64	0x3d0637e4	0.032768145
65	0xbe039616	-0.12850222
66	0x3d493a0b	0.04912762
67	0xbc932aa8	-0.017964676
68	0xbbc9d437	-0.006159331
69	0xbdeb1d12	-0.11480154
70	0xbe943909	-0.28949764
71	0xbca240d5	-0.019806305
72	0xbdc8ef02	-0.09811212
73	0xbc4d1acc	-0.012518596
74	0xbe37a253	-0.17933016
75	0xbd3f4182	-0.046693332
76	0xbd8d29d4	-0.06892744
77	0x3d3c7da0	0.046018243
78	0xbe5991fb	-0.21247093
79	0x3e80e53b	0.2517489
80	0x3ce9e2ab	0.028550467
81	0x3dccd15a	0.10000868
82	0x3c846636	0.01616202
83	0x3e52376b	0.20528953
84	0xbde9cbea	-0.11415847
85	0x3d82bd3b	0.06383749
86	0xbe1b5e01	-0.15172578
87	0xbd976749	-0.07392747
88	0xbe16e5f8	-0.14736164
89	0xbd2db23f	-0.042406317
90	0xbe0efa20	-0.13962603
91	0xbb422859	-0.00296261
92	0xbd1e5469	-0.03865472
93	0xbdc7ca16	-0.09755342
94	0x3ccf6d85	0.025320778
95	0xbc25b4e4	-0.0101139285
96	0xbe6b08ba	-0.22952548
97	0xbda410a9	-0.0801099
98	0xbdec505b	-0.11538764
99	0xbe2891f6	-0.1646193
100	0x3b5ed30f	0.0034000312
101	0xbb4606ab	-0.0030216377
102	0xbe12b4df	-0.1432681
103	0xbd8c4d94	-0.06850734
104	0xbd1bbeb2	-0.038023658
105	0x3dcd9e99	0.10040016
106	0xbe8fd1ba	-0.28089696
107	0xbd09bb54	-0.033625916
108	0xbe946905	-0.28986374
109	0x3db0e49c	0.08637354
110	0xbd8c778a	-0.06858738
111	0x3cca73c1	0.024713399
112	0xbdcaae64	-0.098965436
113	0xbd106841	-0.035255674
114	0xbcc1215b	-0.023575475
115	0x3e129f76	0.14318642
116	0xbd0f5ccf	-0.03500062
117	0x3e4e588e	0.20150968
118	0xbe0b9610	-0.13631463
119	0xbd24cb6a	-0.040233053
120	0x3d4a8c57	0.049450245
121	0xbe09364d	-0.1339962
122	0xbde9b18d	-0.11410818
123	0xbdb0e808	-0.086380064
124	0x3d55ae94	0.052168444
125	0xbd98b824	-0.07456997
126	0x3da759eb	0.08171447
127	0xbcceb947	-0.025234831
128	0xbe1f62e6	-0.1556507
129	0xbdde6979	-0.10859961
130	0xbe1c3a71	-0.15256669
131	0xbdfa142a	-0.12210877
132	0x3d90a0b1	0.070618995
133	0xbdaecd39	-0.08535237
134	0xbe5441ca	-0.20728222
135	0x3cf56d3b	0.029959312
136	0xbdbf2359	-0.09332914
137	0xbdd83033	-0.10556068
138	0xbd5186ef	-0.051154073
139	0xbdc7115d	-0.09720109
140	0x3da4fb18	0.08055705
141	0x3db1e54d	0.08686314
142	0xbdb4d798	-0.08830184
143	0x3e375ab6	0.17905697
144	0xbd079f13	-0.03311069
145	0xbda2051b	-0.0791113
146	0x3dd0b266	0.10190277
147	0x3c5ff089	0.013668188
148	0x3d82d5cb	0.06388434
149	0xbe6cecb9	-0.23137178
150	0x3c9e702e	0.0193406
151	0x3e0d50fa	0.13800421
152	0xbe54b3c8	-0.20771706
153	0xbde00a36	-0.109394476
154	0xbe21c6d4	-0.15798503
155	0x3d154cbb	0.03645013
156	0xbd735e03	-0.05941583
157	0xbc94fd21	-0.018187108
158	0xbe42edfe	-0.190361
159	0xbd3b2bc5	-0.04569604
160	0xbd8d5bf5	-0.06902305
161	0xbe2ee3fb	-0.17079155
162	0xbe1c5612	-0.15267208
163	0x3b7339b9	0.0037113263
164	0x3dec78f0	0.115465045
165	0xbe3e71cd	-0.18598099
166	0xbe443b3b	-0.1916322
167	0xbdef5557	-0.11686199
168	0x3d19a14f	0.03750735
169	0xbdce2c5d	-0.100670554
170	0x3dbe56e6	0.09293918
171	0xbda570ab	-0.0807813
172	0xbe9154ad	-0.28384915
173	0xbd5067b3	-0.050880145
174	0xbd65c13f	-0.056092497
175	0xbce78f89	-0.028266685
176	0xbd8fb6af	-0.07017266
177	0xbd900b5b	-0.07033416
178	0xbb7b1a3d	-0.00383152
179	0xbddc5afe	-0.10759543
180	0x3de89489	0.11356456
181	0xbe109b79	-0.14121808
182	0x3b9c75cf	0.004774786
183	0xbe49536d	-0.1966073
184	0x3cb15a38	0.021649465
185	0x3df60b02	0.12013818
186	0x3e292344	0.16517359
187	0xbea99dab	-0.33128104
188	0xbec3cf65	-0.38244167
189	0x3da5a15a	0.08087416
190	0x3d07b702	0.033133514
191	0x3e3bc6c3	0.1833754
192	0x3d5bd8d3	0.053673577
193	0xbe2a1a00	-0.1661148
194	0xbe21d77b	-0.15804856
195	0xbe3c03d6	-0.18360838
196	0xbca14bd2	-0.019689474
197	0x3d55c1cb	0.05218677
198	0x3db2d945	0.08732847
199	0xbe18d8f3	-0.1492651
200	0x3cbaa88e	0.022785451
201	0xbe897a67	-0.26851198
202	0xbcf17d50	-0.029478699
203	0x3d2e1a80	0.04250574
204	0xbe360cc2	-0.17778304
205	0x3db75532	0.089517966
206	0xbd4d85dc	-0.050176486
207	0xbe1f256c	-0.15541619
208	0xbd7164ff	-0.058934208
209	0xbe18ed46	-0.14934263
210	0xbd07a962	-0.03312052
211	0x3dd013c0	0.10160017
212	0x3ce95345	0.028482089
213	0x3df4dfd9	0.11956758
214	0x3c4d8462	0.01254377
215	0x3ca6450b	0.020296594
216	0x3cab8fbf	0.020942567
217	0x3d29a333	0.041415405
218	0x3ca9a8e6	0.02071042
219	0xbcfb2f0b	-0.03066208
220	0x3d1e6bad	0.038676906
221	0xbdca568e	-0.0987979
222	0xbced5d7b	-0.028975239
223	0xbc525594	-0.012837786
224	0x3d243683	0.04009105
225	0x3dd08d08	0.101831496
226	0xbdbbb8f0	-0.091661334
227	0xbc8dbfd9	-0.017303394
228	0x3d3e15e5	0.0464076
229	0x39aa91a1	0.0003253343
230	0xbd91ab6c	-0.07112774
231	0xbdb6aba4	-0.089194566
232	0xbe499d90	-0.19689012
233	0xbdef6e64	-0.11690977
234	0x3d87aa6b	0.066243015
235	0xbd1621cb	-0.03665332
236	0xbe1c1833	-0.15243606
237	0xbda4e23d	-0.08050964
238	0x3de620c0	0.11236715
239	0x3d81dc0e	0.063408
240	0xbe65c633	-0.22438888
241	0xbc315af3	-0.010824907
242	0x3d649efb	0.055815678
243	0x3cecb781	0.028896095
244	0xbe37af2d	-0.17937918
245	0xbd4f3aec	-0.0505933
246	0xbe26b78a	-0.16280952
247	0x3d2a5644	0.041586176
248	0xbdafbc5a	-0.08580847
249	0xbd211b6e	-0.0393328
250	0xbe3d68d5	-0.18497021
251	0xbc0c8d0f	-0.008578553
252	0xbe1a5721	-0.150723
253	0x3b6c5f82	0.003606767
254	0xbd0887a5	-0.033332486
255	0xbd350a39	-0.044199202

hidden2_Y1.bias f4 [200]
0	0xbe93545f	-0.28775308
1	0xbea070bc	-0.3133601
2	0x3e7031a1	0.23456432
3	0xbe2a81a0	-0.1665101
4	0xbda00bc7	-0.07814746
5	0x3e7e7a7f	0.24851416
6	0xbe7aab42	-0.24479392
7	0xbe9837d9	-0.29730108
8	0x3dcc8668	0.099865735
9	0x3b1bd490	0.002377782
10	0x3eb37a59	0.3505428
11	0x3e9b93db	0.30386242
12	0xbe1583c9	-0.14601053
13	0xbe296f7e	-0.16546437
14	0xbea1cd73	-0.31602058
15	0xbddde13d	-0.108339764
16	0x3e3e524d	0.18586083
17	0x3d2d58e5	0.042321105
18	0xbe1b5dd7	-0.15172516
19	0xbe2f1614	-0.17098266
20	0x3e6db438	0.23213279
21	0xbeb10080	-0.34570694
22	0xbe4e8009	-0.20166029
23	0xbe7911bd	-0.24323173
24	0xbd9ade6e	-0.07561956
25	0xbda4418d	-0.08020315
26	0xbdf16f10	-0.117887616
27	0x3d5b0b7a	0.05347774
28	0x3d75bc43	0.059993993
29	0xbe6405ee	-0.22267887
30	0x3e35265e	0.17690417
31	0xbe9b4807	-0.3032839
32	0xbd3b6ee3	-0.045760047
33	0xbe18fc3c	-0.1493997
34	0xbe89dcef	-0.2692637
35	0xbd99530f	-0.07486545
36	0xbe8da1b7	-0.2766244
37	0xbe71508c	-0.23565882
38	0xbd83f05d	-0.0644233
39	0xbe483350	-0.19550824
40	0xbe8990d2	-0.26868302
41	0x3e94e61f	0.29081818
42	0x3c74150a	0.014897594
43	0xbe4abdff	-0.1979904
44	0x3ecf354d	0.40470353
45	0xbeb1f366	-0.3475601
46	0x3e87c711	0.26519063
47	0xbe334179	-0.17505445
48	0xbd84fd15	-0.06493584
49	0xbed3c04f	-0.41357657
50	0xbcd4fc47	-0.025999201
51	0xbe3e56e7	-0.18587838
52	0xbee7b54f	-0.45255515
53	0xbe193ebb	-0.14965336
54	0xbe7a29bc	-0.24429983
55	0x3e980de4	0.29698098
56	0xbd07c4f0	-0.0331468
57	0xbe0ef336	-0.13959965
58	0xbebbe561	-0.3669844
59	0x3cb1472a	0.021640379
60	0xbd3b83a6	-0.045779847
61	0x3ebeeb1d	0.37288752
62	0x3ccf7f8c	0.025329374
63	0x3d6bec39	0.057598326
64	0xbe2f6f31	-0.1713226
65	0x3b703a35	0.0036655788
66	0xbe0e6063	-0.13903956
67	0xbe54c986	-0.2078
68	0xbe586e51	-0.21135832
69	0x3b619cc3	0.0034425713
70	0xbe8400f4	-0.25781977
71	0xbe9fd1fc	-0.31214893
72	0xbe9f6ed4	-0.31139243
73	0xbe2423b6	-0.16029248
74	0x3ea3d025	0.3199474
75	0x3e932895	0.287419
76	0xbe718cd7	-0.23588882
77	0xbe4d8142	-0.20068839
78	0x3e81caf6	0.2535016
79	0xbe77e5b2	-0.24208716
80	0xbedb7405	-0.42861953
81	0xbe2cc39b	-0.16871493
82	0xbdb01b2a	-0.08598931
83	0xbdee33df	-0.116309874
84	0xbe0d07a4	-0.13772446
85	0xbd839f8f	-0.06426918
86	0x3e3aa945	0.18228634
87	0x3e24c85e	0.16092059
88	0x3e99d515	0.3004538
89	0x3e601792	0.21883991
90	0xbe99ab87	-0.30013677
91	0xbd4e5c26	-0.05038085
92	0xbe6ae3e2	-0.22938493
93	0xbef79cb8	-0.48361754
94	0xbe82fc63	-0.2558318
95	0xbd4449ca	-0.047921933
96	0xbe7a50ff	-0.2444496
97	0x3c807425	0.015680382
98	0xbea2c67b	-0.31792054
99	0x3dcef5b9	0.101054616
100	0xbe03dc50	-0.12877011
101	0xbe549c93	-0.20762853
102	0x3ebb5f49	0.36596134
103	0xbdf74997	-0.12074583
104	0x3e50892c	0.20364827
105	0xbe63b01b	-0.22235148
106	0xbdf5f48e	-0.12009536
107	0xbd84e81e	-0.06489585
108	0x3ef8b229	0.48573425
109	0xbe8e6577	-0.27811787
110	0xbded1cfb	-0.11577793
111	0x3d0e9eda	0.03481946
112	0xbe462e9d	-0.19353719
113	0xbda9a6b3	-0.082837485
114	0x3e693cc3	0.22777085
115	0x3ed3b75d	0.41350833
116	0xbe22b3bf	-0.1588888
117	0xbe8e2b6e	-0.2776751
118	0x3ce9ed14	0.02855543
119	0xbe2773f6	-0.1635283
120	0xbe0ead18	-0.13933218
121	0x3ef95ce2	0.48703676
122	0xbdc2646b	-0.094918095
123	0xbe3fb712	-0.1872218
124	0xbe5dcf79	-0.21661176
125	0xbe66a876	-0.225252
126	0x3e01ed2c	0.1268813
127	0xbd16b851	-0.03679687
128	0x3ead09a9	0.33796433
129	0x3d36257b	0.044469338
130	0x3c92a843	0.017902499
131	0xbe9ed96f	-0.31025264
132	0x3dd0d828	0.101974785
133	0x3dc1d11a	0.09463711
134	0xbe4a5743	-0.1975985
135	0xbe0a2006	-0.13488778
136	0xbe8c6235	-0.27418676
137	0x3df7cc60	0.12099528
138	0xbe31fbc0	-0.17381191
139	0x3e775fa3	0.24157576
140	0xbd685705	-0.056723613
141	0x3c34884d	0.011018825
142	0xbda0c4db	-0.07850047
143	0x3dff5c3b	0.124687634
144	0xbe14b8d5	-0.14523633
145	0xbe3978ae	-0.18112442
146	0x3e25f2e9	0.16205944
147	0xbe32279c	-0.17397922
148	0xbea1218b	-0.31470904
149	0xbdd2bb88	-0.10289675
150	0x3ee8bc74	0.45456278
151	0x3dafc7a3	0.085829996
152	0x3edf0558	0.43558764
153	0xbcef23be	-0.029191848
154	0x3e0ca3cc	0.13734359
155	0xbdecbb61	-0.11559177
156	0xbeddfd56	-0.43357342
157	0xbe0ca3f3	-0.13734417
158	0xbe401a08	-0.1875993
159	0xbdcccf34	-0.10000458
160	0xbe2d6f7a	-0.16937056
161	0x3db758a4	0.08952454
162	0xbe295ff6	-0.16540512
163	0xbe2e81e3	-0.17041735
164	0xbec0b028	-0.37634397
165	0xbe224529	-0.15846695
166	0x3e83c67d	0.25737372
167	0x3d59903c	0.05311607
168	0xbe9d43ca	-0.3071578
169	0xbe94a33e	-0.29030794
170	0xbe8fedef	-0.28111216
171	0xbdf78202	-0.12085344
172	0x3ec2365e	0.37932104
173	0xbe2f2e8b	-0.17107598
174	0xbed4e9ee	-0.41584724
175	0xbe277b5f	-0.16355656
176	0x3e37eb10	0.17960763
177	0xbdedf268	-0.11618501
178	0x3ece3146	0.40271968
179	0xbdbc71af	-0.09201371
180	0xbdfe97ff	-0.12431335
181	0xbd6061fe	-0.054780953
182	0xbdccc6cb	-0.09998854
183	0xbe80e847	-0.25177214
184	0x3d125316	0.03572377
185	0xbf1d1129	-0.6135431
186	0xbd98be88	-0.07458216
187	0xbe30f9c4	-0.17282778
188	0xbe01c1b7	-0.12671553
189	0x3e555eb7	0.20836912
190	0x3df578d9	0.119859405
191	0xbe1fcec0	-0.15606213
192	0xbe302ef0	-0.17205405
193	0x3d2f9fdc	0.042877063
194	0x3e090708	0.13381588
195	0xbedf4269	-0.43605354
196	0xbc0b4162	-0.008499475
197	0xbe6307fa	-0.22171012
198	0x3e9fe391	0.31228307
199	0xbea34263	-0.31886587
