DCNModel/DCN_PD_NN_Models/NN_DCN_model_iter_id_7_epoch_100_lr_0.001.pth (torch_old, 828762 bytes, 14 tensors)

shared1.weight f4 [200, 25]
-0.049815916 0.21287458 0.047528323 0.031398255 -0.082748845 0.25233993 0.16859753 0.29552308
0.107465334 0.08546509 0.0046825716 0.26907715 -0.04777042 -0.27809137 0.039659575 -0.25575128
-0.11487713 0.012262956 0.20464975 0.13045572 -0.31722927 0.0123598855 0.14662501 0.093524076
0.022302274 -0.12129126 -0.017521046 0.09099796 -0.017578263 0.017021533 -0.09338123 -0.061286133
-0.12690704 -0.15855278 -0.24020664 0.017837692 -0.04356591 -0.0894065 -0.05143577 -0.2082255
-0.22280894 -0.1665679 -0.03674719 0.009615386 -0.3709179 -0.25821605 -0.03904054 -0.024983345
-0.120784804 0.00084808667 -0.11346304 0.09002875 0.014547384 -0.014175506 -0.04967862 -0.036815554
0.003914281 0.06975664 -0.14252414 -0.027541248 -0.3600146 -0.16011174 -0.09881282 -0.0960468
-0.0014575358 -0.12081311 -0.061520502 -0.043268446 -0.069844365 -0.1833154 -0.13365227 0.26892987
0.077730246 -0.19912672 0.061796017 0.0695354 -0.100294106 0.014136609 0.037434276 0.008175999
-0.10687987 -0.02151914 -0.07414897 0.07595139 0.030178154 -0.07689903 0.063413486 -0.031556256
-0.13605376 0.005916803 -0.079055056 -0.14701757 -0.05767676 0.016748358 0.070400774 -0.04608386
0.047817633 0.05594911 -0.061441936 0.033865437 -0.085139036 -0.007803288 -0.21700205 -0.06584464
-0.04422821 0.033173446 -0.069709815 -0.076868564 0.078770675 -0.048933603 -0.10187572 -0.077997364
-0.29979232 -0.25982514 -0.20290469 -0.2011575 -0.05994391 -0.0013213697 0.1546603 -0.041272953
-0.17923996 0.0046812315 -0.033108123 0.0031050616 0.19795112 0.008311606 -0.16427939 -0.09830494
-0.10422521 -0.07051321 -0.22190765 0.038073834 0.102383405 0.08356863 -0.24439783 0.15741917
-0.107823275 -0.21912749 0.018433178 -0.10921564 -0.2316979 -0.050586306 -0.31168783 0.28227994
-0.1556872 -0.053005714 -0.13623603 -0.36051285 -0.04540733 0.05028825 0.089719586 0.17227109
0.07884168 0.009315458 0.041772828 0.1480242 0.181854 0.2841891 -0.18006155 -0.010174586
0.19451113 -0.1861335 0.08312111 -0.066983856 0.0043702405 -0.11280416 -0.11152807 -0.16660462
-0.11999542 0.18966576 -0.07148268 0.055511836 -0.019528732 0.3033138 -0.23635708 0.026565883
-0.10766814 0.021224974 -0.09564858 0.03455812 0.17329492 -0.01148268 0.40763608 -0.062163122
-0.034910556 -0.114859834 0.03740775 0.0115152635 -0.06567031 0.18476087 -0.4319642 -0.0055029797
-0.19766732 -0.09000606 0.06138885 -0.06663678 0.22836868 -0.13965568 -0.012031379 -0.094822206
-0.15661147 0.032930393 -0.016023118 0.1827582 0.036014043 0.10812944 -0.0036758704 -0.2562148
0.05586323 -0.5061725 0.089562386 0.11496083 0.2614425 -0.2127116 0.18357332 -0.14373933
0.26979962 -0.114519194 -0.17565894 -0.17020196 0.2327694 0.09428648 0.2143172 -0.06481186
-0.16311152 0.058583528 -0.07916648 0.09058793 -0.141701 0.04223019 -0.018942166 -0.16793351
-0.04603175 -0.13605323 -0.13168865 0.025751866 -0.09857306 -0.0256107 -0.21992637 0.085297406
0.004877618 0.083288744 -0.19853602 -0.062253 0.15961756 0.1016129 0.06534386 -0.04683957
0.023238707 -0.15510528 0.097569294 0.016486745 -0.067831755 -0.20950526 -0.01080339 0.22007872
00000000: c60b 4cbd cbfb 593e 0fad 423d 759b 003d
00000010: 3a78 a9bd b332 813e d5a4 2c3e cd4e 973e
00000020: c916 dc3d 5208 af3d 4270 993b 7bc4 893e
00000030: eaaa 43bd fe61 8ebe 1472 223d d5f1 82be
00000040: b344 ebbd 91ea 483c b48f 513e 2f96 053e
00000050: e06b a2be 1e81 4a3c de24 163e 8d89 bf3d
00000060: 42b3 b63c 8d67 f8bd 4c88 8fbc 235d ba3d
00000070: 4a00 90bc be70 8b3c a93e bfbd 2b07 7bbd
00000080: ebf3 01be a95b 22be bbf8 75be 5a20 923c
00000090: 2b72 32bd c11a b7bd 50ae 52bd 1139 55be
000000a0: 0728 64be c790 2abe 3984 16bd da89 1d3c
000000b0: f3e8 bdbe e534 84be f9e8 1fbd dfa9 ccbc
000000c0: 065e f7bd 2252 5e3a 4f5f e8bd fe60 b83d
000000d0: 2758 6e3c 6240 68bc cf7b 4bbd e8cb 16bd
000000e0: 5e43 803b 92dc 8e3d d9f1 11be 2f9e e1bc
000000f0: d553 b8be 55f4 23be 605e cabd 2fb4 c4bd
00000100: c90a bfba dd6c f7bd ecfc 7bbd 413a 31bd
00000110: 900a 8fbd 08b7 3bbe 24dc 08be 2db1 893e
00000120: 0931 9f3d e0e7 4bbe d21d 7d3d 9368 8e3d
00000130: ff66 cdbd 3c9d 673c af54 193d a0f4 053c
00000140: d5e3 dabd e848 b0bc 6adb 97bd 678c 9b3d
00000150: 2d38 f73c 3d7d 9dbd eede 813d 2241 01bd
00000160: ad51 0bbe bee1 c13b 9ee7 a1bd c68b 16be
00000170: 773e 6cbd da33 893c 482e 903d 6ec2 3cbd
00000180: 6cdc 433d e52a 653d 8aaa 7bbd 7cb6 0a3d
00000190: 605d aebd b9b2 ffbb c935 5ebe 8ed9 86bd
000001a0: a428 35bd e1e0 073d 05c4 8ebd 446d 9dbd
000001b0: 8552 a13d 9a6e 48bd 38a4 d0bd 15bd 9fbd
000001c0: 617e 99be cd07 85be 3fc6 4fbe 3bfc 4dbe
000001d0: bf87 75bd cf31 adba 455f 1e3e d40d 29bd
000001e0: ae8a 37be 0465 993b 629c 07bd 4a7e 4b3b
000001f0: b3b3 4a3e 672d 083c db38 28be 1a54 c9bd
00000200: 0774 d5bd 3b69 90bd c23b 63be 4ff3 1b3d
00000210: 64ae d13d 0826 ab3d 6d43 7abe 7e32 213e
00000220: 73d2 dcbd f562 60be 2d01 973c 73ac dfbd
00000230: 3742 6dbe 9633 4fbd 8c95 9fbe ff86 903e
00000240: 776c 1fbe 851c 59bd 7581 0bbe 2495 b8be
00000250: 09fd 39bd 0dfb 4d3d e7be b73d d567 303e
00000260: bf77 a13d dd9f 183c fc19 2b3d a893 173e
00000270: ef37 3a3e 3c81 913e 0e62 38be 4fb3 26bc
00000280: ed2d 473e c899 3ebe 673b aa3d d52e 89bd
00000290: 3c34 8f3b de05 e7bd d468 e4bd 679a 2abe
000002a0: 29c0 f5bd be37 423e 8365 92bd 6160 633d
000002b0: b8fa 9fbc f24b 9b3e 9707 72be b2a0 d93c
000002c0: 1d81 dcbd ffdf ad3c 67e3 c3bd d18c 0d3d
000002d0: 3974 313e da21 3cbc adb5 d03e c29e 7ebd
000002e0: 5ffe 0ebd a23b ebbd de38 193d 84aa 3c3c
000002f0: 287e 86bd f431 3d3e 692a ddbe 5752 b4bb
00000300: 4d69 4abe 1955 b8bd e072 7b3d dd78 88bd
00000310: 7bd9 693e e601 0fbe 431f 45bc 2532 c2bd
00000320: c25e 20be 05e2 063d ea42 83bc f724 3b3e
00000330: 7683 133d f872 dd3d dfe6 70bb 962e 83be
00000340: d8d0 643d 8594 01bf 7c6c b73d 9570 eb3d
00000350: cbdb 853e 12d1 59be a5fa 3b3e 6730 13be
00000360: 2d23 8a3e 0a89 eabd f0df 33be 6c49 2ebe
00000370: 1a5b 6e3e 4519 c13d f875 5b3e 15bc 84bd
00000380: b506 27be 48f5 6f3d 0922 a2bd 2a86 b93d
00000390: 111a 11be 90f9 2c3d 9a2c 9bbc c3f6 2bbe
000003a0: ca8b 3cbd 8a51 0bbe 64d9 06be 94f5 d23c
000003b0: ace0 c9bd 88cd d1bc 6134 61be 68b0 ae3d
000003c0: 6dd4 9f3b 4a93 aa3d 074d 4bbe 00fd 7ebd
000003d0: c972 233e 6d1a d03d 00d3 853d d9da 3fbd
000003e0: 1a5f be3c ebd3 1ebe 69d2 c73d 360f 873c
000003f0: 60eb 8abd 8c88 56be b400 31bc 515c 613e

shared1.bias f4 [200]
-0.10616619 -0.18068232 -0.21027526 -0.050992467 -0.1580606 -0.15253945 -0.068206094 -0.15712583
-0.039298162 -0.09717113 -0.13036498 -0.10987469 -0.14998285 -0.070679344 -0.13744596 -0.16213992
-0.13727273 -0.05058794 -0.09594871 -0.15095647 -0.099042535 -0.08528116 -0.10963462 -0.09812971
-0.14467767 -0.11161388 -0.1323664 -0.18197979 -0.13182293 -0.06396986 -0.099325895 0.013236757
-0.0667154 -0.1428688 -0.17190593 -0.101323 -0.11352726 -0.09353708 -0.025192749 -0.116754204
-0.118093915 -0.13664778 -0.082725815 -0.10450846 -0.14810954 -0.12701032 -0.1126865 -0.112595305
-0.19436327 -0.12448338 -0.08283514 -0.07923049 -0.044058487 -0.08885475 -0.04693815 -0.11670904
-0.09490519 -0.13675761 -0.11065292 -0.16029717 -0.038884174 -0.13029547 -0.100813515 -0.18276775
-0.0062343962 -0.0927826 -0.1566122 -0.13131653 -0.08992179 -0.10771694 -0.20464188 -0.09902917
-0.14488661 -0.14320743 -0.08727726 -0.15364888 -0.16314834 -0.23225135 -0.1195481 -0.12934908
-0.034139004 0.011369829 -0.01720826 -0.0959315 -0.091947444 -0.13633761 -0.111794025 -0.068782695
-0.080563515 -0.10928761 -0.123306274 -0.056268476 -0.1599782 -0.160361 -0.03574384 -0.056458615
-0.124077424 -0.10204619 -0.1636249 -0.13518797 -0.121195026 -0.11297828 -0.06633729 -0.07082342
-0.043304946 -0.07456808 -0.004015316 -0.0666469 -0.16665481 -0.112158045 -0.14663056 -0.11770579
-0.066230826 -0.08054742 -0.11037773 -0.19562817 -0.17075963 -0.056377284 -0.08945715 -0.09991877
-0.13425393 -0.06055332 -0.12490797 -0.16336007 -0.10913473 -0.13929278 -0.13432255 -0.16595471
-0.10425324 -0.1619031 -0.123537645 -0.075106405 -0.12571149 -0.061550204 -0.098690525 -0.11127793
-0.14271466 -0.13955572 -0.09439496 -0.07841357 -0.13665017 -0.13502167 -0.13351117 -0.01719661
-0.13214822 -0.10275446 -0.074456155 -0.11540823 -0.104987025 -0.09074021 -0.05382828 -0.09703649
-0.07488236 -0.10755127 -0.17688192 -0.09321614 -0.14033452 -0.14779654 -0.17870796 -0.10597019
-0.098350175 -0.08025372 -0.1313875 -0.1714738 -0.11469472 0.06757244 -0.14981867 -0.11307051
-0.1637967 0.003672183 -0.09456216 -0.13521917 -0.15238877 -0.086316936 -0.1283348 -0.14823624
-0.053922627 -0.09305757 -0.11042991 -0.08249639 -0.17563131 -0.06922095 -0.08870284 -0.1367691
-0.10526872 -0.18072008 -0.11033691 -0.18050084 -0.07595334 -0.13243407 -0.19823122 -0.13235475
-0.08219483 -0.056870256 -0.16328228 -0.13754085 -0.15922095 -0.20928791 -0.13927552 -0.18209448
00000000: a96d d9bd c904 39be 6652 57be 7add 50bd
00000010: a3da 21be 4d33 1cbe a3af 8bbd 98e5 20be
00000020: 1cf7 20bd a801 c7bd 667e 05be fb05 e1bd
00000030: 1b95 19be 55c0 90bd a2be 0cbe 0208 26be
00000040: 3991 0cbe 4d35 4fbd c280 c4bd 5594 1abe
00000050: d0d6 cabd e4a7 aebd 1e88 e0bd 3bf8 c8bd
00000060: 6226 14be d195 e4bd 0f8b 07be e958 3abe
00000070: 97fc 06be a102 83bd 606b cbbd fcde 583c
00000080: 15a2 88bd 334c 12be 1c08 30be 6f82 cfbd
00000090: fb80 e8bd 5e90 bfbd 0661 cebc d41c efbd
000000a0: 39db f1bd 65ed 0bbe 276c a9bd 8808 d6bd
000000b0: 07aa 17be fe0e 02be 2ec8 e6bd 5e98 e6bd
000000c0: 2a07 47be 24f1 febd 78a5 a9bd 9843 a2bd
000000d0: ac76 34bd 7bf9 b5bd 3842 40bd 2605 efbd
000000e0: a75d c2bd 300a 0cbe 009e e2bd f124 24be
000000f0: 0345 1fbd 2d6c 05be 5177 cebd 7827 3bbe
00000100: e849 ccbb ce04 bebd f35e 20be d777 06be
00000110: ea28 b8bd b39a dcbd a48d 51be cecf cabd
00000120: 285d 14be f8a4 12be 6cbe b2bd 2256 1dbe
00000130: 5c10 27be 4cd3 6dbe a2d5 f4bd 1674 04be
00000140: 57d5 0bbd 8548 3a3c 56f8 8cbc bc77 c4bd
00000150: f14e bcbd 169c 0bbe 44f4 e4bd f1dd 8cbd
00000160: 7cfe a4bd 2fd2 dfbd 0088 fcbd c679 66bd
00000170: 53d1 23be ad35 24be 2268 12bd 2641 67bd
00000180: 4e1c febd 98fd d0bd 498d 27be b76e 0abe
00000190: 1935 f8bd 2861 e7bd d8db 87bd df0b 91bd
000001a0: 8760 31bd 26b7 98bd e992 83bb 2b7e 88bd
000001b0: 8fa7 2abe 1eb3 e5bd 5226 16be bc0f f1bd
000001c0: 07a4 87bd 0cf6 a4bd b80d e2bd c052 48be
000001d0: 9ddb 2ebe deeb 66bd 4f35 b7bd 36a2 ccbd
000001e0: dd79 09be c206 78bd c0cf ffbd dd47 27be
000001f0: 0882 dfbd c4a2 0ebe da8b 09be 08f0 29be
00000200: b982 d5bd edc9 25be 4e01 fdbd 63d1 99bd
00000210: 83ba 00be 111c 7cbd 421e cabd afe5 e3bd
00000220: cb23 12be b2e7 0ebe 2552 c1bd 4b97 a0bd
00000230: 06ee 0bbe 1f43 0abe 27b7 08be e8df 8cbc
00000240: dd51 07be ee70 d2bd 787c 98bd 265b ecbd
00000250: 7003 d7bd 01d6 b9bd 0b7b 5cbd 11bb c6bd
00000260: ec5b 99bd d743 dcbd 8920 35be 1be8 bebd
00000270: dab3 0fbe fa57 17be 38ff 36be e606 d9bd
00000280: d16b c9bd 105c a4bd 728a 06be d496 2fbe
00000290: 11e5 eabd 6b63 8a3d 116a 19be 8391 e7bd
000002a0: 52ba 27be 02a9 703b cea9 c1bd e576 0abe
000002b0: cd0b 1cbe efc6 b0bd 336a 03be 3ecb 17be
000002c0: f9dd 5cbd f894 bebd 1429 e2bd def3 a8bd
000002d0: b2d8 33be b7c3 8dbd d6a9 b5bd 330d 0cbe
000002e0: 2097 d7bd af0e 39be 51f8 e1bd 36d5 38be
000002f0: 6d8d 9bbd cc9c 07be 20fd 4abe 0188 07be
00000300: c355 a8bd c9f0 68bd 7833 27be 82d7 0cbe
00000310: d10a 23be 924f 56be 3e9e 0ebe fa76 3abe

shared2.weight f4 [200, 200]
-0.08183515 0.057077195 -0.013631861 0.05599471 0.12957339 -0.04709205 -0.08936678 -0.0105573535
-0.11230746 0.08454368 -0.16122036 -0.073516406 -0.21577992 -0.037725043 0.082230784 -0.05015963
-0.081802584 -0.049484186 0.040211476 0.008825192 -0.13731855 -0.0016611866 -0.06221793 0.008048162
0.112563625 -0.007994887 -0.05203894 0.017773824 -0.06425234 -0.05143551 -0.02062452 -0.04164819
0.09612436 -0.042075794 -0.14463799 -0.0046227695 -0.006710979 0.12378771 0.086388074 -0.14976907
-0.13342579 -0.22921965 -0.057208236 0.236543 -0.09459211 0.034024727 -0.09406975 -0.18182588
-0.122231685 -0.15723218 -0.058119092 0.08169443 0.2007671 -0.014073142 0.14801969 0.063286476
0.120340206 0.016600514 -0.033040803 0.12925625 0.00055330794 -0.07612821 -0.12247212 -0.15309703
0.012058043 0.12904525 -0.02957713 -0.029002363 -0.06478786 0.06215608 -0.02543166 -0.10439249
0.11515695 -0.1532709 -0.07303242 -0.14365803 -0.005208104 -0.06723256 -0.049670316 -0.075026885
0.046977088 -0.10700978 0.16412844 -0.010723731 -0.039024398 -0.060190592 -0.0070163785 -0.13058603
-0.05876068 0.03189509 -0.22138526 0.07198674 -0.03953375 -0.014758548 -0.059680674 0.1353894
-0.08437925 -0.02806691 0.024627982 0.06934706 0.03059428 -0.0150608225 -0.02305554 -0.050763864
-0.17905018 0.021221306 -0.18048075 -0.018878596 0.034197755 -0.10783835 -0.034400493 -0.006602113
-0.113788426 -0.0038482226 0.13444495 -0.009549069 0.026167886 -0.16563338 -0.05138288 -0.10157802
-0.16436645 -0.056925666 -0.16498321 0.03887427 0.045868494 -0.013758023 0.06827314 -0.08816343
0.053224254 -0.19856663 -0.11235176 -0.00013917257 0.05768074 0.025698587 -0.031251654 0.02535876
0.003112952 5.0067447e-05 0.007977396 0.07114526 0.21882269 -0.049265735 0.004697246 0.021591518
0.025710588 0.03860112 -0.1545748 -0.052813616 0.126502 -0.07770688 -0.25406042 -0.12961073
0.06104245 -0.09644118 -0.108364984 0.040411603 -0.059231225 -0.14466612 0.08928177 0.0031103946
0.09909124 0.17531046 -0.010090014 -0.06540561 -0.037834644 -0.12449134 -0.052665118 -0.19672905
0.10700273 0.018345725 -0.09295528 -0.061457995 -0.09650304 0.071745455 -0.012448576 0.07116929
-0.09194081 0.047194604 -0.18914145 0.11651619 -0.17043662 -0.24758275 -0.0052651144 0.067937754
-0.10032276 -0.05916444 0.04709612 0.18168834 -0.16312529 -0.22373036 -0.058983695 -0.25039443
-0.058168016 0.00078177743 -0.16313049 0.010485482 -0.09336758 0.011894949 -0.0054473737 -0.12032501
-0.07127629 0.046377204 -0.18339472 -0.08254394 0.124574676 -0.06457823 -0.08110455 0.016051983
-0.11505363 -0.0075469296 -0.0357557 0.1185547 0.02088083 -0.032486092 -0.0053377957 -0.08388474
0.020560905 -0.049186263 0.14140637 0.013075602 -0.11181766 -0.04578278 0.13840011 0.08331002
-0.07324973 -0.036298234 -0.100857794 0.03426417 -0.052347403 -0.0901529 0.05031347 -0.09468513
-0.026375862 0.054669376 -0.012591062 0.021733643 -0.021867808 0.06875408 -0.05104287 -0.0840609
-0.106224984 -0.17540413 -0.18484317 -0.034754302 0.0068278573 -0.05050655 -0.06522311 0.105574384
-0.0588432 -0.049419295 -0.12515213 -0.14534044 -0.019355731 0.09460082 -0.0318946 -0.22267085
00000000: 3099 a7bd c7c9 693d 2b58 5fbc b65a 653d
00000010: e3ae 043e 98e3 40bd ee05 b7bd c0f8 2cbc
00000020: 7401 e6bd 3d25 ad3d f316 25be c58f 96bd
00000030: 69f5 5cbe 9385 1abd 9d68 a83d 2f74 4dbd
00000040: 1d88 a7bd eeaf 4abd cab4 243d 8a97 103c
00000050: 3c9d 0cbe 2cbc d9ba 3ad8 7ebd 70dc 033c
00000060: c287 e63d fdfc 02bc c926 55bd 699a 913c
00000070: bb96 83bd 0bae 52bd c1f4 a8bc 4b97 2abd
00000080: d9dc c43d ab57 2cbd fb1b 14be 9a7a 97bb
00000090: c6e7 dbbb 6984 fd3d 3bec b03d 105d 19be
000000a0: c5a0 08be 8eb8 6abe 2f53 6abd 5438 723e
000000b0: 82b9 c1bd 835d 0b3d a4a7 c0bd 9030 3abe
000000c0: 9b54 fabd 7901 21be 490e 6ebd 694f a73d
000000d0: e495 4d3e 0993 66bc 7992 173e 579c 813d
000000e0: ed74 f63d cdfd 873c cb55 07bd c05b 043e
000000f0: de0b 113a 1be9 9bbd aad2 fabd 78c5 1cbe
00000100: 198f 453c 7024 043e bd4b f2bc 5d96 edbc
00000110: 7faf 84bd 6097 7e3d 0e56 d0bc bbcb d5bd
00000120: 68d7 eb3d 0cf3 1cbe 0592 95bd 171b 13be
00000130: bea8 aabb 39b1 89bd 1a73 4bbd b2a7 99bd
00000140: 0c6b 403d f227 dbbd 4911 283e 96b2 2fbc
00000150: 0cd8 1fbd 698a 76bd a6e9 e5bb 58b8 05be
00000160: 0aaf 70bd 6da4 023d d1b2 62be c96d 933d
00000170: 24ee 21bd d6cd 71bc b973 74bd 85a3 0a3e
00000180: 07cf acbd 94ec e5bc 9fc0 c93c d505 8e3d
00000190: dba0 fa3c abc1 76bc f9de bcbc c5ed 4fbd
000001a0: ee58 37be 4ed8 ad3c f2cf 38be 49a7 9abc
000001b0: f212 0c3d 5ada dcbd 88e7 0cbd 8a56 d8bb
000001c0: e809 e9bd 7632 7cbb f0ab 093e b373 1cbc
000001d0: 095e d63c cc9b 29be db76 52bd 2308 d0bd
000001e0: ae4f 28be e32a 69bd 5cf1 28be a03a 1f3d
000001f0: 9ae0 3b3d 5569 61bc cad2 8b3d 078f b4bd
00000200: ad01 5a3d 0d55 4bbe ae18 e6bd daee 11b9
00000210: a442 6c3d d885 d23c bc01 00bd 2dbd cf3c
00000220: ab02 4c3b 83ff 5138 a0b3 023c 9bb4 913d
00000230: 0e13 603e deca 49bd 5beb 993b b2e0 b03c
00000240: 039f d23c 351c 1e3d db48 1ebe 1753 58bd
00000250: be89 013e c924 9fbd 3514 82be adb8 04be
00000260: a607 7a3d f482 c5bd 76ee ddbd a386 253d
00000270: 719c 72bd 5b23 14be 5cd9 b63d c3d7 4b3b
00000280: 59f0 ca3d 9684 333e 9650 25bc 60f3 85bd
00000290: 80f8 1abd 51f5 febd 61b7 57bd 5773 49be
000002a0: 3f24 db3d c649 963c 565f bebd 61bb 7bbd
000002b0: 63a3 c5bd 48ef 923d 1df5 4bbc 34c1 913d
000002c0: 774b bcbd 214f 413d 4cae 41be 0aa0 ee3d
000002d0: f086 2ebe 5586 7dbe fb86 acbb f322 8b3d
000002e0: 0576 cdbd 6956 72bd dce7 403d 820c 3a3e
000002f0: 510a 27be 9219 65be e398 71bd b333 80be
00000300: 9641 6ebd 32f0 4c3a ae0b 27be 4dcb 2b3c
00000310: 8037 bfbd 08e3 423c e27f b2bb f56c f6bd
00000320: 4ef9 91bd 06f6 3d3d d3cb 3bbe cc0c a9bd
00000330: 0221 ff3d 9741 84bd 241a a6bd 737f 833c
00000340: 3da1 ebbd 3c4c f7bb 9274 12bd cecc f23d
00000350: 460e ab3c 2310 05bd ade8 aebb c3cb abbd
00000360: 586f a83c 8977 49bd d5cc 103e 0d3b 563c
00000370: a800 e5bd b986 3bbd c2b8 0d3e 729e aa3d
00000380: f403 96bd 75ad 14bd 888e cebd 9658 0c3d
00000390: 3b6a 56bd 15a2 b8bd 7f15 4e3d 47ea c1bd
000003a0: 3112 d8bc ffec 5f3d be4a 4ebc c10a b23c
000003b0: 1e24 b3bc f0ce 8c3d 5412 51bd 1f28 acbd
000003c0: 7c8c d9bd 249d 33be 8747 3dbe 875a 0ebd
000003d0: 38bc df3b f5df 4ebd b293 85bd 6237 d83d
000003e0: 9105 71bd e36b 4abd e127 00be 20d4 14be
000003f0: e98f 9ebc 13be c13d e9a3 02bd d403 64be

shared2.bias f4 [200]
-0.2558629 -0.09578985 -0.13933046 -0.24596223 -0.101502724 -0.18495318 -0.2998769 -0.17064096
-0.21918577 -0.22486326 -0.1494558 -0.101913966 -0.2007899 -0.19894338 -0.21666019 -0.14640473
-0.21584618 -0.26438463 -0.24579039 -0.16664413 -0.24146135 -0.260944 -0.037677128 -0.19020362
-0.28891596 0.04435059 -0.15988225 -0.2634015 -0.0496185 -0.19586585 -0.14482148 -0.24819541
-0.21629399 -0.17757933 -0.21453309 -0.21446697 -0.22812855 -0.1861404 -0.20020774 -0.2055487
-0.25393683 -0.19819538 -0.16921102 -0.09005053 -0.17357707 -0.11338467 -0.07836342 -0.10391037
-0.26452136 -0.0057029533 -0.2091939 -0.1526664 -0.16961792 -0.16402541 -0.086597905 -0.19721414
-0.17937052 0.02818836 -0.14249271 -0.09780773 -0.016973782 -0.1989036 -0.050231155 -0.13971534
-0.08809173 -0.08698166 -0.22929737 -0.21115221 -0.21221258 -0.16951889 -0.18479463 -0.20160757
-0.20188536 -0.11875521 -0.24048166 -0.08065007 -0.24203683 0.025765242 -0.02102911 -0.23760244
-0.05701874 -0.061811566 -0.21145357 -0.16463503 -0.2360219 -0.16872425 -0.16135545 -0.03662326
-0.18748839 -0.26988643 -0.23320918 -0.101881586 -0.1576407 -0.2512091 -0.09487385 -0.056386687
-0.22696781 -0.03575412 -0.12338938 -0.17266078 -0.16712217 -0.27505255 -0.2038862 0.05965985
-0.26090494 -0.13853739 -0.077213705 -0.26115313 -0.23675366 0.12623626 -0.1926548 -0.14280546
-0.03711174 -0.2185751 -0.16024718 -0.13087624 -0.10128156 -0.09756051 -0.23814495 -0.2490516
-0.20496859 -0.1305663 -0.14619142 -0.16476499 -0.29256454 -0.21494336 -0.23527497 -0.1193721
-0.19426492 -0.22209224 -0.09665778 -0.1974182 -0.17611687 -0.06444596 -0.08604987 -0.07712309
-0.2213544 -0.17296287 -0.2172242 -0.11647161 -0.24051966 -0.20150606 -0.22300622 -0.21960312
-0.101064034 0.06772955 -0.15634367 -0.21931101 -0.20505656 -0.27667648 -0.14951737 -0.1687884
-0.17178379 -0.11132369 -0.38509357 -0.114878364 -0.23878455 -0.25017062 -0.20021717 -0.046093307
-0.17394713 -0.33984554 -0.200937 -0.046630982 -0.14335868 -0.2261905 -0.26659748 -0.22136089
-0.16572914 -0.22449867 -0.22702289 -0.22327189 -0.049859114 -0.082270645 -0.21541736 -0.18108962
-0.11881596 -0.27867064 -0.227036 0.012966228 -0.14687704 0.042708743 -0.054712504 -0.20320545
-0.19197427 -0.14962055 -0.11013324 -0.13610199 -0.26354384 -0.11914194 -0.207765 -0.19160253
-0.22485094 -0.21412809 -0.23255272 -0.24178585 -0.28386325 -0.20232068 -0.19500779 -0.17691062
00000000: 7600 83be 782d c4bd a5ac 0ebe 86dd 7bbe
00000010: a9e0 cfbd 5e64 3dbe 7789 99be 81bc 2ebe
00000020: 3c72 60be 8e42 66be f10a 19be 45b8 d0bd
00000030: de9b 4dbe d0b7 4bbe 2bdc 5dbe 1feb 15be
00000040: c806 5dbe 6c5d 87be 7ab0 7bbe c2a4 2abe
00000050: a541 77be 749a 85be 5553 1abd bdc4 42be
00000060: cbec 93be f7a8 353d 2cb8 23be 90dc 86be
00000070: c53c 4bbd 0f91 48be 154c 14be f026 7ebe
00000080: 2c7c 5dbe 5bd7 35be 90ae 5bbe 3b9d 5bbe
00000090: 889a 69be 979b 3ebe 4203 4dbe 5c7b 52be
000000a0: 0204 82be bbf3 4abe a745 2dbe 6a6c b8bd
000000b0: 30be 31be 3936 e8bd 007d a0bd f6ce d4bd
000000c0: 586f 87be d7df babb ed36 56be 9554 1cbe
000000d0: 52b0 2dbe 47f6 27be 3e5a b1bd 81f2 49be
000000e0: e8ac 37be 47eb e63c 9ce9 11be 6b4f c8bd
000000f0: 9a0c 8bbc 63ad 4bbe 2fbf 4dbd 8a11 0fbe
00000100: 7069 b4bd 7123 b2bd eecc 6abe 4938 58be
00000110: 414e 59be 5c96 2dbe ce3a 3dbe 3772 4ebe
00000120: 09bb 4ebe ee35 f3bd d340 76be dd2b a5bd
00000130: 81d8 77be a111 d33c 3d45 acbc 0e4e 73be
00000140: 7b8c 69bd 202e 7dbd 4987 58be 1696 28be
00000150: baaf 71be 0dc6 2cbe 5d3a 25be 4502 16bd
00000160: f5fc 3fbe 8e2e 8abe 63ce 6ebe 4ba7 d0bd
00000170: 906c 21be 7b9e 80be 394d c2bd baf5 66bd
00000180: 406a 68be ea72 12bd 92b3 fcbd fdcd 30be
00000190: 1322 2bbe b0d3 8cbe 8bc7 50be e35d 743d
000001a0: 5595 85be bfdc 0dbe 3822 9ebd ddb5 85be
000001b0: 8d6f 72be 1444 013e 4d47 45be 983b 12be
000001c0: 7b02 18bd 27d2 5fbe d617 24be 6c04 06be
000001d0: b56c cfbd cecd c7bd 45dc 73be 6207 7fbe
000001e0: 49e3 51be 2cb3 05be 34b3 15be 27b8 28be
000001f0: 05cb 95be 1d1a 5cbe eceb 70be 5c79 f4bd
00000200: 62ed 46be 266c 63be 84f4 c5bd ff27 4abe
00000210: fb57 34be 3efc 83bd ea3a b0bd b6f2 9dbd
00000220: baaa 62be 2e1d 31be 0570 5ebe ab88 eebd
00000230: c94a 76be 9b57 4ebe be5b 64be a4df 60be
00000240: a9fa cebd cab5 8a3d 8e18 20be 1193 60be
00000250: 59fa 51be 8aa8 8dbe 151b 19be ded6 2cbe
00000260: 17e8 2fbe adfd e3bd fc2a c5be 5945 ebbd
00000270: f083 74be 5d16 80be bb05 4dbe 56cc 3cbd
00000280: 321f 32be 3c00 aebe 6ec2 4dbe 2100 3fbd
00000290: 9ecc 12be 7c9e 67be 777f 88be 6eac 62be
000002a0: e6b4 29be fbe2 65be b078 68be 63a1 64be
000002b0: 1239 4cbd 837d a8bd 5e96 5cbe 8f6f 39be
000002c0: c855 f3bd ebad 8ebe 207c 68be 4d70 543c
000002d0: ef66 16be 5def 2e3d 381a 60bd 1715 50be
000002e0: e794 44be 2136 19be 898d e1bd 525e 0bbe
000002f0: 38ef 86be b000 f4bd 59c0 54be 7433 44be
00000300: 533f 66be 6544 5bbe 4d22 6ebe b696 77be
00000310: 8656 91be 272d 4fbe 1fb0 47be 0f28 35be

hidden1_Y1.weight f4 [200, 200]
-0.3459956 0.1709016 -0.000515654 -0.22124937 0.107665874 -0.098995894 0.29586253 0.10261873
0.030002574 0.028331216 0.06627517 -0.023369899 -0.14693296 0.26642725 -0.018260282 -0.116195165
-0.06933389 -0.26623645 0.11824075 0.00988064 0.00818262 0.13909265 0.23742902 0.022910152
0.11096146 -0.07760614 -0.0047726817 -0.0020283242 0.092432916 0.09891859 -0.052468523 -0.25844568
0.23425083 -0.11310576 0.19107513 -0.09541395 -0.045983598 -0.121473856 -0.12781943 0.07831295
0.103013225 0.011109283 -0.08091688 0.19515175 0.12679707 0.18841495 0.04861559 0.06296068
0.11116411 0.15166067 0.057467945 -0.1756599 0.07328573 0.0690436 -0.12469897 -0.023404391
0.0065508746 -0.06310779 0.057478137 0.18231642 -0.05336671 0.0767097 0.02904953 -0.17641632
0.046013977 -0.12252055 -0.11436193 -0.020581177 -0.12532835 0.054463807 -0.064830765 0.02747118
0.056643844 -0.043488234 0.12547514 0.03297207 0.020304702 0.08451453 0.064709485 0.19340569
-0.31517303 0.068247706 -0.04817999 0.28213844 0.10211597 0.27904755 -0.00573521 0.09525709
0.40234292 0.14632311 0.09364454 0.17802869 0.049212422 -0.17617618 0.33836323 0.20476596
-0.1467072 0.05787026 0.0028514385 -0.03718086 0.066649094 -0.0005699394 -0.014643681 -0.04644377
0.17347306 -0.033612926 -0.36742276 0.34570783 0.28728774 -0.25504714 0.0655742 0.22953977
-0.1612055 0.02834621 -0.068347335 -0.09325562 0.06846109 0.14121038 -0.064787544 -0.115247235
0.07678581 0.2805657 0.028001111 -0.15226035 0.15539758 -0.052143365 0.018493764 0.05136275
-0.017467383 0.31088093 -0.088309474 0.07210562 -0.09026326 -0.10126056 -0.1193298 0.09065146
0.19532071 0.033074092 -0.008410439 0.021643035 0.11553541 -0.052652594 -0.13786039 0.121995784
-0.1355439 0.062579446 -0.10084943 -0.061252583 0.24557182 -0.017333552 0.13576952 0.16052595
0.07836611 0.11589309 -0.13646787 -0.2013503 0.13167258 -0.15446368 -0.061920654 -0.040144973
0.11488766 -0.048981965 0.15712507 -0.11498078 0.12637462 -0.098284826 -0.017842408 0.009210007
0.027105901 0.2853249 0.17476082 -0.089912124 0.04085659 0.14491153 -0.001910718 0.022076663
0.1206707 -0.038197137 -0.003314751 0.08231062 -0.073439814 0.021040127 -0.008893669 0.11969777
0.077027954 0.058499634 -0.06137211 -0.010019076 0.06499197 -0.04555804 0.08770855 0.0010070109
0.11697245 0.052293465 -0.03326251 -0.017549353 -0.12708785 -0.20533195 -0.016759414 -0.016060263
-0.2549116 0.23084873 0.075122364 -0.08346675 0.08447939 -0.10516185 0.15847978 0.19590026
-0.0036517635 0.10909916 -0.030410845 0.09323999 -0.13991065 0.2753847 -0.092252344 0.069103666
-0.06467891 -0.14537062 -0.13568212 0.10679738 -0.064117625 0.2381918 -0.04854462 -0.0035016234
-0.10112474 -0.004007853 -0.058496557 0.005664167 -0.032066893 0.17327164 -0.05322022 -0.18671608
0.37223935 -0.17705844 0.0030674066 -0.022404773 -0.047184188 0.05058614 0.003907768 -0.09144405
-0.11952469 0.1870647 -0.06312345 -0.0746678 -0.029057784 0.16974936 0.027686412 -0.105179265
-0.05127947 -0.17118675 -0.015691727 0.05275466 0.07599324 0.032577325 0.1866456 0.041539304
00000000: 5626 b1be d400 2f3e f42c 07ba 328f 62be
00000010: ed7f dc3d 5cbe cabd 4b7b 973e c529 d23d
00000020: f5c7 f53c de16 e83c 47bb 873d 3b72 bfbc
00000030: 9875 16be 2769 883e 9696 95bc bbf7 edbd
00000040: edfe 8dbd 2550 88be 3528 f23d 68e2 213c
00000050: 6510 063c 4e6e 0e3e 9820 733e 12ae bb3c
00000060: c33f e33d f8ef 9ebd 2864 9cbb a2ed 04bb
00000070: 784d bd3d d495 ca3d 3ce9 56bd fe52 84be
00000080: 73df 6f3e fea3 e7bd 33a9 433e 6468 c3bd
00000090: 4c59 3cbd 49c7 f8bd 19e3 02be 8a62 a03d
000000a0: 99f8 d23d b603 363c c0b7 a5bd dcd5 473e
000000b0: 17d7 013e d9ef 403e 2421 473d 87f1 803d
000000c0: 02aa e33d ef4c 1b3e 8263 6b3d 30e0 33be
000000d0: d416 963d bb66 8d3d 2c62 ffbd 91ba bfbc
000000e0: b8a8 d63b a83e 81bd 326e 6b3d 28b1 3a3e
000000f0: 0d97 5abd fa19 9d3d 48f9 ed3c 7ba6 34be
00000100: 2779 3c3d 0eec fabd 9636 eabd db99 a8bc
00000110: 1356 00be 7115 5f3d fec5 84bd 3d0b e13c
00000120: 6003 683d b820 32bd 8e7c 003e b90d 073d
00000130: 0c56 a63c f415 ad3d 6886 843d 240c 463e
00000140: 5c5e a1be 74c5 8b3d 6258 45bd 7374 903e
00000150: 2d22 d13d 52df 8e3e 6eee bbbb 2616 c33d
00000160: e4ff cd3e bad5 153e b5c8 bf3d 274d 363e
00000170: f792 493d 8767 34be f23d ad3e 2bae 513e
00000180: 6a3a 16be 5e09 6d3d 33df 3a3b f54a 18bd
00000190: 527f 883d fc67 15ba 0dec 6fbc d33b 3ebd
000001a0: eca2 313e b5ad 09bd d61e bcbe 9e00 b13e
000001b0: 6117 933e 8a95 82be c44b 863d 790c 6b3e
000001c0: 0e13 25be 5036 e83c b0f9 8bbd cdfc bebd
000001d0: 5435 8c3d 7499 103e 55af 84bd be06 ecbd
000001e0: e141 9d3d 4fa6 8f3e 9662 e53c 23ea 1bbe
000001f0: 8b20 1f3e 4894 55bd 3c80 973c bf61 523d
00000200: c217 8fbc c92b 9f3e 99db b4bd 1cac 933d
00000210: f2db b8bd b261 cfbd 2f63 f4bd 79a7 b93d
00000220: 2702 483e b378 073d f0cb 09bc bc4c b13c
00000230: d49d ec3d 3faa 57bd 462b 0dbe edd8 f93d
00000240: 05cc 0abe a729 803d 258a cebd fde3 7abd
00000250: 2e77 7b3e 18ff 8dbc 2a07 0b3e ea60 243e
00000260: 697e a03d 5b59 ed3d 3cbe 0bbe c62e 4ebe
00000270: 2dd5 063e ba2b 1ebe 83a0 7dbd 0e6f 24bd
00000280: 394a eb3d 50a1 48bd 65e5 203e 0b7b ebbd
00000290: 5968 013e 8e49 c9bd 3e2a 92bc 92e5 163c
000002a0: 320d de3c 1b16 923e 80f4 323e d923 b8bd
000002b0: 3d59 273d b063 143e 0f71 faba 1eda b43c
000002c0: 3322 f73d 9a74 1cbd 4b3c 59bb 7892 a83d
000002d0: 9d67 96bd 585c ac3c c0b6 11bc 1b24 f53d
000002e0: d5c0 9d3d 509d 6f3d 5261 7bbd 0d27 24bc
000002f0: 831a 853d 119b 3abd 8aa0 b33d aefd 833a
00000300: 408f ef3d ac31 563d 453e 08bd a9c3 8fbc
00000310: 5123 02be 8a42 52be 0a4b 89bc d090 83bc
00000320: c683 82be 9c63 6c3e c1d9 993d 9ef0 aabd
00000330: 8803 ad3d 195f d7bd 8648 223e 149a 483e
00000340: 6d52 6fbb 616f df3d 2a20 f9bc 9cf4 be3d
00000350: bd44 0fbe 39ff 8c3e ccee bcbd 3986 8d3d
00000360: 6076 84bd 09dc 14be 41f0 0abe 96b8 da3d
00000370: 1a50 83bd 8de8 733e b9d6 46bd 7e7b 65bb
00000380: 7d1a cfbd 4f54 83bb 169a 6fbd 7a9a b93b
00000390: 9358 03bd 1f6e 313e 72fd 59bd 8032 3fbe
000003a0: 2896 be3e cf4e 35be 8b06 493b 378a b7bc
000003b0: 3544 41bd 6a33 4f3d bc0c 803b 0547 bbbd
000003c0: 5cc9 f4bd e48d 3f3e de46 81bd 6eeb 98bd
000003d0: 970a eebc c7d2 2d3e 9dce e23c 3a68 d7bd
000003e0: 6c0a 52bd 944b 2fbe f08b 80bc 4515 583d
000003f0: 58a2 9b3d cd6f 053d 0620 3f3e 1e25 2a3d

hidden1_Y1.bias f4 [200]
0.14918602 0.080336235 -0.08724094 -0.039841354 0.009036417 -0.015505163 0.09502932 -0.06745489
-0.037523746 -0.023376908 -0.16523159 -0.07499006 -0.14928006 0.097302504 -0.09053823 0.079513595
-0.07995557 0.12418985 -0.082850866 -0.13390598 0.058375623 -0.037979666 -0.041417282 -0.09748718
0.085616365 -0.0475692 -0.12174842 0.05343638 0.055494633 -0.027723245 -0.10243983 0.10674073
-0.0067358892 0.08865798 -0.12856673 0.095502555 -0.11186033 0.122042984 -0.14760329 0.037870016
-0.0038916008 0.042376194 -0.116428584 0.009948392 -0.048683804 -0.11180968 -0.017310724 -0.12440293
-0.03217202 -0.1320157 0.047322743 -0.14325675 0.06905771 -0.10789305 -0.12827434 -0.080867454
-0.01713023 -0.097144455 0.07321474 0.07560461 -0.08972686 0.03108528 -0.069944106 0.06643427
0.0518256 -0.10720069 0.03811942 -0.19381055 -0.14664017 -0.10640001 -0.10226908 -0.108993605
-0.024472551 -0.13644658 0.09311204 -0.087306775 -0.13362892 -0.10339704 0.090442546 -0.06500174
-0.014146712 -0.08382349 -0.13914263 -0.1302917 -0.08086597 0.0052570393 -0.072501965 -0.04912728
-0.03760894 -0.09006226 -0.033479806 -0.14135166 -0.1001547 -0.09295691 0.08387962 -0.036009125
-0.15004125 0.03559794 -0.16151708 -0.11353483 -0.09213316 0.10177383 0.00014453316 -0.07627481
-0.046381608 0.119996905 0.0080040265 -0.08517836 0.06362061 -0.061394084 -0.11092394 -0.10337802
-0.09384738 -0.055857558 -0.11763419 0.019137755 -0.073376656 -0.043083273 -0.10930022 -0.13814071
-0.12901244 -0.12554468 0.03131776 0.033476494 0.08761312 -0.022278246 -0.17135967 0.06379932
0.03932489 -0.091746494 -0.08682109 -0.13399488 -0.1388178 -0.09906283 -0.023579698 -0.052488785
-0.17211488 -0.080695316 0.12399334 -0.14486125 0.006263919 0.006324251 0.024947913 -0.07375197
-0.014403502 -0.07123101 -0.102695845 0.07169617 -0.005564016 0.013793138 -0.18332322 -0.1283901
-0.03733485 -0.14135133 -0.14139253 0.07902405 -0.12023575 -0.115702145 -0.12367028 -0.109754525
0.09876735 -0.057458322 0.07148792 -0.16779464 0.015916143 0.098540574 0.029386938 0.04040563
-0.073392704 -0.18167795 -0.09708129 -0.1152769 -0.14477848 -0.11917192 0.052114725 -0.14972942
-0.12517178 -0.1235021 -0.09703112 -0.025262699 -0.07547643 -0.088646084 0.15308562 -0.10755375
-0.13453165 0.11115893 -0.10775874 -0.12855253 -0.11602284 -0.092083186 0.024880182 0.12458931
-0.054836005 0.0113751795 -0.09372135 -0.1629712 0.09094095 -0.11538945 -0.08600312 -0.12252284
00000000: 38c4 183e 5387 a43d 61ab b2bd b030 23bd
00000010: 7b0d 143c 5e09 7ebc bb9e c23d ca25 8abd
00000020: 80b2 19bd ee80 bfbc 7832 29be 6394 99bd
00000030: dfdc 18be 8946 c73d 1c6c b9bd 06d8 a23d
00000040: bfbf a3bd 4057 fe3d b7ad a9bd a61e 09be
00000050: 471b 6f3d 9190 1bbd 2ba5 29bd 5ca7 c7bd
00000060: a257 af3d ecd7 42bd 3c57 f9bd 1be0 5a3d
00000070: 574e 633d dc1b e3bc f9cb d1bd e29a da3d
00000080: bcb8 dcbb 5192 b53d ffa6 03be d896 c33d
00000090: 0717 e5bd acf1 f93d 5125 17be 971d 1b3d
000000a0: 3a0a 7fbb a992 2d3d 1c72 eebd 95fe 223c
000000b0: ab68 47bd 79fc e4bd 38cf 8dbc f7c6 febd
000000c0: cfc6 03bd 202f 07be 7ed5 413d e6b1 12be
000000d0: 216e 8d3d 08f7 dcbd 595a 03be d69d a5bd
000000e0: b254 8cbc acf3 c6bd 9cf1 953d 97d6 9a3d
000000f0: b7c2 b7bd 8fa6 fe3c db3e 8fbd b10e 883d
00000100: 1547 543d 098c dbbd 1c23 1c3d 4676 46be
00000110: d728 16be 40e8 d9bd 7472 d1bd 0a38 dfbd
00000120: a97a c8bc a7b8 0bbe 86b1 be3d e5cd b2bd
00000130: 05d6 08be d4c1 d3bd f139 b93d a21f 85bd
00000140: 9cc7 67bc a6ab abbd 687b 0ebe 306b 05be
00000150: 0f9d a5bd 3e43 ac3b e97b 94bd b039 49bd
00000160: d50b 1abd 9072 b8bd 1f22 09bd 7dbe 10be
00000170: e81d cdbd 3160 bebd 14c9 ab3d 4e7e 13bd
00000180: 6aa4 19be 25cf 113d bc64 25be f384 e8bd
00000190: 4fb0 bcbd cc6e d03d d38d 1739 f835 9cbd
000001a0: a4fa 3dbd f0c0 f53d 5223 033c fe71 aebd
000001b0: 864b 823d 5d78 7bbd 172c e3bd dbb7 d3bd
000001c0: 0e33 c0bd e5ca 64bd 32ea f0bd c8c6 9c3c
000001d0: 8046 96bd 1678 30bd cbd8 dfbd c274 0dbe
000001e0: d61b 04be c98e 00be 0d47 003d a61e 093d
000001f0: 826e b33d de80 b6bc e978 2fbe 38a9 823d
00000200: 2313 213d 96e5 bbbd 41cf b1bd f435 09be
00000210: 4126 0ebe 74e1 cabd 362a c1bc 7bfe 56bd
00000220: e23e 30be 9643 a5bd 38f0 fd3d 8256 14be
00000230: 9041 cd3b aa3b cf3b 915f cc3c 460b 97bd
00000240: abfc 6bbc 90e1 91bd 3352 d2bd 71d5 923d
00000250: 5952 b6bb 9dfc 613c 15b9 3bbe b278 03be
00000260: 6dec 18bd 67be 10be 34c9 10be 5cd7 a13d
00000270: 293e f6bd 3ff5 ecbd d846 fdbd fbc6 e0bd
00000280: 8946 ca3d 6b59 6bbd 4268 923d 5cd2 2bbe
00000290: 9262 823c a4cf c93d e0bc f03c 6080 253d
000002a0: ea4e 96bd c909 3abe 8ed2 c6bd 4c16 ecbd
000002b0: cf40 14be 6810 f4bd 4076 553d ab52 19be
000002c0: 082d 00be abee fcbd 40b8 c6bd b8f3 cebc
000002d0: 6393 9abd 148c b5bd 7ac2 1c3e 2445 dcbd
000002e0: aac2 09be 4ba7 e33d 9db0 dcbd 46a3 03be
000002f0: 629d edbd 1c96 bcbd 86d1 cb3c ae28 ff3d
00000300: b89b 60bd f65e 3a3c fbf0 bfbd ece1 26be
00000310: 403f ba3d 4e51 ecbd 6722 b0bd 41ed fabd

hidden2_Y1.weight f4 [200, 200]
0.115324005 -0.015980426 -0.14657421 -0.19530374 0.06539741 0.0415174 0.021069052 0.01995999
0.08153728 -0.108480014 -0.02753229 -0.052720275 0.049565908 -0.056696214 -0.04150568 -0.069799066
-0.08124744 0.017666344 0.094895355 -0.011558276 -0.008527429 0.114626035 -0.042765956 -0.035440143
0.23324277 0.033657346 0.11143011 0.040053394 0.025163399 0.12156106 -0.07285941 -0.024708156
-0.11331556 0.021566411 -0.027312554 0.15965113 0.045069363 0.034652963 0.04030761 -0.11460913
0.0227379 0.23961793 -0.072690375 -0.034679037 0.09402366 0.05937182 -0.032965936 0.09488163
-0.018271508 -0.04584005 0.04900006 -0.06682413 0.01939795 0.09806632 0.058656838 0.03225438
0.108183205 -0.04397769 -0.08589313 0.124656394 -0.07890026 -0.00291638 -0.124760166 0.15255909
0.10388431 -0.13899237 0.14833881 0.056555822 -0.021098929 -0.091675155 -0.017395286 -0.20925039
0.09494956 -0.04538828 -0.23529 -0.019919777 0.07353327 0.0026313693 0.09834849 -0.0755187
0.14776418 0.052097492 -0.004724654 0.049065866 0.014007397 -0.04215901 -0.16548128 0.09693241
0.090870574 -0.079151966 0.113385476 0.02617733 0.011851551 -0.20328994 -0.15340234 -0.13333902
-0.13693121 -0.15705538 0.060779367 0.03939466 -0.0804854 -0.27283272 0.03395749 -0.027204392
-0.07809915 -0.007979006 -0.07316269 -0.15346451 -0.084150605 -0.007005173 0.0416231 0.0012461583
0.04354842 -0.039607983 -0.20115076 0.073768996 -0.04956718 -0.045259554 0.14237852 -0.08763682
-0.10537232 -0.06315387 0.20335448 0.07152787 -0.10189153 0.12133195 0.09387681 0.039096415
-0.025765441 -0.15067513 -0.048961688 -0.061854202 -0.06522394 0.047118664 -0.03870338 -0.07256544
0.09177213 -0.0663799 0.038691275 -0.072592594 -0.07466309 0.2052314 0.22824459 0.015755152
0.13685203 -0.05969569 -0.09314084 -0.06695559 -0.1154998 -0.029481262 -0.007945482 0.046406828
-0.077836595 0.0055781496 -0.019441653 0.039810624 -0.018910239 -0.20264517 -0.021911025 0.053392906
-0.09225902 -0.035757657 -0.09812199 0.09138441 0.106631674 -0.09917649 0.018186022 -0.18728901
-0.0284708 -0.06613935 4.9458345e-06 0.028401643 -0.00059964723 -0.20946553 -0.058344375 0.15060194
-0.12662156 -0.13222845 0.14494033 0.13871452 0.1339901 -0.037515476 -0.124372914 -0.0985458
0.045086525 0.012062717 0.052363563 0.05155739 -0.13611501 -0.14199586 0.03048361 0.20866294
0.17047149 -0.10255436 -0.03225073 -0.23784444 -0.08824932 0.06749673 0.008589151 -0.14186005
0.026949616 -0.098384194 -0.027963081 0.027416658 -0.07310765 -0.17606464 -0.13155508 -0.16519403
0.10813144 -0.16413331 0.006628406 -0.14864899 0.014479408 0.03197498 -0.008277484 -0.11120506
0.028027976 -0.075828716 0.12338762 0.066823095 -0.06893674 0.008227208 -0.005701853 -0.18973844
-0.25532126 -0.008876142 -0.020336213 -0.12835272 -0.14240387 -0.1504863 -0.055475637 -0.10480188
-0.12405573 0.010874076 0.114071436 -0.2155452 -0.046675626 -0.12593918 -0.05267697 -0.037454117
-0.1317239 -0.15322411 -0.08116519 -0.084757075 0.013610446 -0.06796722 0.019831682 0.029874533
-0.14006445 -0.12620725 -0.048787687 0.04904047 -0.0141266985 -0.120930925 -0.08021873 0.031614322
00000000: fe2e ec3d 62e9 82bc 8d17 16be b4fd 47be
00000010: 14ef 853d 260e 2a3d 0199 ac3c 2283 a33c
00000020: 04fd a63d c52a debd 668b e1bc 37f1 57bd
00000030: 9f05 4b3d 4a3a 68bd dc01 2abd d0f2 8ebd
00000040: 0f65 a6bd 02b9 903c 7f58 c23d ec5e 3dbc
00000050: a1b6 0bbc 0ec1 ea3d 5b2b 2fbd af29 11bd
00000060: 31d7 6e3e 49dc 093d 7835 e43d 070f 243d
00000070: 7923 ce3c 01f5 f83d 5037 95bd c268 cabc
00000080: fd11 e8bd 0bac b03c 94be dfbc 967b 233e
00000090: a79a 383d 44f0 0d3d 9819 253d 31b8 eabd
000000a0: d544 ba3c 675e 753e b1de 94bd 9b0b 0ebd
000000b0: 7a8f c03d de2f 733d 4a07 07bd 4d51 c23d
000000c0: 21ae 95bc c7c2 3bbd 49b4 483d 17db 88bd
000000d0: 73e8 9e3c ffd6 c83d 2742 703d 2b1d 043d
000000e0: 288f dd3d f321 34bd bde8 afbd da4b ff3d
000000f0: 7696 a1bd bd20 3fbb 4282 ffbd 7338 1c3e
00000100: 4cc1 d43d 0454 0ebe 21e6 173e 14a7 673d
00000110: a9d7 acbc 2fc0 bbbd 8f80 8ebc bc45 56be
00000120: ea74 c23d 10e9 39bd ddef 70be cd2e a3bc
00000130: 9c98 963d 0d73 2c3b ef6a c93d 8ca9 9abd
00000140: 7e4f 173e 2e64 553d 45d1 9abb 4af9 483d
00000150: 487f 653c edae 2cbd ed73 29be 8084 c63d
00000160: 5a1a ba3d 6d1a a2bd a536 e83d d771 d63c
00000170: 022d 423c 3d2b 50be 8115 1dbe 068a 08be
00000180: b237 0cbe 20d3 20be c9f3 783d 4c5c 213d
00000190: 88d5 a4bd bbb0 8bbe 0217 0b3d bfdb debc
000001a0: 72f2 9fbd 60ba 02bc 52d6 95bd cd25 1dbe
000001b0: 2757 acbd a68b e5bb fc7c 2a3d 2256 a33a
000001c0: d45f 323d fb3b 22bd 77fa 4dbe 3314 973d
000001d0: f506 4bbd 1562 39bd adcb 113e ef7a b3bd
000001e0: 71cd d7bd d156 81bd 283c 503e 347d 923d
000001f0: 82ac d0bd e37c f83d 7c42 c03d 9023 203d
00000200: 0c12 d3bc 954a 1abe 0d8c 48bd d55a 7dbd
00000210: 2194 85bd 80ff 403d 6f87 1ebd 309d 94bd
00000220: 07f3 bb3d 2ff2 87bd be7a 1e3d 6dab 94bd
00000230: f6e8 98bd 2e28 523e f3b8 693e f310 813c
00000240: f022 0c3e 7883 74bd a0c0 bebd 0320 89bd
00000250: 298b ecbd b082 f1bc c42d 02bc 1615 3e3d
00000260: cb68 9fbd e9c8 b63b 1a44 9fbc 7710 233d
00000270: a5e9 9abc 3782 4fbe c07e b3bc 85b2 5a3d
00000280: 4cf2 bcbd 9f76 12bd 2ff4 c8bd c027 bb3d
00000290: b561 da3d 0b1d cbbd dafa 943c b1c8 3fbe
000002a0: 983b e9bc 1174 87bd 65f4 a536 90aa e83c
000002b0: a531 1dba 227e 56be 83fa 6ebd 6537 1a3e
000002c0: 15a9 01be e566 07be 3d6b 143e 2e0b 0e3e
000002d0: b334 093e d4a9 19bd 3ab7 febd 61d2 c9bd
000002e0: a6ac 383d b4a2 453c 2d7b 563d d72d 533d
000002f0: bc61 0bbe 5d67 11be c4b8 f93c bdab 553e
00000300: 1490 2e3e 0508 d2bd 5719 04bd 7e8d 73be
00000310: 0fbc b4bd ba3b 8a3d 83b9 0c3c c343 11be
00000320: 71c5 dc3c a77d c9bd d512 e5bc e698 e03c
00000330: 77b9 95bd 4a4a 34be 60b6 06be a028 29be
00000340: 0474 dd3d 9012 28be 1933 d93b 7137 18be
00000350: 0a3b 6d3c 32f8 023d 499e 07bc 7abf e3bd
00000360: ed9a e53c 164c 9bbd a6b2 fc3d 8cda 883d
00000370: b52e 8dbd 69cb 063c 9cd6 babb cb4a 42be
00000380: 78b9 82be 3d6d 11bc 2198 a6bc e56e 03be
00000390: 52d2 11be 1519 1abe 6c3a 63bd 5ea2 d6bd
000003a0: ee10 febd 2e29 323c 499e e93d e2b7 5cbe
000003b0: f12e 3fbd 33f6 00be cec3 57bd 7d69 19bd
000003c0: a1e2 06be c8e6 1cbe ef39 a6bd 1e95 adbd
000003d0: 59fe 5e3c 6632 8bbd 0d76 a23c 70bb f43c
000003e0: 0e6d 0fbe 793c 01be 99d5 47bd a9de 483d
000003f0: ab73 67bc a2aa f7bd b849 a4bd 057e 013d

hidden2_Y1.bias f4 [200]
0.07004728 0.014035772 -0.060557988 0.1829975 0.30890766 0.20795731 -0.04203565 -0.07102495
-0.03669921 -0.051730104 -0.04079718 -0.12555383 0.11573666 -0.081120506 0.29322004 0.03710371
0.008150449 -0.0630375 -0.02353437 0.03994185 0.11814756 -0.036206786 -0.06929364 -0.046111524
0.014638234 -0.046083674 0.25995687 -0.087616585 0.04939582 -0.0014419241 0.20500073 -0.055449694
-0.03540146 0.23270828 -0.11025647 -0.06996158 0.19517362 0.10011852 -0.04332929 0.23037197
0.25292772 -0.08279227 0.0745401 -0.074083015 -0.06905097 -0.10920771 -0.11304671 -0.12492434
0.1920714 -0.1283291 0.0067867944 0.25550672 -0.031267107 0.28661874 -0.07769326 0.0042385925
0.010122928 0.014533813 -0.09407716 0.27965498 -0.15942954 -0.0610501 -0.033264708 -0.0906768
-0.080086574 -0.12751529 -0.042229705 -0.07505691 0.11680109 -0.13612491 0.2135347 -0.07037884
-0.07925446 -0.014717692 0.08220833 0.29341826 -0.020281231 0.33538222 0.013431199 -0.12732348
0.2643611 -0.10371249 -0.111555554 -0.11824465 0.023950348 0.040355526 -0.06690141 -0.0734521
0.23473623 -0.047445655 -0.087957926 -0.06633357 0.22939932 -0.0070161545 0.0097694015 -0.1033953
0.24785721 0.3074439 0.26545957 0.061476264 0.33368933 0.22354116 0.2893226 -0.07503912
-0.13707753 0.06306277 -0.021123763 0.2574126 0.19275746 -0.1009255 -0.08586442 -0.06876416
0.026628193 -0.16652484 0.24038059 0.29117334 -0.10742404 -0.077186994 -0.098099925 0.17495076
0.26447776 -0.054715004 -0.092164494 0.036016714 -0.00013723272 -0.11376085 -0.027350817 -0.09173009
0.25346538 -0.06976851 0.26041868 -0.08319843 0.30142027 -0.026050573 0.19707595 0.31202424
0.000964042 -0.111891635 -0.09287068 -0.030151406 -0.07060011 -0.07875146 -0.06597805 0.1890325
-0.1860838 -0.09013947 0.30518362 -0.0044789915 -0.1082886 -0.05780828 -0.08230159 0.0011288369
0.26317635 -0.1617277 -0.050395563 -0.07587672 -0.077460565 -0.008723372 0.045959685 -0.040674906
0.061261702 0.24749123 0.28527668 -0.00015316118 -0.10645009 -0.06799951 0.2633479 -0.048116434
0.08600567 0.018130137 -0.10910049 0.253301 -0.12061676 0.07020859 0.014406236 -0.06769049
-0.068405166 -0.10414351 0.069575034 -0.1124917 0.21264017 0.03501298 -0.076915614 -0.084845796
-0.104084775 -0.011986725 -0.06397466 0.034632705 -0.016608436 0.17856294 0.23675649 0.04764364
-0.046036914 0.2061943 0.08989018 0.26588464 -0.08998682 -0.034772422 0.21258841 0.28588688
00000000: f374 8f3d 4bf6 653c a70b 78bd b263 3b3e
00000010: 2529 9e3e c3f2 543e 932d 2cbd 8775 91bd
00000020: e951 16bd f2e2 53bd f21a 27bd 2f91 00be
00000030: 5807 ed3d 8222 a6bd f020 963e 0ffa 173d
00000040: 7689 053c ce19 81bd 27cb c0bc 119a 233d
00000050: 59f7 f13d 914d 14bd d3e9 8dbd 70df 3cbd
00000060: 34d5 6f3c 3cc2 3cbd 1119 853e 5370 b3bd
00000070: 4553 4a3d f2fe bcba b6eb 513e 381f 63bd
00000080: 1f01 11bd 144b 6e3e 25ce e1bd 0448 8fbd
00000090: 98db 473e f00a cd3d 0e7a 31bd a1e6 6b3e
000000a0: be7f 813e fe8e a9bd 7ba8 983d d6b8 97bd
000000b0: 986a 8dbd 4ba8 dfbd 0985 e7bd 55d8 ffbd
000000c0: 5dae 443e b468 03be c263 de3b c7d1 823e
000000d0: f011 00bd b1bf 923e a51d 9fbd e4e3 8a3b
000000e0: a3da 253c 3b1f 6e3c 87ab c0bd f02e 8f3e
000000f0: 7f41 23be ab0f 7abd 9340 08bd c2b4 b9bd
00000100: 6e04 a4bd 5e93 02be 0ef9 2cbd 70b7 99bd
00000110: 6935 ef3d 5464 0bbe d7a8 5a3e c822 90bd
00000120: 2a50 a2bd 7922 71bc d75c a83d eb3a 963e
00000130: d324 a6bc 38b7 ab3e 880e 5c3c 1661 02be
00000140: 575a 873e 3767 d4bd 3d77 e4bd 402a f2bd
00000150: 8533 c43c d64b 253d 9b03 89bd 0e6e 96bd
00000160: b25e 703e 6056 42bd 4923 b4bd e5d9 87bd
00000170: a8e7 6a3e c5e7 e5bb d70f 203c eac0 d3bd
00000180: 48ce 7d3e 4969 9d3e 51ea 873e 89ce 7b3d
00000190: 54d9 aa3e f9e7 643e 1822 943e 1cae 99bd
000001a0: 0d5e 0cbe 0e27 813d be0b adbc 96cb 833e
000001b0: 3662 453e 07b2 cebd afd9 afbd 39d4 8cbd
000001c0: 5e23 da3c 7d85 2abe 5426 763e ac14 953e
000001d0: 2301 dcbd 3714 9ebd 9de8 c8bd 4b26 333e
000001e0: a169 873e d71c 60bd bdc0 bcbd 4386 133d
000001f0: 21e6 0fb9 73fb e8bd d20e e0bc fcdc bbbd
00000200: 37c6 813e cbe2 8ebd 9955 853e f063 aabd
00000210: c253 9a3e 0368 d5bc 47ce 493e a4c1 9f3e
00000220: c3b7 7c3a 7127 e5bd fc32 bebd 1500 f7bc
00000230: ca96 90bd 7248 a1bd 801f 87bd bc91 413e
00000240: c08c 3ebe 0b9b b8bd 0741 9c3e 81c4 92bb
00000250: 6ac6 ddbd 60c8 6cbd bc8d a8bd 7bf5 933a
00000260: 0dbf 863e f29b 25be 946b 4ebd 4165 9bbd
00000270: a5a3 9ebd 79ec 0ebc 3940 3c3d bb9a 26bd
00000280: 8ded 7a3d 576e 7d3e c90f 923e e499 20b9
00000290: 8102 dabd 5443 8bbd 89d5 863e bd15 45bd
000002a0: be23 b03d a785 943c 1470 dfbd abb0 813e
000002b0: eb05 f7bd 85c9 8f3d 2208 6c3c 50a1 8abd
000002c0: 0218 8cbd 3149 d5bd 5b7d 8e3d 0c62 e6bd
000002d0: 58be 593e c569 0f3d ef85 9dbd a2c3 adbd
000002e0: 662a d5bd f863 44bc 2605 83bd 06db 0d3d
000002f0: 6a0e 88bc 34d9 363e 4b70 723e fa25 433d
00000300: 3491 3cbd 9924 533e 5818 b83d 0822 883e
00000310: 034b b8bd 876d 0ebd c7b0 593e c45f 923e

out_Y1.weight f4 [1, 200]
-0.09518026 -0.01541062 -0.01785357 0.06759318 0.14548004 0.10361832 -0.03166317 -0.21398911
0.015848644 -0.020114891 0.03365205 0.0017212672 0.1256115 -0.008724961 0.1628256 0.030205466
-0.103328526 -0.0215054 -0.05411437 -0.1383598 0.04346538 0.04475601 -0.13333784 -0.05441426
-0.11073382 -0.0027792607 0.059326865 0.005669077 0.023952207 0.016411386 0.040498063 0.0117527265
-0.04040192 0.05306408 0.0128218355 0.0002510042 0.072875306 0.03566404 0.011432312 0.022327878
0.09275183 -0.05957581 -0.12753229 -0.0014800007 -0.023406401 0.09168937 0.044614855 0.012140865
0.079041526 0.023419982 -0.074591815 0.08691668 -0.057765618 0.1250742 -0.0024683585 -0.004771647
-0.08093096 0.040644906 -0.09064284 0.1135051 0.061197154 -0.057135895 -0.13210493 0.0007575175
-0.08048338 -0.002707068 -0.011169774 0.031310316 -0.2001238 -0.026717944 0.05255739 -0.05032292
-0.06964046 -0.012950997 -0.21714878 0.16263969 0.014436922 0.19807802 -0.0067680287 0.059768077
0.10204297 0.038232554 -0.081576765 -0.11393604 -0.14032993 -0.23625502 0.001069584 -0.063740194
0.08386366 -0.12581187 0.007714607 -0.027887037 0.11622977 -0.013325792 0.0030851387 0.001962888
0.124910206 0.14865546 0.12720048 -0.16451047 0.17402941 0.09499386 0.13475852 0.016036743
0.011593291 -0.097966366 -0.026630545 0.08486596 0.067641154 -0.007413015 0.0021282304 0.013350924
-0.03400003 -0.026722463 0.14134578 0.09629395 -0.050166447 -0.05250906 0.021150567 0.036571212
0.121111885 -0.036169853 -0.09558094 -0.1485602 0.06456368 -0.03807756 -0.16422638 -0.04344808
0.102271125 -0.10166411 0.101489134 -0.024821987 0.16225615 0.009726865 0.053941783 0.2039572
0.022952778 -0.017492222 -0.031849507 -0.10813119 0.010075343 -0.00999864 -0.03747171 0.052323405
-0.017183535 -0.05066131 0.11870396 -0.016264118 -0.022475334 0.028466666 -0.028943216 -0.15081294
0.12976421 -0.0054283906 -0.025030168 -0.02424408 -0.03237111 -0.1375565 -0.13958001 -0.023527581
0.011231911 0.102009065 0.1504659 -0.12694697 -0.027903732 -0.028514316 0.07208005 -0.016256273
-0.15999748 -0.23179607 0.012006755 0.08204327 0.020660905 -0.11618301 -0.025507703 -0.025078692
-0.026872562 -0.128187 0.024646766 -0.039056323 0.06598862 -0.17093183 0.020144643 -0.030454125
-0.01496834 0.0020755485 -0.04901288 -0.17051612 0.027751496 0.109648116 0.12080771 0.06733539
-0.050769154 0.043695178 0.03406181 0.12915355 0.020656623 0.013635412 0.11367471 0.081258565
00000000: deed c2bd d37c 7cbc a641 92bc 4b6e 8a3d
00000010: b8f8 143e d735 d43d 3db1 01bd f61f 5bbe
00000020: 04d5 813c fcc7 a4bc bbd6 093d 259c e13a
00000030: 4da0 003e 24f3 0ebc c1bb 263e 7471 f73c
00000040: e89d d3bd 182c b0bc 08a7 5dbd 31ae 0dbe
00000050: c108 323d 1452 373d b789 08be 7de1 5ebd
00000060: 6ac8 e2bd 4224 36bb ba00 733d aac3 b93b
00000070: 6b37 c43c 2c71 863c 4ce1 253d 828e 403c
00000080: 7c7c 25bd b959 593d ad12 523c 3799 8339
00000090: a63f 953d 7514 123d 984e 3b3c f4e8 b63c
000000a0: acf4 bd3d c405 74bd d397 02be 95fc c1ba
000000b0: c8be bfbc a3c7 bb3d 11be 363d 7bea 463c
000000c0: 86e0 a13d 43db bf3c 98c3 98bd 5f01 b23d
000000d0: a49b 6cbd 7313 003e 2fc4 21bb 7a5b 9cbb
000000e0: 22bf a5bd 467b 263d f4a2 b9bd 5d75 e83d
000000f0: dea9 7a3d 5407 6abd 8446 07be 2494 463a
00000100: 78d4 a4bd 1169 31bb 6e01 37bc 3f3f 003d
00000110: 41ed 4cbe 97df dabc 6b46 573d 681f 4ebd
00000120: a89f 8ebd 6b30 54bc 405c 5ebe 058b 263e
00000130: d788 6c3c f7d4 4a3e 57c6 ddbb 5fcf 743d
00000140: e8fb d03d bd99 1c3d b811 a7bd 4c57 e9bd
00000150: a6b2 0fbe d6ec 71be 4931 8c3a 388a 82bd
00000160: b6c0 ab3d d4d4 00be d0ca fc3b 5b73 e4bc
00000170: e009 ee3d 6c54 5abc 0a30 4a3b cca3 003b
00000180: ecd0 ff3d 2339 183e d840 023e 6f75 28be
00000190: c434 323e 248c c23d 23fe 093e 7d5f 833c
000001a0: c9f1 3d3c 97a2 c8bd 4d28 dabc 34ce ad3d
000001b0: 7287 8a3d e0e8 f2bb c879 0b3b d5bd 5a3c
000001c0: 9e43 0bbd 11e9 dabc f3bc 103e c335 c53d
000001d0: 557b 4dbd bd13 57bd f443 ad3c b2cb 153d
000001e0: 8209 f83d d726 14bd f1bf c3bd 2a20 18be
000001f0: f639 843d 37f7 1bbd f62a 28be 9df6 31bd
00000200: 8673 d13d 4635 d0bd 89d9 cf3d 7b57 cbbc
00000210: 7a26 263e 6e5d 1f3c 0ff2 5c3d 28da 503e
00000220: 7707 bc3c d94b 8fbc a174 02bd e373 ddbd
00000230: 0d13 253c 56d1 23bc f07b 19bd 1151 563d
00000240: 7cc4 8cbc 3c82 4fbd 101b f33d 543c 85bc
00000250: 311e b8bc ed32 e93c 531a edbc b56e 1abe
00000260: e9e0 043e a4e0 b1bb 110c cdbc 859b c6bc
00000270: 9297 04bd 9cdb 0cbe 10ee 0ebe eabc c0bc
00000280: 0d06 383c 21ea d03d bc13 1a3e 63fe 01be
00000290: 5e96 e4bc db96 e9bc b59e 933d e02b 85bc
000002a0: 61d6 23be f35b 6dbe fbb7 443c 4d06 a83d
000002b0: 0f41 a93c 5cf1 edbd 88f5 d0bc d471 cdbc
000002c0: d923 dcbc 7443 03be 04e8 c93c 86f9 1fbd
000002d0: 0b25 873d c108 2fbe 6106 a53c ee7a f9bc
000002e0: c53d 75bc ed05 083b bbc1 48bd c79b 2ebe
000002f0: 1b57 e33c 318f e03d 086a f73d 23e7 893d
00000300: 51f3 4fbd b7f9 323d 6584 0b3d d440 043e
00000310: 1438 a93c 1067 5f3c 49ce e83d e46a a63d
