DCNModel/DCN_PD_NN_Models/NN_DCN_model_iter_id_100_epoch_100_lr_0.001.pth (torch_old, 828790 bytes, 14 tensors)

shared1.weight f4 [200, 25]
0.19406031 0.010201995 0.2040954 -0.1939819 -0.023238068 0.28047046 -0.18703626 -0.28002834
0.044496734 0.049065974 0.1335527 -0.28838545 -0.08039068 0.020237274 0.031127224 -0.2502541
-0.10606414 -0.036388706 -0.013517538 -0.12887038 0.05488754 0.13755547 -0.20870279 -0.114853874
-0.46371284 0.014406459 -0.016350903 -0.0004833007 -0.105494976 -0.017990163 0.021205721 -0.054606758
0.082822114 -0.101825505 -0.12073723 -0.11203393 -0.01812658 -0.04947689 -0.12241375 0.15674677
-0.088724375 -0.20808348 0.10564265 0.015608513 -0.08401935 -0.004881659 0.010248097 0.101331405
0.09904616 -0.14090183 -0.012247365 0.12849852 0.043466005 -0.106564336 -0.011539641 0.23934959
-0.2782989 -0.2088364 -0.068014964 0.07478038 0.10280436 -0.14888424 -0.11713497 -6.847384e-05
0.32387346 -0.10463406 -0.060502637 -0.12183567 -0.32448313 0.034592412 -0.17056176 -0.27109563
0.048198108 0.08579274 -0.3491234 0.03699777 0.027474195 0.07970531 0.055294402 0.020397581
-0.067480005 -0.041324344 -0.040830415 -0.03896647 -0.1052225 0.06256328 -0.1478914 -0.1583114
-0.06884257 0.07919683 -0.24491867 -0.1184727 0.026312087 0.04536731 -0.10430264 -0.009412126
0.044020884 -0.0049054646 -0.12412874 -0.07463529 -0.13934235 -0.05879847 -0.06604232 -0.1802236
0.053540185 0.04216784 -0.14943276 -0.12586066 -0.009065664 0.07163911 -0.1422094 -0.105399236
0.094525374 -0.23304605 -0.10931899 -0.04081148 -0.10594502 -0.08768793 0.0015256819 0.19621144
0.02064378 0.023070974 0.028081592 -0.1775538 0.111070134 -0.110156335 -0.20909245 -0.116669655
0.09619784 0.024609456 0.14070229 -0.07583329 0.07870475 0.13322979 0.14470163 -0.29167596
-0.07204318 0.19332051 -0.022707004 0.04785933 -0.15870251 -0.22487025 -0.30367932 0.060050685
0.0050943005 0.0121830655 0.23447296 -0.0957347 -0.3087031 0.14386158 0.019381609 -0.032076944
-0.052160442 0.007299414 -0.023927664 0.007908902 0.07508593 0.107631475 -0.09061605 0.015097604
0.07872835 0.004173833 -0.10979759 -0.06913701 -0.12068529 -0.16862234 -0.009818207 -0.16809522
-0.018080795 -0.0009899071 -0.12402983 -0.10808892 -0.009341606 0.045332883 -0.0367202 0.061707307
-0.0283658 0.07073247 -0.09329575 0.029529614 0.011869676 0.05313474 -0.009952777 0.079246275
-0.11743568 -0.043474033 0.005572846 -0.032417573 -0.12574136 -0.23345771 -0.00434748 -0.014332162
-0.1590306 0.016370693 -0.1434612 0.0016965816 -0.13139348 -0.14903829 -0.28568622 -0.075085975
0.020869983 0.10754099 0.089380845 -0.028938811 0.07978967 0.071389414 -0.056664057 0.055613857
0.109142914 -0.151233 -0.02359066 -0.15853631 -0.045373913 -0.15852493 0.071548164 -0.1141303
-0.17172505 -0.16979659 0.019443953 0.04508277 0.10716817 -0.10375109 0.007278934 0.09655234
-0.08555462 -0.10660881 0.1319428 0.106665805 -0.040778853 0.027078833 -0.005031116 -0.13831663
-0.05383055 -0.07573269 -0.16248232 0.0745173 -0.073451154 -0.18504153 -0.16599627 -0.068739556
0.033106938 0.11050909 -0.20203085 -0.06299399 -0.14040692 -0.03164929 0.0019134134 0.05009909
-0.13978513 0.09139084 -0.17284533 0.238263 0.116263695 -0.051197056 -0.02234829 -0.015346612
00000000: bfb7 463e 4526 273c 62fe 503e 31a3 46be
00000010: c35d bebc d399 8f3e 6f86 3fbe e05f 8fbe
00000020: 3542 363d 67f9 483d 0ac2 083e 42a7 93be
00000030: dea3 a4bd a4c8 a53c 85fe fe3c 4e21 80be
00000040: 2838 d9bd 530c 15bd aa78 5dbc 99f6 03be
00000050: c2d1 603d 57db 0c3e 2fb6 55be 8238 ebbd
00000060: c56b edbe 1209 6c3c 54f2 85bc 8663 fdb9
00000070: c00d d8bd 1b60 93bc 9fb7 ad3c 56ab 5fbd
00000080: a49e a93d e489 d0bd 1545 f7bd 0c72 e5bd
00000090: 327e 94bc 48a8 4abd 0fb4 fabd 3a82 203e
000000a0: 20b5 b5bd d613 55be 2c5b d83d d9ba 7f3c
000000b0: 5612 acbd 53f6 9fbb a2e7 273c d786 cf3d
000000c0: b7d8 ca3d 9248 10be 2ca9 48bc 1e95 033e
000000d0: 6909 323d 673e dabd c310 3dbc 0f18 753e
000000e0: 327d 8ebe 36d9 55be 6e4b 8bbd 7526 993d
000000f0: 188b d23d 1c75 18be 76e4 efbd 9d99 8fb8
00000100: bed2 a53e 624a d6bd 9dd1 77bd fb84 f9bd
00000110: a722 a6be c6b0 0d3d bea7 2ebe 0ccd 8abe
00000120: 616b 453d 1bb4 af3d 4dc0 b2be f98a 173d
00000130: 9011 e13c 8a3c a33d 627c 623d d418 a73c
00000140: f532 8abd b743 29bd cb3d 27bd 4e9b 1fbd
00000150: e57e d7bd 2d21 803d d870 17be 621c 22be
00000160: 55fd 8cbd f331 a23d f6cb 7abe d1a1 f2bd
00000170: 728c d73c 13d3 393d 9f9c d5bd 5135 1abc
00000180: 3e4f 343d 05be a0bb 3537 febd 63da 98bd
00000190: c3af 0ebe aad6 70bd 3241 87bd 898c 38be
000001a0: f44c 5b3d 2fb8 2c3d e704 19be 9ee1 00be
000001b0: 2788 14bc 87b7 923d 579f 11be 8edb d7bd
000001c0: 8596 c13d a0a3 6ebe a2e2 dfbd f029 27bd
000001d0: b4f9 d8bd bb95 b3bd 64f9 c73a a7eb 483e
000001e0: 251d a93c 57ff bc3c 5e0b e63c aad0 35be
000001f0: bd78 e33d a599 e1bd 551c 56be 80f0 eebd
00000200: 6003 c53d c599 c93c 4314 103e 7c4e 9bbd
00000210: f52f a13d 646d 083e aa2c 143e 8d56 95be
00000220: 608b 93bd d0f5 453e 0a04 babc 2508 443d
00000230: e982 22be 6344 66be db7b 9bbe b5f7 753d
00000240: 17ee a63b 7b9b 473c ae19 703e 8e10 c4bd
00000250: 550e 9ebe 7350 133e 2ec6 9e3c 1d63 03bd
00000260: 30a6 55bd ec2f ef3b f303 c4bc 5794 013c
00000270: a7c6 993d e46d dc3d e894 b9bd f15b 773c
00000280: 543c a13d a6c4 883b 8fdd e0bd b497 8dbd
00000290: d929 f7bd 56ab 2cbe 8bdc 20bc 2721 2cbe
000002a0: 2d1e 94bc c5bf 81ba 5a03 febd b95d ddbd
000002b0: 890d 19bc f9ae 393d ec67 16bd cdc0 7c3d
000002c0: 655f e8bc 2fdc 903d d811 bfbd 17e8 f13c
000002d0: 0879 423c d0a3 593d f910 23bc df4b a23d
000002e0: 1e82 f0bd d411 32bd 6c9c b63b 4ac8 04bd
000002f0: 58c2 00be 8a0f 6fbe 4e75 8ebb 72d1 6abc
00000300: ebd8 22be d51b 863c 7ee7 12be d55f de3a
00000310: 038c 06be 7e9d 18be 7745 92be adc6 99bd
00000320: 87f7 aa3c 733e dc3d 4e0d b73d 1611 edbc
00000330: c468 a33d 9d34 923d 9218 68bd 5bcb 633d
00000340: 5286 df3d d3dc 1abe 3341 c1bc 5857 22be
00000350: ffd9 39bd 5c54 22be d887 923d 26bd e9bd
00000360: b1d8 2fbe 28df 2dbe ed48 9f3c b6a8 383d
00000370: fc7a db3d 747b d4bd 2084 ee3b 3cbd c53d
00000380: 4337 afbd b855 dabd 031c 073e 9a73 da3d
00000390: ba07 27bd 6ed4 dd3c 0fdc a4bb e0a2 0dbe
000003a0: 6c7d 5cbd be19 9bbd c461 26be 879c 983d
000003b0: 8f6d 96bd 877b 3dbe edfa 29be 53c7 8cbd
000003c0: 249b 073d 9752 e23d 2de1 4ebe fe02 81bd
000003d0: d5c6 0fbe b0a2 01bd 80cb fa3a b434 4d3d
000003e0: d523 0fbe 1f2b bb3d 5efe 30be 37fb 733e
000003f0: a91b ee3d 01b4 51bd c313 b7bc 5b70 7bbc

shared1.bias f4 [200]
-0.15819496 -0.058357835 -0.10256445 -0.121994615 -0.15957104 -0.12402513 -0.07005296 -0.15989874
-0.05116459 -0.077982746 -0.07842347 -0.15089639 -0.060307276 -0.13058813 -0.11188141 -0.050467767
-0.17432971 -0.16560622 -0.114072524 -0.06274846 -0.083404236 -0.12161863 -0.11328436 -0.11795657
-0.0937479 -0.1072601 -0.0088561885 -0.08875783 -0.13591868 -0.09424494 -0.14532591 -0.17972824
-0.11936745 -0.116143614 -0.062410794 -0.07110474 -0.16998176 -0.19565834 -0.12882559 -0.10290326
-0.099802636 -0.14938961 -0.11666275 -0.08970723 -0.082816854 -0.14068793 -0.120295726 -0.11286944
-0.14481734 -0.19073792 -0.11134858 -0.0747928 -0.062277045 -0.11435213 -0.16658536 -0.14132059
-0.054447025 -0.14046946 -0.08706302 -0.15892202 -0.100241914 -0.14417045 -0.12559743 -0.13699755
-0.15514661 -0.09973781 -0.07962214 -0.16719158 -0.066364214 -0.104094826 -0.12723933 -0.15201521
-0.11350616 -0.15868337 -0.1254572 -0.07843034 -0.044983227 -0.09186838 -0.12862661 -0.075094484
-0.12817305 -0.13358887 -0.094159 -0.12567747 -0.09642915 -0.17289384 -0.13958535 -0.2313892
-0.03238349 -0.114235185 -0.17893653 -0.100284256 -0.101187386 -0.1159342 -0.06923413 -0.07784157
-0.049498416 -0.06569347 -0.13477243 -0.053199127 -0.12756668 -0.08716563 -0.10196632 -0.10506024
-0.089509465 -0.020838005 -0.1734338 -0.039648432 -0.08345696 -0.16840893 -0.09263947 -0.19155796
-0.12805748 -0.101053484 -0.11818199 -0.11505457 -0.16791262 -0.14182308 -0.097563654 -0.11960418
-0.10588702 -0.13449289 -0.0047231438 -0.08593466 -0.14160436 -0.098493986 -0.08204161 -0.078461155
-0.17980757 -0.17631021 -0.04376123 -0.10933824 -0.11333669 -0.06615213 -0.12402212 -0.06234668
-0.108926356 -0.0680468 -0.15036884 -0.06806821 -0.13541576 -0.11142652 -0.09390083 -0.13889508
-0.05862403 -0.222876 0.003704712 -0.14502114 -0.1328475 -0.050899822 -0.14784709 -0.08137994
-0.12326046 -0.11874888 -0.071281165 -0.16952409 -0.06961193 -0.10310077 -0.10592569 -0.043639
-0.1030654 -0.059507143 -0.11177912 -0.15083888 -0.06504754 -0.14485323 -0.18046091 -0.074575156
-0.11560322 -0.107957855 -0.13521373 -0.051803347 -0.02536848 -0.08887204 -0.13414884 -0.06807931
-0.13015501 -0.10352037 -0.13971569 -0.091697514 -0.10909023 -0.16292697 -0.17616494 -0.10983694
-0.14350381 -0.16319793 -0.11198879 -0.19907415 -0.07280807 -0.102486946 -0.15261579 -0.067480095
-0.12674688 -0.11706628 -0.121481955 -0.0832882 -0.12890726 -0.045783605 -0.07222484 -0.105682276
00000000: dcfd 21be a008 6fbd 4f0d d2bd 50d8 f9bd
00000010: 9766 23be e300 febd ed77 8fbd 7fbc 23be
00000020: f691 51bd 6bb5 9fbd 7c9c a0bd 9584 1abe
00000030: c304 77bd e5b8 05be 1522 e5bd 4ab7 4ebd
00000040: 7d83 32be ad94 29be db9e e9bd 4482 80bd
00000050: d7cf aabd 3013 f9bd a101 e8bd 3793 f1bd
00000060: e6fe bfbd 2fab dbbd 8c19 11bc aac6 b5bd
00000070: 442e 0bbe 7e03 c1bd 51d0 14be ae0a 38be
00000080: ec76 f4bd b4dc edbd 76a2 7fbd 5d9f 91bd
00000090: b30f 2ebe a95a 48be dbea 03be f2be d2bd
000000a0: 5365 ccbd 97f9 18be e1ec eebd 6db8 b7bd
000000b0: e29b a9bd 7f10 10be 9b5d f6bd 1828 e7bd
000000c0: ff4a 14be cd50 43be b90a e4bd f82c 99bd
000000d0: 3716 7fbd 7331 eabd 5a95 2abe 58b6 10be
000000e0: d803 5fbd 3ad7 0fbe 194e b2bd 74bc 22be
000000f0: a24b cdbd 6ba1 13be 9d9c 00be 1649 0cbe
00000100: c1de 1ebe 5643 ccbd ef10 a3bd 4534 2bbe
00000110: f6e9 87bd ab2f d5bd 074b 02be e0a9 1bbe
00000120: eb75 e8bd e57d 22be da77 00be 16a0 a0bd
00000130: 5540 38bd 7d25 bcbd b2b6 03be 23cb 99bd
00000140: cc3f 03be 85cb 08be 6fd6 c0bd 98b1 00be
00000150: a57c c5bd 150b 31be 76ef 0ebe 4af1 6cbe
00000160: 8da4 04bd 23f4 e9bd 233b 37be d561 cdbd
00000170: 553b cfbd e96e edbd a0ca 8dbd 676b 9fbd
00000180: dabe 4abd 4c8a 86bd c901 0abe 54e7 59bd
00000190: d7a0 02be e583 b2bd b8d3 d0bd d329 d7bd
000001a0: bd50 b7bd 77b4 aabc a198 31be 6566 22bd
000001b0: 7ceb aabd 6473 2cbe c3b9 bdbd c527 44be
000001c0: 8021 03be 21f5 cebd 6609 f2bd bba1 ebbd
000001d0: 49f1 2bbe 123a 11be 74cf c7bd 09f3 f4bd
000001e0: 4bdb d8bd 81b8 09be 9ac4 9abb 83fe afbd
000001f0: bc00 11be 37b7 c9bd 6e05 a8bd 3eb0 a0bd
00000200: 7a1f 38be aa8a 34be fa3e 33bd baec dfbd
00000210: 111d e8bd c57a 87bd 4fff fdbd 3b5f 7fbd
00000220: c814 dfbd 1f5c 8bbd 4afa 19be 5867 8bbd
00000230: 6eaa 0abe 9633 e4bd 144f c0bd 833a 0ebe
00000240: c01f 70bd 9b39 64be c1ca 723b 6c80 14be
00000250: 2d09 08be 557c 50bd 3a65 17be 87aa a6bd
00000260: fb6f fcbd 9d32 f3bd dcfb 91bd b997 2dbe
00000270: b390 8ebd 7f26 d3bd 91ef d8bd cfbe 32bd
00000280: f413 d3bd c3bd 73bd 74ec e4bd 8275 1abe
00000290: a537 85bd 6854 14be bfca 38be dcba 98bd
000002a0: 62c1 ecbd 0219 ddbd 7875 0abe bf2f 54bd
000002b0: 8fd1 cfbc 8b02 b6bd 505e 09be 2a6d 8bbd
000002c0: 5b47 05be 7d02 d4bd a111 0fbe e8cb bbbd
000002d0: b36a dfbd 54d6 26be 9564 34be 31f2 e0bd
000002e0: aaf2 12be 5c1d 27be 615a e5bd 18da 4bbe
000002f0: 661c 95bd ade4 d1bd 5047 1cbe 0133 8abd
00000300: efc9 01be 72c0 efbd 88cb f8bd 0193 aabd
00000310: 4400 04be 9787 3bbd 9eea 93bd f36f d8bd

shared2.weight f4 [200, 200]
-0.005880249 0.035033464 0.07785226 -0.058979794 -0.0041107074 0.15298614 0.02671939 0.061663765
-0.047203686 0.07654624 0.0016478001 -0.012397061 -0.0059865997 -0.06803322 -0.1129456 -0.1201257
-0.028663687 -0.06198354 0.0695684 -0.08640227 0.06365148 0.117089644 -0.2746972 0.033945847
0.088203 -0.058950014 0.2547523 0.008081121 -0.050538037 0.17774254 0.029486109 -0.12019072
-0.064209975 0.19390813 0.111467816 0.021544227 0.13526717 -0.027857667 -0.1359455 -0.111683816
-0.015604373 0.015752988 -0.038067795 0.18384242 0.033782005 -0.12818283 -0.09780845 0.13450803
-0.17823213 -0.120935716 0.02310221 -0.072110854 0.11546965 0.07268203 -0.07664022 -0.099493645
0.18520008 0.06747516 -0.22268857 0.067483895 0.0774921 0.10342136 0.03572545 -0.13248868
0.03239942 0.195356 -0.11330401 0.04497956 0.11451189 -0.08369961 -0.04599522 -0.0921323
-0.026284995 -0.24794723 0.09086328 -0.10206398 0.31236836 0.034978617 -0.03294021 0.046830066
0.023935039 0.037839055 0.1669907 0.01939102 -0.045016684 -0.022799129 -0.083525956 0.021645574
0.09987897 0.22212596 0.0060071233 0.12082454 0.029102271 0.06907294 0.04644951 -0.10019259
-0.030201143 -0.002096177 -0.034063965 0.003312286 0.020667236 -0.045815557 -0.026733857 -0.27237675
-0.029661989 -0.20296425 -0.038524527 -0.01983625 -0.11930938 0.06660961 0.093460485 -0.084918275
0.04944672 -0.026600821 -0.21945198 -0.12580858 -0.08168641 -0.05138591 -0.096695766 0.03370942
-0.22524685 -0.0544695 -0.15994005 -0.2519416 -0.047520533 -0.17484032 -0.2857537 -0.042228013
-0.08648363 0.02419553 0.097578146 0.023257857 0.013350392 0.19679819 0.10050957 -0.026934313
0.11357686 0.030727103 -0.044438053 -0.11225935 0.09029482 -0.108948365 -0.04930807 -0.06784958
0.2307068 -0.2594298 -0.0005135041 0.05907972 -0.06499064 0.17611079 0.16753858 0.10545794
0.044560056 0.040728573 -0.11617948 -0.034278095 -0.06051801 0.13002545 -0.15218592 -0.05270757
-0.107596345 0.0014008782 -0.04388008 -0.1690785 0.060457498 -0.063383445 0.23238902 0.022226231
-0.03321142 -0.031050287 -0.19474277 0.31468257 0.11627177 -0.06617893 0.23186596 -0.40900162
0.05740954 -0.115606606 0.20036624 0.005208148 -0.11759741 0.013492304 0.057693027 -0.10239258
-0.12707376 0.04705991 0.21725212 0.13217813 0.014619896 -0.079614446 -0.039306544 -0.010577761
0.09091774 -0.06677589 0.054197818 -0.26238012 -0.18101944 -0.10964812 0.11941952 -0.14438705
-0.217852 0.0402852 0.018153224 0.04877886 -0.06677374 -0.108180985 0.0017171841 -0.068659365
0.038248997 0.0031838303 -0.03169049 -0.2824689 0.024094407 0.1467068 -0.0076562394 0.078462616
0.10058153 -0.12777154 0.04436722 -0.05381328 -0.063864775 0.11165301 0.14775103 -0.14020482
0.08539901 -0.0996472 -0.13729936 0.055379417 -0.2459265 0.0027413107 -0.01868346 -0.2058443
-0.09477642 -0.09653284 0.0990566 0.07332459 0.022295335 0.00041526367 -0.08906679 0.05042986
-0.063185655 -0.09813339 0.057578135 -0.12813525 -0.020606188 0.03128227 0.114208944 -0.07808552
-0.19492678 0.12516451 -0.122526795 -0.061161473 -0.061289154 0.012740271 -0.14614351 0.22255936
00000000: 1baf c0bb 407f 0f3d 0171 9f3d cc94 71bd
00000010: 1db3 86bb 66a8 1c3e 9fe2 da3c 2593 7c3d
00000020: a758 41bd 46c4 9c3d fffa d73a 0b1d 4bbc
00000030: 3d2b c4bb 0055 8bbd 0650 e7bd 7704 f6bd
00000040: 1cd0 eabc 74e2 7dbd e179 8e3d acf3 b0bd
00000050: b55b 823d b2cc ef3d 1da5 8cbe cd0a 0b3d
00000060: c6a3 b43d 9275 71bd e56e 823e ae66 043c
00000070: f900 4fbd 2402 363e da8c f13c 8d26 f6bd
00000080: 8580 83bd da8f 463e 3d49 e43d 857d b03c
00000090: 7a83 0a3e c335 e4bc 4c35 0bbe 7cba e4bd
000000a0: 7ca9 7fbc 690c 813c faec 1bbd 3041 3c3e
000000b0: 005f 0a3d 5c42 03be cc4f c8bd 79bc 093e
000000c0: 7c82 36be 25ad f7bd d940 bd3c dbae 93bd
000000d0: 5a7b ec3d 51da 943d 8cf5 9cbd 53c3 cbbd
000000e0: 17a5 3d3e 6b30 8a3d 7908 64be ff34 8a3d
000000f0: 2eb4 9e3d 94ce d33d d954 123d 1dab 07be
00000100: 41b5 043d 670b 483e ef0b e8bd 7d3c 383d
00000110: 3685 ea3d b36a abbd 7c65 3cbd dcaf bcbd
00000120: a153 d7bc e1e5 7dbe 8716 ba3d ec06 d1bd
00000130: bfee 9f3e bd45 0f3d 50ec 06bd e2d0 3f3d
00000140: 6a13 c43c 20fd 1a3d 9cff 2a3e ebd9 9e3c
00000150: 6a63 38bd 3dc5 babc a80f abbd 0f52 b13c
00000160: 588d cc3d fd74 633e 67d7 c43b db72 f73d
00000170: e367 ee3c 1d76 8d3d d741 3e3d c631 cdbd
00000180: 6368 f7bc 0460 09bb a886 0bbd f012 593b
00000190: 564e a93c 18a9 3bbd f600 dbbc f774 8bbe
000001a0: b3fd f2bc dcd5 4fbe e5cb 1dbd a27f a2bc
000001b0: 7a58 f4bd 9f6a 883d 3668 bf3d a2e9 adbd
000001c0: a588 4a3d f7e9 d9bc 05b8 60be f7d3 00be
000001d0: 344b a7bd 087a 52bd 6e08 c6bd e412 0a3d
000001e0: 1ca7 66be 691b 5fbd 53c7 23be 7dfe 80be
000001f0: e4a4 42bd 5709 33be 4f4e 92be 48f7 2cbd
00000200: 541e b1bd b435 c63c 0dd7 c73d 4387 be3c
00000210: 9abb 5a3c 7785 493e f6d7 cd3d 59a5 dcbc
00000220: fc9a e83d 68b7 fb3c ad04 36bd 3be8 e5bd
00000230: 7eec b83d 5220 dfbd 42f7 49bd b8f4 8abd
00000240: 673e 6c3e fcd3 84be ad9c 06ba 94fd 713d
00000250: d019 85bd 6356 343e 3c8f 2b3e 55fa d73d
00000260: 9b84 363d 01d3 263d 82ef edbd 3067 0cbd
00000270: bce1 77bd 6425 053e a0d6 1bbe e5e3 57bd
00000280: 795b dcbd ac9d b73a 99bb 33bd ea22 2dbe
00000290: 48a2 773d 2ecf 81bd 63f7 6d3e c913 b63c
000002a0: b308 08bd 2c5d febc a66a 47be 131e a13e
000002b0: e51f ee3d d288 87bd 456e 6d3e a968 d1be
000002c0: 4426 6b3d 28c3 ecbd cf2c 4d3e 1da9 aa3b
000002d0: e9d6 f0bd d30e 5d3c 864f 6c3d 33b3 d1bd
000002e0: a01f 02be e4c1 403d 5777 5e3e b459 073e
000002f0: 4a88 6f3c e60c a3bd e6ff 20bd 584e 2dbc
00000300: 1433 ba3d ccc1 88bd 88fe 5d3d b056 86be
00000310: 295d 39be 328f e0bd 3992 f43d 33da 13be
00000320: 9814 5fbe 1802 253d 12b6 943c 58cc 473d
00000330: acc0 88bd fe8d ddbd 2313 e13a 489d 8cbd
00000340: fbaa 1c3d cfa7 503b e3cd 01bd c39f 90be
00000350: a261 c53c 4f3a 163e 31e1 fabb 02b1 a03d
00000360: b0fd cd3d 8bd6 02be 67ba 353d 506b 5cbd
00000370: 89cb 82bd 55aa e43d 0c4c 173e da91 0fbe
00000380: ade5 ae3d d513 ccbd 3498 0cbe 87d5 623d
00000390: 28d4 7bbe 90a7 333b 0e0e 99bc d9c8 52be
000003a0: 241a c2bd 02b3 c5bd 30de ca3d 342b 963d
000003b0: b5a4 b63c bfb7 d939 a668 b6bd 8a8f 4e3d
000003c0: 7b67 81bd 29fa c8bd 0dd7 6b3d e335 03be
000003d0: 4fce a8bc d621 003d 61e6 e93d 4deb 9fbd
000003e0: e39a 47be 202b 003e 54ef fabd 7484 7abd
000003f0: 560a 7bbd 92bc 503c a5a6 15be 9ae6 633e

shared2.bias f4 [200]
0.06609638 -0.085342966 -0.204211 0.06152698 -0.13400011 -0.098411374 -0.16523671 0.02021764
-0.23833176 -0.0027548207 -0.18506582 -0.21543354 -0.09715375 -0.21900217 -0.20537466 -0.22390729
-0.09995855 -0.26389492 -0.024888258 0.03988701 -0.19604492 -0.24094447 -0.04578034 -0.1705665
-0.2321867 -0.16353975 -0.21198504 -0.24430123 -0.24273062 -0.1387885 -0.25452986 0.012369863
-0.2635433 -0.12176535 -0.2479805 -0.17780052 -0.19595155 -0.09815337 -0.03427126 -0.16147906
-0.23244002 -0.17299467 -0.22517791 -0.2044126 -0.08729492 -0.09579689 -0.22115147 -0.17308289
-0.20411767 -0.14396983 -0.26808324 -0.2164012 -0.20997454 -0.075018205 -0.18727884 -0.1338033
-0.1987362 -0.089826316 -0.16567667 -0.1111449 -0.19839852 -0.021305868 -0.06449904 -0.07610995
-0.037163634 -0.082237214 -0.23328716 -0.16099994 -0.051739104 -0.21763666 -0.2275667 -0.17036624
-0.065566584 -0.15282692 0.012009824 -0.12288831 -0.1956012 -0.25629103 -0.25090596 -0.1263731
-0.27976197 -0.044640675 -0.1806261 -0.28924766 -0.14584777 -0.06875173 -0.29774612 -0.05732621
-0.19980706 -0.14954501 -0.035042148 -0.15671964 -0.07086024 -0.19653545 -0.10011718 -0.25780106
-0.23727252 -0.14428432 -0.046803445 -0.117155686 -0.24154869 -0.027969556 -0.2700256 -0.12621449
-0.25288406 -0.17186415 -0.1849257 -0.20112118 -0.12162114 -0.2510293 -0.14824867 -0.19869833
-0.1256041 -0.28183526 -0.15241335 -0.08625836 -0.123860426 -0.14426467 0.07247628 -0.07174543
-0.13445511 -0.093845606 -0.2755667 0.07906117 -0.28149045 -0.2502135 -0.21953797 -0.28271076
-0.2585373 -0.092020236 -0.18765815 -0.085222475 0.08781269 -0.12006643 0.1135728 -0.22589251
-0.19159572 -0.25247443 -0.16102338 -0.17550112 -0.24393 -0.15022911 0.09771808 -0.24876523
-0.2684519 -0.16264273 -0.13480853 -0.22529809 0.10674399 -0.19428842 -0.18082781 -0.23749292
-0.19222164 -0.28061357 -0.21236062 -0.20301194 -0.25726599 -0.13473676 -0.115316495 -0.07940078
-0.0875158 -0.16355976 -0.03502735 -0.15436271 -0.2867778 -0.06056229 -0.21747896 -0.16330302
-0.2288871 -0.050608825 -0.18006574 -0.048154738 -0.2533528 -0.06483252 -0.22513656 -0.13809778
-0.13468207 -0.15710612 -0.12852077 -0.06956438 -0.054884776 -0.022301888 -0.060430765 -0.18499169
-0.23472308 -0.13737409 -0.11744503 -0.30040026 -0.012669112 -0.321776 -0.11590025 -0.2606168
-0.13632952 -0.20086461 -0.009261369 -0.12032858 0.018791594 -0.16587521 -0.20441152 -0.13586903
00000000: 8a5d 873d 4bc8 aebd b01c 51be b703 7c3d
00000010: 5337 09be e78b c9bd d033 29be 779f a53c
00000020: 3e0d 74be 398a 34bb e581 3dbe 9c9a 5cbe
00000030: 8cf8 c6bd 1b42 60be bc4d 52be f447 65be
00000040: 11b7 ccbd 3c1d 87be 76e2 cbbc 9060 233d
00000050: 00c0 48be 26ba 76be 2a84 3bbd fca8 2ebe
00000060: 5ac2 6dbe f776 27be 9b12 59be 1a2a 7abe
00000070: 608e 78be 931e 0ebe bd51 82be f7aa 4a3c
00000080: 26ef 86be 1d60 f9bd 9aee 7dbe 5711 36be
00000090: 86a7 48be a204 c9bd 0560 0cbd c45a 25be
000000a0: c204 6ebe 8425 31be 0a95 66be 8951 51be
000000b0: aec7 b2bd 2931 c4bd 8875 62be a43c 31be
000000c0: 3904 51be d46c 13be 3542 89be 4798 5dbe
000000d0: 9103 57be 25a3 99bd 06c6 3fbe bb03 09be
000000e0: 8181 4bbe dcf6 b7bd 25a7 29be f09f e3bd
000000f0: fb28 4bbe a589 aebc 1318 84bd 89df 9bbd
00000100: e538 18bd fc6b a8bd d4e2 6ebe 2bdd 24be
00000110: 62ec 53bd 25dc 5ebe 3f07 69be 7d74 2ebe
00000120: c647 86bd a97e 1cbe dac4 443c deac fbbd
00000130: ae4b 48be 9438 83be bf76 80be f367 01be
00000140: f63c 8fbe 24d9 36bd 0cf6 38be 4518 94be
00000150: 1e59 15be b5cd 8cbd 2e72 98be e3ce 6abd
00000160: 399a 4cbe 5422 19be 5b88 0fbd 1d7b 20be
00000170: 2c1f 91bd 9740 49be 3c0a cdbd 80fe 83be
00000180: 91f7 72be 45bf 13be f8b4 3fbd 52ef efbd
00000190: 8a58 77be 6920 e5bc cc40 8abe 5f3e 01be
000001a0: 057a 81be 28fd 2fbe 2a5d 3dbe b6f2 4dbe
000001b0: 8114 f9bd ea86 80be 80ce 17be 9377 4bbe
000001c0: 5c9e 00be b64c 90be 3f12 1cbe 39a8 b0bd
000001d0: 89aa fdbd 1eba 13be 726e 943d 45ef 92bd
000001e0: 9aae 09be 2032 c0bd 1417 8dbe d3ea a13d
000001f0: 841f 90be fc1b 80be 90ce 60be 77bf 90be
00000200: 005f 84be 1b75 bcbd 7529 40be 1f89 aebd
00000210: 24d7 b33d 63e5 f5bd db98 e83d 5e50 67be
00000220: ab31 44be 5444 81be 50e3 24be 91b6 33be
00000230: c9c8 79be a9d5 19be 6b20 c83d 50bc 7ebe
00000240: 8772 89be d18b 26be 3f0b 0abe 8bb4 66be
00000250: 989c da3d 8bf3 46be ed2a 39be 5831 73be
00000260: c0d5 44be 95ac 8fbe 1075 59be 5de2 4fbe
00000270: 5eb8 83be 6ff8 09be 0e2b ecbd e09c a2bd
00000280: 7c3b b3bd 367c 27be d778 0fbd 4211 1ebe
00000290: 8ad4 92be 2a10 78bd ceb2 5ebe e838 27be
000002a0: 6161 6abe 334b 4fbd 2763 38be e73d 45bd
000002b0: 75b7 81be eac6 84bd 338a 66be 8169 0dbe
000002c0: 19ea 09be 6de0 20be f39a 03be c577 8ebd
000002d0: dcce 60bd 73b2 b6bc 4086 77bd 766e 3dbe
000002e0: 3f5b 70be cbab 0cbe 0587 f0bd 10ce 99be
000002f0: 1b92 4fbc d3bf a4be 1c5d edbd 916f 85be
00000300: f799 0bbe 74af 4dbe ffbc 17bc d56e f6bd
00000310: d4f0 993c 31db 29be 4151 51be 4021 0bbe

hidden1_Y1.weight f4 [200, 200]
-0.080247834 0.092379175 0.1254947 -0.1422014 -0.021384813 -0.054506846 -0.14927499 0.22305453
0.058298662 -0.061831046 -0.0025853692 -0.033814717 -0.15982017 -0.077747494 0.14853734 -0.037672892
-0.05793951 0.18209305 -0.03933637 0.011191253 -0.059117887 0.091517754 0.12510927 -0.020606417
0.070529096 -0.14698932 0.108833864 0.0036889226 -0.14555383 -0.061712045 0.099036865 -0.06213756
-0.022128709 0.072019294 0.05207258 -0.13421077 -0.09005465 0.07866217 -0.062528476 0.08980356
0.044171415 -0.0035423196 -0.06424425 -0.023634618 -0.0007625583 -0.138699 0.015038467 0.0837523
-0.092845574 0.031519156 0.046130992 -0.05019806 0.21315672 0.06086649 -0.015248871 -0.17414361
-0.07494986 -0.040313132 -0.06603761 0.22157681 0.0918627 0.063466154 0.008101234 -0.0091777155
0.07510144 -0.06664935 0.051793393 -0.07608857 -0.04491647 0.11562925 -0.013499096 -0.011223603
-0.11274899 0.05222397 -0.0115281325 -0.036978114 -0.0013375892 -0.059193052 -0.110974975 0.11564653
0.22348602 0.015077 -0.056795754 -0.07851497 -0.12233944 -0.09297949 0.042960424 0.037711203
-0.036019076 0.05606917 0.15322568 -0.1472056 0.0017641381 -0.09906319 -0.024931079 -0.01751922
0.118323654 0.075329795 0.007767047 -0.13242787 0.06617038 -0.14791219 -0.064501226 0.018230919
-0.024582865 -0.073960945 0.1276275 -0.23986948 -0.1279887 -0.03638499 0.060256533 0.11545323
-0.095010124 -0.09981129 -0.012627637 0.0633256 0.0932547 -0.05251567 -0.051463403 0.091210075
0.02984786 0.14903145 0.047756642 -0.062288195 0.033322144 -0.11517566 -0.18096869 0.10234536
-0.16825464 -0.118407585 -0.022216663 -0.06645611 -0.25364187 -0.10061035 -0.30340376 0.14001542
0.103376396 -0.030559443 0.03838764 0.036411475 0.020860722 -0.06275289 0.10822378 -0.10364722
-0.018799799 0.072660446 0.13898215 0.12161524 -0.048820995 -0.13779202 -0.06851989 0.20794845
0.17555797 0.10733142 -0.023601435 -0.08908829 0.21388614 0.17966326 -0.04219892 -0.106133334
0.008358307 -0.0331059 0.28229734 -0.047607496 -0.13802873 -0.10391429 0.003197701 -0.0017159526
-0.059633445 -0.019703798 0.08808441 -0.10545384 0.074263535 0.18497163 0.02568427 0.05424872
-0.14226677 -0.15852977 -0.035655938 0.07524004 -0.040408347 -0.08321812 -0.05924114 -0.02192132
-0.0726682 0.046925455 -0.19124082 0.0910024 -0.047324043 -0.08293447 0.017896246 0.019415274
-0.013817372 -0.13267715 -0.09346201 0.14173658 0.096057504 0.043139283 0.039529193 -0.12617823
-0.1953998 0.03435779 -0.0005234001 -0.08560523 0.10027421 0.015301559 -0.058070652 0.056031168
-0.0035925799 0.0038652266 0.0106584765 -0.0039114975 -0.12207926 0.157625 -0.1221164 0.032199234
0.0015740419 -0.14418861 -0.13647203 0.022368586 0.013793998 -0.006354338 -0.08339361 -0.08723956
0.12373021 -0.048674587 0.05877398 0.061499804 -0.05212782 -0.11447208 -0.029513432 0.04248864
-0.023045287 -0.009635935 -0.017033344 -0.102664284 -0.009859385 -0.09427585 0.005353551 0.057372108
0.005102448 0.115737006 0.021056905 -0.12745644 -0.052134123 -0.018298136 -0.22389841 -0.059038952
-0.0051587843 -0.015791774 -0.09644217 0.12491853 -0.08352721 0.022072434 -0.11842711 0.070609465
00000000: fa58 a4bd 4b31 bd3d af81 003e 3e9d 11be
00000010: 342f afbc 9242 5fbd 8bdb 18be 6868 643e
00000020: 94ca 6e3d 8d42 7dbd 4c6f 29bb 4d81 0abd
00000030: e6a7 23be 143a 9fbd 2c1a 183e e44e 1abd
00000040: fb51 6dbd 9a76 3a3e 2c1f 21bd 845b 373c
00000050: 9925 72bd a96d bb3d a51c 003e cace a8bc
00000060: 8f71 903d 5e84 16be 4ae4 de3d dac1 713b
00000070: 100c 15be c5c5 7cbd d7d3 ca3d f483 7ebd
00000080: 4447 b5bc da7e 933d 0f4a 553d 8c6e 09be
00000090: 936e b8bd a219 a13d ee0e 80bd eeea b73d
000000a0: 16ed 343d 4326 68bb 7d92 83bd 639d c1bc
000000b0: 6ce6 47ba 1c07 0ebe e763 763c 5386 ab3d
000000c0: d225 bebd 3b1a 013d daf3 3c3d 7b9c 4dbd
000000d0: c145 5a3e 244f 793d 67d6 79bc b452 32be
000000e0: 507f 99bd 621f 25bd ba3e 87bd 08e5 623e
000000f0: 8322 bc3d 8bfa 813d 0abb 043c 215e 16bc
00000100: c9ce 993d 747f 88bd 4f25 543d 53d4 9bbd
00000110: 55fa 37bd 07cf ec3d 502b 5dbc 34e3 37bc
00000120: f1e8 e6bd cde8 553d 7ee0 3cbc 5d76 17bd
00000130: 0c52 afba 6a74 72bd d946 e3bd 17d8 ec3d
00000140: 85d9 643e 8505 773c aaa2 68bd 75cc a0bd
00000150: 1a8d fabd 086c bebd 45f7 2f3d 1077 1a3d
00000160: bd88 13bd c9a8 653d 31e7 1c3e 11bd 16be
00000170: a73a e73a a4e1 cabd 433c ccbc 7884 8fbc
00000180: ac53 f23d 8246 9a3d b682 fe3b 2c9b 07be
00000190: 5684 873d 4b76 17be 3819 84bd 0259 953c
000001a0: 0162 c9bc d678 97bd c9b0 023e 58a0 75be
000001b0: 780f 03be 6d08 15bd 8ecf 763d be72 ec3d
000001c0: ab94 c2bd dd69 ccbd 26e4 4ebc dab0 813d
000001d0: 52fc be3d ac1a 57bd 4acb 52bd 59cc ba3d
000001e0: 8083 f43c b39b 183e 789c 433d e821 7fbd
000001f0: cd7c 083d 37e1 ebbd db4f 39be 729a d13d
00000200: f24a 2cbe ad7f f2bd b8ff b5bc 241a 88bd
00000210: 59dd 81be cd0c cebd bd57 9bbe 3460 0f3e
00000220: 01b7 d33d cc57 fabc 5c3c 1d3d 3324 153d
00000230: 1be4 aa3c 9684 80bd 6ea4 dd3d fe44 d4bd
00000240: 0902 9abc 00cf 943d 5651 0e3e 6911 f93d
00000250: 86f8 47bd 5a19 0dbe 2854 8cbd 70f0 543e
00000260: 78c5 333e 93d0 db3d cc57 c1bc ec73 b6bd
00000270: f804 5b3e a5f9 373e c6d8 2cbd 6f5c d9bd
00000280: 48f1 083c 0d9a 07bd 4789 903e 1400 43bd
00000290: 6757 0dbe 04d1 d4bd 8590 513b d1e9 e0ba
000002a0: 3342 74bd dc69 a1bc 9965 b43d 2ff8 d7bd
000002b0: 7b17 983d 3469 3d3e d167 d23c e833 5e3d
000002c0: 61ae 11be a155 22be f60b 12bd 7317 9a3d
000002d0: 3983 25bd 436e aabd d6a6 72bd 5794 b3bc
000002e0: 11d3 94bd e834 403d a2d4 43be 775f ba3d
000002f0: dbd6 41bd 8cd9 a9bd 269b 923c c80c 9f3c
00000300: 4262 62bc 85dc 07be 0369 bfbd 6523 113e
00000310: ccb9 c43d d1b2 303d 5de9 213d de34 01be
00000320: e316 48be c1ba 0c3d c934 09ba cb51 afbd
00000330: 915c cd3d 64b3 7a3c 7edb 6dbd f080 653d
00000340: 7d71 6bbb be4f 7d3b e4a0 2e3c 052c 80bb
00000350: b104 fabd 7368 213e 2a18 fabd 58e3 033d
00000360: 1550 ce3a 2ea6 13be 53bf 0bbe 533e b73c
00000370: 3900 623c 0d38 d0bb 45ca aabd a8aa b2bd
00000380: 4466 fd3d 015f 47bd fcbc 703d 38e7 7b3d
00000390: fb83 55bd 5670 eabd 27c6 f1bc 9108 2e3d
000003a0: 78c9 bcbc 0ae0 1dbc 8389 8bbc a741 d2bd
000003b0: 4289 21bc b213 c1bd d76c af3b 04ff 6a3d
000003c0: 7032 a73b 8607 ed3d 887f ac3c f183 02be
000003d0: 978a 55bd f9e5 95bc a045 65be d4d2 71bd
000003e0: 050b a9bb c05d 81bc 7983 c5bd 49d5 ff3d
000003f0: 5010 abbd 40d1 b43c ea89 f2bd b29b 903d

hidden1_Y1.bias f4 [200]
-0.07114867 -0.12946288 0.00943263 -0.13187644 0.0554047 -0.14412305 -0.021243323 -0.15869968
-0.06681918 -0.06990797 -0.028965836 -0.042210877 -0.0559984 -0.06703743 -0.051305536 -0.21372235
0.15150784 -0.06473234 0.026164524 -0.19750616 -0.14394009 -0.16878234 0.061678033 0.07753696
-0.17465463 -0.15823601 -0.10503246 0.07039893 -0.097764574 0.1293262 -0.007327856 -0.22800472
-0.035788294 -0.061606843 -0.0012593613 -0.0034499778 0.011285259 -0.054782294 -0.053360783 -0.074777566
-0.07679464 0.06648686 -0.066052794 -0.10795782 -0.04457749 -0.1288303 -0.093044974 -0.12472832
-0.047360804 -0.13284823 -0.025542935 -0.16962172 -0.16309738 -0.08823374 -0.067113996 -0.1471996
-0.1071696 0.1612721 -0.02180226 0.07118463 -0.10193536 -0.06509441 0.08390078 -0.14315064
0.06594471 -0.116767704 -0.022644693 -0.06486053 -0.020444434 0.002371924 -0.025461275 0.041722488
-0.056680374 -0.07183609 -0.08865529 -0.1373466 -0.10630943 -0.086036734 -0.11601224 0.062402878
0.0030958434 -0.1622837 -0.02283766 -0.2019895 -0.108686104 0.1749579 -0.0630017 -0.14291814
0.05493278 -0.07754044 -0.06042863 -0.09966185 -0.053173054 0.026623717 -0.019589508 -0.12571996
0.06517992 -0.21291472 -0.018875191 -0.1421006 -0.075782575 0.007891421 -0.05297803 0.16763295
0.16472831 -0.1164433 -0.14669034 0.12837218 0.052108575 -0.06365299 -0.16432427 -0.10057385
0.049420685 0.033139728 0.13345695 -0.0063929083 0.15713471 0.0072405455 -0.16262878 -0.1681457
-0.14745104 -0.13555798 -0.11043904 -0.086914524 -0.08680588 -0.08220062 -0.06802807 -0.16366117
-0.12621163 -0.025478138 0.012558233 -0.10360141 0.076897986 0.012604711 -0.16559279 -0.102502175
-0.080205485 -0.19209848 -0.022649698 -0.08037681 -0.07468664 0.12797503 -0.1963157 0.12285764
0.04245856 0.054268733 -0.14867681 -0.15910208 -0.0051725376 -0.048648488 0.041574072 -0.033018567
-0.13222678 0.00070096337 -0.07512476 -0.087115094 -0.14893737 -0.19273649 -0.14294167 0.02918405
0.041117024 -0.09991798 -0.054629594 -0.021454357 0.018674912 -0.10074383 -0.03615645 0.15797694
0.11218595 -0.042200454 -0.11630572 -0.12499023 0.0071644173 -0.14348172 -0.056499586 -0.07755914
0.032187805 0.10575711 -0.059443597 -0.15250544 -0.07243562 0.023192715 -0.10195299 -0.032320403
-0.093948506 -0.0730734 -0.1754324 0.1359538 -0.16967063 -0.13478716 0.01406694 -0.1273845
-0.100834265 -0.16503918 -0.1429974 0.14606991 -0.025831208 -0.15216947 -0.08319011 -0.11541871
00000000: 65b6 91bd eb91 04be 518b 1a3c 9e0a 07be
00000010: 0af0 623d fe94 13be 7a06 aebc 2b82 22be
00000020: 7fd8 88bd e92b 8fbd c349 edbc 50e5 2cbd
00000030: 945e 65bd ec4a 89bd c125 52bd 08da 5abe
00000040: df24 1b3e 6492 84bd fc56 d63c 0e3f 4abe
00000050: 0865 13be 47d5 2cbe 1ba2 7c3d b3cb 9e3d
00000060: aad8 32be 9f08 22be 421b d7bd 502d 903d
00000070: cb38 c8bd 166e 043e 831e f0bb 127a 69be
00000080: bf96 12bd 7557 7cbd 2711 a5ba 0619 62bb
00000090: cfe5 383c 6663 60bd d690 5abd fb24 99bd
000000a0: 8246 9dbd 432a 883d b046 87bd fd18 ddbd
000000b0: e396 36bd 17ec 03be 5d8e bebd 9071 ffbd
000000c0: 67fd 41bd 5e09 08be 6b3f d1bc 51b1 2dbe
000000d0: 0003 27be e4b3 b4bd 1073 89bd 7ebb 16be
000000e0: bc7b dbbd 8324 253e a79a b2bc 3fc9 913d
000000f0: 7cc3 d0bd 3850 85bd 2cd4 ab3d 1596 12be
00000100: 050e 873d e823 efbd 5d81 b9bc 99d5 84bd
00000110: 167b a7bc 4872 1b3b 2a94 d0bc 33e5 2a3d
00000120: ae29 68bd cd1e 93bd e890 b5bd 96a4 0cbe
00000130: c2b8 d9bd 0734 b0bd d397 edbd 299a 7f3d
00000140: a2e3 4a3b b32d 26be 0b16 bbbc 56d6 4ebe
00000150: d296 debd 2a28 333e 0907 81bd 2259 12be
00000160: 3201 613d 86cd 9ebd 0384 77bd 831b ccbd
00000170: fdcb 59bd fb19 da3c 2d7a a0bc bcbc 00be
00000180: 0d7d 853d 5106 5abe 25a0 9abc d282 11be
00000190: e533 9bbd 054b 013c 7eff 58bd f9a7 2b3e
000001a0: 8aae 283e d379 eebd fe35 16be ff73 033e
000001b0: cd6f 553d 805c 82bd 9f44 28be aaf9 cdbd
000001c0: 586d 4a3d 86bd 073d f0a8 083e 9a7b d1bb
000001d0: ece7 203e 1942 ed3b 2988 26be 632e 2cbe
000001e0: 68fd 16be b6cf 0abe dd2d e2bd 3e00 b2bd
000001f0: 48c7 b1bd cc58 a8bd 4d52 8bbd cb96 27be
00000200: 9f3d 01be 87b7 d0bc 0cc1 4d3c fa2c d4bd
00000210: b17c 9d3d fd83 4e3c 2891 29be a9ec d1bd
00000220: c642 a4bd 77b5 44be dc8b b9bc 999c a4bd
00000230: 4ff5 98bd e30b 033e fc06 49be c99c fb3d
00000240: 07e9 2d3d e448 5e3d bc3e 18be a8eb 22be
00000250: 647e a9bb a343 47bd 9349 2a3d 7a3e 07bd
00000260: 7566 07be dbc0 373a 03db 99bd 6669 b2bd
00000270: 0a83 18be b75c 45be 4d5f 12be 6413 ef3c
00000280: 536a 283d cca1 ccbd 48c3 5fbd 0cc1 afbc
00000290: 21fc 983c c852 cebd c918 14bd b5c4 213e
000002a0: bfc1 e53d 62da 2cbd b131 eebd e1fa ffbd
000002b0: 7dc3 ea3b dfec 12be 1c6c 67bd 54d7 9ebd
000002c0: 5cd7 033d 2f97 d83d 217b 73bd 632a 1cbe
000002d0: 2059 94bd a6fe bd3c bbcc d0bd 6662 04bd
000002e0: 1368 c0bd 82a7 95bd 8da4 33be 7937 0b3e
000002f0: 23be 2dbe a505 0abe 0679 663c 1571 02be
00000300: 3282 cebd 0800 29be e96d 12be 5a93 153e
00000310: f89b d3bc 50d2 1bbe 945f aabd a560 ecbd

hidden2_Y1.weight f4 [200, 200]
0.10402843 0.089268565 -0.18770811 -0.052262094 -0.076795086 0.09537801 -0.032898806 -0.06477826
-0.07632349 0.065902375 -0.119607486 -0.11314187 0.011957219 -0.12424451 0.11263301 -0.1379951
-0.07247 -0.041899774 -0.0741479 -0.09461979 -0.18120278 0.019280551 -0.03552885 -0.038949106
-0.16464004 -0.0036965895 0.006332549 -0.12620018 0.105643205 0.057584867 -0.10039623 0.043129314
-0.07786326 0.0656107 -0.026793404 -0.0245781 -0.036380995 -0.09005811 -0.06416161 -0.088222824
-0.10352163 0.056502394 -0.008635786 -0.11407817 -0.07263448 -0.06930014 0.063161455 -0.04052134
-0.10934509 0.04042779 -0.05318475 -0.0150527395 -0.044519097 -0.04047558 -0.02524137 0.048645847
-0.11233321 -0.053547278 -0.024100926 -0.05383603 0.009813664 -0.01729746 -0.10512298 -0.08561188
-0.12311204 -0.04767016 0.013141565 -0.021436911 -0.014377766 -0.0030875092 -9.9096345e-05 -0.08760987
0.005442769 0.07427503 -0.09110849 0.00029062785 0.08289268 -0.093056686 0.010463481 -0.122471616
-0.08874479 0.052414216 -0.064339444 -0.10735266 0.11198608 -0.11487135 0.009244123 -0.018904774
0.0060472293 -0.08362243 -0.064126626 -0.060640797 0.053491447 0.050435163 -0.09588905 -0.016000148
-0.046950117 0.048182648 0.025652122 0.03633011 0.04160394 -0.120757036 0.0430844 -0.013900034
0.052188147 -0.111974806 0.07578481 0.07355433 0.08056553 0.022270836 -0.010473917 -0.10940661
0.011968583 0.017223408 -0.103243835 -0.042207614 0.059390575 0.06543971 -0.117045864 -0.12138835
-0.074051425 0.0011446496 0.099357754 0.010429762 -0.0012946249 0.013181069 -0.08305664 0.05413954
0.05241439 0.07847455 0.037109606 -0.01661941 0.03145603 -0.11559045 0.063218154 0.011566679
-0.1470343 0.0030106697 -0.019949159 -0.054437414 -0.038056213 -0.103207834 -0.07820439 -0.16538751
0.07515043 -0.01562098 -0.012297754 -0.08090357 0.023173092 -0.03719003 0.0006253517 0.003228839
-0.011681449 -0.06632834 -0.03892691 0.048750754 0.08977434 -0.13529857 -0.053734206 -0.03575971
0.10613232 0.07897898 -0.020293988 -0.0020933982 0.040523525 0.10333739 -0.124727234 -0.008450467
-0.17551214 -0.041134186 0.052158855 0.046408754 0.06560287 -0.07147992 -0.02864866 -0.014182726
-0.089928515 -0.08113378 0.09525286 0.070914045 0.0223006 0.094282985 0.044040866 -0.0085398005
0.090814166 -0.1472094 -0.08155785 -0.14331906 0.052431744 -0.06828567 -0.12898454 -0.046317328
0.04199994 0.03820867 -0.13625175 0.025264807 -0.101639755 -0.13433225 0.060834315 -0.045423742
-0.12208007 0.009481208 -0.27753097 0.10505027 0.07022994 -0.04717733 -0.17588992 -0.04920501
-0.038457736 0.036027044 -0.038608488 -0.1496338 0.084352225 0.026909813 -0.031096905 0.07166825
0.29092744 -0.029343104 -0.39315885 -0.12770359 -0.0023026783 0.07879949 -0.01037717 -0.22825965
0.15099995 -0.0781758 0.0095874965 0.09208666 -0.092916384 0.09302491 0.018295433 -0.16597687
0.033638522 -0.024754534 -0.044412814 -0.13526882 -0.11068257 0.069422126 -0.0639409 -0.19024824
0.09855969 0.119058274 0.006805865 -0.17156208 0.007509258 0.12043092 0.1110015 0.014510835
-0.05913417 -0.047927707 -0.17510581 -0.10613829 -0.12459719 -0.24582408 0.077987514 0.05344593
00000000: dc0c d53d 70d2 b63d 8e36 40be c710 56bd
00000010: be46 9dbd 8c55 c33d e6c0 06bd 77aa 84bd
00000020: 7d4f 9cbd d3f7 863d c5f4 f4bd edb6 e7bd
00000030: 36e8 433c e873 febd 23ac e63d 964e 0dbe
00000040: 276b 94bd 199f 2bbd dbda 97bd 05c8 c1bd
00000050: 398d 39be 3ff2 9d3c b386 11bd 1989 1fbd
00000060: 6697 28be 7b42 72bb 4581 cf3b 9f3a 01be
00000070: 775b d83d 1cde 6b3d 8a9c cdbd 5da8 303d
00000080: c676 9fbd e75e 863d d77d dbbc 0358 c9bc
00000090: 3d04 15bd 6370 b8bd 2a67 83bd 2bae b4bd
000000a0: 2603 d4bd 0e6f 673d 1d7d 0dbc d1a1 e9bd
000000b0: 63c1 94bd 3bed 8dbd cb5a 813d b4f9 25bd
000000c0: 52f0 dfbd 9c97 253d 41d8 59bd c49f 76bc
000000d0: a859 36bd b9c9 25bd fdc6 cebc de40 473d
000000e0: f40e e6bd 6454 5bbd 4e6f c5bc 2b83 5cbd
000000f0: 7dc9 203c 67b3 8dbc b84a d7bd 4855 afbd
00000100: 2a22 fcbd c941 43bd b84f 573c 769c afbc
00000110: b990 6bbc cf57 4abb f2d1 cfb8 ce6c b3bd
00000120: 4159 b23b 821d 983d 1797 babd 695f 9839
00000130: a3c3 a93d 8194 bebd 056f 2b3c 66d2 fabd
00000140: d4bf b5bd 4ab0 563d 66c4 83bd b6db dbbd
00000150: f558 e53d ac41 ebbd a974 173c 2fde 9abc
00000160: d627 c63b 3d42 abbd d254 83bd 7c62 78bd
00000170: d919 5b3d 1a95 4e3d 7a61 c4bd be12 83bc
00000180: c44e 40bd 2b5b 453d 6624 d23c e2ce 143d
00000190: e568 2a3d 774f f7bd 4579 303d f8bc 63bc
000001a0: 3dc3 553d 0c53 e5bd 1135 9b3d a7a3 963d
000001b0: 8aff a43d 5471 b63c cb9a 2bbc 9310 e0bd
000001c0: e017 443c 1b18 8d3c 8171 d3bd e4e1 2cbd
000001d0: 8843 733d 4105 863d beb5 efbd 759a f8bd
000001e0: 46a8 97bd 1108 963a 147c cb3d 98e1 2a3c
000001f0: 67b0 a9ba 69f5 573c 9a19 aabd 6cc1 5d3d
00000200: 79b0 563d 44b7 a03d 3e00 183d 6e25 88bc
00000210: 0ad8 003d b0ba ecbd 8578 813d 2b82 3d3c
00000220: 2990 16be a84e 453b 6b6c a3bc c4f9 5ebd
00000230: d5e0 1bbd a15e d3bd a029 a0bd 585b 29be
00000240: 78e8 993d 24ef 7fbc 857c 49bc c5b0 a5bd
00000250: 7fd5 bd3c 9354 18bd a4ee 233a ee9a 533b
00000260: 8c63 3fbc 27d7 87bd d371 1fbd dfae 473d
00000270: 9cdb b73d b58b 0abe 6618 5cbd c678 12bd
00000280: e75b d93d bbbf a13d 943f a6bc 6531 09bb
00000290: fffb 253d 8ea2 d33d fe70 ffbd d473 0abc
000002a0: 74b9 33be 527c 28bd 86a4 553d 1b17 3e3d
000002b0: cc5a 863d 1064 92bd 98b0 eabc aa5e 68bc
000002c0: 712c b8bd 7829 a6bd ee13 c33d 623b 913d
000002d0: bfaf b63c 7017 c13d 3264 343d 85ea 0bbc
000002e0: c7fc b93d 10be 16be cd07 a7bd 3bc2 12be
000002f0: abc2 563d 5bd9 8bbd 8614 04be 3db7 3dbd
00000300: 2108 2c3d b280 1c3d 9485 0bbe 24f8 ce3c
00000310: 8128 d0bd 658e 09be 672d 793d 3f0e 3abd
00000320: 1e05 fabd 1257 1b3c 8a18 8ebe 9924 d73d
00000330: b7d4 8f3d 043d 41bd 7d1c 34be 318b 49bd
00000340: dc85 1dbd 1891 133d ef23 1ebd 9a39 19be
00000350: dcc0 ac3d f871 dc3c f0be febc cec6 923d
00000360: 71f4 943e f360 f0bc 1e4c c9be bbc4 02be
00000370: 88e8 16bb a161 a13d 0105 2abc e6bc 69be
00000380: bb9f 1a3e a21a a0bd e014 1d3c ee97 bc3d
00000390: f24a bebd d883 be3d 4ee0 953c d7f5 29be
000003a0: 8cc8 093d 05ca cabc 36ea 35bd e983 0abe
000003b0: 8bad e2bd 302d 8e3d 72f3 82bd 6fd0 42be
000003c0: aad9 c93d d3d4 f33d bc03 df3b f8ad 2fbe
000003d0: 3910 f63b 7ca4 f63d c154 e33d dabe 6d3c
000003e0: ac36 72bd d84f 44bd f04e 33be 085f d9bd
000003f0: d02c ffbd 4fb9 7bbe ebb7 9f3d 1fea 5a3d

hidden2_Y1.bias f4 [200]
-0.098136775 0.1928774 0.2197627 -0.084730335 -0.062865816 0.14537545 0.31535104 -0.07690947
-0.04035026 -0.10927564 0.033260103 -0.08628249 0.10212819 -0.06108669 -0.032121938 0.18338944
-0.11857461 0.010789541 0.079836376 0.14045113 0.23246878 0.3381268 -0.10495581 0.18697046
-0.11327225 -0.015104471 -0.15008946 -0.08751573 -0.09136024 -0.12773134 0.10567753 -0.15088618
0.10538543 -0.013368489 -0.10493255 0.10722172 -0.097753465 0.23033519 0.044720054 0.25107986
-0.096970186 -0.099136986 -0.042242695 -0.10499336 0.3128762 0.010645819 0.17758504 -0.12915257
0.2298617 -0.06857512 0.19100456 0.02293796 0.05006584 -0.11302052 0.0021255761 -0.0876734
0.32683596 -0.08635991 0.32392716 -0.048598815 0.17100315 -0.09040317 -0.043697037 -0.11697837
-0.03725843 -0.11589379 0.22971551 -0.09503954 0.26320636 0.32875648 -0.08959839 -0.081815295
-0.087868586 -0.06424457 -0.11026221 0.26153532 0.32673833 -0.10660423 0.12077623 -0.06394341
-0.13817056 -0.0924857 -0.067815945 0.10885169 -0.0760275 -0.11063335 -0.056132596 0.28213102
0.30484292 -0.12919903 -0.09735606 -0.115788266 -0.09933279 -0.09724344 0.13265388 -0.09267359
-0.091222234 0.047977895 -0.17549603 -0.105968125 -0.17448412 0.3149135 -0.058202315 -0.08812192
0.18174902 0.3510763 -0.12384677 -0.07558407 0.23263225 -0.08240255 -0.1398325 0.3807636
0.26816094 -0.12122827 -0.108216695 0.2750893 -0.1103002 0.06009376 -0.09016491 -0.122796275
-0.06479724 0.17270654 -0.12844644 -0.12810816 -0.094531305 0.25456542 -0.12659663 -0.12327027
0.27164763 -0.072161734 0.19135734 -0.08426801 -0.044722565 0.3523408 -0.12817548 0.16828653
-0.06268968 -0.09477135 -0.11526283 -0.07949469 -0.14747134 -0.122777596 -0.08082462 0.3261897
0.27200645 0.1327523 0.2582295 -0.01891331 0.41672945 0.015566643 0.23306875 0.28302127
0.25758034 -0.016973669 -0.14453046 -0.1022133 -0.09249163 -0.11713592 -0.08577591 -0.04488666
-0.08909417 -0.11613025 -0.09220375 0.2822853 0.26719522 0.24591868 0.05109548 -0.01120178
0.29211807 0.30610973 0.18366541 -0.11592893 -0.1565576 -0.13017038 -0.07710426 -0.088311605
-0.10288408 0.056609187 0.304915 -0.12151561 0.18729877 -0.057659287 -0.0791566 -0.11730028
0.1599557 0.23484823 -0.12010403 -0.09892069 0.024295278 -0.094317324 -0.11950023 -0.13256189
-0.06639888 0.0109509295 -0.089538835 -0.08315342 0.3586872 0.3632557 0.25760853 -0.072248116
00000000: effb c8bd a781 453e 7909 613e 1987 adbd
00000010: cbbf 80bd 4ddd 143e b175 a13e b682 9dbd
00000020: 5046 25bd e8cb dfbd bf3b 083d e0b4 b0bd
00000030: 9628 d13d 0936 7abd 4b92 03bd 71ca 3b3e
00000040: 3fd7 f2bd 9dc6 303c 4181 a33d 6cd2 0f3e
00000050: 4c0c 6e3e f51e ad3e 12f3 d6bd 2f75 3f3e
00000060: 48fb e7bd be78 77bc 0db1 19be 723b b3bd
00000070: 141b bbbd 01cc 02be 766d d83d e881 1abe
00000080: 51d4 d73d 8207 5bbc e0e6 d6bd 1097 db3d
00000090: f832 c8bd fddc 6b3e 602c 373d 8a8d 803e
000000a0: 4e98 c6bd 5508 cbbd ad06 2dbd c206 d7bd
000000b0: 4f31 a03e cd6b 2e3c dad8 353e 9240 04be
000000c0: de60 6b3e 1d71 8cbd b396 433e 64e8 bb3c
000000d0: d711 4d3d 4d77 e7bd 404d 0b3b 1d8e b3bd
000000e0: 0b57 a73e 77dd b0bd c8d9 a53e 8d0f 47bd
000000f0: 731b 2f3e 4c25 b9bd aafb 32bd 5b92 efbd
00000100: 4c9c 18bd b959 edbd 8b3a 6b3e 17a4 c2bd
00000110: fcc2 863e c552 a83e 5c7f b7bd c78e a7bd
00000120: 72f4 b3bd a892 83bd 27d1 e1bd f5e7 853e
00000130: 3f4a a73e 5253 dabd 8759 f73d c3f4 82bd
00000140: 957c 0dbe 2569 bdbd 16e3 8abd a3ed de3d
00000150: 4eb4 9bbd bd93 e2bd 4beb 65bd 7a73 903e
00000160: 5f14 9c3e c04c 04be 9d62 c7bd 6622 edbd
00000170: fd6e cbbd 9227 c7bd 6bd6 073e a7cb bdbd
00000180: b9d2 babd 7884 443d 3bb5 33be d105 d9bd
00000190: f7ab 32be 583c a13e 8d65 6ebd 4479 b4bd
000001a0: 6a1c 3a3e 46c0 b33e 60a3 fdbd d2cb 9abd
000001b0: 2637 6e3e abc2 a8bd 4030 0fbe 72f3 c23e
000001c0: 644c 893e 8746 f8bd b7a0 ddbd 81d8 8c3e
000001d0: 12e5 e1bd e024 763d 61a8 b8bd 9d7c fbbd
000001e0: 6ab4 84bd fcd9 303e 7787 03be c92e 03be
000001f0: a199 c1bd 6656 823e 8ca2 01be 2075 fcbd
00000200: 6615 8b3e 88c9 93bd 2ef3 433e b594 acbd
00000210: 022f 37bd 0366 b43e 6f40 03be 4e53 2c3e
00000220: 7263 80bd 7b17 c2bd eb0e ecbd 1dce a2bd
00000230: ba02 17be d272 fbbd 6187 a5bd 5602 a73e
00000240: 6e44 8b3e 38f0 073e a836 843e 16f0 9abc
00000250: 905d d53e 3c0b 7f3c 93a9 6e3e 2ae8 903e
00000260: 92e1 833e 5d0c 8bbc cbff 13be 3555 d1bd
00000270: 406c bdbd f5e4 efbd 48ab afbd 13db 37bd
00000280: 0177 b6bd b2d5 edbd 52d5 bcbd b387 903e
00000290: d0cd 883e 1bd2 7b3e 7e49 513d ac87 37bc
000002a0: 8090 953e 6aba 9c3e c912 3c3e 266c edbd
000002b0: a350 20be 624b 05be d7e8 9dbd b7dc b4bd
000002c0: e3b4 d2bd 09df 673d d21d 9c3e 2ddd f8bd
000002d0: 40cb 3f3e 252c 6cbd db1c a2bd 213b f0bd
000002e0: 6dcb 233e 0e7c 703e 1af9 f5bd ee96 cabd
000002f0: e406 c73c 7129 c1bd 89bc f4bd 4ebe 07be
00000300: 23fc 87bd 876b 333c 2360 b7bd 574c aabd
00000310: d9a5 b73e a7fc b93e 44e5 833e d2f6 93bd

out_Y1.weight f4 [1, 200]
-0.08882488 0.05248093 0.071929835 -0.12265008 -0.06623006 0.0075723217 0.18812491 -0.05154444
-0.0022281138 -0.014009802 0.06423805 -0.019248659 -0.002554427 -0.003239436 -0.006062434 0.05868158
-0.0138276545 -0.13150242 -0.016219221 0.040024634 0.054139517 0.13166456 -0.034265302 0.010769185
-0.026347164 -0.028455134 -0.052540492 0.08287188 -0.10255115 -0.008724712 0.014060968 -0.032036025
0.11739752 0.014438329 8.853242e-05 0.08301464 -0.025990149 0.13120545 0.004715928 0.10855025
-0.11800249 -0.14833674 -0.008471989 -0.047328144 0.1152916 -0.10303493 0.040682424 -0.013256353
0.09324272 -0.034537554 0.071869045 0.0034604524 -0.009282509 0.0352977 -0.23926859 0.0019786286
0.13024513 0.025135241 0.13008681 -0.07023183 0.044154458 -0.08454069 -0.04245273 -0.05333474
-0.09701183 0.039371785 0.041565645 -0.024077497 0.059444737 0.15259239 -0.09506003 0.007030435
-0.020939685 -0.013570702 -0.07213136 0.09864661 0.096746884 0.013127903 0.038267173 -0.15656887
0.010443768 -0.021760395 -0.12844224 0.0004508 -0.00030686907 -0.07120928 -0.021031033 0.10476665
0.11161018 0.030701619 -0.138477 -0.0122745475 -0.20869508 -0.010638317 0.00784655 -0.0060449904
-0.020947382 -0.0077899164 -0.17860498 -0.039490614 0.06860962 0.15254274 -0.03499232 -0.07466346
0.06336259 0.13644396 0.026813243 0.009719249 0.022578688 -0.028374378 -0.12114541 0.07737557
0.08415258 -0.0185582 -0.022033693 0.059819005 -0.0046563377 -0.009087322 -0.13743602 -0.018680846
-0.057162672 0.013386763 -0.077338025 -0.058312066 -0.05211405 0.09119154 0.00946485 -0.01623316
0.09934049 -0.023519741 0.061502952 -0.0051106685 -0.05508044 0.13052534 0.026104461 0.06760429
-0.1789838 -0.05250201 -0.007639429 0.0072345394 -0.001490543 -0.06475408 -0.09306812 0.16263203
0.074187435 0.006729521 0.10990809 -0.004267829 0.16248472 0.11086005 0.06894507 0.09406458
0.087378606 -0.1975099 -0.006447689 -0.014488638 0.0049616997 -0.09925209 0.03434308 -0.17803109
-0.05446641 -0.19783531 0.021957757 0.1003046 0.055682287 0.06021448 -0.0381988 -0.098174565
0.1379984 0.09125125 0.15416434 -0.12928382 -0.12992495 -0.089425124 -0.028958816 -0.05362139
-0.013014571 0.11702808 0.11674095 0.025723848 0.082798295 0.03917083 -0.027313627 -0.013140542
-0.013706673 0.059808195 -0.01994117 0.00026369726 0.045911387 -0.005400692 -0.015359324 -0.023654148
-0.022560647 -0.12317813 -0.0137128495 -0.11269097 0.11853592 0.18789135 0.121207245 0.08851751
00000000: d2e9 b5bd 3ef6 563d f34f 933d f72f fbbd
00000010: a0a3 87bd 3d21 f83b d1a3 403e 4320 53bd
00000020: 8c05 12bb 5e89 65bc 3d8f 833d 5daf 9dbc
00000030: 2c68 27bb b84c 54bb 62a7 c6bb 195c 703d
00000040: 638d 62bc 92a8 06be 2cde 84bc dff0 233d
00000050: 66c1 5d3d 13d3 063e c659 0cbd 3c71 303c
00000060: 02d6 d7bc be1a e9bc b334 57bd bbb8 a93d
00000070: 5606 d2bd 18f2 0ebc f95f 663c 3538 03bd
00000080: 1c6e f03d be8e 6c3c 7baa b938 9403 aa3d
00000090: 4be9 d4bc b95a 063e 1288 9a3b 984f de3d
000000a0: 4aab f1bd 96e5 17be 19ce 0abc 28db 41bd
000000b0: 011e ec3d fa03 d3bd 9da2 263d 2d31 59bc
000000c0: 0af6 be3d 4077 0dbd 1430 933d c2c8 623b
000000d0: aa15 18bc 5294 103d d302 75be e1ab 013b
000000e0: fb5e 053e 6ce8 cd3c 7a35 053e b5d5 8fbd
000000f0: 4edb 343d ab23 adbd eae2 2dbd 8775 5abd
00000100: 23ae c6bd 4f44 213d bd40 2a3d 2c3e c5bc
00000110: 537c 733d 2e41 1c3e d5ae c2bd 905f e63b
00000120: b489 abbc a657 5ebc 9bb9 93bd 3c07 ca3d
00000130: 3b23 c63d 6b16 573c 0abe 1c3d 9753 20be
00000140: 571c 2b3c db42 b2bc 5d86 03be 5a59 ec39
00000150: 45e3 a0b9 2cd6 91bd 4649 acbc e68f d63d
00000160: e193 e43d f681 fb3c eacc 0dbe 2f1b 49bc
00000170: 2ab4 55be 564c 2ebc d18e 003c 0e15 c6bb
00000180: d899 abbc 8e42 ffbb 39e4 36be e9c0 21bd
00000190: 3383 8c3d 2a34 1c3e 1b54 0fbd 28e9 98bd
000001a0: 3fc4 813d f7b7 0b3e 72a7 db3c 7c3d 1f3c
000001b0: f1f6 b83c 6271 e8bc 161b f8bd 1577 9e3d
000001c0: 3058 ac3d 5e07 98bc 0180 b4bc c604 753d
000001d0: 3194 98bb fee2 14bc 07bc 0cbe 9308 99bc
000001e0: 6823 6abd 2754 5b3c 6663 9ebd a2d8 6ebd
000001f0: 8b75 55bd a1c2 ba3d 7512 1b3c 67fb 84bc
00000200: 0773 cb3d 79ac c0bc 85ea 7b3d 6577 a7bb
00000210: 079c 61bd 6fa8 053e 06d9 d53c 1e74 8a3d
00000220: 8747 37be 590c 57bd 2d54 fabb b70f ed3b
00000230: 535e c3ba c99d 84bd 809a bebd 0389 263e
00000240: 95ef 973d 5083 dc3b 7e17 e13d 25d9 8bbb
00000250: 6562 263e 980a e33d 1333 8d3d eea4 c03d
00000260: 8ef3 b23d 0940 4abe 2347 d3bb c161 6dbc
00000270: c195 a23b ae44 cbbd 54ab 0c3d c84d 36be
00000280: 2c18 5fbd 5795 4abe c1e0 b33c 806c cd3d
00000290: 1c13 643d 75a3 763d 5876 1cbd bf0f c9bd
000002a0: 744f 0d3e efe1 ba3d 42dd 1d3e fa62 04be
000002b0: 0c0b 05be 8524 b7bd 0a3b edbc 1aa2 5bbd
000002c0: 113b 55bc 6bac ef3d e115 ef3d d2ba d23c
000002d0: 2792 a93d 9871 203d d4c0 dfbc 6e4b 57bc
000002e0: f491 60bc 70f9 743d aa5b a3bc d940 8a39
000002f0: 940d 3c3d 4af8 b0bb ada5 7bbc 58c6 c1bc
00000300: 1bd1 b8bc d144 fcbd dcab 60bc 86ca e6bd
00000310: f6c2 f23d 9766 403e 813b f83d ab48 b53d
