DCNModel/DCN_PD_NN_Models/NN_DCN_model_iter_id_27_epoch_100_lr_0.001.pth (torch_old, 828790 bytes, 14 tensors)

shared1.weight f4 [200, 25]
000000 ee 27 b9 3d 3f c5 27 3e 07 c0 c8 bc 2e de 1b 3e
       0.09040819 0.16383837 -0.024505628 0.15221474
000010 72 3a 5f 3d 89 13 37 be c2 b7 5f 3e 9e 2b 91 be
       0.054499097 -0.17878546 0.21847442 -0.2835359
000020 6c fa e3 bc d5 7d f1 bd 3f bb e0 3c 16 09 75 be
       -0.027829371 -0.11791579 0.027433036 -0.23929247
000030 f6 82 c6 be 9a 00 a7 bc 38 34 b5 bd 98 0f 04 bc
       -0.3877179 -0.020386029 -0.088478506 -0.008060358
000040 b0 29 77 be f2 82 41 bd 37 c5 03 be 2d 69 da 3d
       -0.24136996 -0.04724402 -0.128682 0.10664592
000050 3e 3a 8d 3d dc 96 69 3e 7b 03 af 3d d0 c4 69 be
       0.068958744 0.22811455 0.08545586 -0.22828984
000060 72 25 48 be 3b 63 a5 bd ed ce 6d 3d 57 4e 01 be
       -0.19545534 -0.08075567 0.058058668 -0.1262754
000070 9f 95 18 3d b6 68 2c be 57 18 6c 3c 49 46 35 bd
       0.037252065 -0.16836819 0.0144101 -0.044256482
000080 e8 24 ec bd f9 82 77 bd 41 43 8f bd fb ea 3a be
       -0.11530477 -0.06042764 -0.069952495 -0.182537
000090 ce 85 3c 3e 7b b6 26 be a2 89 e4 bd 39 10 ba bd
       0.18410417 -0.16280548 -0.11159064 -0.090851255
0000a0 03 58 53 be dc 4a d1 bd 32 d3 97 be 3b c3 15 be
       -0.20639043 -0.102193564 -0.29653317 -0.14625256
0000b0 e6 fc 65 be 68 8c 2f bc 7b c7 16 3d 72 af e8 bd
       -0.22459754 -0.010714628 0.036811333 -0.113615885
0000c0 b0 75 d1 bd 05 ca 66 bc 63 98 8d 3c ef e6 88 bd
       -0.10227525 -0.014086251 0.017284578 -0.06684672
0000d0 64 75 de bc 0e 38 18 be 23 22 f1 bd 58 f6 f4 bc
       -0.027155586 -0.14865133 -0.11774089 -0.029902622
0000e0 b5 46 e2 bd 9a 65 db bc 60 07 59 bd 79 05 59 be
       -0.110486425 -0.026781846 -0.05298555 -0.21193494
0000f0 39 06 1d 3c 38 21 15 be 68 c9 d8 3c f5 e4 cf bd
       0.009584003 -0.14563453 0.026463225 -0.10151092
000100 3a 6e 1b bd 83 45 9b be b3 44 fc bb 7b 21 7f 3c
       -0.037946917 -0.3032647 -0.0076986193 0.015571947
000110 a1 f4 49 be 16 39 26 bd 2b e2 c8 3d 2c d6 6c 3d
       -0.19722225 -0.040581785 0.09808763 0.057821438
000120 99 5e 57 bd de b4 b7 bd 86 03 62 be f5 8c e1 bc
       -0.05258045 -0.089700446 -0.22071657 -0.027533034
000130 c1 0c 21 3e 91 a5 47 3e 96 70 30 be 97 81 02 be
       0.15727521 0.19496752 -0.17230448 -0.12744747
000140 b7 58 d1 3e c7 05 a4 bc 3d d8 95 be 79 31 05 3e
       0.40887997 -0.020022286 -0.2926654 0.13007154
000150 3f 84 48 3d a4 3d 3c 3a 6c 4e 34 be 1e ff 00 be
       0.048954245 0.0007180816 -0.1760804 -0.1259732
000160 28 d4 91 bd fe 5e ea bc 31 32 9c bd d5 7e 63 3d
       -0.07120544 -0.028609749 -0.07626761 0.05554088
000170 a7 42 bb bd 73 9e 68 3d 5f 70 2a 3d 18 2d 8a bd
       -0.09143572 0.056791734 0.04161107 -0.06746882
000180 ba ca 55 be 58 d7 be bd de 63 49 bd 0f d3 d2 be
       -0.20878115 -0.09318417 -0.049167506 -0.4117665
000190 bc 63 bb 3d a2 7e 71 bd 7f 89 76 3d be 2b 75 bd
       0.09149882 -0.058958657 0.06018972 -0.05985617
0001a0 49 c0 9d bc bc bb 5c bd d2 a7 21 be ab c6 97 3c
       -0.019256728 -0.053889975 -0.15786675 0.01852735
0001b0 4d fe 48 3d fb 5e 3f be 32 22 cb 3d 53 2f 1b 3e
       0.049070645 -0.18688576 0.099186316 0.15154772
0001c0 b3 d7 36 be 68 ad bf bd a8 e5 1b be 68 4f f6 3c
       -0.1785572 -0.093592465 -0.15224326 0.03006716
0001d0 5c 8e 52 be ee bb 4d bd b7 96 3f be 1d ed 00 bd
       -0.20562118 -0.05022805 -0.18709837 -0.03147613
0001e0 b3 f6 bb bd 93 2f 1f 3c 46 1c 03 3e d9 84 00 bd
       -0.091779135 0.009715932 0.12803754 -0.031376693
0001f0 db 72 9f 3d c6 55 fa 3c 5b ad 83 3d f7 8d 7f 3d
       0.07785579 0.030558478 0.06429549 0.062391248
000200 30 be 8f bd 82 e2 76 3b f2 b4 0a 3e 88 b0 56 be
       -0.07018697 0.003767163 0.13545588 -0.20965779
000210 0e 3b 34 bd f4 5d 4b be b3 b4 8b be a1 62 0f be
       -0.04400163 -0.19860059 -0.272863 -0.14002468
000220 ff 77 f7 bd ef 8b be bd b1 b5 1d bd dd 8f fc ba
       -0.12083434 -0.09304034 -0.038503353 -0.0019268949
000230 9d 0c 9c be 92 1c 08 bd 9d 1a 23 be 5b 72 ae bd
       -0.30478373 -0.03323037 -0.15928121 -0.08517905
000240 37 59 16 3e 20 b1 23 be 0c 9a 9a 3c 3a 20 0d 3d
       0.1468247 -0.15985537 0.018872283 0.03445456
000250 7e 07 2a 3c 77 c5 8e bd ac 24 f5 3c 83 04 bb 3d
       0.010377763 -0.06971257 0.029924713 0.0913172
000260 eb c7 42 3b 03 a0 1d 3e 4d 84 9c 3e 8f 97 ef bc
       0.0029721211 0.15393071 0.30569687 -0.029247073
000270 4e ab 23 be fa 7a 40 3e 35 cd 1a 3d b4 67 68 be
       -0.15983316 0.18796912 0.037793357 -0.2269581
000280 7d c8 a8 3e 84 a7 ad 3e 1c 53 74 3d 4c 38 36 be
       0.3296546 0.33916867 0.05964957 -0.17794913
000290 19 c6 4f 3e 28 ce 7b bd c0 f2 49 3d 7d 48 44 be
       0.20290412 -0.061475903 0.04930377 -0.19168277
0002a0 f5 e8 61 be 1c 6e 19 be ce 37 b3 bc bc 3b d9 3d
       -0.22061522 -0.1498341 -0.021877196 0.106070966
0002b0 4e 81 07 be 5d 1f 68 be be d9 9e be c6 8e 37 be
       -0.1323292 -0.22668214 -0.310255 -0.17925557
0002c0 e0 00 3c be 29 d6 ed bc 69 77 58 be 54 14 d8 bd
       -0.18359709 -0.029032784 -0.21139301 -0.10550752
0002d0 c4 e8 be 3d 3e 4b c0 bd 39 3a cf bd d2 9e 04 be
       0.0932174 -0.09389351 -0.10118527 -0.1295121
0002e0 18 fd 2f bd a1 32 39 bd 89 eb 48 3d 25 0f 30 be
       -0.04296598 -0.0452143 0.04905275 -0.17193277
0002f0 b3 bc a0 bd bc 3d c3 bd df 77 cd bd eb 6a cc 3d
       -0.078484915 -0.09533259 -0.10032629 0.099813305
000300 46 e7 30 bd 14 8a aa 3c 4f b8 98 bd d8 81 00 be
       -0.04318931 0.020817794 -0.07457029 -0.12549531
000310 13 84 06 3e 96 02 b4 bd 5b 4d 5f bd c0 5b a8 3e
       0.1313632 -0.08789556 -0.05451713 0.328825
000320 b5 58 94 bd 84 87 16 3d 56 5c 7a bd 77 1d 79 bd
       -0.07243482 0.03675033 -0.061123215 -0.060819115
000330 a1 a5 2a 3d 6d 41 0b bd df 4f 98 bd a7 d6 04 3e
       0.041661862 -0.03399794 -0.07437109 0.12972508
000340 7f ea 87 3d 08 7e e7 bd fd 3b 10 be e8 9d 73 be
       0.066365235 -0.113033354 -0.14085384 -0.23790705
000350 fa 82 0f be f4 4e 22 be c4 29 00 3e 60 5d 7b bd
       -0.14014807 -0.1585043 0.12515932 -0.061368346
000360 6f e5 dd 3d eb 49 f0 bd e5 8f 83 bd ea 0b 43 3e
       0.108347766 -0.11732849 -0.0642393 0.19047514
000370 39 26 c0 bd b0 89 6e bd c9 8c 2f be 50 da b2 bd
       -0.093822904 -0.058236778 -0.17143549 -0.08733046
000380 32 55 8f bd 71 0b b9 bd 71 c9 0d 3d d0 ed 92 3d
       -0.069986716 -0.090353854 0.034615938 0.071742654
000390 46 02 14 bd e6 1a c2 3d 34 58 5d 3d 7e fc f1 bc
       -0.03613498 0.09477787 0.054039195 -0.029539343
0003a0 a5 92 a1 3d a0 67 b3 be 09 85 d9 3d 80 ab 1a 3e
       0.07889298 -0.35039997 0.106210776 0.15104485
0003b0 14 c6 27 bd 44 ca 37 be a4 2c 35 3c fa 78 85 bd
       -0.040960386 -0.17948252 0.011058006 -0.06517215
0003c0 4d 39 e4 bd 7a c7 dc bc 9e 50 90 be 35 89 ea 3b
       -0.11143742 -0.026950587 -0.28186506 0.0071574696
0003d0 8e 96 da bd 30 e2 13 3e ae 1c 3b bd 67 13 91 3b
       -0.10673247 0.14441752 -0.045681648 0.004427362
0003e0 dc e5 bf bd 0e b9 d9 bd 00 48 91 3d 82 90 17 3e
       -0.09370014 -0.106309995 0.07093811 0.14801219
0003f0 26 29 64 be 05 d0 65 3e 8a 74 64 3d 5d 0e a8 3d
       -0.22281322 0.22442634 0.055775203 0.082058646

shared1.bias f4 [200]
000000 4d 41 f5 bd 6a f1 7f be 2e 8c f3 bd de 59 c5 39
       -0.11975346 -0.24994436 -0.118919715 0.00037641724
000010 bb b4 ae bd f3 b1 28 be b2 a4 08 be 35 86 ea bd
       -0.08530565 -0.16474132 -0.13344076 -0.11451379
000020 dc 44 85 bd c1 4a f9 bd 3c f2 f9 bd 7e 25 b6 bd
       -0.065072745 -0.12172461 -0.12204406 -0.0889387
000030 39 b1 aa bd 8e 5c 03 be cc d2 b0 bd d6 e0 ee bd
       -0.08334584 -0.12828276 -0.08633956 -0.11663978
000040 90 ac db bd 9b 67 b7 bd 8f f6 02 be e2 5a 12 be
       -0.10726273 -0.08955308 -0.12789367 -0.14292482
000050 8b c5 16 be ff c8 2d be b2 44 4f be 81 d9 1c be
       -0.14723794 -0.16971205 -0.20241049 -0.15317346
000060 0d 38 ca bd 4f e7 bd bd 9a ae 4a be a4 f8 41 be
       -0.09873972 -0.09272634 -0.19793168 -0.18942505
000070 3c 90 38 bd cd 2b e6 bd 19 75 0b be 79 4d 47 be
       -0.045059428 -0.11238823 -0.13618888 -0.19463147
000080 2a d6 1c be aa 81 b6 bd d7 1a c2 bd b2 8b d1 bd
       -0.15316072 -0.0891145 -0.094777755 -0.10231723
000090 ec e9 0b be a3 fd e7 bd c7 b7 3f be 25 96 28 be
       -0.13663453 -0.11327674 -0.18722449 -0.16463526
0000a0 eb 5e 66 bd 91 bf 1e be fb c3 14 be 4d 49 1a be
       -0.056242865 -0.15502764 -0.14527886 -0.15067025
0000b0 47 84 79 bd 3f aa ab bc 8d c5 ec bd 1a 10 19 3b
       -0.060917165 -0.020955203 -0.11561117 0.0023355545
0000c0 57 27 bf bd 51 a4 09 be 56 65 87 bd ed 56 b0 bd
       -0.09333675 -0.13441588 -0.06611125 -0.0861033
0000d0 1c e1 b6 bd 53 ec d5 bd c3 76 93 bd f6 7b 97 bd
       -0.08929655 -0.10445466 -0.072003864 -0.073966905
0000e0 d3 72 87 bd fd b8 af bd 06 87 a8 bd 1f f7 fb bd
       -0.06613698 -0.085802056 -0.08228879 -0.12302994
0000f0 f7 2a 09 be 5f 02 12 be 70 65 0a bd 7c 6a c8 bd
       -0.13395296 -0.14258717 -0.033788145 -0.09785935
000100 7c 2a e5 bd d0 ee 20 be 22 e1 74 bd 34 a8 04 be
       -0.11189744 -0.157161 -0.059785016 -0.1295479
000110 39 e4 22 be 4b c9 22 be b1 24 23 be 74 3b 3d be
       -0.15907373 -0.158971 -0.15931965 -0.18479711
000120 e2 0f 46 be fc c9 2e be 82 2a b7 bd df 03 40 be
       -0.19341996 -0.17069238 -0.089436546 -0.18751477
000130 23 c6 cd bd a0 95 f8 bd ae 3d 82 bd 56 e7 77 bd
       -0.10047557 -0.12137914 -0.06359421 -0.060523354
000140 d2 61 c3 bd c9 b3 a0 bd 4c 7e f0 bd b1 48 03 be
       -0.09540142 -0.07846791 -0.11742839 -0.12820698
000150 f1 a8 f9 bd d6 ce 05 be 41 d9 1d be 54 28 31 be
       -0.12190426 -0.13067183 -0.15414907 -0.1730054
000160 7e 0c 6f bd 3d d4 fd bd 5e d3 37 be f0 6c d1 bd
       -0.058361523 -0.12393997 -0.17951724 -0.10225856
000170 33 c9 fa bd 2e 57 6d bd 86 4b 1e bd 2c 1d 33 bd
       -0.12245407 -0.05794447 -0.038646244 -0.043728992
000180 07 4f 0d be c0 73 b4 bd 67 21 95 bd 84 04 03 be
       -0.13799678 -0.0881114 -0.072817616 -0.12794691
000190 b7 da ab bd 90 ed f0 bd e7 66 ea bd 9e 4d 08 be
       -0.08391326 -0.117640615 -0.11445408 -0.13310859
0001a0 9d 02 04 be 37 cf 88 bd 17 4a 40 be d9 47 a1 bd
       -0.12891622 -0.06680148 -0.18778263 -0.07875032
0001b0 82 d8 47 be aa 9b fd bd 25 6a 13 be 71 01 d0 bd
       -0.19516185 -0.12383206 -0.1439596 -0.10156525
0001c0 a7 8e fe bd e3 f6 0a be 91 7e ca bd 36 e0 7d bd
       -0.124295525 -0.13570742 -0.09887422 -0.061981402
0001d0 7f dc 67 bd db f5 02 be be b4 06 be 87 d2 bd bd
       -0.056606766 -0.12789099 -0.13154885 -0.092686705
0001e0 15 b5 9d bd 32 33 c0 bd 94 79 94 bd 4f 06 93 bc
       -0.07700554 -0.09384765 -0.07249752 -0.017947344
0001f0 9f ec 8b bd 8c 58 62 be 88 9a 0e be 5c 89 15 bd
       -0.06832241 -0.2210409 -0.13926136 -0.03650795
000200 34 3a 34 be b6 e2 4c bd 92 bf f1 bd da a6 8e bd
       -0.17600328 -0.050020896 -0.11804117 -0.06965418
000210 79 b9 e4 bd 4c 63 a7 bd 36 45 fa bd 39 2c b7 bd
       -0.111681886 -0.08173236 -0.12220232 -0.08943982
000220 d5 b8 ec bd ba 99 0d be 4e 98 06 be 4f 34 13 be
       -0.115586914 -0.13828173 -0.13144037 -0.14375423
000230 26 a2 f3 bd 7b f2 09 be c5 f6 45 bd 80 ec c8 bd
       -0.11896162 -0.13471405 -0.04833104 -0.09810734
000240 a4 de c8 bd 2b a9 d1 bd c4 ac 04 bd 2c 70 88 bd
       -0.0980809 -0.10237344 -0.032391325 -0.0666202
000250 01 41 d9 bd 58 fc f8 bd 3c 08 61 bd 87 4e 98 bd
       -0.10608102 -0.12157506 -0.054939494 -0.07436853
000260 12 2e 12 be 54 38 f9 bd dc de af bd cb 29 cf bd
       -0.14275387 -0.12168947 -0.08587429 -0.10115393
000270 d3 c3 03 be 9a 1e 1f bd d3 1b 1a be 7d 7b a6 bd
       -0.1286767 -0.038847543 -0.15049677 -0.08129022
000280 f4 f3 23 be f3 46 ca bd 0d b4 1d be dc ad 80 bd
       -0.1601103 -0.09876814 -0.15400715 -0.06283161
000290 fb e5 f4 bd 6b 08 28 be 33 25 78 bd 0a e7 f0 bd
       -0.11957928 -0.16409461 -0.06058235 -0.11762817
0002a0 76 49 1a be 92 71 f2 bd 20 33 57 be f9 39 42 be
       -0.15067086 -0.11838068 -0.21015596 -0.18967427
0002b0 f1 a8 7b bd 3b f4 1f be 77 0a 54 bd ae 3a 28 bd
       -0.061440412 -0.1562051 -0.051767793 -0.041071586
0002c0 f4 50 49 bd d5 df 77 bd d3 9e c3 bd 22 ec 81 bd
       -0.04914947 -0.060516197 -0.09551778 -0.06343867
0002d0 3c d0 a2 bd 9f 95 0c be 1a 54 34 be e0 e1 9a bd
       -0.07949874 -0.13728951 -0.17610207 -0.075626135
0002e0 11 c5 05 be 7c fc de bd 86 1c 1d be c7 a8 24 be
       -0.13063456 -0.10888001 -0.15342912 -0.16080008
0002f0 93 0e 28 be 49 b1 60 bd 55 ad 17 be d5 18 8d bd
       -0.1641181 -0.054856572 -0.14812215 -0.06889502
000300 e9 65 01 be 99 03 55 be 48 5f fd bd dd 6e b5 bd
       -0.12636532 -0.20802154 -0.12371689 -0.08859036
000310 da ba 7c bd ac c4 a7 bd e7 a7 40 bd b1 e8 11 be
       -0.061701633 -0.08191809 -0.047035124 -0.14248921

shared2.weight f4 [200, 200]
000000 77 a0 4a 3e bc 2b 5f 3e 79 ff c5 3d d2 78 f4 bc
       0.19787775 0.21794027 0.09667868 -0.029842768
000010 ad d0 c2 bd dc 2b aa 3d ad 19 5a 3b e7 c6 b2 3d
       -0.09512458 0.08309147 0.0033279464 0.08729344
000020 a7 bb e6 bc 59 a2 f8 bc 14 39 b5 bc f9 31 13 3e
       -0.028165651 -0.03035085 -0.022121944 0.14374532
000030 7f 01 44 3e 6a 4c d7 bd 87 0f c6 bd 6b e8 20 bd
       0.19141196 -0.10512622 -0.0967093 -0.03928415
000040 7c 45 b6 bd a5 7d 7d bc 4d 7d 47 3c ac 28 e1 3c
       -0.08899972 -0.0154718505 0.01217587 0.027485214
000050 ba 00 8f 3d 81 7c 65 bc cd cd aa bd 20 f0 84 be
       0.069825605 -0.014006735 -0.08340035 -0.2596445
000060 c5 84 f2 bc 15 34 88 be 75 de 89 3d 14 a5 11 3e
       -0.029604325 -0.26602235 0.067318834 0.14223129
000070 94 4a 8a bd 29 df 69 3b ea 0a 56 bd e5 c5 07 be
       -0.06752506 0.0035685992 -0.052256502 -0.13259085
000080 20 da 13 be 19 6a 86 3c 6e fc e4 3c 84 d7 c2 3d
       -0.14438677 0.016408013 0.0279524 0.095137626
000090 8e fc 2a bd b7 ab fa 3d 3d 2b 29 be 2b 1b 6e bd
       -0.04174476 0.12239783 -0.165204 -0.05813138
0000a0 b0 a4 aa 3c 19 c5 36 be c7 61 a5 bd aa 40 d2 bd
       0.020830482 -0.17848624 -0.0807529 -0.1026624
0000b0 bb 6a 00 3d 66 cc 33 3e 5d c4 0e bd 71 2a 85 bd
       0.031351786 0.1755844 -0.034855235 -0.06502236
0000c0 f2 41 94 bc 67 70 92 bd 6f f8 83 bd c8 b1 1a bc
       -0.018097851 -0.07150345 -0.06443869 -0.0094418
0000d0 ce d9 8c bd 0f 8c 09 be ad 5d 00 bd 9a c5 bc 3d
       -0.068774804 -0.13432334 -0.031339336 0.09217377
0000e0 92 3f c8 bb 17 6e 76 bc 93 b5 a9 bd 22 1f 6b be
       -0.006111094 -0.015040896 -0.08286586 -0.22961095
0000f0 8b 39 90 bc c9 f5 82 be 58 b7 97 bc 57 18 36 bc
       -0.017605564 -0.25578144 -0.018520042 -0.0111142015
000100 b2 8c da 3d 2c 1e 9a 3c 10 ad 49 bd 0f 6c a9 bd
       0.10671367 0.018813215 -0.04923731 -0.08272564
000110 7d e2 dd bd a9 c2 9a 3c 28 f3 36 3d fe 0f 8b bd
       -0.10834215 0.01889165 0.044665486 -0.0679016
000120 1c 33 92 bd b6 29 50 bd 90 01 bd 3c c3 b8 35 be
       -0.071386546 -0.05082103 0.023072034 -0.17746262
000130 ff 29 5c bc 4c ad cc be 4a 10 7b bc 7d 32 97 3b
       -0.013437747 -0.39975965 -0.015323708 0.004614173
000140 b4 d0 a9 3d 50 6a 26 be f3 0a 97 bd d9 6d 07 3d
       0.0829176 -0.16251493 -0.07375135 0.033063743
000150 db bc 56 bd ae 71 8e bc 76 0f 6a 3d 45 fc 31 bd
       -0.0524262 -0.017388191 0.05714365 -0.043453474
000160 a2 ab 48 be 40 08 fa bd 80 d0 d4 3d 56 87 31 bd
       -0.19596723 -0.12208605 0.10391331 -0.043341957
000170 96 ae 0c bc 0a 7b 97 3e 8a bf 2f bd ff 3b 2a be
       -0.008586546 0.2958606 -0.042907275 -0.16624449
000180 0e c1 6b 3d 04 62 03 bd e2 93 a6 bd e3 f2 bf 3d
       0.05755716 -0.032075897 -0.08133675 0.09372499
000190 70 e4 04 3e 7b 94 99 3e bd c5 3d bc bf 4b 46 bd
       0.12977767 0.29996094 -0.011582789 -0.04841208
0001a0 73 63 0f bd 58 e9 3d 3d 05 cd 00 3e 3d 37 02 3e
       -0.03500695 0.046365112 0.12578209 0.12716384
0001b0 b1 7f 77 3e 2f af 92 bd 66 55 76 be be 65 c8 3d
       0.24169804 -0.0716232 -0.24056014 0.09785031
0001c0 c9 60 d0 bd 86 05 56 be 49 32 27 bd 8c af ba bc
       -0.1017471 -0.20900545 -0.04081944 -0.022788785
0001d0 2c 80 7e bd f2 0e c7 bd 48 7e 49 be 76 a6 0c 3d
       -0.062133953 -0.097196475 -0.19677079 0.034338437
0001e0 19 cd 3d be de 6c 2b 3c 08 0d 30 be 8e 3f af bd
       -0.1853527 0.010462968 -0.17192471 -0.08557044
0001f0 76 dd df 3d 26 be ce 3d 3a 43 f1 3c 36 be 88 bd
       0.10930912 0.10094862 0.029451001 -0.06676905
000200 fc 22 1a 3d ec 7e 49 3d 1a ff c1 bc ab 41 a1 bd
       0.03763102 0.049193308 -0.023681212 -0.07873853
000210 21 c0 0c bc 24 34 37 3d 4a e4 ab 3d 33 7e 34 3e
       -0.008590729 0.04472746 0.08393152 0.17626266
000220 07 9d ab 3d 57 b9 19 bd 71 2e b6 3d 24 8a 08 3e
       0.0837956 -0.03753027 0.08895577 0.13333946
000230 ce 8c ef bd 4a c3 2c bc c3 d8 fb 3b bd 87 7f bd
       -0.11696778 -0.010544607 0.007685752 -0.06238531
000240 d7 de 2b bd b2 b1 4a be 5b b3 16 be ab a8 89 be
       -0.041960564 -0.19794348 -0.14716856 -0.26886496
000250 3e fd 6c 3c 50 a1 30 3c b8 81 70 be 50 32 df 3d
       0.0144646745 0.010780647 -0.23486984 0.10898268
000260 21 9a af bd 31 78 96 3d 51 27 0d 3e a0 2f af 3d
       -0.0857432 0.073471434 0.1378453 0.085540056
000270 69 e8 cb be c4 30 00 be 85 bb 5c 3d e3 de 1e bd
       -0.39825752 -0.12518603 0.05388977 -0.03878678
000280 76 ca 23 be 98 d0 39 3b 19 98 08 3e c5 05 81 bc
       -0.15995201 0.0028353091 0.1333927 -0.015749821
000290 f3 04 5a ba 30 65 04 bd 5c 14 b7 bd 82 d9 42 bd
       -0.00083167775 -0.032323062 -0.0893943 -0.047570713
0002a0 00 f4 ac bd 19 2b 4a 3e ae b1 31 bd 3e 36 33 bd
       -0.08444977 0.19743003 -0.04338234 -0.0437529
0002b0 b4 3a e9 3d 0c 02 7a bd 3a 4a 00 3e 08 09 fd bd
       0.1138815 -0.06103711 0.12528315 -0.12355238
0002c0 04 53 ab bc 72 09 d1 3c 8d a3 42 3e ea c0 3a 3d
       -0.020913608 0.0255172 0.19007702 0.045594133
0002d0 d8 9e 86 3d bf 6e b9 be 9b b9 a1 3d 31 b7 14 bc
       0.06573266 -0.36217305 0.078967296 -0.009076879
0002e0 57 5b 02 be 45 6a 50 3c 1b c2 3d 3d a8 1f e2 bd
       -0.12730156 0.012720649 0.04632769 -0.11041194
0002f0 3f 21 d6 3d 4a 28 81 3c 39 24 1e be 6d ff ea 3d
       0.1045556 0.015766282 -0.15443505 0.114745
000300 c4 1d 13 3e ab cc 11 3e 63 3d 43 be 1c 96 81 bd
       0.14366823 0.14238231 -0.19066386 -0.06327459
000310 94 91 4b bd 1d 2c ee bd cc 95 b5 bc 32 98 5f bc
       -0.04969938 -0.11629508 -0.022166155 -0.013647126
000320 94 a6 94 3d 23 bd 5b be 3c 0e 98 3c 87 a3 20 be
       0.07258335 -0.21458869 0.018561475 -0.1568738
000330 a2 13 fd bc 0e 1a 0a bd 3e 27 9d 3c 88 4a 15 bd
       -0.03089315 -0.033716254 0.019183751 -0.03644803
000340 4f be c3 3c bd 30 e0 bd b7 17 19 bd 12 e3 00 be
       0.023894457 -0.10946796 -0.03737613 -0.1258662
000350 78 7a 7a be 96 71 d8 bd 05 ac b7 bd ac 7e 5b bd
       -0.2446078 -0.1056854 -0.08968357 -0.0535876
000360 b7 a0 a3 bc 47 fa aa bc fc 5d 3e bc 6a 15 2f be
       -0.019974096 -0.020871295 -0.011619087 -0.17098013
000370 15 68 15 3d c2 c2 4f bb e7 70 f2 bc e5 63 91 3d
       0.036476213 -0.0031701778 -0.029594852 0.070991315
000380 9a ea 8c 3d fc be bf 3d 8f 70 c4 bb 5d 04 fb bd
       0.06880684 0.09362599 -0.0059948633 -0.122566916
000390 7a 6a 3d 3e bb 5d ec 3d 15 f2 9d bd d7 3d 12 be
       0.18497649 0.11541315 -0.07712189 -0.14281403
0003a0 dd fb 22 bd 8a 8b 5c 3d 83 2a 0c be 77 a2 c0 bd
       -0.039790977 0.053844012 -0.13688092 -0.09405988
0003b0 f7 0b 77 3c fb d7 ae 3c d9 a6 e6 3d b9 0c f3 bc
       0.015078536 0.021343222 0.112622924 -0.029669153
0003c0 9d 37 4d 3d 92 10 30 be a9 fd 4d be 7a 50 18 3d
       0.050101865 -0.17193821 -0.20116295 0.037186123
0003d0 e4 cf 0c 3d 61 8b 9b 3c bb f4 dd bd 28 b1 0c be
       0.034377947 0.01898736 -0.10837694 -0.13739455
0003e0 17 07 99 bd 38 83 05 be a8 e3 0c be 7d 85 c2 bd
       -0.074720554 -0.13038337 -0.13758719 -0.09498117
0003f0 ba a5 3b bd 75 51 bf 3b d1 9f da bd e4 99 c4 3d
       -0.045812346 0.005838568 -0.10675014 0.09599665

shared2.bias f4 [200]
000000 ad b1 48 3d df f8 32 be 4b 5f 5d be 1b 89 11 bd
       0.04899757 -0.1747775 -0.21618383 -0.035531145
000010 dc 1f e6 bd 4a c1 2c be 8c 43 4a 3c 95 11 73 bd
       -0.112365454 -0.16870609 0.012345206 -0.05934294
000020 89 b8 ed bd 8d 96 ab bd e7 a5 b0 bd 5e a9 be bc
       -0.11607463 -0.08378325 -0.08625393 -0.02327412
000030 28 0a bd bd bb b2 58 be 22 75 d3 bd 62 e1 e3 bd
       -0.09230453 -0.2116193 -0.10325076 -0.11126973
000040 81 09 60 be 47 39 54 be 34 20 f8 bd aa 03 3d be
       -0.21878625 -0.20724975 -0.12115517 -0.18458429
000050 b2 22 33 be a4 33 43 be 03 4f 30 be e6 b5 e5 bd
       -0.17493704 -0.19062668 -0.1721764 -0.11216335
000060 91 ab 1e be fc b3 33 be 67 50 4c be 27 27 45 be
       -0.15495135 -0.17549127 -0.19952546 -0.19253217
000070 c0 4b a2 be a9 38 5d bc 25 4b 21 be 97 d1 7f be
       -0.31698418 -0.013502278 -0.15751322 -0.24982296
000080 63 f8 19 be ab a0 21 be f7 51 8a be 28 a0 42 be
       -0.15036158 -0.15783946 -0.2701566 -0.19006407
000090 d0 2d 5e be 2a 16 c0 bd b6 6d 57 be 5e a5 cc 3d
       -0.21697164 -0.093792275 -0.21037945 0.09992479
0000a0 15 b4 3c bd 7e d3 04 bb c5 0f 2e be ae a5 11 be
       -0.046070177 -0.002026766 -0.16998203 -0.14223358
0000b0 3a 15 5c bd 3f 2f 43 bd fc a2 65 be 62 22 86 bd
       -0.05373118 -0.04765248 -0.22425455 -0.06549527
0000c0 5b b7 de 3d 71 be 5c be 33 4b e5 bc cc be 26 bd
       0.10874816 -0.21557023 -0.02798996 -0.0407093
0000d0 16 d6 90 bc ca 62 6f be 16 e5 e4 bd d0 1a 8c 3e
       -0.01768021 -0.23377529 -0.11176507 0.27364206
0000e0 2b 8d 05 be b2 97 54 be 8d f0 f7 bd e7 e7 17 be
       -0.13042133 -0.20760992 -0.12106428 -0.14834557
0000f0 e6 2c 28 be 85 24 92 be 08 26 4a 39 fe 18 1c be
       -0.16423377 -0.28543487 0.00019278389 -0.15243909
000100 49 a8 01 3d c2 d9 91 bd 8a 68 63 be d9 a5 46 be
       0.03165463 -0.07121612 -0.22207847 -0.19399203
000110 c3 3c bc 3c 13 0a 1c be be f6 36 be e0 ee 65 be
       0.022978192 -0.15238218 -0.17867562 -0.22454405
000120 67 15 59 be 4a c9 c4 bd 3c 05 03 bd 00 fd 24 3e
       -0.2119957 -0.09608705 -0.031987414 0.16112137
000130 60 2a b0 be 2c 4b 67 bd 52 c0 ea bd 64 1d 28 be
       -0.3440733 -0.056468174 -0.114624634 -0.16417462
000140 0e 1a 78 bd c7 7b 67 be 28 92 73 be 92 96 43 3d
       -0.060571723 -0.22605811 -0.23786223 0.047751017
000150 d6 f5 7f 3c d0 88 7b be 5c ad de 3c 93 73 24 bd
       0.015622577 -0.24563909 0.027182274 -0.040149283
000160 2a 78 07 bd 2e f3 4d be 53 e3 83 bd cc be 8d be
       -0.03307358 -0.20112297 -0.06439843 -0.2768463
000170 c3 d9 09 bd 82 fd 5e bd 82 51 a4 be b5 fc 6b be
       -0.03365494 -0.054440983 -0.32093436 -0.23045619
000180 95 28 70 be db 0d 5b be 84 db 8c be 35 b6 63 be
       -0.23452981 -0.21392004 -0.27511227 -0.22237475
000190 98 69 20 be e1 63 a4 bd 94 86 66 be 67 47 15 be
       -0.15665281 -0.08026863 -0.22512275 -0.14578019
0001a0 34 b6 6b be 50 3d 18 be 89 35 45 3e e4 4b d8 bd
       -0.23018724 -0.14867139 0.19258703 -0.1056135
0001b0 87 bd ca bd ab 67 39 be 74 69 43 be 12 9a 99 be
       -0.09899431 -0.18105952 -0.19083196 -0.3000036
0001c0 b5 34 02 be 30 a7 8e be 2f fd a2 bd ff 85 02 be
       -0.12715419 -0.2786193 -0.07958447 -0.12746428
0001d0 a5 e5 32 3e 46 fe b1 3d 89 d2 8b be 8b 4a 3e 3e
       0.17470415 0.08691077 -0.27309063 0.18583123
0001e0 88 3b 98 be c9 fe 37 be 8b 01 b9 bd 56 7e 4e be
       -0.2973292 -0.17968287 -0.090334974 -0.20165381
0001f0 66 cf 77 be be 13 cb 3c 8c 3e ea 3d b9 17 75 be
       -0.2420021 0.024789687 0.11437711 -0.2393483
000200 90 f1 8c 3d 6d 8d aa bd c4 c8 32 bd f6 6c 04 be
       0.06882012 -0.08327756 -0.043648496 -0.1293219
000210 45 21 0b bd 9d 9c 4b be 0b 5f 71 bd a1 44 86 be
       -0.033967275 -0.19883962 -0.05892853 -0.26224235
000220 9d bd 67 be 5c 8e 99 bd ac 79 9a bd 86 d1 5f be
       -0.22630925 -0.07497856 -0.07542738 -0.2185727
000230 e1 a6 5f be 32 ef f0 3a 8a 1b fc 3d 8d 65 34 be
       -0.21841003 0.0018381833 0.1230994 -0.17616864
000240 c6 e2 61 be 29 ce a5 bb 41 d1 16 bd 13 2f 38 be
       -0.22059163 -0.0050599766 -0.036820654 -0.17986707
000250 9d 53 b6 bd 0d c8 f8 bd b3 28 7e be e5 93 c5 3b
       -0.08902667 -0.12147532 -0.24820213 0.0060295933
000260 ab d0 86 be a8 78 55 be fa 6b 59 be 84 f2 7c be
       -0.26331076 -0.20846808 -0.21232596 -0.24701887
000270 79 d6 9e be 0e fe 7a be e6 61 4b be d3 7b 86 be
       -0.31023005 -0.24510977 -0.19861564 -0.26266345
000280 35 ca 5e be 9a 04 44 be 76 63 07 3e 88 8e 8c bd
       -0.21756823 -0.1914238 0.13221535 -0.06863123
000290 c8 31 21 be c6 24 64 be a6 8d 69 be 96 34 8d be
       -0.15741646 -0.22279653 -0.22807941 -0.27579182
0002a0 fe c8 07 be bf 2c 3b 3d 91 d5 d0 3d d4 94 ed bd
       -0.13260266 0.04569697 0.101969846 -0.11600652
0002b0 94 9e 38 be bc 40 52 be 97 a6 6c be 84 ad a0 bd
       -0.18029243 -0.20532507 -0.23110424 -0.078455955
0002c0 2f 10 98 3d 24 7f 54 be b5 f4 2f be 90 ae 41 be
       0.07424962 -0.20751625 -0.17183192 -0.18914247
0002d0 a4 49 28 bd 62 42 e0 bc 9a a6 2f be 46 4c 85 be
       -0.041085854 -0.027375404 -0.17153397 -0.26034755
0002e0 32 15 e9 bd 8d 05 4c be 56 f4 0a be 83 1b 45 be
       -0.11380996 -0.19923992 -0.1356977 -0.19248776
0002f0 16 67 07 3d 39 80 91 bd 56 dc 19 be 00 88 07 be
       0.033057295 -0.07104535 -0.15025458 -0.13235474
000300 4c 7e 77 be c9 c2 6c be 4e 03 d3 bd 1c d0 47 be
       -0.24169272 -0.2312118 -0.10303365 -0.19512981
000310 b2 73 89 be 77 c7 56 bd d5 41 be bd 6b 5a e8 bd
       -0.2684608 -0.05243632 -0.092899 -0.11345371

hidden1_Y1.weight f4 [200, 200]
000000 3b b5 75 bc 14 ec 78 3d 9c 54 92 bd f3 03 df bd
       -0.014996822 0.060772017 -0.07145044 -0.10889425
000010 83 48 2c 3d 63 83 9a bd af 77 88 3c cd 3b 95 3d
       0.04206134 -0.07544591 0.016658632 0.07286797
000020 a2 b0 ee bd 73 91 9d bd a6 5b 66 3c fa 59 f2 bd
       -0.11654784 -0.07693758 0.014059937 -0.11833568
000030 91 df 8a bd f9 85 6a bd c8 f1 a1 bd ba 1a 83 3c
       -0.06780923 -0.057256673 -0.07907444 0.016003955
000040 8d 17 7e bd 21 a2 cd 3d b9 54 4e 3d 49 66 39 3d
       -0.06203418 0.10040689 0.050373767 0.045263562
000050 62 3c cc bd ba 7f 22 3d 1a 1c 04 3e 4c ff d9 3c
       -0.099724546 0.03967259 0.12901345 0.026610993
000060 6c 85 fe 3c 24 20 14 3d 62 3f 67 bc f1 40 9f bd
       0.03106948 0.036163464 -0.014114233 -0.077760585
000070 8e e5 3b 3c d5 65 9a bd 28 70 0d be 6f b3 c9 3c
       0.011468304 -0.07538954 -0.13812315 0.024621693
000080 3d e6 1a 3d 26 b7 4f 3c 3d 55 ea 3d 4a 47 e8 3d
       0.03781723 0.012677943 0.11442039 0.11341722
000090 80 71 5c bb f0 8b cf bc 2a 09 b3 3d 82 69 be bd
       -0.0033636987 -0.025335282 0.08741982 -0.09297468
0000a0 d9 ec 20 3e 97 4b 10 be fd 26 9e bc c7 25 bd 3c
       0.1571535 -0.14091335 -0.0193057 0.023089303
0000b0 8c 63 03 3c 83 d9 9e bd b3 ad 8b 3d 7d 77 82 3d
       0.008019339 -0.07756331 0.0682024 0.06370447
0000c0 8a f6 83 3d 02 f0 b3 bd b7 8a 5b bb e8 2b 46 bd
       0.06443508 -0.08786012 -0.0033499429 -0.048381716
0000d0 c3 95 7c 3c 54 3c 44 3c 2e 82 c4 3c fa a6 92 bc
       0.015416565 0.011977274 0.023987856 -0.017901886
0000e0 c0 03 c8 b8 ff a4 06 be b0 8d 6b bc 90 e9 82 3d
       -9.537442e-05 -0.13148879 -0.014377043 0.06392205
0000f0 ee ac 7b bd e1 bd ac bd 30 a5 1b bd 96 91 a7 bd
       -0.061444215 -0.08434654 -0.037999332 -0.08182065
000100 08 e5 84 bd 71 cd ac bd 8a 67 a1 3d c1 27 14 be
       -0.06488997 -0.08437622 0.07881077 -0.1446829
000110 e1 8c 95 bd f9 9b f4 bd cd 45 1c bd 58 6a a0 3c
       -0.07302261 -0.11943812 -0.038152505 0.019581959
000120 43 a5 a4 bd b9 4a 8a bd 3d 40 f8 3c bd 13 04 bd
       -0.08039334 -0.067525335 0.030304069 -0.032245386
000130 a5 21 ac bd d0 56 fd 3d 32 09 6a 3d fc 1c c0 bd
       -0.08404855 0.12370074 0.057137676 -0.09380528
000140 d1 ca 24 3c 19 b5 ce bd fd 57 c5 3d 4d 31 04 be
       0.010058121 -0.100931354 0.09635923 -0.12909432
000150 dc 1b b8 3d 4c a9 d5 bc 0b 40 07 3d 80 52 34 bd
       0.08989689 -0.026081704 0.03302006 -0.04402399
000160 11 5e 42 bd 8f 27 97 bd d3 1c 54 bc f3 97 a2 bd
       -0.04745299 -0.07380592 -0.012946325 -0.07939138
000170 4a 82 0c bd 23 04 e8 bd 54 6e ab 3d bd 2c d1 bd
       -0.03430394 -0.11328914 0.08370653 -0.10213611
000180 43 fd ab 3b 7c c6 d0 bd c9 a4 c9 3d 68 cb 74 bd
       0.005248697 -0.10194108 0.098458834 -0.059764296
000190 be cc 28 3d 86 20 d4 bd db 13 c7 3d 8a 4b 45 bd
       0.041210882 -0.10357766 0.09720584 -0.048167743
0001a0 24 b2 ce bd 22 7c 91 bd d7 c4 15 be 2c 53 ff bd
       -0.100925714 -0.071037546 -0.1462587 -0.12467036
0001b0 e3 39 48 3d f3 d2 9e bc df 29 92 3d a1 16 b8 3d
       0.04888333 -0.019387698 0.071368925 0.08988691
0001c0 b5 2c 85 bd dd 82 94 bc 8f 68 ce 3d 6f e7 70 3c
       -0.06502668 -0.018128807 0.10078537 0.014703616
0001d0 0b fc 21 be cc ad 81 bd 05 8a f1 3c b1 cb 06 be
       -0.15818803 -0.06331977 0.029484758 -0.1316364
0001e0 f0 24 4f bd 58 b7 a1 b9 87 8a de bb 08 e4 18 3d
       -0.050572336 -0.00030844915 -0.006791416 0.037326843
0001f0 53 29 e5 3b 9d 23 1e bd 36 ba 97 bc 01 81 94 3b
       0.0069934516 -0.038608182 -0.01852141 0.00453198
000200 62 20 99 bd b4 a8 7f 3c ca e8 be 3c a2 8b b5 3c
       -0.0747688 0.015604187 0.023304362 0.022161309
000210 53 aa 0a 3d 73 fe f6 3c 11 09 ca bd f7 2b ea 3c
       0.03385384 0.030150628 -0.098650105 0.028585417
000220 97 76 fb 3d 40 4c c3 bd 4e 6c be bc 9a 7b ae bd
       0.122784786 -0.09536028 -0.023245003 -0.08519669
000230 7f ba 95 bd cc 11 ef bd 72 8c 92 bd 90 a1 0c be
       -0.07310962 -0.11673316 -0.07155694 -0.13733506
000240 9c 3a 68 3c 0d 0c 10 3d 60 1b 00 bc b0 5e d2 3d
       0.01417413 0.035167743 -0.007819027 0.102719665
000250 2d cb 91 bd 67 13 0f 3d f7 39 e1 3c 82 52 9a 3d
       -0.07118831 0.034930613 0.02749346 0.07535268
000260 bc 3a c3 3d 39 ef d1 3d 08 b4 9b bd 1c 80 ca 3c
       0.09532687 0.10250706 -0.076026976 0.02471929
000270 79 72 23 bc 16 09 b2 bd 90 6b bc 3d 27 c5 1c 3d
       -0.009976023 -0.08693139 0.092002034 0.038273957
000280 dc 67 8d 3c 30 05 c1 3c 11 cd 01 bc b8 c5 89 3d
       0.017261438 0.023562044 -0.007922427 0.06727165
000290 62 12 33 bd 46 29 65 bd 3d b8 eb 3d 1b 7a 10 bd
       -0.043718703 -0.055947565 0.1150975 -0.0352727
0002a0 78 0b a8 bd e5 39 be 3c 40 e3 bb 3d f2 e8 92 3d
       -0.082053125 0.023220966 0.09174204 0.07173337
0002b0 65 86 8e 3d 28 1c 00 bd 4a 33 93 3c 74 89 03 bd
       0.069592275 -0.031276852 0.017968792 -0.032113507
0002c0 ee 63 c7 bd 19 03 67 bd 3e 20 cb 3c 2c b2 73 bd
       -0.09735857 -0.05639944 0.024795648 -0.05949609
0002d0 b8 92 95 3d ad 3e cc bd b3 46 b0 3c 40 4e e3 bd
       0.07303375 -0.09972892 0.021518087 -0.110989094
0002e0 ed 47 72 3d e4 3c da 3c bd 8d fe 3c a1 9d fc bd
       0.059150625 0.026640363 0.031073445 -0.12334753
0002f0 61 d2 64 bc a3 68 a0 3d be 1a 90 3d 7a 0f 0c 3d
       -0.013966174 0.07832458 0.07036351 0.034194447
000300 82 5d f9 3c 7b 8c 96 3d 0c 13 b9 bc a4 1b 92 bd
       0.030440096 0.07351013 -0.02259209 -0.07134178
000310 95 66 8b bd 21 31 9a bd cc 87 03 3e 85 39 77 bd
       -0.06806675 -0.07528902 0.12844771 -0.06035759
000320 36 b7 74 bd 0f 38 03 be 65 f2 0e bd 52 4b 4b bd
       -0.059745036 -0.12814353 -0.034899134 -0.049632378
000330 2b cb 9a 3d dc 4e 9b bd f1 1d 68 bd 70 e3 8c bd
       0.075582825 -0.075834006 -0.05666918 -0.06879318
000340 ee cd 51 3c a1 70 18 3d 8a a1 c7 3d b1 07 29 be
       0.012805445 0.037216786 0.09747608 -0.1650684
000350 02 8f 57 3d 57 50 a8 bd 0a 0d 79 3d 0b 4a 50 bd
       0.052626617 -0.082184486 0.06080345 -0.050851863
000360 b5 b7 2f 3e f8 25 ae bd f7 ce 67 bd 0a 4b ff bd
       0.17159922 -0.08503336 -0.05659386 -0.124654844
000370 d9 78 73 3d 4d 9c 87 3d 9c a2 93 bb 3e 98 c6 bc
       0.05944142 0.06621609 -0.0045054685 -0.024242517
000380 3c 58 6d 3d 42 3c 6a bd 92 22 0e 3e 6e 16 e9 bd
       0.057945475 -0.057186373 0.13880375 -0.11381231
000390 d3 7d 55 bd 2a 6a 0c be e4 2d 94 bd 7b 12 0d 3e
       -0.05212195 -0.13712373 -0.072353154 0.13776581
0003a0 a4 41 f3 bc 64 10 2b 3c 9b 34 b2 3c 66 a5 9f bd
       -0.029694386 0.01044092 0.0217536 -0.07795219
0003b0 e5 c9 d0 bd 98 67 09 be 21 d2 a1 bd e2 b3 88 3b
       -0.10194758 -0.13418424 -0.07901407 0.0041718343
0003c0 35 00 87 bd 6a c1 30 bd 64 dd d2 bd 6e e6 8f 3d
       -0.06591836 -0.043153204 -0.10296133 0.07026373
0003d0 1f 84 ef bd 36 37 fa 3d 4c 9a f3 bd 1a d9 10 bd
       -0.11695122 0.12217562 -0.11894664 -0.035363294
0003e0 40 4b d5 bd 09 c5 8c bd 97 71 db 3c 13 b2 24 3e
       -0.104147434 -0.06873519 0.026787562 0.16083555
0003f0 7f 9f 69 bd 4e 6e 64 3c e3 df 00 3e 23 9a 87 be
       -0.057036873 0.013942314 0.12585406 -0.26484784

hidden1_Y1.bias f4 [200]
000000 0f 8e 94 bd 97 ba 9e bd b2 96 01 be 9b cd e6 3d
       -0.07253658 -0.07750433 -0.12655142 0.11269685
000010 17 fb e6 3d 06 de 27 3e 9d ea d2 bd f3 00 8e bd
       0.1127836 0.16393289 -0.10298655 -0.06933775
000020 90 4e a4 bd bc a9 0c be 57 48 1d 3e 07 f3 f7 bc
       -0.08022797 -0.13736624 0.15359627 -0.030267252
000030 1e 8f 40 3e 4d c8 6e 3d 1a 3c fb bd 5f 90 e1 bd
       0.18804595 0.05829649 -0.12267323 -0.11013865
000040 0c c9 25 be 57 9c 0d be 93 b6 7e 3c 16 4b f9 3c
       -0.16189975 -0.1382917 0.015546459 0.030431312
000050 c1 9b cc 3b 58 26 8b bd 68 80 1b be 43 fd 02 be
       0.0062441533 -0.06794423 -0.15185702 -0.12791924
000060 ff c1 ae bc a9 44 23 be 21 a0 2e 3d 56 e9 12 be
       -0.021332739 -0.1594416 0.04263318 -0.14346823
000070 54 c1 2c be 36 1a 34 be 06 02 01 3b 5e c0 50 bd
       -0.16870624 -0.17588124 0.0019685044 -0.050964706
000080 8d f7 da bd 77 9b ee bd ee a4 8d bd 3f 64 e7 bd
       -0.10691748 -0.11650746 -0.069162235 -0.11298417
000090 8d 57 3b 3e 19 b1 cb bd 40 46 aa bc ac 18 94 3d
       0.18295117 -0.09945888 -0.020785451 0.07231268
0000a0 26 77 ce bb 9b 5d 8a 3c 6f 13 fa bd 48 8f ee bd
       -0.0063008247 0.016890338 -0.12210738 -0.116484225
0000b0 60 68 c3 bd d0 24 9b 3d 36 fc bb bd 8d 31 bc bd
       -0.09541392 0.07575381 -0.09178965 -0.091891386
0000c0 7c a5 48 bd a6 f2 8c bd 7e 2a ca bd bc 64 c0 3d
       -0.048985943 -0.06882219 -0.09871386 0.093942136
0000d0 76 86 bd 3c 66 23 ff bd fe 6e 6b 3e ba ad cb bc
       0.023135405 -0.124579236 0.22991559 -0.024863113
0000e0 0e ad 2e be 76 cf 24 bd 2d ba f7 bd 3b c7 ef ba
       -0.17058203 -0.040236913 -0.12096057 -0.0018293628
0000f0 63 04 6e bd 9a 7c 47 3e d4 05 67 3c c2 99 cf bd
       -0.058109652 0.19481125 0.014100511 -0.10136749
000100 ea 5c 5f 3c 08 0b 1d bd be 55 08 be 98 da 17 3c
       0.013632992 -0.0383406 -0.13313958 0.009268425
000110 62 85 b9 bd 5a 04 4e 3d 62 b3 2d bd 9f d8 18 bd
       -0.09058644 0.05029712 -0.0424074 -0.03731596
000120 c6 ef f8 bd 97 7b cb bd 38 2a f3 bd e4 97 1c 3d
       -0.12155108 -0.09935682 -0.11873287 0.03823079
000130 f1 17 9e bb 32 73 6b bd 27 c7 d2 3b e0 dd 64 bd
       -0.0048246314 -0.057482906 0.006432432 -0.05587566
000140 a4 6d 08 bd 2e f2 30 be 4d 12 cf bc 29 0a d5 3c
       -0.033307686 -0.17279884 -0.025277281 0.026005821
000150 b7 85 ec bd 90 5c 14 be 9e bf 82 3e c1 e7 60 bc
       -0.115489416 -0.14488435 0.25536817 -0.013727129
000160 47 bb 66 3e 67 4a eb bd 20 50 6c bc f8 fa 44 3d
       0.22532378 -0.114888005 -0.0144234 0.048090905
000170 0a ab f1 bd 7b 99 52 bd 25 67 42 bd 87 6d 15 be
       -0.11800201 -0.0514159 -0.047461648 -0.14592563
000180 dc 5d 2a be 55 01 04 bd 28 fb 26 be 2e 44 0a 3e
       -0.16637367 -0.032227833 -0.16306746 0.13502571
000190 66 28 89 bb 3d 59 14 be c0 29 e7 bd e2 aa f3 3d
       -0.004185724 -0.14487167 -0.1128726 0.11897828
0001a0 ea b1 10 be 8e 00 5a 3e 5b 69 e1 bd 8a 57 97 bd
       -0.14130369 0.21289274 -0.11006423 -0.073897436
0001b0 e3 e6 c2 bc b0 fa c9 3c 54 8a 22 be ed 0b e0 bd
       -0.023791736 0.02465567 -0.1587308 -0.10939775
0001c0 96 ab 73 bd f4 e8 22 be 82 81 59 be 24 0e e8 bd
       -0.05948981 -0.15909177 -0.2124081 -0.11330822
0001d0 a5 e7 8f bd 05 91 23 be fe a0 f8 bd 9c 6f cd bd
       -0.070266046 -0.1597329 -0.12140082 -0.100310534
0001e0 37 c0 95 3d 88 47 93 3c 74 91 82 3d df d0 36 bd
       0.07312053 0.017978445 0.06375399 -0.04463279
0001f0 aa 53 93 bd 2d fa d0 bd b4 c6 d0 3d e8 f4 2a be
       -0.07193692 -0.10203967 0.101941496 -0.16694987
000200 64 fa 0a 3e 59 fd 91 bd 91 1e 1d be b4 5f b7 bd
       0.13572079 -0.071284 -0.15343691 -0.08953801
000210 02 98 fe bc 07 30 01 3e ef 44 68 3d 91 e1 d7 bd
       -0.031078342 0.12615977 0.056706365 -0.1054107
000220 c3 e3 5f be d8 9f 0b be b4 5b 37 3e b9 0d 81 bb
       -0.21864228 -0.13635194 0.17906076 -0.0039384034
000230 aa 70 f2 bd f0 a9 09 be 09 c4 92 bd 90 2c 8f 3d
       -0.11837895 -0.13443732 -0.07166297 0.069909215
000240 32 ed ee bd 7a 1f d6 bd 29 af 71 be ee af db bd
       -0.11666335 -0.104552224 -0.23601975 -0.10726915
000250 e5 b1 3f 3b f0 9e 9b bd b7 bf 35 3e d7 04 14 be
       0.002925032 -0.07598674 0.17748915 -0.14454971
000260 e6 49 03 be 2f 01 ca bd 0c e5 2a bd 02 2a ef bd
       -0.12821159 -0.09863507 -0.041722342 -0.11677934
000270 1f 49 e4 bd 46 be 15 be 31 71 54 3e 7b 96 c7 bd
       -0.11146759 -0.14623365 0.20746304 -0.09745499
000280 15 83 1c 3e 6b 50 92 3d 6d 62 c0 bd a1 d9 09 bd
       0.15284379 0.07144245 -0.09393773 -0.033654813
000290 be 56 fa bb da 82 cc bd a9 32 bc bd 22 2a 35 3c
       -0.007639735 -0.099858955 -0.0918935 0.0110574085
0002a0 92 17 10 be 04 37 e7 bd ff 38 4e 3c 9e 7b 54 bd
       -0.14071491 -0.1128979 0.012586831 -0.051875703
0002b0 4f 52 c6 bd ef 5b c9 bb 2f 72 0c be 36 0a ad bd
       -0.09683668 -0.0061449925 -0.13715433 -0.08449213
0002c0 cd 91 25 3d 9b 0a 1d 3e af 8b b3 bd 1b 44 2c be
       0.04042225 0.15336077 -0.08766877 -0.16822855
0002d0 39 eb f5 bd a2 e8 9a bd 8d 7a 3e 3e a5 94 4e bd
       -0.12007756 -0.075639024 0.18601437 -0.050434727
0002e0 70 bf ec bd 2a 79 56 3e 5e d0 09 be 0d e6 3d bc
       -0.11559951 0.20944658 -0.13458392 -0.011590493
0002f0 db 09 17 be 0e c6 f2 3d c7 b1 58 bd 18 68 17 be
       -0.14749853 0.11854182 -0.052903917 -0.14785802
000300 0a 6f 83 bc 2e f9 56 3d 06 fa cd bd c9 2f 71 bd
       -0.016044158 0.05248373 -0.10057454 -0.058883462
000310 53 e4 e4 bd 84 a3 b1 3d 56 23 55 3c 2a 80 f2 bd
       -0.11176362 0.08673766 0.013008913 -0.118408516

hidden2_Y1.weight f4 [200, 200]
000000 0c 50 b2 3d ab ee 87 3c be 4f b9 bd a1 4b 5c be
       0.08706674 0.016593298 -0.09048413 -0.21513225
000010 18 5e 2d 3c 9c 85 6f be af 51 bd bd ea 71 04 be
       0.010581516 -0.23390812 -0.092440955 -0.1293408
000020 70 d2 93 bd cc e9 66 bd a3 40 fa bd 1c 5b 96 3d
       -0.07217872 -0.05637531 -0.1221936 0.073415965
000030 fb ec a7 bd 78 63 d8 bd 7c 01 2b 3d 1d 62 2c 3d
       -0.08199497 -0.10565847 0.041749462 0.042085756
000040 12 dc bf 3b 73 b8 fd bc 5b a8 a8 bd 4f ab fe bc
       0.005855092 -0.030971741 -0.08235236 -0.031087546
000050 27 4b ac bd 72 b5 72 bd d0 cc f9 bc 2e 8f 90 bc
       -0.08412772 -0.05925507 -0.03049317 -0.017646398
000060 89 25 4c 3d d5 87 56 3d b3 74 02 bd 30 35 14 bd
       0.049840484 0.052375633 -0.031849574 -0.036183536
000070 38 eb a2 3c b3 3d b7 bd a1 7a 99 bd 9a 09 c1 bd
       0.019887552 -0.08947315 -0.07494093 -0.094256595
000080 ee 4b e2 bd be 07 60 bd f7 56 47 bd 35 90 92 3d
       -0.11049639 -0.054694884 -0.04866692 0.071564116
000090 92 e8 87 bd 83 9a 7d 3d c8 50 71 bc ef 1d 9a 3d
       -0.06636156 0.061914932 -0.014728732 0.07525241
0000a0 d1 9a 6f 3d 94 75 82 3d 38 7e 9f bd 23 82 1d bd
       0.058497254 0.063700825 -0.07787746 -0.038454186
0000b0 dd f6 8a 3d 3a b8 c4 3d 67 03 65 bd f4 e6 4f 3d
       0.06785367 0.09605451 -0.055911448 0.050757363
0000c0 73 cf 21 bc 8d 37 03 be cf 18 d9 bd 9a 2d 86 bd
       -0.00987612 -0.1281416 -0.10600435 -0.065516666
0000d0 09 90 10 3d 60 ab 15 bd cd 87 c0 bc 5d 52 c1 bd
       0.035293613 -0.03654039 -0.023502255 -0.09439538
0000e0 e2 a0 f9 bc 32 da e7 bd ab 4d 10 bd 40 4a 99 bd
       -0.030472223 -0.11320914 -0.03523032 -0.07484865
0000f0 b2 32 08 3c 81 97 6f 3b 03 bd 0a 3d 41 b9 6b 3d
       0.008312868 0.003655881 0.033871662 0.05754972
000100 c8 5a c7 3c fd 3d a6 bd 88 5e 01 3e ad 60 bb 3d
       0.02433528 -0.08117292 0.12633717 0.09149299
000110 29 b1 c3 bd a8 12 56 bd ca 13 da bd a3 90 04 3a
       -0.09555275 -0.052263886 -0.10648306 0.0005056953
000120 76 67 02 bd 74 2c 56 bd f8 0b 90 bd 6e 6d 23 ba
       -0.03183695 -0.052288488 -0.07033533 -0.0006234263
000130 7f 0e a9 bb a7 d7 8f bc c1 30 13 3d 62 bb 97 3d
       -0.005159199 -0.017558886 0.035935167 0.07408787
000140 eb 02 c7 bd 33 54 bc 3c e7 b0 c4 3d 3b 4d 9f bc
       -0.097173534 0.022989368 0.09604054 -0.019446006
000150 e8 c8 d6 3c be 60 d5 bd 73 da 01 be 75 36 87 bd
       0.026218846 -0.10418843 -0.12680988 -0.06602184
000160 b8 b1 52 be 63 94 1f 3d 4c 93 a0 bc 05 42 ad 3d
       -0.20575607 0.038959872 -0.019601487 0.08459858
000170 40 d7 ad bc 6d eb c0 3d 44 43 60 bc 57 7b 95 3d
       -0.021220803 0.09419904 -0.013687912 0.07298916
000180 79 33 11 3d 79 56 4a 3d f4 ae 75 bc 78 52 8f 3c
       0.03544948 0.049398873 -0.014995325 0.017495379
000190 32 46 50 bd a4 2f 20 bd 90 b0 c5 3c 2a 34 7b bd
       -0.050848193 -0.039107934 0.024132043 -0.061329044
0001a0 bc ed 60 bc f3 6a 1d bd c0 67 bd bc 71 f9 cd bd
       -0.013728555 -0.038432073 -0.02312076 -0.10057343
0001b0 9c 0b 20 3d c3 05 1e be 2d 56 81 bd ca 3d b0 bd
       0.03907357 -0.15431885 -0.06315265 -0.08605535
0001c0 38 38 4b bd 3c a8 2d 3c 41 54 1c bc aa 37 05 be
       -0.04961416 0.010599192 -0.009541572 -0.13009515
0001d0 c8 c9 3f bd 3f 00 9a bd 2b 76 bd 3c 33 b3 a6 3d
       -0.046823293 -0.07519578 0.023127636 0.08139648
0001e0 67 e0 1e be 96 b3 c4 bd 07 6f 1a bd 34 d4 d9 3d
       -0.1551529 -0.09604566 -0.03770354 0.10636178
0001f0 a0 b6 21 bd f7 9a b2 3d fd d9 c8 bd 9b 5d a8 bd
       -0.039480805 0.087209634 -0.09807203 -0.08220979
000200 2c 87 8b 3d 0a dd d0 bd aa c0 42 3d c3 49 93 3d
       0.06812891 -0.1019841 0.04754702 0.07191803
000210 23 35 a7 bc 59 69 3c be 70 51 02 3c eb c7 78 3d
       -0.02041108 -0.18399562 0.0079539865 0.06073753
000220 5f 76 29 be 1d 71 ba bd dc c4 30 be 4b 0c aa 3c
       -0.16549061 -0.09103606 -0.17262596 0.020757815
000230 b7 b1 1a bc 19 02 b3 bd d9 d4 d4 bd 43 02 02 be
       -0.009441785 -0.087406345 -0.1039216 -0.12696175
000240 87 d3 03 3d ce 41 bd 3d b1 9f 69 3d 75 d5 bc bd
       0.03218415 0.09241067 0.05703706 -0.09220401
000250 cc 72 20 3d ce 51 8b 3c a5 7d d9 3c 26 3d cc bc
       0.03917198 0.017006781 0.02654917 -0.024931502
000260 89 c3 ca 3c ab 3f ba 3d 83 d0 f8 bc 77 50 ab 3d
       0.024751442 0.09094175 -0.030372864 0.08364957
000270 e0 47 fe 3c 02 41 02 bd 2b 91 47 be 52 4f 09 3e
       0.031040132 -0.031800278 -0.19488971 0.13409165
000280 5d 27 51 3d 68 53 be 3c 46 0d 6d bd b5 00 07 bd
       0.05106293 0.02323313 -0.057873987 -0.03295966
000290 8e fb f4 bd c5 cf bf 3d eb 3a 26 3c 27 9e d0 bd
       -0.11962043 0.09365801 0.010145883 -0.10186415
0002a0 2e d1 17 be c6 5f 5b 3d e7 64 40 bc e3 a1 11 bd
       -0.1482589 0.053558134 -0.011742807 -0.035554778
0002b0 89 ca 49 bd 01 76 9c bd bc 18 a2 bd 33 eb 5a 3d
       -0.04926542 -0.07639695 -0.07914874 0.05344696
0002c0 1f 41 a7 bd df 6f c7 bc 12 a2 89 3d 9d 1d 96 3d
       -0.08166718 -0.024345336 0.067203656 0.07329867
0002d0 7b c0 ed 3c 0b 1d 91 3c 68 f7 f4 bd ef d8 e7 bd
       0.029022446 0.017714044 -0.119612515 -0.11320674
0002e0 7f 7d 28 bd 10 d0 9d 3c c5 dc ec bd 45 86 ca bd
       -0.041135307 0.019264251 -0.11565546 -0.09888891
0002f0 82 fe c2 bc b5 be 42 3d 60 8a 94 3c 53 1e 17 bd
       -0.023803 0.047545154 0.018132389 -0.036894154
000300 06 a7 96 bc be 0c 01 bd 88 1f ea 3d b4 e2 1c 3c
       -0.01839019 -0.031506293 0.11431795 0.009575535
000310 61 66 c9 bd 03 7f cc bc 39 40 7a 3c 4c cc 9f 3d
       -0.0983398 -0.024962908 0.015274101 0.078026384
000320 08 1c 6b bd ec f3 a3 3d 29 53 f9 bc bd 9f 0b 3e
       -0.05739978 0.08005509 -0.030435162 0.13635154
000330 aa 49 d8 3c a3 33 02 bd 1e 10 9d bd a9 3a f3 bb
       0.026402313 -0.031787526 -0.0766909 -0.0074227643
000340 a6 fe 57 bd 64 fd d7 bd c5 f3 ba bd ca 6e ea bd
       -0.052733086 -0.10546377 -0.091285266 -0.114469126
000350 af 63 15 be a6 8d 66 3d 69 e1 8c 3d 2a 28 11 be
       -0.14588808 0.05628743 0.06878931 -0.14175478
000360 91 12 30 3c e7 56 0c be 8d 44 8c bd b8 88 89 3d
       0.010746614 -0.13705026 -0.068490125 0.0671553
000370 c6 2e 03 3d 79 3b 08 be f0 46 9f 3d 04 7c b7 3d
       0.03202703 -0.13303937 0.07777202 0.08959201
000380 a9 92 13 3e 98 91 de bc a3 44 22 bc cd ed 3f 3d
       0.14411415 -0.027169034 -0.00990406 0.046857644
000390 65 a8 56 3a 19 bb 21 bd fa a1 2f 3e 5c 06 58 3d
       0.0008188545 -0.03948507 0.17151633 0.05274044
0003a0 e8 77 ef bc 90 f7 89 3d 6f 6c fc 3d 85 13 02 be
       -0.02923198 0.06736672 0.123253696 -0.12702759
0003b0 9f d6 06 be de 6d e1 bd 76 f1 cd bb 5e 11 90 3e
       -0.13167809 -0.11007284 -0.006284888 0.2813825
0003c0 cb f8 8a 3d a2 3b 43 bd 97 81 8c 3d aa 33 a2 3d
       0.06785735 -0.047664292 0.06860655 0.079200104
0003d0 00 c5 0f 3d bd 41 84 3d 83 f5 9e bd ac 3f c5 3d
       0.035099983 0.06457851 -0.077616714 0.09631285
0003e0 04 7b 97 bd ce e0 57 3d 0e 2e cf 3c 21 d6 c9 3e
       -0.0739651 0.052704625 0.025290515 0.3942118
0003f0 34 24 2b 3e 4d 1a 4a 3d 5f 57 ee bd 05 98 ea bc
       0.16713029 0.04934149 -0.116377585 -0.028636942
