DCNModel/DCN_PD_NN_Models/NN_DCN_model_iter_id_14_epoch_100_lr_0.001.pth (torch_old, 828774 bytes, 14 tensors)

shared1.weight f4 [200, 25]
0	0x3d3892cc	0.04506187
1	0x3dad2b3b	0.08455511
2	0xbba49bd9	-0.0050234613
3	0x3d8afccf	0.06786501
4	0xbd79747d	-0.060902108
5	0xbd89b530	-0.06724012
6	0xbde23d00	-0.11046791
7	0xbe78ca11	-0.24295832
8	0xbe063e26	-0.13109645
9	0xbe1d7b2a	-0.15379015
10	0xbd2e0685	-0.042486686
11	0xbda76bce	-0.08174859
12	0xbe4b0b82	-0.19828609
13	0xbdffc98e	-0.124896154
14	0xbd242cff	-0.040081974
15	0x3c90a663	0.017657464
16	0x3db267d4	0.0871121
17	0xbe87e88b	-0.26544604
18	0x3e295aef	0.16538595
19	0xbd8c7671	-0.068585284
20	0x3da2aefc	0.07943532
21	0xbd4bac79	-0.04972503
22	0xbdf383a0	-0.1189034
23	0xbd803cee	-0.062616214
24	0x3d11752d	0.03551214
25	0xbdb250b5	-0.087068
26	0x3ddf35ee	0.10898958
27	0xbd809945	-0.06279234
28	0xbce5e5a7	-0.028063608
29	0xbc6fe3b5	-0.014641692
30	0xbc97971d	-0.018504674
31	0x3d27c7ec	0.040962145
32	0xbda74074	-0.0816659
33	0xbd9048e8	-0.07045156
34	0xbddf3285	-0.10898308
35	0xbda422ca	-0.08014448
36	0x3db8f2f3	0.09030714
37	0xbe09f5d2	-0.1347268
38	0xbd3707f6	-0.044685327
39	0x3deee5d5	0.11664931
40	0xbdc7dea9	-0.09759266
41	0xbe113194	-0.14179069
42	0xbd96fa57	-0.07371967
43	0xbd573518	-0.05254087
44	0xbe00e51b	-0.12587397
45	0xbda94a90	-0.08266175
46	0x3de438f6	0.11143677
47	0x3d45da8a	0.04830412
48	0x3d4f2b06	0.05057814
49	0xbe0313c9	-0.12800516
50	0xbd9a458a	-0.07532795
51	0x3d93826b	0.0720261
52	0x3d20d403	0.03926469
53	0x3d5b5b06	0.053553604
54	0x3a431584	0.0007441866
55	0xbd6e8405	-0.058231372
56	0x3d3d442d	0.046207596
57	0xbdfe83cf	-0.12427484
58	0x3cd02efd	0.02541303
59	0xbe00ad1a	-0.12566033
60	0xbe31cf68	-0.17364275
61	0x3da49375	0.08035938
62	0xbd3b2abd	-0.045695055
63	0xbdcf6156	-0.10125987
64	0x3cccda1f	0.025006352
65	0xbd297f2e	-0.041381054
66	0xbda3667b	-0.07978531
67	0xbe3cf075	-0.18451102
68	0xbd716f19	-0.05894384
69	0xbda82c8b	-0.08211621
70	0x3da1ab73	0.078940295
71	0xbe2c3ad5	-0.16819318
72	0x3dadb4c8	0.08481747
73	0xbdfa4fdd	-0.12222264
74	0x3d17a311	0.037020747
75	0x3dd33fd3	0.10314908
76	0xbe3426ae	-0.1759288
77	0xbd94f41a	-0.07273121
78	0xbe610b4d	-0.21976967
79	0xbe16a97d	-0.14713092
80	0xbdcdc80b	-0.10047921
81	0xbdabc4fd	-0.08387182
82	0x3e88b97b	0.2670401
83	0x3d0e2ece	0.034712605
84	0xbe598dda	-0.21245518
85	0x3e2820ec	0.16418809
86	0xbe88200e	-0.26586956
87	0x3d7cfa42	0.061762102
88	0xbe730358	-0.23731744
89	0x3d24356a	0.040090002
90	0xbd66fb5a	-0.05639205
91	0xbe2e1d52	-0.17003372
92	0xbd4af0be	-0.049545996
93	0x3eb9fb72	0.3632465
94	0xbdca14ab	-0.09867223
95	0x3d7615df	0.06007945
96	0xbde13b4a	-0.109976366
97	0xbcc6e235	-0.024277786
98	0xbd53de26	-0.05172553
99	0x3e70f405	0.23530586
100	0x3d32a25b	0.043611865
101	0xbce93361	-0.028466882
102	0xbdb7acb0	-0.089684844
103	0xbd743186	-0.05961754
104	0x3c6e2308	0.014534719
105	0x3d1c6ed1	0.03819162
106	0x3c97136e	0.018441882
107	0xbd4d2c10	-0.05009085
108	0xbe2c7242	-0.16840461
109	0xbe17151d	-0.14754148
110	0x3d76c247	0.06024387
111	0xbdca1f45	-0.098692454
112	0xbda5eb77	-0.08101552
113	0xbd59ebb2	-0.053203292
114	0xbe0a4cc7	-0.1350585
115	0x3d7536a1	0.05986655
116	0xbe2a081b	-0.16604654
117	0xbe40eeb5	-0.1884106
118	0x3de06a4d	0.10957775
119	0xbdbb4dce	-0.091456994
120	0x3cd8e191	0.026474746
121	0xbbdb48d6	-0.0066920323
122	0xbd95970a	-0.07304199
123	0xbde7d660	-0.11320186
124	0xbe197bd4	-0.14988643
125	0x3dd16ade	0.102254614
126	0x3d3c3d0d	0.04595666
127	0x3db5e52f	0.08881604
128	0x3d5e9c2c	0.054348156
129	0x3db38ba8	0.08766872
130	0xbda9c2ca	-0.08289106
131	0xbd49f42f	-0.049305137
132	0xbda0ee0b	-0.07857903
133	0xbd4f4a27	-0.050607827
134	0x3b4f243c	0.003160729
135	0x3de00c2c	0.109398216
136	0x3d9f4f32	0.07778777
137	0xbe32a099	-0.17444076
138	0xbe51de99	-0.2049507
139	0x3cf2e9e9	0.029652553
140	0x3c2d35b0	0.010571882
141	0xbb369c53	-0.0027864173
142	0xbdfb28df	-0.12263655
143	0xbdfcc5f2	-0.123424426
144	0xbd7e95d6	-0.062154613
145	0xbdbb70f7	-0.09152406
146	0xbe0ceaec	-0.1376149
147	0xbce7d7b2	-0.028301094
148	0xbd1455e1	-0.036214713
149	0xbdc0b3a6	-0.09409265
150	0xbc67d196	-0.01414909
151	0x3d57034e	0.052493386
152	0x3da0a15e	0.07843278
153	0x3d96626e	0.07342993
154	0x3c2c1630	0.010503337
155	0xbd9334ec	-0.071878284
156	0xbe78c00e	-0.24292013
157	0xbe0d2ea3	-0.13787322
158	0xbe464e6c	-0.19365853
159	0x3d9dbccb	0.07702025
160	0xbc279fcf	-0.010230972
161	0x3dd0e0ef	0.10199153
162	0x3d202782	0.039100178
163	0xbb63ebd8	-0.0034778025
164	0xbdd83c27	-0.10558348
165	0xbe6aeae4	-0.22941166
166	0xbe51a729	-0.20473923
167	0xbe66d28a	-0.22541252
168	0xbd48f8f0	-0.04906553
169	0xbe25f90b	-0.16208284
170	0xbe15c6a7	-0.14626561
171	0xbe29b9b0	-0.1657474
172	0xbc8b4e7d	-0.0170052
173	0x3c535963	0.012899729
174	0xbe42deb1	-0.19030263
175	0x3e3d12bf	0.18464182
176	0xbd709e83	-0.05874492
177	0x3da850d2	0.0821854
178	0x3cace5a2	0.021105591
179	0x3e0c80ab	0.13720958
180	0xbe1942d9	-0.14966907
181	0x3de0c582	0.109751716
182	0x3e7f1765	0.24911268
183	0xbc7cb0a0	-0.01542297
184	0xbe0147cc	-0.12625045
185	0xbe8a19bd	-0.26972762
186	0xbe0a1e93	-0.13488226
187	0xbe0e38f8	-0.1388892
188	0xbe202062	-0.15637353
189	0x3e51d576	0.20491585
190	0xbe780afc	-0.2422294
191	0xbd864877	-0.0655679
192	0xbc889b8e	-0.016675737
193	0xbe1e2a6f	-0.15445875
194	0xbe0c56a0	-0.1370492
195	0xbd10e336	-0.035372935
196	0xbde3aa0e	-0.1111642
197	0xbc9bb868	-0.01900883
198	0x3e475bbc	0.19468588
199	0x3e020a30	0.12699199
200	0xbdc61cfc	-0.09673497
201	0x3e4aa2aa	0.19788614
202	0x3dfee8f4	0.12446776
203	0x3d465a23	0.048425805
204	0x3dc46f67	0.09591561
205	0xbda1a16b	-0.07892116
206	0xbeb1900f	-0.3468022
207	0x3daee644	0.085400134
208	0x3d3e2390	0.046420634
209	0x3d8e5985	0.06950668
210	0xbe33a463	-0.17543177
211	0x3dcf50fc	0.101228684
212	0xbe8a6725	-0.27031818
213	0xbc7ecd89	-0.015551933
214	0x3e263062	0.16229394
215	0xbca72f10	-0.020408183
216	0xbe0d3284	-0.13788801
217	0x3e2d183c	0.16903776
218	0x3e642011	0.22277857
219	0xbe00e58a	-0.12587562
220	0x3e628afe	0.22123334
221	0xbda032a4	-0.07822159
222	0xbd1ae878	-0.037819356
223	0x3cd33ed2	0.025786791
224	0xbe8bfc87	-0.273411
225	0xbd7a6adb	-0.06113706
226	0xbe058dc4	-0.1304236
227	0xbe08ad76	-0.1334742
228	0x3bc5f773	0.006041461
229	0x3bf45563	0.007456468
230	0x3d954421	0.07288385
231	0xbd930dd6	-0.07180373
232	0xbe0470b8	-0.12933624
233	0xbd82d6e9	-0.06388647
234	0xbdf86264	-0.121281415
235	0xbe40d9c4	-0.18833071
236	0x3daa5519	0.08317012
237	0x3cfd1406	0.030893337
238	0xbe1db7c2	-0.1540213
239	0xbe28510a	-0.16437164
240	0x3db4dd1a	0.08831234
241	0xbd970de5	-0.07375697
242	0xbe838940	-0.2569065
243	0x3d0c2bd9	0.034221504
244	0x3e38328a	0.17988029
245	0xbd601c4c	-0.054714486
246	0xbe0bacc7	-0.13640128
247	0xbda5ffd4	-0.08105436
248	0xbd0dc084	-0.034607425
249	0x3b22d6e3	0.002484732
250	0x3d93dd89	0.07219989
251	0xbb185de4	-0.0023249323
252	0xbd3e6f20	-0.046492696
253	0x3c654a1c	0.01399472
254	0x3da949ed	0.08266053
255	0xbd9bf7cd	-0.076156236

shared1.bias f4 [200]
0	0xbdcd57a2	-0.1002648
1	0xbdcc41b1	-0.09973467
2	0xbdf700bc	-0.12060687
3	0xbe0332f9	-0.12812413
4	0xbd845bc8	-0.064628184
5	0xbdc5a629	-0.09650833
6	0xbe041257	-0.12897621
7	0xbdcb947c	-0.099404305
8	0x3c292a8a	0.0103250835
9	0xbdf9abce	-0.12190972
10	0xbca343b3	-0.019929742
11	0xbdacea0a	-0.08443077
12	0xbdf7409d	-0.12072871
13	0xbdb91cd1	-0.090386994
14	0xbe25ecca	-0.16203609
15	0xbde37fb0	-0.11108339
16	0xbdb265f4	-0.08710852
17	0xbd680fca	-0.056655683
18	0xbe050043	-0.12988381
19	0xbdc888b7	-0.09791701
20	0xbe0625e6	-0.13100395
21	0xbd9be748	-0.07612473
22	0xbd866242	-0.0656171
23	0xbe1ba530	-0.15199733
24	0xbe30773b	-0.17232983
25	0xbe06f4f7	-0.13179384
26	0xbe2880b1	-0.16455342
27	0xbdc6bb60	-0.09703708
28	0xbd6e8975	-0.058236558
29	0xbe05c6b5	-0.13064082
30	0xbda0e0ca	-0.07855375
31	0xbe01352d	-0.12617941
32	0xbe413c94	-0.18870765
33	0xbd84099e	-0.06447147
34	0xbd7520ae	-0.05984562
35	0xbdd5ed24	-0.104456216
36	0xbe04fa7d	-0.12986179
37	0xbd3989bd	-0.045297373
38	0xbdd35207	-0.1031838
39	0xbde176ae	-0.110089645
40	0xbe11398d	-0.1418211
41	0xbd0f8ec7	-0.035048272
42	0xbe129923	-0.1431623
43	0xbda14331	-0.07874144
44	0xbe0b11f5	-0.13581069
45	0xbe145107	-0.14484034
46	0xbd990b30	-0.07472837
47	0xbe00947d	-0.12556644
48	0xbd2a074e	-0.041510873
49	0xbdcf057c	-0.10108468
50	0xbde8dc4e	-0.11370145
51	0xbe094a23	-0.13407187
52	0xbc347134	-0.011013318
53	0xbd855cae	-0.06511818
54	0xbe061079	-0.13092221
55	0xbdefedb2	-0.11715259
56	0xbd15f577	-0.036611047
57	0xbd2e8866	-0.04261055
58	0xbdc603a6	-0.09668665
59	0xbdc94d39	-0.09829182
60	0xbcf7a8c7	-0.030231846
61	0xbe329b7a	-0.17442122
62	0xbd6eaee5	-0.05827226
63	0xbde15362	-0.11002232
64	0xbe31df33	-0.173703
65	0xbe06ea7c	-0.13175386
66	0xbde971ba	-0.11398645
67	0xbdb33325	-0.087499894
68	0xbe0d0d48	-0.13774598
69	0xbdddf71d	-0.10838149
70	0xbde54369	-0.11194498
71	0xbd4d0973	-0.05005784
72	0xbdf3b820	-0.119003534
73	0xbde00add	-0.10939572
74	0xbdf0b22b	-0.11752733
75	0xbdd1bd1b	-0.10241147
76	0xbd4d280e	-0.050087027
77	0xbdeee02e	-0.11663853
78	0xbe1b2454	-0.15150577
79	0xbdb923a6	-0.090400025
80	0xbdc95b5f	-0.09831881
81	0xbd989288	-0.074498236
82	0xbd8efc48	-0.069817126
83	0xbd80cac0	-0.062886715
84	0xbd18b230	-0.037279308
85	0xbe31d831	-0.17367627
86	0xbddb507f	-0.10708713
87	0xbdf14098	-0.117798984
88	0xbe05ea29	-0.13077606
89	0xbd6cee6f	-0.057844575
90	0xbe06a920	-0.13150454
91	0xbd2fd024	-0.042923108
92	0xbdec9692	-0.115521565
93	0xbd9beeb0	-0.076138854
94	0xbdb1b31b	-0.0867674
95	0xbdf0e122	-0.11761691
96	0xbdd39cec	-0.10332665
97	0xbdfe5d33	-0.1242012
98	0xbe15ccfe	-0.1462898
99	0xbe21f9b7	-0.15817915
100	0xbdbf7854	-0.09349123
101	0xbdc1e60b	-0.09467705
102	0xbde442a9	-0.11145527
103	0xbe08a8fb	-0.13345711
104	0xbde0e2a9	-0.10980732
105	0xbd2eb0f0	-0.04264921
106	0xbd978712	-0.073988095
107	0xbe3645f5	-0.17800124
108	0xbddf26fb	-0.10896107
109	0xbdd76c75	-0.105187334
110	0xbe0c603f	-0.1370859
111	0xbe09dd9a	-0.1346344
112	0xbe0cb75e	-0.13741824
113	0xbda19350	-0.07889426
114	0xbe163e0c	-0.14672107
115	0xbd1f8c94	-0.038952425
116	0xbe24931f	-0.16071747
117	0xbd4e385c	-0.050346717
118	0xbd727339	-0.059191916
119	0xbd141c07	-0.03615954
120	0xbe27c02a	-0.16381899
121	0xbd024a57	-0.031809177
122	0xbd87f5c2	-0.066386715
123	0xbe094f26	-0.13409099
124	0xbd2e8624	-0.042608395
125	0xbe057e35	-0.13036425
126	0xbe14119e	-0.14459845
127	0xbdf7627f	-0.120793335
128	0xbd8cc811	-0.06874097
129	0xbd9860ef	-0.074403636
130	0xbdc7afda	-0.09750338
131	0xbdef013c	-0.11670157
132	0xbe160282	-0.14649394
133	0xbe24e1bb	-0.16101734
134	0xbdcafceb	-0.099115215
135	0xbd9de7e9	-0.07710249
136	0xbd9c6072	-0.07635583
137	0xbd1335b1	-0.035939876
138	0xbe1ecb10	-0.1550715
139	0xbdd4fbf3	-0.10399618
140	0xbdad99d4	-0.08476606
141	0xbe54c85a	-0.20779553
142	0xbddf88e6	-0.10914783
143	0xbdc5ba46	-0.096546695
144	0xbd961177	-0.0732755
145	0xbe04b7b5	-0.12960704
146	0xbd99a579	-0.075022645
147	0xbd0c69c7	-0.034280565
148	0xbdbc7337	-0.09201663
149	0xbe24a6f8	-0.16079319
150	0xbdef4e59	-0.116848655
151	0xbd481e89	-0.048857246
152	0xbd9b56e5	-0.07584933
153	0xbd6777c3	-0.056510698
154	0xbdb8c14e	-0.09021245
155	0xbe0e92f9	-0.13923253
156	0xbdbffcb9	-0.09374375
157	0xbe24d89c	-0.16098255
158	0xbd4dc47c	-0.05023621
159	0xbd1ef5f0	-0.038808763
160	0xbdd32888	-0.10310465
161	0xbd69a237	-0.057039466
162	0xbd6b45fa	-0.05743978
163	0xbdbad978	-0.0912351
164	0xbe031b88	-0.12803471
165	0xbe11b337	-0.14228521
166	0xbdde7d42	-0.10863735
167	0xbe2fda0d	-0.17173024
168	0xbd9063ea	-0.07050307
169	0xbdb1b886	-0.08677773
170	0xbd52a90e	-0.051430754
171	0xbdc7a3fb	-0.09748074
172	0xbdab8bb9	-0.08376259
173	0xbdc25c87	-0.094903044
174	0xbdba9d2b	-0.09112009
175	0xbdb583d1	-0.088630326
176	0xbde816a0	-0.113324404
177	0xbd98b807	-0.074569754
178	0xbd2cd219	-0.042192552
179	0xbdb7f0fd	-0.08981512
180	0xbe1f27cb	-0.15542524
181	0xbe23c54b	-0.1599323
182	0xbdc6c0e0	-0.09704757
183	0xbd9438e1	-0.07237411
184	0xbd9f2746	-0.07771163
185	0xbdeae6ad	-0.11469779
186	0xbdcfd3ed	-0.101478435
187	0xbddba4b8	-0.10724777
188	0xbd1f23b9	-0.038852427
189	0xbe397f54	-0.18114978
190	0xbd5f0ae5	-0.05445375
191	0xbe079b86	-0.13242921
192	0xbd81678f	-0.0631858
193	0xbe0680ee	-0.1313512
194	0xbe078f1a	-0.13238183
195	0xbda8050d	-0.08204088
196	0xbdcfbe45	-0.10143713
197	0xbde5b828	-0.11216766
198	0xbe0e5ea8	-0.13903296
199	0xbde68ca2	-0.11257292

shared2.weight f4 [200, 200]
0	0x3d818594	0.06324306
1	0xbddaad7d	-0.106776215
2	0xbc895a07	-0.016766561
3	0xbdef33cf	-0.116798036
4	0x3d82b1fd	0.06381605
5	0x3dc6ecf8	0.09713167
6	0xbe0fc6bb	-0.14040653
7	0xbdee2441	-0.11628009
8	0xbe3ce12a	-0.18445268
9	0xbdb3d241	-0.08780337
10	0x3da63122	0.0811484
11	0xbe1e2677	-0.1544436
12	0xbc84764f	-0.016169695
13	0xbdc5c12c	-0.09655985
14	0xbaa66956	-0.0012696187
15	0xbe08b47a	-0.13350096
16	0x3dd57ca7	0.10424166
17	0x3d245a9c	0.040125474
18	0xbc038fe4	-0.008029912
19	0xbdcb9eb9	-0.09942383
20	0xbe101202	-0.1406937
21	0xbe2c56fa	-0.16830054
22	0x3c964c5b	0.018346956
23	0xbd326569	-0.043553744
24	0xbd6199ca	-0.055078305
25	0x3d16666a	0.036718763
26	0x38a5af13	7.900423e-05
27	0x3c93a65c	0.018023662
28	0xbe1d463d	-0.15358825
29	0xbcc6641c	-0.024217658
30	0xbba210d1	-0.0049458523
31	0x3cf88d83	0.030340916
32	0x3cc6137c	0.024179213
33	0xbdec9f7a	-0.11553855
34	0x3d274f20	0.040846944
35	0xbd5c24c4	-0.053746
36	0x3e03d3ff	0.12873839
37	0xbda31e87	-0.07964807
38	0x3cc63228	0.024193838
39	0x3d4fcaa5	0.050730366
40	0xbcbf97e6	-0.02338786
41	0xbd626cdd	-0.0552796
42	0xbc2b0ddd	-0.010440317
43	0x3e806e55	0.25084177
44	0x3bf85cd3	0.007579425
45	0x3d012bad	0.031535793
46	0x3dbd9dd1	0.09258617
47	0xbc278228	-0.010223903
48	0xbde38326	-0.11108999
49	0xbced3d3f	-0.028959868
50	0x3e02a4cd	0.12758179
51	0xbdd90692	-0.10596956
52	0xbd408467	-0.04700127
53	0xbc042351	-0.008065061
54	0xbe2ec9a1	-0.17069103
55	0xbc9f640d	-0.019456888
56	0xbe00e13f	-0.12585925
57	0xbe70831c	-0.23487514
58	0xbe4ccba0	-0.19999552
59	0x3d9e24da	0.07721873
60	0x3caa7561	0.020807924
61	0x3d4e9bb8	0.050441474
62	0xbc85efc4	-0.01634968
63	0x3c7a5ce5	0.015280937
64	0xbe0e78ac	-0.1391322
65	0xbc691665	-0.014226531
66	0x3cf16bb4	0.029470302
67	0xbdb295db	-0.08719989
68	0xbd7423bc	-0.05960439
69	0x3d151dbf	0.03640532
70	0x3d44bef5	0.048033673
71	0xbd3a916d	-0.045548845
72	0xbcae9626	-0.02131183
73	0xbdedbecc	-0.11608657
74	0xbdc7d518	-0.09757441
75	0x3e02e9ed	0.12784548
76	0x3d91259e	0.07087253
77	0xbd159ea8	-0.03652826
78	0xbd13a5f5	-0.03604694
79	0x3df984b4	0.12183514
80	0x3dcc34b9	0.099709935
81	0x3d3443eb	0.044010084
82	0xbd71e20b	-0.059053462
83	0x3e808392	0.2510038
84	0x3d23cec5	0.039992113
85	0xbc8abcd3	-0.016935742
86	0xbda00ed6	-0.0781533
87	0xbd05ba65	-0.032648463
88	0xbdb532e0	-0.08847594
89	0xbb91ba09	-0.004447226
90	0x3df293fa	0.118446305
91	0x3c5e52cf	0.013569548
92	0xbc9d915d	-0.019234354
93	0xbc058afc	-0.008150812
94	0xbdf32767	-0.1187275
95	0xbdb88197	-0.09009092
96	0x3d1c28b2	0.038124748
97	0x3dc3be13	0.09557738
98	0x3aadd0c7	0.0013261073
99	0x3d53342c	0.051563427
100	0x3d9ec5d7	0.07752579
101	0x3cae083a	0.021244157
102	0xbe095409	-0.13410963
103	0xbc9edb6b	-0.019391736
104	0xbe5b21cc	-0.21399611
105	0xbb9f82fa	-0.0048679085
106	0x3dc4163b	0.095745526
107	0xbda29756	-0.07939021
108	0xbd059c95	-0.03262003
109	0xbcd5775c	-0.026057892
110	0xbd99c658	-0.07508534
111	0xbd84db20	-0.06487107
112	0xbd11b96c	-0.035577223
113	0x3dcc8f6c	0.09988293
114	0xbde42565	-0.11139945
115	0xbda0505b	-0.078278266
116	0xbde1159f	-0.10990452
117	0xbc865f67	-0.016402913
118	0xbb5e43c8	-0.0033914912
119	0xbc547089	-0.012966284
120	0xbe1672f5	-0.1469229
121	0xbdbe785b	-0.093003
122	0x3d6bd82e	0.057579212
123	0x3bd5514c	0.0065099355
124	0xbd590c44	-0.052990213
125	0x3e13816a	0.14404836
126	0xbd142711	-0.03617007
127	0x3dc28808	0.09498602
128	0xbcdaa966	-0.026692104
129	0xbe03d7cd	-0.1287529
130	0xbd413d95	-0.04717787
131	0xbcc2c03b	-0.023773303
132	0xbe3985cb	-0.18117444
133	0x3df71432	0.12064399
134	0x3cf7c073	0.030243134
135	0xbbc5c9e5	-0.0060360306
136	0x3d77b092	0.060471125
137	0xbd8cccaf	-0.06874978
138	0xbd31c8ca	-0.043404378
139	0xbdc9bf71	-0.09850968
140	0xbb69b6cb	-0.0035661932
141	0x3ddacdc8	0.10683781
142	0xbdc6fa59	-0.09715719
143	0x3dae0d4d	0.08498631
144	0xbd67642b	-0.056492012
145	0x3d0c12c4	0.034197584
146	0x3d1e49f0	0.03864473
147	0xbca7793b	-0.02044355
148	0xbe47f490	-0.19526887
149	0xbcefd2e6	-0.029275369
150	0xbdb740b8	-0.08947891
151	0x3cb9f946	0.02270187
152	0xbdb42ef8	-0.08798021
153	0xbc5d09ea	-0.013491133
154	0xbe111e8c	-0.14171809
155	0xbe09a407	-0.13441478
156	0x3e119070	0.14215255
157	0x3d564180	0.05230856
158	0x3ccb6f09	0.02483322
159	0x3c89287e	0.016742941
160	0xbb8f43c0	-0.00437209
161	0x3ddb1b2d	0.10698543
162	0x3d862396	0.06549756
163	0xbd236cb3	-0.039898586
164	0xbe1d2f1f	-0.15350007
165	0x3d70d076	0.058792554
166	0x3c103208	0.008800991
167	0xbd9cd2c0	-0.07657385
168	0xbd83d3cd	-0.06436882
169	0xbe2cd3a0	-0.16877604
170	0x3d850d8d	0.06496725
171	0x3cce1af1	0.025159331
172	0xbcd7b597	-0.026331706
173	0xbe01e731	-0.12685849
174	0xbe045a3e	-0.1292505
175	0xbd9e6c42	-0.07735492
176	0xbdb8dedc	-0.09026882
177	0x3d72d105	0.059281368
178	0xbda14980	-0.07875347
179	0xbd7366d2	-0.05942423
180	0xbda10c48	-0.078636706
181	0xbcf9a240	-0.030472875
182	0x3bba00c3	0.0056763603
183	0xbd7356a9	-0.059408817
184	0xbd35856d	-0.044316698
185	0xbe2a78ef	-0.16647695
186	0xbd8ea19d	-0.06964419
187	0x3bdc8695	0.0067299106
188	0xbe9242b7	-0.28566524
189	0xbd8fc48b	-0.070199095
190	0xbe564de2	-0.20928147
191	0x3d9ba593	0.0759994
192	0x3d7c55b2	0.061605163
193	0x3d1983f6	0.037479363
194	0x3d5c6f05	0.053816814
195	0xbe1958cb	-0.14975278
196	0xbe0394d7	-0.12849747
197	0x3da2571e	0.079267725
198	0xbda67c56	-0.08129184
199	0xbd906405	-0.07050327
200	0xbd64b33b	-0.05583499
201	0x3ca1b2fc	0.019738667
202	0xbdf8c581	-0.12147046
203	0xbdfa4226	-0.12219648
204	0x3c7f55f8	0.015584461
205	0xbd81de77	-0.0634126
206	0x3e119995	0.14218743
207	0xbd4d7b41	-0.050166372
208	0xbe201b43	-0.156354
209	0x3c4db832	0.012556123
210	0xbdf698da	-0.12040873
211	0xbe276665	-0.16347654
212	0x3d648f83	0.055800926
213	0x3d3bd8ff	0.04586124
214	0x3c8ebe49	0.01742472
215	0x3cc7a200	0.02436924
216	0xbd2b4e13	-0.041822504
217	0xbe0db3ac	-0.1383807
218	0xbcdda6c2	-0.027057055
219	0xbdd9b01a	-0.10629292
220	0xbd743a5c	-0.05962597
221	0xbdd4270e	-0.103590116
222	0xbd59dd7a	-0.053189732
223	0x3d833c13	0.064079426
224	0xbdc07f6c	-0.09399304
225	0x3bc9b252	0.0061552906
226	0xbe1a6cbb	-0.1508054
227	0xbd6a54ce	-0.057209782
228	0xbcdd36d8	-0.02700369
229	0xbdca51d8	-0.09878892
230	0xbe199ea5	-0.15001924
231	0xbd423e18	-0.0474225
232	0xbd9d956a	-0.07694514
233	0xbd17db40	-0.037074327
234	0xbdab2002	-0.083557144
235	0x3d5b1fb1	0.05349702
236	0x3ccedd11	0.025251897
237	0x3d2fbf14	0.042906836
238	0xbc3f1b8d	-0.011664283
239	0xba332138	-0.0006833258
240	0xbd8ece88	-0.069729865
241	0x3d49a57e	0.04923009
242	0xbb8aa230	-0.00423076
243	0x3c104bf2	0.008807169
244	0xbda76b22	-0.08174731
245	0x3d2c4b37	0.042063918
246	0xbdb46005	-0.08807377
247	0xbe25f7d3	-0.16207819
248	0xbd87f705	-0.06638912
249	0xbcfc4d0c	-0.030798458
250	0x3ce7daec	0.028302632
251	0xbe1ad73f	-0.15121172
252	0x3dac7907	0.08421522
253	0x3c7fa143	0.015602413
254	0xbdffb0e5	-0.12484912
255	0xbd93e4cd	-0.07221375

shared2.bias f4 [200]
0	0xbdb4e815	-0.08833329
1	0xbe6878fa	-0.22702399
2	0xbe7c2a70	-0.24625564
3	0xbe6199f3	-0.22031383
4	0xbdf876ef	-0.1213206
5	0xbda3aac4	-0.07991555
6	0xbe0d5544	-0.13802058
7	0xbe023709	-0.12716307
8	0xbdea6d47	-0.11446624
9	0xbd560ee7	-0.052260306
10	0xbd4f8c23	-0.050670754
11	0xbc699ef5	-0.01425909
12	0xbd8d1148	-0.06888062
13	0xbe367586	-0.17818269
14	0xbd8c7486	-0.068581626
15	0xbe002aba	-0.12516299
16	0xbe43efcd	-0.19134445
17	0xbdb2d03c	-0.08731124
18	0xbe274a57	-0.16336952
19	0xbbca42b1	-0.006172501
20	0xbd0d7da1	-0.034543637
21	0xbe65e56d	-0.224508
22	0xbe0b546d	-0.13606425
23	0x3c5e7ff9	0.013580316
24	0x3d0e035c	0.034671172
25	0xbc88dd84	-0.01670719
26	0xbdec3026	-0.11532621
27	0xbe3a9def	-0.1822431
28	0xbe38d215	-0.1804889
29	0xbdb99b85	-0.09062866
30	0xbe0c9c38	-0.13731468
31	0xbdc08429	-0.094002075
32	0x3ca89b37	0.020581825
33	0xbd99339c	-0.07480547
34	0x3c629fcb	0.013832043
35	0xbe5aea02	-0.2137833
36	0xbe5c5b43	-0.21519189
37	0xbe2cf804	-0.16891485
38	0xbe48b466	-0.19600067
39	0xbdd8a018	-0.105774105
40	0xbe4a7e0a	-0.19774643
41	0xbe3c4b34	-0.18388063
42	0xbdf678cb	-0.12034758
43	0xbe22c4bb	-0.15895359
44	0xbe017c82	-0.12645152
45	0xbe7e26e7	-0.24819528
46	0xbd91d066	-0.07119827
47	0xbe183408	-0.14863598
48	0xbe5ef3b8	-0.21772659
49	0xbd8c7357	-0.06857937
50	0xbe232e02	-0.1593552
51	0xbe14e1a9	-0.14539208
52	0xbdbfcfce	-0.093658075
53	0xbd30de88	-0.043180972
54	0xbcde6d3c	-0.027151696
55	0xbd15bc84	-0.036556736
56	0xbe0bd5dc	-0.136558
57	0xbdb643c2	-0.088996425
58	0xbe3100ce	-0.17285463
59	0xbe007caf	-0.12547563
60	0xbe555584	-0.20833403
61	0xbd8f796a	-0.0700558
62	0xbe12efc6	-0.14349279
63	0xbd79b7f9	-0.060966466
64	0xbdc760d5	-0.09735266
65	0xbe3b1b9d	-0.18272252
66	0xbe66fc3c	-0.22557157
67	0xbe137940	-0.14401722
68	0x3c8bed8f	0.01708105
69	0xbe81fed8	-0.25389743
70	0xbdbda432	-0.092598334
71	0xbe47eed2	-0.19524696
72	0xbcac671c	-0.02104526
73	0xbe0bb173	-0.1364191
74	0xbe14d2ec	-0.14533585
75	0xbe4149c7	-0.188758
76	0xbe05c7ba	-0.13064471
77	0xbe2f7e0c	-0.17137927
78	0xbe1bdde8	-0.1522137
79	0xbe230218	-0.15918767
80	0xbe13fd24	-0.14452034
81	0xbe1538fd	-0.1457252
82	0xbe11770c	-0.14205569
83	0xbdf31d7c	-0.11870858
84	0xbe0091ef	-0.12555669
85	0xbe0a8672	-0.1352785
86	0xbe39e82f	-0.18154977
87	0xbc99f3e7	-0.01879306
88	0xbe849aea	-0.2589944
89	0x3c0adbe0	0.008475274
90	0xbe4a9e9a	-0.19787064
91	0xbe079bd9	-0.13243045
92	0xbe36526a	-0.17804876
93	0xbe0cedee	-0.13762638
94	0xbe06601d	-0.13122602
95	0xbd962013	-0.073303364
96	0x3ca57e76	0.020201903
97	0xbdbca5c3	-0.09211304
98	0xbd960f5f	-0.073271506
99	0xbd8117c5	-0.06303362
100	0xbda6db67	-0.081473164
101	0xbe41a82f	-0.18911813
102	0xbe091aab	-0.1338908
103	0xbe631d5e	-0.22179171
104	0xbe367f2d	-0.17821951
105	0xbdb03f46	-0.086058185
106	0xbe5db5ca	-0.21651378
107	0xbe30a1bd	-0.17249198
108	0xbd3f00c4	-0.04663159
109	0xbe900a11	-0.2813268
110	0xbe153952	-0.14572647
111	0xbda0c5ca	-0.07850225
112	0xbd47f624	-0.048818722
113	0xbda52268	-0.08063203
114	0xbdae8ffb	-0.08523556
115	0xbe1fdc8b	-0.15611474
116	0xbcfddc08	-0.030988708
117	0xbd722d6c	-0.05912535
118	0xbe19c52f	-0.15016626
119	0xbe068e21	-0.13140155
120	0xbe16478e	-0.14675733
121	0xbe3754c2	-0.17903426
122	0x3d61b5cb	0.055105012
123	0xbe2b5155	-0.16730244
124	0xbe63cc43	-0.22245888
125	0xbe140e51	-0.14458586
126	0xbb70b855	-0.0036730964
127	0xbe1c6d44	-0.15276057
128	0xbe255a9d	-0.16147847
129	0xbe133ec3	-0.1437941
130	0xbe5a2a4d	-0.21305199
131	0xbe37ed4a	-0.17961612
132	0xbe4dfd4c	-0.20116156
133	0xbe180fb7	-0.14849745
134	0xbe8e96a6	-0.2784931
135	0xbd9bc4c1	-0.07605887
136	0xbe04e23b	-0.12976925
137	0xbe0a7e57	-0.13524757
138	0xbd7b9480	-0.061420918
139	0x3d3967e0	0.04526508
140	0xbe0bc53b	-0.13649456
141	0xbe0276d7	-0.12740646
142	0xbd97b2b7	-0.07407134
143	0xbde3d054	-0.1112372
144	0xbdf152dc	-0.11783382
145	0xbe875ae1	-0.26436523
146	0x3d98bd9f	0.07458042
147	0xbe282932	-0.16421965
148	0xbd318571	-0.04334015
149	0xbe85a939	-0.2610567
150	0xbd7200d0	-0.059082806
151	0xbdfddf07	-0.12396055
152	0xbe40cdf7	-0.1882857
153	0x3c85b58f	0.016321925
154	0xbe1b7da9	-0.15184654
155	0xbd2e5197	-0.04255828
156	0xbe622aa0	-0.22086573
157	0x3b80a377	0.0039257365
158	0xbd43a5f9	-0.047765706
159	0xbdc4ed7f	-0.09615611
160	0x3cd87361	0.026422204
161	0xbe2921d6	-0.16516814
162	0xbe12ecbc	-0.1434812
163	0xbe57bf11	-0.2106898
164	0xbd7742f2	-0.06036658
165	0xbe270abd	-0.1631269
166	0xbd49d12a	-0.04927174
167	0xbe419dbc	-0.18907827
168	0xbdebef9c	-0.11520311
169	0xbdc39666	-0.095501706
170	0xbd8e20bc	-0.06939837
171	0xbe377242	-0.1791468
172	0xbdb982ff	-0.09058189
173	0xbe438d60	-0.19096899
174	0xbe1ed71d	-0.15511747
175	0xbe43f7df	-0.19137524
176	0x3c87cee9	0.016578155
177	0xbd9d9fae	-0.07696472
178	0xbe11bfc9	-0.14233316
179	0xbdc24c27	-0.09487181
180	0x3d1b1cdd	0.037869323
181	0xbddebc91	-0.1087581
182	0xbe7a57b0	-0.24447513
183	0xbdaa9d58	-0.08330792
184	0x3d349c76	0.044094525
185	0xbd7a648b	-0.06113104
186	0xbdad02dc	-0.08447811
187	0xbe5d16d5	-0.21590741
188	0xbdcffef7	-0.101560526
189	0xbe387cb2	-0.18016317
190	0xbcc59761	-0.024120035
191	0xbd497e0f	-0.049192484
192	0xbe1365c2	-0.14394286
193	0x3c99ba3e	0.018765565
194	0xbd914269	-0.07092745
195	0xbe0037cf	-0.1252129
196	0xbe304fa5	-0.17217882
197	0xbde4a319	-0.11163921
198	0xbe0a9361	-0.13532783
199	0xbe5d4e1c	-0.21611828

hidden1_Y1.weight f4 [200, 200]
0	0xbc8f72ea	-0.01751085
1	0xbddd92ca	-0.108190134
2	0xbbe48bae	-0.006974659
3	0xbd1d61ac	-0.038423225
4	0xbe2eca11	-0.1706927
5	0x3d59fea5	0.053221364
6	0x3da452b6	0.08023588
7	0x3df3d4f3	0.11905851
8	0x3dc3011c	0.09521696
9	0xbe1551a8	-0.1458193
10	0x3e1d3436	0.15351948
11	0xbde88ab7	-0.11354583
12	0xbddb27c6	-0.107009456
13	0xbe3904ed	-0.18068285
14	0xbc25c998	-0.0101188645
15	0xbea2da8b	-0.3180736
16	0xbe0b7871	-0.13620164
17	0x3e8f8874	0.28033793
18	0x3ce38d8c	0.027777456
19	0x3e396748	0.18105805
20	0xbd8f9b48	-0.070120394
21	0x3dd070e8	0.10177785
22	0x3e13d975	0.14438422
23	0x3b4de245	0.0031415385
24	0xbc16d219	-0.009205365
25	0xbe0f8601	-0.14015962
26	0xbdeb5759	-0.114912696
27	0xbdd206b6	-0.10255186
28	0xbe23c46e	-0.159929
29	0x3e0e4869	0.1389481
30	0x3ca870f0	0.020561665
31	0xbc85d4cd	-0.016336823
32	0xbe3fdc17	-0.18736301
33	0xbd2e5f83	-0.042571556
34	0xbe6403a4	-0.22267014
35	0x3d1ba7ff	0.03800201
36	0xbd91f08e	-0.0712596
37	0x3d2100bd	0.039307345
38	0x3dc30cf0	0.09523952
39	0xbdc83009	-0.09774787
40	0x3e337706	0.17525873
41	0xbc87f1aa	-0.016594727
42	0xbdb9db76	-0.09075062
43	0xbde002e1	-0.10938049
44	0x3c3e2846	0.011606282
45	0x3c98ee41	0.018668296
46	0x3d3d7107	0.04625037
47	0xbc4af98c	-0.012388598
48	0x3d9eab43	0.07747509
49	0xbe222c45	-0.158372
50	0x3cc959c7	0.024578942
51	0xbcfb4502	-0.030672554
52	0xbe7d26ff	-0.24721907
53	0x3e21620f	0.15760063
54	0xbe45630d	-0.19276066
55	0x3d88b566	0.06675224
56	0x3e0d80ad	0.13818617
57	0x3ab1e87d	0.0013573315
58	0xbdf7d2fd	-0.1210079
59	0xbe5b0a93	-0.21390752
60	0x3e0cf491	0.1376517
61	0xbda513e7	-0.08060437
62	0xbe4f5a01	-0.20249178
63	0xbd987dc8	-0.07445866
64	0xbda81f10	-0.0820905
65	0xbc4dbb9d	-0.0125569375
66	0x3d1b8677	0.037970033
67	0x3ced9b92	0.029004846
68	0xbd0bb7fa	-0.034111
69	0xbe03f58e	-0.1288664
70	0xbd212439	-0.039341185
71	0xbe3a8173	-0.18213443
72	0x3dbc5772	0.09196366
73	0x3da20033	0.07910194
74	0xbde97c5d	-0.114006735
75	0xbdb3a08d	-0.08770857
76	0xbe1b376c	-0.1515786
77	0xbd45499d	-0.048165906
78	0x3e1ac55e	0.15114352
79	0x3d8fe9f0	0.07027042
80	0x3dd9734a	0.10617693
81	0x3dbe35d5	0.092876114
82	0x3e1f581f	0.1556096
83	0x3c9f9a42	0.019482736
84	0xbd7b6a59	-0.061380718
85	0x3d81ab82	0.06331541
86	0xbea963dd	-0.33084002
87	0x3e1d1a9f	0.15342186
88	0xbd599dd2	-0.053129025
89	0xbda3b74f	-0.07993948
90	0xbdc8884e	-0.09791623
91	0x3d73170c	0.05934815
92	0x3d343d46	0.044003747
93	0xbd4742a8	-0.048647553
94	0x3d2f9e14	0.042875364
95	0x3ddfec0c	0.10933694
96	0x3dc1d324	0.094641
97	0xbd99f59e	-0.07517551
98	0x3e92745c	0.286044
99	0xbbeed077	-0.0072880345
100	0xbdf58b7c	-0.11989495
101	0x3bd4f499	0.006498885
102	0x3c2832f2	0.010266053
103	0xbe16db9f	-0.14732216
104	0xbddee0df	-0.108827345
105	0xbc2d9fdb	-0.010597195
106	0xbe3f3bb9	-0.18675126
107	0x3d9edaf0	0.07756603
108	0x3e13a6da	0.14419118
109	0xbe2745f1	-0.16335274
110	0x3e3f762f	0.18697427
111	0xbe55f873	-0.20895557
112	0xbdb0ac89	-0.086266585
113	0x3e57042a	0.20997682
114	0xbde26814	-0.110550076
115	0x3cd7e108	0.02635242
116	0xbe4647c5	-0.19363315
117	0x3d6ac21e	0.05731403
118	0x3dbdbf8f	0.092650525
119	0x3cdd0ca1	0.026983561
120	0x3ded0ea4	0.11575058
121	0xbdc017ce	-0.093795404
122	0xbe586cab	-0.21135204
123	0x3ddcc44e	0.1077963
124	0xbd8a2ec7	-0.06747203
125	0x3d202850	0.039100945
126	0xbd5a53e1	-0.05330265
127	0x3c80d251	0.015725287
128	0xbe18a42f	-0.14906381
129	0xbe46dc91	-0.19420077
130	0xbdbc5dcd	-0.091975786
131	0x3cd7ca18	0.026341483
132	0xbd618cff	-0.055066105
133	0x3ddd6c40	0.10811663
134	0xbe420e90	-0.18950868
135	0xbd8ec28a	-0.06970699
136	0x3d70e181	0.058808807
137	0xbdc143aa	-0.09436734
138	0xbbbbdc48	-0.0057330467
139	0xbca2dc8a	-0.019880552
140	0x3e5c0173	0.21484928
141	0x3c99914b	0.018746039
142	0xbe00ef6f	-0.12591337
143	0x3e7b3070	0.24530196
144	0x3dfb6708	0.12275511
145	0x3c8c11de	0.017098363
146	0x3d411778	0.047141522
147	0xbdbf2cea	-0.093347386
148	0x3ea0f5f7	0.31437656
149	0x3be7c6a0	0.0070732385
150	0xbc09789a	-0.00839057
151	0xbd5e9370	-0.054339826
152	0xbce8d3f6	-0.028421383
153	0xbe21734c	-0.15766639
154	0x3d560bab	0.05225722
155	0xbe26c2ef	-0.16285299
156	0x3c37d937	0.011221222
157	0x3dffe928	0.12495643
158	0x3da842b7	0.0821585
159	0x3d2677b8	0.040641516
160	0x3d22be28	0.03973213
161	0x3de747df	0.11293005
162	0x3c1c134f	0.009526088
163	0x3d5200d0	0.051270306
164	0xbc6c14e2	-0.014409276
165	0xbdc7c989	-0.09755237
166	0xbd92e770	-0.071730494
167	0xbd84d4a2	-0.06485869
168	0xbde28e67	-0.11062317
169	0xbe1379b2	-0.14401892
170	0xbdc6ce2c	-0.09707293
171	0x3d330093	0.04370172
172	0x3c97c164	0.018524833
173	0x3d670f04	0.056410804
174	0x3cc3cc0d	0.02390101
175	0xbd16224b	-0.036653798
176	0xbe641290	-0.22272706
177	0xbdec4f43	-0.115385555
178	0x3dd30f20	0.10305619
179	0xbdbcb354	-0.092138916
180	0xbd91e88c	-0.07124433
181	0x3cdd3c75	0.027006367
182	0xbcd07fb7	-0.025451524
183	0x3e238573	0.15968876
184	0xbda84c6b	-0.082177006
185	0xbe622e55	-0.22087987
186	0xbcaa1efe	-0.020766731
187	0xbde7e585	-0.11323074
188	0x3d8877b1	0.06663454
189	0x3e2a964d	0.16658898
190	0x3ab919ee	0.0014122108
191	0xbc9d24b4	-0.01918254
192	0xbd42aa17	-0.04752549
193	0xbd1fead4	-0.03904231
194	0x3c86d920	0.016460955
195	0x3d8e4717	0.06947153
196	0xbe483811	-0.19552638
197	0xbe50a640	-0.2037592
198	0xbe18f39f	-0.14936684
199	0xbc8aa842	-0.016925935
200	0xbd3a23d2	-0.045444317
201	0x3e0041e1	0.12525131
202	0xbd2296b4	-0.039694503
203	0xbc86fb60	-0.016477287
204	0xbe03f3db	-0.12885992
205	0xbd5b4fb9	-0.053542826
206	0x3de5f8f4	0.11229125
207	0xbbe0a0ee	-0.006855122
208	0xbe3834a1	-0.17988826
209	0xbdb5e804	-0.08882144
210	0x3d3b5c82	0.04574252
211	0xbe06e6c8	-0.13173974
212	0xbcf86bbe	-0.030324813
213	0x3de4065e	0.11134027
214	0xbde49afd	-0.11162374
215	0x3e39afb4	0.18133432
216	0xbd87a735	-0.06623689
217	0xbd59feba	-0.05322144
218	0xbb1992a8	-0.0023433361
219	0xbddf41e5	-0.1090124
220	0xbe3185b7	-0.17336164
221	0xbdbeb512	-0.0931188
222	0xbd8efb53	-0.0698153
223	0xbe534f54	-0.2063573
224	0xbda8ae9b	-0.08236428
225	0xbb6dfec5	-0.0036315185
226	0xbe0cd572	-0.13753298
227	0x3c9fbcf3	0.019499278
228	0xbbd53478	-0.006506499
229	0xbd24a257	-0.04019388
230	0x3c908f58	0.017646477
231	0xbc71c1e4	-0.0147557
232	0xbe03e229	-0.12879242
233	0xbc04b589	-0.008099922
234	0xbe2e7b48	-0.17039216
235	0xbe0e8221	-0.13916828
236	0x3d44ddb8	0.04806301
237	0x3c9cfd19	0.019163655
238	0xbe2a952a	-0.16658464
239	0x3db3934e	0.087683305
240	0xbccb10db	-0.02478831
241	0x3cd81734	0.026378252
242	0xbdcea37e	-0.100897774
243	0xbbe4b182	-0.0069791684
244	0x3d00a1e9	0.03140441
245	0xbd6bf646	-0.05760791
246	0xbdb4c0dc	-0.088258475
247	0xbc9a7ac0	-0.01885736
248	0x3be3b978	0.0069496
249	0xbd9eb75c	-0.07749817
250	0x3d284a4f	0.04108649
251	0x3d0dcd5f	0.034619685
252	0x3db4bff2	0.08825673
253	0xbe1c428c	-0.1525976
254	0xbda9a063	-0.082825445
255	0x3e4a90eb	0.19781844

hidden1_Y1.bias f4 [200]
0	0x3dbabf4a	0.09118517
1	0x3d7134f6	0.058888398
2	0xbd16496f	-0.036691125
3	0xbe01ffa2	-0.12695172
4	0xbd67f98e	-0.05663448
5	0xbd467ee1	-0.048460845
6	0xbdc65b5c	-0.09685394
7	0xbd96a034	-0.07354775
8	0x3cf5c7fa	0.030002583
9	0xbdad0576	-0.08448307
10	0xbdaa5649	-0.08317239
11	0xbd1fe1b0	-0.03903359
12	0xbc95abf3	-0.018270468
13	0xbdf89d3f	-0.12139367
14	0x3df71f44	0.1206651
15	0xbdea01cf	-0.11426126
16	0xbcc64ff0	-0.024208039
17	0xbdcd87d5	-0.100356735
18	0xbd95b3fd	-0.07309721
19	0xbe09d91b	-0.13461725
20	0xbdc97c1c	-0.09838125
21	0x3d82a84f	0.063797586
22	0x3cb80fd5	0.022468487
23	0xbdcbfebc	-0.09960696
24	0x3d118c48	0.035534173
25	0xbdd58336	-0.10425417
26	0xbdc644f3	-0.0968112
27	0xbd2f3b40	-0.042781115
28	0xbdba04c3	-0.090829395
29	0x3d9879f0	0.07445133
30	0xbd726b11	-0.059184138
31	0xbded633c	-0.11591193
32	0x3d4e299a	0.050332643
33	0xbe01bb57	-0.1266912
34	0xbd3bf89f	-0.0458914
35	0xbd3d4952	-0.0462125
36	0x3c5979e8	0.013273694
37	0x3db5ebb2	0.08882846
38	0xbd2cc7b6	-0.042182647
39	0xbd885766	-0.06657295
40	0xbd59804c	-0.05310087
41	0xbdc75df9	-0.09734721
42	0xbd9a231c	-0.07526228
43	0x3dc640f4	0.096803576
44	0xbd30c2f0	-0.043154657
45	0xbdc2a53b	-0.095041715
46	0x3dba6cb6	0.09102766
47	0x3dcbf341	0.099585064
48	0x3d3be2c6	0.045870565
49	0xbd0841e2	-0.033265956
50	0x3a990ead	0.0011677347
51	0xbde5b45b	-0.11216041
52	0xbda62854	-0.08113161
53	0xbd4af124	-0.049546376
54	0x3dd7b577	0.105326585
55	0x3d8001cb	0.06250342
56	0xbe1923dd	-0.14955087
57	0xbdcd2a14	-0.100177914
58	0xbd81359f	-0.063090555
59	0xbd4442a7	-0.047915127
60	0xbd9e7220	-0.07736611
61	0xbd1e08c2	-0.03858257
62	0xbe089809	-0.13339247
63	0xbdcaea37	-0.09907954
64	0xbdb08c54	-0.086205155
65	0x3dab8664	0.08375242
66	0xbcf36dac	-0.029715382
67	0x3d68d049	0.05683926
68	0xbd9d5333	-0.076818846
69	0x3d701523	0.058613908
70	0xbdceb83d	-0.100937344
71	0xbdf84813	-0.12123122
72	0xbd282e7a	-0.04105995
73	0x3d421243	0.047380697
74	0xbcb0fe0d	-0.021605516
75	0x3da1dd78	0.0790357
76	0x3d9a7534	0.07541886
77	0xbdbb5d69	-0.09148676
78	0xbdd0458c	-0.10169515
79	0x3da7defc	0.08196828
80	0xbdf3b7ee	-0.11900316
81	0xbdb8b5d8	-0.09019059
82	0x3d587bad	0.05285232
83	0xbda225d1	-0.07917369
84	0xbd4c69b4	-0.049905494
85	0xbdfc14bd	-0.12308643
86	0xbdc59118	-0.09646815
87	0xbdcca681	-0.099926956
88	0xbd26131d	-0.04054557
89	0x3dd95952	0.106127396
90	0xbe0158b5	-0.12631495
91	0xbe0b66fc	-0.13613504
92	0xbd3483f0	-0.044071138
93	0x3d10e51c	0.035374746
94	0xbdbc8fd6	-0.09207122
95	0xbc8ec2e3	-0.017426914
96	0xbdce2013	-0.100647114
97	0x3c1b89a4	0.009493265
98	0x3e0a4fab	0.13506953
99	0x3d8908ff	0.06691169
100	0xbd9677a7	-0.073470406
101	0x3da978c1	0.08274985
102	0x3d696223	0.056978356
103	0xbb9e4375	-0.004829819
104	0xbb96e33a	-0.0046047242
105	0x3d16fe70	0.036863744
106	0xbcafc4ec	-0.021456204
107	0xbda65fe7	-0.08123761
108	0xbd91d085	-0.0711985
109	0xbdb312f2	-0.08743848
110	0x3d053822	0.032524236
111	0x3d754495	0.059879858
112	0xbe0adb3e	-0.13560197
113	0xbd2854d1	-0.041096512
114	0xbdd03660	-0.10166621
115	0x3ccf806c	0.025329791
116	0xbdfc936d	-0.12332807
117	0x3cd95317	0.026528878
118	0x3cc0db29	0.023542004
119	0x3e00e79a	0.12588349
120	0xbdcd8da1	-0.10036779
121	0xba996298	-0.0011702357
122	0x3dc9ac87	0.0984736
123	0xbe0d0b7b	-0.1377391
124	0xbd0f6cf1	-0.035016004
125	0x3cbee053	0.023300325
126	0x3d89a177	0.0672025
127	0x3d85da01	0.065357216
128	0xbdbc358d	-0.091899015
129	0xbdfe9c42	-0.124321476
130	0x3e18d3b8	0.14924514
131	0xbc73aef8	-0.014873259
132	0x3d20e94b	0.039284986
133	0xbdcd09b5	-0.10011617
134	0xbca622b1	-0.020280214
135	0xbdf60a50	-0.12013686
136	0xbcf77202	-0.03020573
137	0x3d8e83de	0.069587454
138	0xbae0ac29	-0.0017141151
139	0xbdbb4a4f	-0.091450326
140	0xbd4c2cdc	-0.04984747
141	0xbcbaddc2	-0.02281082
142	0xbd4cc208	-0.04998973
143	0xbd24ceef	-0.04023641
144	0xbdc16993	-0.09443965
145	0x3d1bf387	0.038074043
146	0xbd4d335e	-0.050097816
147	0xbd386a1e	-0.045023076
148	0xbd7c3d1f	-0.061581727
149	0xbd163e22	-0.03668035
150	0x3d7e2f8d	0.062057067
151	0x3dad3ebc	0.08459231
152	0x3dea6767	0.11445504
153	0xbdd0c136	-0.10193102
154	0x3db36567	0.08759575
155	0xbc278b99	-0.010226154
156	0xbdb49d58	-0.088190734
157	0xbb90f51b	-0.00442375
158	0xbdbf96d7	-0.09354942
159	0x3cc01ad7	0.023450298
160	0xbc7800b3	-0.015136885
161	0xbdda770c	-0.10667238
162	0xbdd417fe	-0.10356139
163	0xbe0478a5	-0.12936647
164	0xbdcb2b7a	-0.09920402
165	0x3e02150f	0.12703346
166	0x3d932c42	0.07186176
167	0xbdb0ee9e	-0.086392626
168	0xbd3d2bc5	-0.04618432
169	0xba705cfb	-0.00091691286
170	0xbd2ef96c	-0.042718336
171	0xbd488ae5	-0.048960585
172	0x3bb6719b	0.005567742
173	0xbdfe6b95	-0.124228634
174	0xbbf1acd1	-0.0073753376
175	0xbd0e47a1	-0.03473628
176	0xbda034e5	-0.07822589
177	0x3e00a496	0.12562785
178	0x3ba1fbbc	0.004943339
179	0xbd6a1ea3	-0.057158124
180	0xbd700433	-0.058597755
181	0x3daf1419	0.08548755
182	0xbd778308	-0.060427696
183	0xbcf052b1	-0.029336305
184	0x3c74d714	0.014943857
185	0xbcc9f56b	-0.024653157
186	0x3d43a9e3	0.04776944
187	0xbc65a24f	-0.014015748
188	0xbdece6df	-0.11567473
189	0xbcfdc91a	-0.030979682
190	0x3d139343	0.03602911
191	0xbdd6bd3c	-0.10485312
192	0xbcf56a6f	-0.029957978
193	0xbdc916e5	-0.0981882
194	0xbd577e97	-0.05261096
195	0xbdb38994	-0.08766475
196	0xbbaa6d59	-0.0052010235
197	0xbdcb2407	-0.09918981
198	0xbd72dffc	-0.05929564
199	0xbdc10e32	-0.09426536

hidden2_Y1.weight f4 [200, 200]
0	0x3cb28e78	0.02179645
1	0x3dec36e3	0.11533906
2	0xbb169e51	-0.0022982548
3	0xbdd28e65	-0.10281066
4	0x3de76820	0.11299157
5	0xbcc96fbf	-0.024589418
6	0xbd4dd7af	-0.05025452
7	0xbd29de97	-0.041472044
8	0xbd5f51a6	-0.054521225
9	0x3da99c6d	0.08281789
10	0x3d352638	0.0442259
11	0x3d1763c1	0.036960367
12	0x3e3aa7e4	0.18228108
13	0xbbfcd75d	-0.007716103
14	0xbdf9e1ad	-0.12201247
15	0x3cb5993d	0.022167796
16	0xbd8bc2a1	-0.06824232
17	0xbd80fee7	-0.06298619
18	0x3c6a8d21	0.014315874
19	0xbceba50a	-0.02876522
20	0xbc91913c	-0.017769448
21	0x3e13dde5	0.14440115
22	0x3e4f04a5	0.20216615
23	0xbdbfe020	-0.0936892
24	0x3cf39d0c	0.029737972
25	0xbbe89331	-0.0070976247
26	0x3cbbf4e7	0.022943927
27	0x3d75001d	0.05981456
28	0x3d7a17e5	0.061057944
29	0xbb263a58	-0.0025364365
30	0xbe0ebd18	-0.13939321
31	0x3d5fb8c9	0.054619584
32	0xbdc52f6a	-0.09628184
33	0x3c3c1fcf	0.011482193
34	0x3e3c45e8	0.18386042
35	0x3dcd8be2	0.10036446
36	0x3e1400d9	0.14453448
37	0x3e236715	0.15957291
38	0xbd3c0834	-0.04590626
39	0xbc28ce7d	-0.010303137
40	0x3e134970	0.14383483
41	0x3b0ec0c1	0.002178237
42	0x3dc3899c	0.09547731
43	0x3df6f4cd	0.12058411
44	0xbd2606ca	-0.04053382
45	0xbd7e8eca	-0.062147893
46	0xbe27e5bb	-0.16396229
47	0x3e753cc4	0.23948961
48	0x3e1a89f3	0.15091686
49	0x3da5d6af	0.08097588
50	0xbd204508	-0.039128333
51	0xbdef51e8	-0.11685544
52	0xbbb4d6ec	-0.0055187847
53	0x3e0ef5c7	0.13960944
54	0xbd65e0f3	-0.05612273
55	0xbc16ed8b	-0.009211908
56	0xbce464ad	-0.027880037
57	0xbd8b199b	-0.06791993
58	0xbe3c5032	-0.18389967
59	0xbd69cf51	-0.057082478
60	0x3c3b09ca	0.011415908
61	0x3e5d1797	0.2159103
62	0x3ddd677b	0.10810753
63	0x3de7320e	0.11288844
64	0x3d0ca247	0.034334447
65	0x3dfc6e56	0.123257324
66	0x3d4c9698	0.049948305
67	0x3d0a2e80	0.033735752
68	0x3d017e6a	0.0316147
69	0x3e61066b	0.21975105
70	0x3d4f2e9e	0.050581567
71	0xbceab688	-0.02865149
72	0x3e0541c7	0.13013373
73	0x3d535be8	0.05160132
74	0xbd05a650	-0.03262931
75	0xbe0ea8a5	-0.1393152
76	0xbd0000ce	-0.031250767
77	0x3d8d0d18	0.06887263
78	0xbdd10ab6	-0.10207121
79	0x3e15b749	0.14620699
80	0xbb8477b9	-0.0040425924
81	0x3d9d66b6	0.07685606
82	0x3d034070	0.032043874
83	0xbca1ef50	-0.019767433
84	0x3d024e3f	0.031812903
85	0x3cd078bc	0.025448196
86	0xbd1b978f	-0.037986334
87	0x3db5f6d8	0.08884972
88	0x3dea89d7	0.11452072
89	0xbd81f40c	-0.06345376
90	0xbcad62ad	-0.021165216
91	0xbd079602	-0.033102043
92	0xbdbeb81d	-0.093124606
93	0x3e448bf3	0.19194011
94	0xbda7cc38	-0.081932485
95	0xbd10e3c2	-0.035373457
96	0x3e26f563	0.16304545
97	0x3cac3341	0.021020534
98	0x3be2e57a	0.0069243284
99	0x3dccd55a	0.10001631
100	0xbb2a7ed5	-0.002601554
101	0x3e10fe6d	0.14159556
102	0xbdb62392	-0.08893503
103	0xbdc1bf02	-0.0946026
104	0xbda4322e	-0.080173835
105	0x3ccb45c0	0.024813533
106	0x3a8e1d5e	0.0010842492
107	0xbe183380	-0.14863396
108	0x3d5aa955	0.053384144
109	0x3da0fd5e	0.07860826
110	0xbe562858	-0.20913827
111	0xbd1da31c	-0.03848563
112	0x3db9e2c3	0.090764545
113	0x3d166433	0.03671665
114	0xbe043841	-0.12912084
115	0x3dcd6f47	0.1003099
116	0x3d3aac75	0.045574624
117	0x3e693731	0.2277496
118	0xbd8c9a6c	-0.06865391
119	0x3d146f29	0.036238823
120	0x3b6622ca	0.003511595
121	0xbdaf93ad	-0.08573089
122	0x3e0edabc	0.13950628
123	0x3d2c5f65	0.042083163
124	0x3d4ccec2	0.050001867
125	0xbd263986	-0.040582202
126	0xb985f72b	-0.0002555189
127	0xbcde79fe	-0.02715778
128	0x3c1f8cfa	0.009738201
129	0xbcd7ea05	-0.026356706
130	0x3d45f599	0.048329923
131	0x3cd3d194	0.02585677
132	0x3c142340	0.009041607
133	0xbe0b01a3	-0.13574843
134	0xbd915a97	-0.07097357
135	0xbdadf01d	-0.084930636
136	0x3e142673	0.14467792
137	0x3db45e5e	0.088070616
138	0x3d346f4f	0.044051465
139	0xbc97ca39	-0.018529044
140	0xbe0cfe2d	-0.13768835
141	0xbe0aa8cb	-0.13540952
142	0x3e02e108	0.12781155
143	0x3dbd3832	0.09239234
144	0x3ccbde97	0.024886413
145	0xbc915fae	-0.017745819
146	0xbca8089c	-0.020511918
147	0xbd412077	-0.0471501
148	0x3df7a0c7	0.12091213
149	0x3d567a7a	0.052362897
150	0x3cbed846	0.023296487
151	0x3e2308a1	0.1592126
152	0x3d214b1c	0.03937827
153	0x3dc3e0a9	0.09564335
154	0x3e37184e	0.17880365
155	0x3e88c8c9	0.26715687
156	0xbd267cfe	-0.040646546
157	0x3da361ed	0.07977662
158	0x3e19fb72	0.15037325
159	0xbd5ca963	-0.053872477
160	0xbdcbbb13	-0.09947791
161	0x3cfbcad2	0.03073636
162	0xbd750b2b	-0.059825104
163	0xbdf5e7d9	-0.12007112
164	0xbdaeb439	-0.085304685
165	0x3d9391cd	0.07205544
166	0x3d6d2540	0.057896852
167	0xbdd40e74	-0.10354319
168	0x3e036c89	0.12834372
169	0x3e8d7763	0.27630147
170	0x3cdeb552	0.02718607
171	0x3ddbca29	0.10731918
172	0xbd1aad1d	-0.03776275
173	0xbd55b38f	-0.052173194
174	0x3db365e3	0.08759668
175	0xbc3d5af4	-0.011557329
176	0x3e2dd38d	0.16975231
177	0xbd54665f	-0.05185544
178	0x3dd86a5f	0.10567164
179	0x3da0969e	0.07841228
180	0xbc596bc5	-0.013270323
181	0x3dab39b6	0.08360617
182	0x3e15404b	0.14575307
183	0x3e1d9804	0.1539002
184	0x3dab060b	0.08350762
185	0x3d65bd07	0.056088474
186	0x3d808f03	0.06277277
187	0x3d8400df	0.06445479
188	0xbe265c69	-0.16246189
189	0x3dfba897	0.12288015
190	0x3e573836	0.21017537
191	0xbd497033	-0.049179267
192	0x3ce51413	0.027963674
193	0xbc6ca9e8	-0.014444806
194	0x3e18547f	0.14875983
195	0xbdf6260e	-0.12018977
196	0x3d9a219f	0.07525944
197	0xbbe9c515	-0.0071340897
198	0x3dd0e50d	0.10199938
199	0xbd0c38da	-0.034233905
200	0x3db4e253	0.088322304
201	0x3cd912b6	0.02649818
202	0x3c08ad88	0.008342154
203	0xbd944e53	-0.07241502
204	0xbda7ebe8	-0.081992924
205	0x3cd5baff	0.026090143
206	0xbcaa1965	-0.020764062
207	0xbd9a8650	-0.07545149
208	0xbd9443e8	-0.072395146
209	0x3d03ebc4	0.032207265
210	0x3d8f5d28	0.0700019
211	0x3db133d0	0.086524606
212	0xbcf5b5f0	-0.029993981
213	0xbd9ef30d	-0.07761202
214	0x3d12c1fd	0.035829533
215	0x3d2af0a4	0.0417334
216	0x3d86d77e	0.065840706
217	0x3cd495e8	0.025950387
218	0xbe02d6ea	-0.12777296
219	0xbd0f3ade	-0.03496825
220	0xbd75327b	-0.059862595
221	0xbe108697	-0.14113842
222	0xbdeeecc6	-0.11666255
223	0x3deea111	0.11651815
224	0x3ccc427f	0.024934052
225	0xbdb95530	-0.09049451
226	0xbd43623f	-0.047701117
227	0xbdf0177f	-0.117232315
228	0xbdc5cb4b	-0.09657916
229	0x3dbd96a4	0.09257248
230	0x3d08a8e2	0.033364184
231	0xbd1d32c2	-0.038378485
232	0xbe1fdae8	-0.1561085
233	0x3c6056ae	0.013692541
234	0xbc5cebfd	-0.013483998
235	0xbd1f9718	-0.038962454
236	0x3d973658	0.07383412
237	0x3d3139b9	0.04326794
238	0xbc93177e	-0.017955538
239	0x3dbe84ad	0.0930265
240	0x3d491007	0.04908755
241	0xbd8e0701	-0.0693493
242	0xbdc25a6c	-0.09489903
243	0xbd97efe8	-0.07418805
244	0xbdb8ef1d	-0.09029982
245	0xbd109e5c	-0.035307273
246	0x3da083f6	0.078376696
247	0xbdafb36e	-0.08579145
248	0xbd81a225	-0.06329755
249	0x3de63fa3	0.112426065
250	0xbd282553	-0.04105122
251	0xbe34a6b6	-0.1764172
252	0xbda1538c	-0.078772634
253	0xbd1c1214	-0.03810318
254	0xbde2423e	-0.11047791
255	0xbe10100e	-0.14068624

hidden2_Y1.bias f4 [200]
0	0x3db9095d	0.09034989
1	0xbd9e03bc	-0.07715556
2	0x3d82984d	0.06376705
3	0x3d51e272	0.051241346
4	0xbd9e1400	-0.077186584
5	0xbcba2e3b	-0.022727123
6	0xbdac74e3	-0.08420732
7	0xbdc300d0	-0.09521639
8	0xbd456536	-0.048192225
9	0xbd98de74	-0.074643046
10	0xbd32cd6d	-0.04365294
11	0xbdf2e4ab	-0.11860021
12	0xbd44faa7	-0.048090603
13	0xbdb79bd9	-0.089652725
14	0xbdf8e1d3	-0.121524476
15	0xbd76f9c5	-0.060296793
16	0x3e1eba97	0.15500866
17	0x3e816c2d	0.25277844
18	0x3e6cdd61	0.23131324
19	0xbd9fd116	-0.07803552
20	0xbd004edd	-0.03132521
21	0x3dca511e	0.09878753
22	0x3dcb9cd2	0.099420205
23	0xbd6e78c6	-0.058220647
24	0xbda1cb71	-0.079001315
25	0xbe0ac230	-0.13550639
26	0x3e561e27	0.2090994
27	0x3baef00e	0.0053386753
28	0x3df3c1ad	0.11902175
29	0x3ca91ce4	0.020643659
30	0x3c87289f	0.016498862
31	0x3e65f6fb	0.22457497
32	0xbe0292a4	-0.12751251
33	0xbcd79f97	-0.026321216
34	0xbd5ecf7d	-0.054397095
35	0xbd0ec202	-0.03485299
36	0x3c8e4440	0.017366529
37	0x3d88dce8	0.066827595
38	0x3d3a9dbc	0.045560583
39	0xbd2ad6dc	-0.041708812
40	0xbc168154	-0.009186108
41	0x3b91379f	0.0044316794
42	0x3e483249	0.19550432
43	0x3dc8d132	0.09805526
44	0xbd447893	-0.04796655
45	0x3e4f9e16	0.20275149
46	0xbdf5202d	-0.11969028
47	0xbd0daa7b	-0.03458641
48	0xbcec3dba	-0.028838027
49	0xbd442114	-0.04788311
50	0x3e4c7872	0.19967821
51	0x3e4475fd	0.19185634
52	0xbcc15100	-0.023598194
53	0x3bd6ed0d	0.0065590204
54	0xbd783b3d	-0.06060337
55	0xbdd04b4a	-0.1017061
56	0x3c0948e8	0.008379199
57	0x3d74d2b8	0.05977127
58	0x3c5b8113	0.013397473
59	0xbd12e851	-0.035866085
60	0xbd9da35a	-0.076971725
61	0x3d85d465	0.06534652
62	0xbccb8fb5	-0.024848798
63	0xbd8aa78a	-0.06770237
64	0xbdaac9c2	-0.083392635
65	0xbd865f34	-0.06561127
66	0xbd247ca8	-0.040157944
67	0x3e024d9f	0.12724923
68	0x3e35814d	0.17725106
69	0x3e43328f	0.19062255
70	0xbde35e94	-0.11102024
71	0xbd575e08	-0.05257991
72	0x3dc8e4ad	0.098092414
73	0xbe099f6b	-0.1343972
74	0x3e54eae8	0.20792735
75	0xbd8dfd36	-0.06933062
76	0x3e88a6c2	0.26689726
77	0x3bdba729	0.0067032767
78	0xbd032af8	-0.0320234
79	0xbd7b7e58	-0.061399788
80	0xbccfce30	-0.025366873
81	0xbc0b3383	-0.008496168
82	0x3d0a371b	0.03374396
83	0x3d858db9	0.06521172
84	0xbdbda8c6	-0.092607066
85	0x3db1e307	0.0868588
86	0xbd85b915	-0.06529442
87	0x3d8617a0	0.06547475
88	0x3e6a5341	0.22883321
89	0x3e217745	0.15768154
90	0x3e685e4e	0.22692224
91	0x3e80e168	0.2517197
92	0xbd756a7d	-0.05991601
93	0xbdc6ac32	-0.097008124
94	0xbb578608	-0.0032886285
95	0x3e7fcf00	0.24981308
96	0x3d5b3d73	0.0535254
97	0x3d4d9c07	0.050197627
98	0x3d830ced	0.0639895
99	0x3e463d3b	0.19359295
100	0xbd952371	-0.072821505
101	0xbd346719	-0.044043634
102	0xbcf2072f	-0.029544441
103	0x3e602836	0.2189034
104	0x3e82b93b	0.25531945
105	0xbc4e62a2	-0.012596758
106	0x3d7a8fb3	0.0611722
107	0xbd101851	-0.03517944
108	0xbd3a8c47	-0.045543935
109	0xbc87c178	-0.016571745
110	0xbd846fb2	-0.06466617
111	0x3e5067e0	0.20352125
112	0x3ea61bb0	0.32443
113	0xbc4aa2f8	-0.012367956
114	0x3e4f7e0f	0.20262931
115	0x3e40ccff	0.188282
116	0xbd961a85	-0.07329277
117	0x3d462b25	0.04838099
118	0xbdb1ade3	-0.086757444
119	0x3bfa7bb1	0.0076441397
120	0xbd0c4e82	-0.03425456
121	0xbd62c3e1	-0.055362586
122	0xbc5b1802	-0.013372423
123	0xbce6127d	-0.028084988
124	0xbdf7cb04	-0.12099269
125	0xbcafd8af	-0.021465627
126	0xbd1decec	-0.038556024
127	0xbc8343c8	-0.016023532
128	0x3cac7df9	0.021056162
129	0xbe03fbda	-0.12889042
130	0xbde831fc	-0.11337659
131	0x3df49de9	0.119441815
132	0x3d758b36	0.059947215
133	0xbd0cc768	-0.034369856
134	0xbddb22e5	-0.10700015
135	0x3d694fb7	0.056960788
136	0x3d6fa2d6	0.0585049
137	0x3d220b89	0.039561782
138	0x3dc89709	0.09794433
139	0xbdb0c85d	-0.08631966
140	0x3e81d6f8	0.2535932
141	0xbd79e9e7	-0.061014082
142	0xbd2a65a6	-0.041600846
143	0x3e701a27	0.23447476
144	0xbd3f28af	-0.04666966
145	0xbc37a307	-0.011208302
146	0xbd8c3403	-0.06845858
147	0xbdbf2423	-0.093330644
148	0xbd9f1759	-0.07768125
149	0xbd753cf3	-0.05987258
150	0xbd7266ec	-0.059180185
151	0x3e368cb2	0.17827109
152	0xbc8b121a	-0.016976405
153	0x3e1069a4	0.14102799
154	0xbd50c6b6	-0.050970756
155	0xbbfecf5f	-0.0077761854
156	0x3e2e1135	0.16998751
157	0x3e6707a5	0.2256151
158	0x3da91e9c	0.082577914
159	0xbd2b6856	-0.04184755
160	0xbd99eb94	-0.07515636
161	0xbd8edddd	-0.06975911
162	0x3d301491	0.042988364
163	0xbe0bf894	-0.13669044
164	0x3e4bca76	0.19901451
165	0x3d830e4b	0.063992105
166	0xbd97561b	-0.0738947
167	0xbdcd25af	-0.10016953
168	0x3e6971cb	0.22797315
169	0x3e7ba04a	0.24572864
170	0xbd148e87	-0.036268737
171	0xbc4f6b58	-0.01265987
172	0xbd948904	-0.07252696
173	0xbd92206c	-0.0713509
174	0xbdd7ca40	-0.10536623
175	0x3e031c8a	0.12803856
176	0xbdee85f3	-0.116466425
177	0x3c301da3	0.010749253
178	0xbd392114	-0.04519756
179	0xbd0d4262	-0.034487136
180	0xbd9f235f	-0.077704184
181	0xbd839e0f	-0.06426632
182	0xbc9a43b9	-0.01883112
183	0x3d1789a0	0.036996484
184	0xbd9e9e8a	-0.07745083
185	0x3d864c8a	0.065575674
186	0xbc7e8ade	-0.015536038
187	0xbde7c221	-0.11316324
188	0xbdbf7eff	-0.093503945
189	0xbd568c03	-0.05237962
190	0xbdb1d3e3	-0.08682992
191	0x3e294b44	0.16532618
192	0xbc0d7c0e	-0.008635534
193	0xbd590cdc	-0.05299078
194	0xbd23bcf8	-0.039975137
195	0xbd88cbca	-0.06679495
196	0xbdaed55d	-0.085367896
197	0xbd1efac9	-0.038813386
198	0xbd7426d9	-0.05960736
199	0xbd5fd017	-0.05464181
