DCNModel/DCN_PD_NN_Models/NN_DCN_model_iter_id_28_epoch_100_lr_0.001.pth (torch_old, 828778 bytes, 14 tensors)

shared1.weight f4 [200, 25]
0	0xbd94ce7c	-0.07265946
1	0x3d0169e1	0.031595115
2	0x3c79ebe7	0.015253997
3	0xbc3f617f	-0.01168096
4	0x3d5dfa3d	0.054193724
5	0xbd9661aa	-0.07342847
6	0xbda04b0e	-0.078268155
7	0xbca33e1d	-0.019927079
8	0xbe138b9a	-0.14408723
9	0x3dca077e	0.0986471
10	0xbdbda390	-0.09259713
11	0xbda54794	-0.08070293
12	0xbe323d8f	-0.17406295
13	0xbdbf707f	-0.09347629
14	0x3d1ec054	0.038757637
15	0xbe3dd8d4	-0.18539745
16	0xbe1ecc3e	-0.155076
17	0xbe25a39b	-0.16175692
18	0xbe0af35a	-0.13569394
19	0x3dd4612b	0.10370096
20	0xbe102e50	-0.14080167
21	0xbe23c964	-0.15994793
22	0x3cc1ac68	0.02364178
23	0x3da2ad9c	0.079432696
24	0xbc8fd28d	-0.017556453
25	0x3e12ac9a	0.14323655
26	0xbd3b42f5	-0.045718152
27	0xbd9fb151	-0.07797492
28	0xbdadaffe	-0.084808335
29	0x3e32df06	0.17467889
30	0x3df77b49	0.12084062
31	0xbdfbda10	-0.122974515
32	0xbc209366	-0.0098007675
33	0xbe86296a	-0.2620347
34	0x3deaf5ca	0.11472662
35	0x3e6363e9	0.22206081
36	0xbe5ad6b9	-0.21370973
37	0xbc91ff82	-0.017822031
38	0xbe5423db	-0.20716803
39	0xbe27292d	-0.16324301
40	0xbe34d6fd	-0.17660137
41	0x3dcd90a1	0.100373514
42	0xbd6287da	-0.05530534
43	0xbdef92c9	-0.11697919
44	0xbd9c29bc	-0.07625148
45	0xbe188e6c	-0.1489808
46	0x3e2d5ec7	0.16930686
47	0xbd592be4	-0.053020373
48	0xbce9182e	-0.028453913
49	0xbdcd6606	-0.10029225
50	0xbe1fa9f1	-0.15592171
51	0x3de977e7	0.11399823
52	0xbe160fb9	-0.14654435
53	0x3df21939	0.11821217
54	0x3de7ef7e	0.113249764
55	0xbdfca11b	-0.12335416
56	0xbadea1d3	-0.0016985483
57	0xbddfc7c5	-0.10926775
58	0xbe11ef61	-0.14251472
59	0xbcbcb94d	-0.023037577
60	0xbdcef02e	-0.101044044
61	0x3dddd1e0	0.10831046
62	0x3d5a896d	0.053353716
63	0xbe0c4fa2	-0.13702253
64	0x3e817514	0.25284636
65	0xbec828d3	-0.39093646
66	0xbc0ef4fe	-0.008725403
67	0xbd3dd79b	-0.046348196
68	0xbe934828	-0.28765988
69	0xbca8430b	-0.020539781
70	0xbec4bf34	-0.38427126
71	0x3e1e96fd	0.15487285
72	0x3e325a3d	0.17417236
73	0xbdd73b57	-0.10509365
74	0x3db42ba7	0.087973885
75	0xbc0e7840	-0.008695662
76	0xbd3ab880	-0.04558611
77	0x3d84768d	0.06467924
78	0xbd04c711	-0.032416407
79	0xbda1e916	-0.07905786
80	0xbd179a43	-0.03701235
81	0x3d8c2029	0.068420716
82	0xbe254947	-0.16141234
83	0xbd758e5e	-0.059950225
84	0xbe2ce82c	-0.16885442
85	0xbe3f4121	-0.18677188
86	0xbdd2a626	-0.102855965
87	0x3d38057b	0.0449271
88	0xbe2f2e12	-0.17107418
89	0xbe188f39	-0.14898385
90	0xbe3c5e33	-0.18395309
91	0xbd9a8338	-0.07544559
92	0xbe7aa36e	-0.24476406
93	0xbd438343	-0.047732603
94	0xbe058941	-0.1304064
95	0x3d9a7513	0.075418614
96	0x3da91c59	0.0825736
97	0xbdbd3ed0	-0.09240496
98	0x3ce66fc9	0.028129475
99	0x3e2f69e5	0.1713024
100	0xbd8071f9	-0.062717386
101	0xbc7b3315	-0.015332003
102	0xbe207862	-0.15670922
103	0x3cab51bc	0.020912997
104	0xbc71ae8a	-0.014751086
105	0x3e11c251	0.14234282
106	0xbe404f58	-0.18780267
107	0xbe1673b5	-0.14692576
108	0xbdc3ecd3	-0.09566655
109	0xbe20efb0	-0.15716434
110	0xbc0e7c7c	-0.008696672
111	0xbd64ae41	-0.055830244
112	0xbd897dc4	-0.06713441
113	0xbe82f15e	-0.25574774
114	0xbdb49f0d	-0.08819399
115	0xbddf96e9	-0.10917456
116	0xbe841ae8	-0.25801778
117	0xbe21a07c	-0.15783876
118	0x3e504f85	0.20342834
119	0xbe424cb2	-0.1897457
120	0x3d7c1a59	0.061548565
121	0x3e410472	0.18849352
122	0xbd33b7c0	-0.04387641
123	0x3c3ead2a	0.011637965
124	0x3b118e5e	0.0022210102
125	0xbd78caa8	-0.060740143
126	0x3d48e749	0.049048696
127	0x3e207405	0.15669258
128	0x3d1e27f3	0.038612317
129	0xbe0a6134	-0.13513643
130	0x3d1957de	0.037437312
131	0xbce9e3e4	-0.02855105
132	0xbc8dc18c	-0.017304204
133	0xbe8bffb8	-0.27343535
134	0xbcb14b9e	-0.021642502
135	0xbdeb1258	-0.11478108
136	0xbd97480b	-0.07386788
137	0xbe636e70	-0.22210097
138	0x3d157642	0.036489733
139	0x3d8a6fbb	0.06759592
140	0xbcd4a731	-0.02595863
141	0xbe101301	-0.1406975
142	0xbe1fe255	-0.15613683
143	0xbe67f9f9	-0.22653951
144	0xbe90c653	-0.2827631
145	0xbe20a011	-0.1568606
146	0xbe7fc874	-0.2497881
147	0xbd66f5a2	-0.056386597
148	0x3eb25038	0.34826827
149	0x3b89b375	0.004202301
150	0xbd1190e4	-0.03553857
151	0xbd883e37	-0.066524915
152	0xbccfb7ad	-0.025356138
153	0x3ddaeff8	0.10690302
154	0x3beee938	0.0072909854
155	0x3d1d5cfc	0.038418755
156	0xbece7e05	-0.4033052
157	0xbe87c1ae	-0.26514953
158	0xbc183b56	-0.009291491
159	0xbe165f57	-0.14684807
160	0x3e26b03f	0.1627817
161	0xbebbd3a6	-0.36684912
162	0xbeb0a3de	-0.3450002
163	0xbe6c5098	-0.23077619
164	0xbe65d994	-0.2244628
165	0x3d41277f	0.047156807
166	0xbd9c3d51	-0.07628883
167	0x3d923236	0.07138483
168	0x3ea21a8f	0.31660888
169	0x3e9d1635	0.30681005
170	0x3d0a31d1	0.033738915
171	0xbeac71cc	-0.3368057
172	0xbea4c1c4	-0.3217908
173	0x3e34038d	0.1757948
174	0xbdb29443	-0.08719685
175	0x3e4359a4	0.19077164
176	0x3e12dd14	0.14342147
177	0x3e4ae819	0.198151
178	0x3d8a52b1	0.067540534
179	0x3e733973	0.23752384
180	0xbe42cef9	-0.19024266
181	0xbe5ef09c	-0.21771473
182	0xbe62b621	-0.22139789
183	0xbeabcbe2	-0.33553988
184	0xbd635817	-0.05550393
185	0x3ddaa765	0.10676459
186	0xbe101471	-0.14070298
187	0x3dbe2e58	0.09286183
188	0xbe23837e	-0.15968129
189	0xbc19717d	-0.009365437
190	0x3d866ed7	0.0656411
191	0xbe9051c2	-0.28187376
192	0xbc2a924f	-0.010410859
193	0xbe8a187e	-0.2697181
194	0xbe55bb0d	-0.20872135
195	0xbe591c97	-0.21202312
196	0xbe3f37a3	-0.18673567
197	0x3d17f949	0.03710297
198	0x3d97c042	0.07409717
199	0xbe9812b3	-0.29701766
200	0xbc944cfb	-0.018103113
201	0xbdee2fc3	-0.116302036
202	0x3a6c5bf0	0.00090163853
203	0xbc1a775e	-0.009427873
204	0x3d02d650	0.031942666
205	0xbd7fdff1	-0.062469427
206	0xbe065645	-0.13118847
207	0x3d90edcf	0.070766084
208	0xbe58b3ac	-0.2116229
209	0x3c82b1b1	0.01595387
210	0xbe05b34f	-0.13056682
211	0xbc0463b3	-0.008080411
212	0xbe05e7a9	-0.13076653
213	0xbd1c5b3b	-0.03817294
214	0xbe59e048	-0.21276963
215	0xbd8adb1e	-0.067800745
216	0xbe02f380	-0.127882
217	0xbe4be7c9	-0.19912638
218	0xbc0845fd	-0.008317468
219	0x3e127674	0.14302999
220	0x3e52c613	0.20583372
221	0xbe1f866a	-0.15578619
222	0xbe3eae1a	-0.18621102
223	0xbcb33464	-0.021875568
224	0xbe19696b	-0.1498162
225	0x3d4f46df	0.050604697
226	0xbd208473	-0.039188813
227	0xbb8d27a2	-0.004307703
228	0x3cf84aac	0.030309044
229	0x3cdc71c4	0.026909716
230	0xbd0c17d6	-0.03420242
231	0x3d101a20	0.035181165
232	0xbda1d86f	-0.079026096
233	0x3c9cddfe	0.019148823
234	0xbb043312	-0.0020172042
235	0xbdf2f659	-0.11863393
236	0x3c049cfe	0.0080940705
237	0x3cbb2670	0.022845477
238	0xbe56834c	-0.20948523
239	0xbd0f5c1d	-0.034999955
240	0xbda2c66a	-0.07948001
241	0x3d3b29d1	0.045694176
242	0xbd28775b	-0.04112945
243	0x3d738ee6	0.05946245
244	0xbdd8999c	-0.10576174
245	0xbd0fb974	-0.03508897
246	0xbd91e10b	-0.07123002
247	0x3e0c3c93	0.13694982
248	0xbda5655e	-0.08075975
249	0xbcc4d57f	-0.024027584
250	0xbb01e7bb	-0.001982196
251	0xbe2c6ac8	-0.16837609
252	0xbcb634fa	-0.022242058
253	0x3df440b4	0.11926404
254	0x3e06086e	0.13089153
255	0x3e09f859	0.13473643

shared1.bias f4 [200]
0	0xbd7fc7d6	-0.062446438
1	0xbd9bd6bf	-0.07609319
2	0xbded6688	-0.11591822
3	0xbdbe7506	-0.09299664
4	0xbe430cd5	-0.19047864
5	0xbddcebb2	-0.10787143
6	0xbd8340cc	-0.064088434
7	0xbcf11c45	-0.029432425
8	0xbe117517	-0.14204822
9	0xbd7c1af2	-0.061549135
10	0xbe090015	-0.13378938
11	0xbdea439a	-0.11438675
12	0xbd3af869	-0.04564706
13	0xbe16f783	-0.14742856
14	0xbd41599d	-0.047204603
15	0xbd886e58	-0.066616714
16	0xbe29fdb0	-0.1660068
17	0xbd5ccd4c	-0.053906724
18	0xbe2b74ea	-0.16743818
19	0xbd60a30a	-0.054842986
20	0xbe071c93	-0.13194494
21	0xbddc92fd	-0.10770223
22	0xbe2e4011	-0.17016627
23	0xbe0242ca	-0.1272079
24	0xbe19a18e	-0.15003034
25	0xbdc733a0	-0.097266436
26	0xbe120cc8	-0.14262688
27	0xbdd59770	-0.10429275
28	0xbd6b39b6	-0.057428084
29	0xbdd9acc5	-0.10628656
30	0xbe222c42	-0.15837196
31	0xbe2aed3c	-0.1669206
32	0xbe233009	-0.15936293
33	0xbe15c4cf	-0.14625858
34	0xbdde18a6	-0.10844545
35	0xbe26c203	-0.16284947
36	0xbe0dbaa4	-0.13840729
37	0xbd839866	-0.06425552
38	0xbe1fde32	-0.15612105
39	0xbde5d1af	-0.112216346
40	0xbdc3d2dc	-0.095617026
41	0xbdbe1627	-0.09281569
42	0xbe00a27b	-0.12561981
43	0xbe001044	-0.12506205
44	0xbe732dbf	-0.2374792
45	0xbd316b58	-0.04331526
46	0xbe15cc3e	-0.14628693
47	0xbde8b8d0	-0.11363375
48	0xbe0ebfb2	-0.13940313
49	0xbe078203	-0.1323319
50	0xbdf1e639	-0.118114896
51	0xbd8d3aed	-0.06896005
52	0xbdd7de16	-0.105404064
53	0xbdc18a67	-0.09450226
54	0xbd897ded	-0.067134716
55	0xbd81d02d	-0.063385345
56	0xbd87988d	-0.066208936
57	0xbe0519b0	-0.1299808
58	0xbe01e5e7	-0.12685357
59	0xbe138858	-0.1440748
60	0xbda30ac2	-0.07961036
61	0xbe2449ac	-0.16043729
62	0xbd4259be	-0.047448866
63	0xbdf67a18	-0.12035006
64	0xbd11df6d	-0.035613466
65	0xbdd49221	-0.103794344
66	0xbdd396e8	-0.103315175
67	0xbe5846b0	-0.21120715
68	0xbe02c7b4	-0.12771493
69	0xbe0c6952	-0.13712052
70	0xbe0cd07f	-0.1375141
71	0xbe5d5ebd	-0.21618171
72	0xbe1e7811	-0.15475489
73	0xbda35b8b	-0.07976445
74	0xbdbe3680	-0.09287739
75	0xbdb572f0	-0.08859813
76	0xbe015e16	-0.12633547
77	0xbdf78bdd	-0.12087224
78	0xbdd90af7	-0.105977945
79	0xbda74e9f	-0.08169293
80	0xbe200f9f	-0.15630959
81	0xbe04d3e7	-0.1297146
82	0xbe169184	-0.14703947
83	0xbd36592a	-0.044518627
84	0xbde8b488	-0.113625586
85	0xbe3e1ff6	-0.1856688
86	0xbe26b94f	-0.16281627
87	0xbddb039b	-0.10694047
88	0xbdf32498	-0.11872214
89	0xbe357c77	-0.17723261
90	0xbe0d111c	-0.13776058
91	0xbe0fd852	-0.14047363
92	0xbe1cdb92	-0.15318134
93	0xbe05adb9	-0.13054551
94	0xbd88017b	-0.066409074
95	0xbe1a50cf	-0.15069889
96	0xbb7dc870	-0.0038724206
97	0xbd60cd7f	-0.054883476
98	0xbe10ed8e	-0.1415312
99	0xbd6fbc0a	-0.058528937
100	0xbd8eb890	-0.06968796
101	0xbd6c6ad5	-0.05771907
102	0xbe00b82a	-0.12570253
103	0xbe27749e	-0.1635308
104	0xbe0cf3eb	-0.13764922
105	0xbdf1784b	-0.11790522
106	0xbd9dd5af	-0.077067725
107	0xbdf34e5a	-0.11880179
108	0xbde84c92	-0.1134273
109	0xbdce78a2	-0.10081603
110	0xbbc7ed8d	-0.0061013163
111	0xbcd22064	-0.02565021
112	0xbde8b979	-0.11363501
113	0xbde4e701	-0.11176873
114	0xbdc0b4ce	-0.09409486
115	0xbe043f83	-0.12914853
116	0xbe1bd4c1	-0.15217878
117	0xbde3af05	-0.11117367
118	0xbd0e41fe	-0.034730904
119	0xbdf6ccdc	-0.120507926
120	0xbded51ae	-0.11587845
121	0xbe04fc86	-0.12986955
122	0xbd51c21d	-0.05121051
123	0xbe2c3878	-0.16818416
124	0xbd9c8be1	-0.07643867
125	0xbe2bf79b	-0.16793673
126	0xbdf619c6	-0.12016635
127	0xbe38f0c7	-0.180606
128	0xbd805f90	-0.06268227
129	0xbe427b8d	-0.18992443
130	0xbdbd3f18	-0.0924055
131	0xbe23f5e1	-0.16011764
132	0xbe0a9c27	-0.1353613
133	0xbe0bcd03	-0.13652425
134	0xbdee1f5b	-0.11627074
135	0xbe2b48af	-0.16726945
136	0xbe2bc984	-0.16776091
137	0xbe05f883	-0.13083081
138	0xbdeeba85	-0.116566695
139	0xbe15ad60	-0.14616919
140	0xbd966ed5	-0.07345358
141	0xbd705d6e	-0.05868285
142	0xbde47066	-0.11154251
143	0xbe048ab8	-0.12943542
144	0xbe2c169b	-0.16805498
145	0xbd62683f	-0.055275198
146	0xbc9321ad	-0.017960394
147	0xbe0e4b07	-0.13895808
148	0xbdbe284d	-0.092850305
149	0xbd61eb5f	-0.055156108
150	0xbde4a744	-0.11164716
151	0xbdef612a	-0.116884544
152	0xbdaa692e	-0.08320843
153	0xbdb5303c	-0.088470906
154	0xbd27294e	-0.040810876
155	0xbde6266d	-0.11237798
156	0xbdc0efda	-0.09420748
157	0xbe079ee5	-0.13244207
158	0xbe1a8851	-0.15091063
159	0xbe3161de	-0.1732249
160	0xbd86a54c	-0.065744966
161	0xbe23dac5	-0.16001423
162	0xbdd87859	-0.105698295
163	0xbe0a9be6	-0.13536033
164	0xbe04adf6	-0.12956986
165	0xbdd552ae	-0.104161605
166	0xbdf6db28	-0.120535195
167	0xbe066fff	-0.1312866
168	0xbdb5d025	-0.08877591
169	0xbe3e706f	-0.18597578
170	0xbdc6d84c	-0.09709224
171	0xbe51a799	-0.2047409
172	0xbdf62474	-0.12018672
173	0xbe3de1b0	-0.18543124
174	0xbe060d67	-0.1309105
175	0xbdebb3f2	-0.11508931
176	0xbd9c6b05	-0.076376
177	0xbd991f02	-0.074766174
178	0xbe1901ee	-0.14942142
179	0xbddfff7c	-0.10937402
180	0xbddc902e	-0.107696876
181	0xbdcb9840	-0.09941149
182	0xbe0c4ece	-0.13701937
183	0xbe051fae	-0.13000366
184	0xbdc28a63	-0.094990514
185	0xbdc3909c	-0.095490664
186	0xbe2bb291	-0.16767336
187	0xbda7ef3b	-0.081999265
188	0xbddfc947	-0.109270625
189	0xbe0e13c3	-0.13874726
190	0xbe23e3d6	-0.16004881
191	0xbdea99ca	-0.11455114
192	0xbdfaf190	-0.12253106
193	0xbe02d8d0	-0.1277802
194	0xbe0f769f	-0.14010094
195	0xbdc33185	-0.095309295
196	0xbe19c46a	-0.15016332
197	0xbde431c6	-0.11142306
198	0xbdc2eea9	-0.09518177
199	0xbdca63fc	-0.09882352

shared2.weight f4 [200, 200]
0	0xbd941360	-0.07230258
1	0xbda401f6	-0.080081865
2	0xbe207624	-0.15670067
3	0xbe3a4d9c	-0.18193668
4	0xbd09f6ba	-0.033682562
5	0xbd534d84	-0.051587597
6	0xbd478209	-0.048707996
7	0x3c808f43	0.015693313
8	0xbd30efd0	-0.043197453
9	0xbddbe478	-0.10736936
10	0x3d95691f	0.07295441
11	0xbb28552c	-0.0025685532
12	0x3d901e69	0.0703705
13	0xbe399e30	-0.1812675
14	0x3db4cc6a	0.088280514
15	0x3dbbf14f	0.09176885
16	0xbd8683ba	-0.065680936
17	0x3cc0f8b5	0.023556093
18	0x3d50341c	0.050830945
19	0xbddb744e	-0.10715543
20	0xbdbf0784	-0.09327605
21	0x3d7b90cf	0.061417397
22	0xbda8a373	-0.082343005
23	0x3c758f86	0.014987832
24	0xbd367c1c	-0.044551954
25	0x3df75b68	0.12077981
26	0xbc3b23a9	-0.011422076
27	0x3e6b56b6	0.22982296
28	0x3d94dd83	0.072688125
29	0x3cba129e	0.022713955
30	0x3e099e1f	0.13439225
31	0xbe4d643a	-0.20057765
32	0xbd92a634	-0.07160607
33	0xbdc7f243	-0.09763005
34	0xbdb0d17f	-0.08633708
35	0xbcf77c4e	-0.03021064
36	0x3caae790	0.02086237
37	0x3e2d3642	0.16915229
38	0xbe4b518f	-0.19855331
39	0x3cfd2f5e	0.030906375
40	0xbd75f875	-0.0600514
41	0x3d918d75	0.07107059
42	0xbea65473	-0.32486305
43	0xbcdd797a	-0.027035464
44	0x3e118fa6	0.14214954
45	0xbdc96610	-0.0983392
46	0xbcbbca62	-0.022923652
47	0xbc9eb36f	-0.01937267
48	0x3d969a6e	0.07353674
49	0xbe3cd743	-0.18441491
50	0xbdc77e90	-0.09740937
51	0xbcdb3eb1	-0.026763292
52	0x3c34ba23	0.011030707
53	0x3bdbb45c	0.00670485
54	0xbca201fe	-0.01977634
55	0x3c483acb	0.012221049
56	0x3d1d3996	0.038384996
57	0x3e41e1cf	0.18933795
58	0xbd3d8731	-0.046271507
59	0xbdb460e6	-0.088075444
60	0xbbe19262	-0.0068839053
61	0xbe8a2727	-0.26982996
62	0x3ce5a96f	0.028034894
63	0xbdd62e0a	-0.10458
64	0xbc82fae8	-0.015988782
65	0x3d2bbd34	0.041928485
66	0xbe3c7c4e	-0.18406793
67	0xbe04f0b1	-0.12982441
68	0x3d63d83e	0.055626146
69	0xbe36899c	-0.17825931
70	0xbdb695c4	-0.08915284
71	0x3db804c6	0.089852855
72	0xbc377637	-0.011197618
73	0xbda693ae	-0.081336364
74	0x3ce1515c	0.027504615
75	0x3c662dc5	0.014048998
76	0xbe4e8286	-0.20166978
77	0xbcd68d56	-0.026190441
78	0xbda3eca5	-0.08004121
79	0xbda102d1	-0.07861865
80	0xbd779220	-0.06044209
81	0xbe2aac6b	-0.16667335
82	0xbd126a20	-0.03574574
83	0xbdf14bfa	-0.117820695
84	0x3dff0554	0.12452188
85	0x3d9627da	0.0733182
86	0x3dd89632	0.105755225
87	0x3e1e7e14	0.15477782
88	0xbc94e5a8	-0.018175915
89	0x3dcee0ae	0.10101448
90	0xbdb0d796	-0.0863487
91	0xbb2de2ee	-0.0026532966
92	0xbe303cb1	-0.17210652
93	0x3d4a4538	0.04938242
94	0x3d6d1b26	0.05788722
95	0xbdc7c3ac	-0.09754118
96	0xbd004b30	-0.031321704
97	0x3d3cea38	0.046121806
98	0xbe20194d	-0.15634651
99	0x3e3e8b2e	0.1860778
100	0xbd3b5a47	-0.045740392
101	0x3a540fa3	0.0008089488
102	0xbc8aebf9	-0.016958224
103	0xbcbb5e24	-0.022872038
104	0xbd7d46b3	-0.061835002
105	0xbd804368	-0.06262857
106	0xbd7fbb93	-0.062434744
107	0xbda6c1d1	-0.08142436
108	0xbc3ca68d	-0.011514318
109	0xbdbaaf52	-0.09115471
110	0x3dadbfbd	0.08483837
111	0xbd22103c	-0.039566264
112	0xbcab42f0	-0.020905942
113	0xbb620d39	-0.0034492745
114	0xbdc3a19a	-0.095523074
115	0xbe0e30b9	-0.13885774
116	0xbdbe14c4	-0.092813045
117	0x3e0e77f3	0.13912944
118	0xbdceaf0c	-0.10091981
119	0x3df36c47	0.11885887
120	0xbe3718f2	-0.1788061
121	0x3c5935cf	0.013257458
122	0x3dde3e4e	0.108517274
123	0xbc822d48	-0.015890732
124	0xbd1b1227	-0.03785911
125	0x3d97bd19	0.074091144
126	0xbd0e152d	-0.034688164
127	0xbbe4dc15	-0.0069842436
128	0xbd9cca7f	-0.076558106
129	0xbd220ff5	-0.039566
130	0x3dbf2ea1	0.09335066
131	0x3e21e778	0.15810955
132	0x3db66de5	0.089076795
133	0xbb1dc093	-0.0024071082
134	0x3cab9eaf	0.02094969
135	0xbe80efec	-0.25183046
136	0x3e6cbb2b	0.23118274
137	0xbe3bdfdb	-0.18347113
138	0xbe533f11	-0.20629527
139	0xbd42353f	-0.04741406
140	0xbca309aa	-0.01990207
141	0x3cf404cd	0.029787445
142	0x3c816cc1	0.015798928
143	0xbe073125	-0.13202341
144	0x3e297d45	0.16551693
145	0x3d017fc2	0.03161598
146	0xbcc80869	-0.024418073
147	0xbbcafb84	-0.006194534
148	0x3df610e7	0.120149426
149	0xbc9ffc1c	-0.019529395
150	0x3e073d24	0.13206917
151	0xbe0d767d	-0.13814731
152	0xbc44eec3	-0.012019816
153	0x3ce80811	0.028324159
154	0xbe745d90	-0.23863816
155	0x3c49de97	0.012321136
156	0xbc33b3c8	-0.010968156
157	0xbdc325e2	-0.0952871
158	0x3be46a38	0.00697067
159	0x3dfd068a	0.12354763
160	0x3d87424e	0.066044435
161	0x3c824a9d	0.015904719
162	0x3ec03d9b	0.37547
163	0xbe37f04c	-0.1796276
164	0xbe2ab2dc	-0.16669792
165	0xbe1815b3	-0.14852028
166	0x3ca72eef	0.020408122
167	0x3c46b64d	0.012128425
168	0xbd018486	-0.031620525
169	0x3e15b540	0.14619923
170	0xbdc024af	-0.09381997
171	0xbc94b0c3	-0.018150693
172	0xbd56ccb0	-0.0524413
173	0xbce73db3	-0.028227663
174	0xbd910fc5	-0.07083086
175	0xbd675af9	-0.056483243
176	0xbe0c1cec	-0.13682908
177	0xbd0383a2	-0.032107957
178	0x3e75c65a	0.24001446
179	0xbdaca806	-0.084304854
180	0xbe33cd24	-0.17558724
181	0x3cdb497e	0.026768442
182	0xbdf3c3f9	-0.11902613
183	0x3d9b61d2	0.07587017
184	0xbd98917d	-0.07449625
185	0xbe098e74	-0.13433248
186	0xbe4c25c8	-0.19936287
187	0xbe6f7d39	-0.23387612
188	0xbd41def1	-0.047331754
189	0x3e0ee161	0.13953163
190	0xbdb36a3c	-0.08760497
191	0x3d9d9813	0.076950215
192	0x3e85b247	0.26112577
193	0x3dcce81e	0.1000521
194	0xbe20622d	-0.15662451
195	0x3e1c7fca	0.15283123
196	0x3dbce848	0.09223992
197	0x3d739b0c	0.059474036
198	0x3dc60593	0.09669032
199	0xbc8f5cd1	-0.017500313
200	0xbc9cc260	-0.019135654
201	0xbd1b75c1	-0.037954096
202	0x3d0e81df	0.034791823
203	0x3cc83922	0.024441306
204	0xbd925117	-0.07144373
205	0xbe23674b	-0.15957372
206	0xbdaff268	-0.08591157
207	0x3d57c793	0.052680563
208	0xbd4f8e09	-0.050672565
209	0x3df6d458	0.1205222
210	0xbda87814	-0.08226028
211	0xbd52d105	-0.051468868
212	0x3b304538	0.0026896726
213	0xbdb0f87d	-0.086411454
214	0xbc9cc57d	-0.019137139
215	0xbe12de01	-0.143425
216	0xbd99c127	-0.07507544
217	0x3b894d3e	0.004190116
218	0xbd660cb5	-0.056164462
219	0xbc99fc49	-0.018797057
220	0xbe04c697	-0.12966381
221	0x3e0de2dc	0.13856071
222	0xbc15658e	-0.009118451
223	0xbd8ea84c	-0.06965694
224	0x3d42fa2f	0.047601875
225	0xbe1b8c3d	-0.15190215
226	0x3d6d0ec9	0.05787543
227	0x3dbf203d	0.09332321
228	0x3d434778	0.04767558
229	0xbd73a716	-0.059485517
230	0x3dd4745a	0.10373755
231	0xbdfdb2e0	-0.12387633
232	0x3d667c13	0.05627067
233	0xbd524f71	-0.051345292
234	0x3c03ff00	0.008056402
235	0x3cc120e8	0.023575261
236	0x3c23e065	0.01000223
237	0x3db96dd7	0.090541534
238	0xbe067547	-0.13130675
239	0xbb491150	-0.0030680485
240	0xbdf63ac2	-0.12022926
241	0xbdf76990	-0.12080681
242	0xbe212a9c	-0.1573891
243	0x3bc7e8e7	0.006100762
244	0xbd246191	-0.04013211
245	0x3da14451	0.078743584
246	0xbda44b53	-0.080221795
247	0x3bebf13b	0.007200388
248	0x3d3370c7	0.043808725
249	0x3cffa8e9	0.031208472
250	0x3d0d2d8c	0.034467265
251	0x3de9df88	0.11419588
252	0x3dc9269e	0.09821819
253	0xbdb51ba8	-0.08843166
254	0x3c4273f8	0.011868469
255	0xbd27c4cb	-0.04095916

shared2.bias f4 [200]
0	0xbe6a5cb4	-0.22886926
1	0xbe290785	-0.16506775
2	0xbe115565	-0.14192732
3	0xbe66c28f	-0.22535156
4	0xbe917a6d	-0.28413716
5	0xbad1bfe8	-0.0016002627
6	0x3db5bd69	0.08874018
7	0xbd1af856	-0.037834488
8	0xbe09eea8	-0.13469946
9	0xbba94ef1	-0.0051668813
10	0x3d9d5fa7	0.0768426
11	0xbdd7df16	-0.10540597
12	0xbe2d3cca	-0.1691772
13	0xbe01fca8	-0.12694037
14	0xbd521a17	-0.051294412
15	0xbe6709a0	-0.22562265
16	0xbe3660c0	-0.17810345
17	0xbdb16ef7	-0.08663743
18	0x3e147280	0.14496803
19	0xbe252439	-0.16127099
20	0xbe833612	-0.2562719
21	0xbe4912bd	-0.19636054
22	0xbe28154b	-0.16414373
23	0xbdf44ae9	-0.119283505
24	0xbe7f4376	-0.24928078
25	0xbd4fec3e	-0.050762407
26	0xbe6eefb6	-0.2333363
27	0xbdc48b77	-0.09596913
28	0xbdd5cc3d	-0.10439346
29	0xbe748d45	-0.23882015
30	0xbe817975	-0.25287977
31	0xbe4a622b	-0.1976401
32	0x3d779cfa	0.06045244
33	0xbdf422f7	-0.119207315
34	0xbdca72f4	-0.09885207
35	0xbe5a4633	-0.21315841
36	0xbdecca86	-0.11562066
37	0xbd7036a3	-0.058645856
38	0xbe7af762	-0.24508432
39	0xbe748749	-0.23879732
40	0xbe3f021e	-0.18653151
41	0xbd7de635	-0.06198712
42	0xbdd22ff7	-0.10263055
43	0xbcf0398b	-0.029324314
44	0xbe4bab7f	-0.1988964
45	0x3e39fc8a	0.18162742
46	0xbe5c34b6	-0.21504483
47	0x3c4a727f	0.0123564
48	0xbe78f3f2	-0.24311808
49	0xbe3d8834	-0.18508989
50	0xbb977a4c	-0.004622733
51	0xbe22083c	-0.15823454
52	0xbe49bf14	-0.19701797
53	0xbd24fb30	-0.040278614
54	0x3dc22857	0.094803505
55	0xbe1f7538	-0.15572059
56	0xbe4eee41	-0.20208074
57	0xbe71dfa6	-0.23620471
58	0xbddb5504	-0.10709575
59	0xbe5d811a	-0.2163128
60	0xbdc0ecc2	-0.09420158
61	0xbe303180	-0.17206383
62	0xbe078855	-0.132356
63	0xbe03ce34	-0.12871629
64	0xbc3a53ec	-0.011372548
65	0xbe7bdb28	-0.2459532
66	0xbe7bca61	-0.2458892
67	0xbe5072d6	-0.20356306
68	0xbe3b4f32	-0.1829193
69	0xbe1142c7	-0.1418563
70	0xbe1c5de3	-0.1527019
71	0xbe25bda7	-0.16185628
72	0xbe01cfca	-0.12676921
73	0xbe22abfc	-0.1588592
74	0xbe495a64	-0.19663388
75	0xbe48ec64	-0.19621426
76	0xbe86f61b	-0.2635964
77	0xbd7c1b4f	-0.06154948
78	0xbe3bbadf	-0.18333004
79	0xbc8613a5	-0.01636679
80	0xbdde0533	-0.108408354
81	0xbdf946ac	-0.12171683
82	0xbe23e73d	-0.16006179
83	0xbe96d3f4	-0.29458582
84	0xbe4e4653	-0.20144014
85	0xbe5cd585	-0.21565826
86	0xbdef7022	-0.116913095
87	0xbd0e3fa5	-0.034728665
88	0xbd60e49b	-0.054905515
89	0xbe63b356	-0.2223638
90	0xbe1abd1d	-0.15111203
91	0xbc7a769a	-0.015287066
92	0xbe8d59cf	-0.2760758
93	0xbe844fa0	-0.25842
94	0xbe4fdbd4	-0.20298702
95	0xbd85a979	-0.06526465
96	0xbe64a3bc	-0.22328085
97	0xbdaeed56	-0.08541362
98	0x3ce1ce53	0.027564203
99	0xbe14dc84	-0.14537245
100	0xbe2f73cf	-0.17134021
101	0xbd7df2cf	-0.06199914
102	0x3cf2c0b9	0.029632913
103	0xbdaab058	-0.08334416
104	0xbdabc88b	-0.0838786
105	0xbe3cf23d	-0.18451782
106	0xbda9a1c1	-0.08282805
107	0xbe06f60a	-0.13179794
108	0xbe41012b	-0.18848102
109	0xbe2d5639	-0.16927423
110	0xbe8efbcf	-0.2792649
111	0xbe12465b	-0.14284651
112	0xbbc609cb	-0.006043648
113	0xbce4512b	-0.027870735
114	0xbe2f1fe7	-0.17102014
115	0x3cde2ed0	0.027121931
116	0xbd8f6063	-0.07000806
117	0xbe66f28f	-0.22553466
118	0xbe185dda	-0.14879552
119	0x3d49b24d	0.049242307
120	0x3cf9ba1d	0.030484254
121	0x3dbc243c	0.09186599
122	0xbe8feae8	-0.28108907
123	0xbe30e7ab	-0.17275874
124	0xbe67fb77	-0.2265452
125	0xbe8300d3	-0.25586566
126	0xbe6397e6	-0.22225913
127	0xbd3d21c2	-0.046174772
128	0xbda2dd96	-0.079524204
129	0xbe36a37e	-0.17835805
130	0xbe823747	-0.25432798
131	0xbe55c2fd	-0.20875163
132	0xbe08ee7d	-0.13372226
133	0xbe9835c1	-0.2972851
134	0xbe7570e0	-0.2396884
135	0x3dafb69e	0.08579753
136	0xbe47723b	-0.19477169
137	0xbd806014	-0.062683254
138	0xbe60c96d	-0.21951838
139	0xbe446a62	-0.19181207
140	0xbd0d5b9d	-0.034511197
141	0xbe79a453	-0.24379091
142	0xbd8aee70	-0.067837596
143	0xbe5f3844	-0.21798807
144	0xbdb32238	-0.08746761
145	0xbe2dddfc	-0.16979212
146	0xbe29c628	-0.16579497
147	0xbe0b77a1	-0.13619854
148	0x3cec7da1	0.028868498
149	0xbe81be79	-0.25340632
150	0xbdf392cd	-0.118932344
151	0xbe11b680	-0.14229774
152	0xbe27db85	-0.16392334
153	0xbd2e677a	-0.04257915
154	0xbe27821f	-0.16358231
155	0xbd41352a	-0.04716984
156	0xbe7b40f4	-0.24536496
157	0xbd88308e	-0.06649886
158	0xbe5e8ba1	-0.21732952
159	0x3d61d803	0.055137645
160	0x3d8c2633	0.068432234
161	0xbe834ab6	-0.25642937
162	0xbdd80c45	-0.10549215
163	0xbe4667dc	-0.19375557
164	0xbe7100d0	-0.23535466
165	0xbde3096b	-0.11085781
166	0xbe370347	-0.17872344
167	0xbdda34e9	-0.10654623
168	0xbe1560fd	-0.1458778
169	0xbe482ab0	-0.19547534
170	0xbe484803	-0.1955872
171	0xbe190907	-0.1494485
172	0xbc64ec59	-0.013972365
173	0x3d17dd90	0.037076533
174	0x3e22b4a0	0.15889215
175	0xbdfb8480	-0.12281132
176	0xbe762d3b	-0.24040692
177	0xbe1285a5	-0.14308794
178	0xbd4d2eec	-0.050093576
179	0x3e0bdb44	0.13657862
180	0xbd51c3a4	-0.051211968
181	0xbe615ebb	-0.22008793
182	0xbe789218	-0.2427448
183	0xbe85168c	-0.25993764
184	0xbe7c6380	-0.24647331
185	0xbe4d39b1	-0.20041539
186	0xbe73c738	-0.23806465
187	0xbd617b6f	-0.055049356
188	0xbe38afa7	-0.18035756
189	0xbde9802a	-0.114013985
190	0xbe8cb439	-0.2748125
191	0xbda91d2a	-0.08257516
192	0x3baf93da	0.0053582015
193	0xbe59616c	-0.2122857
194	0xbe46176b	-0.19344871
195	0xbe512d99	-0.2042755
196	0xbe7d718b	-0.24750344
197	0xbe321bb6	-0.17393383
198	0x3e25c877	0.16189753
199	0xbe1de1d4	-0.15418178

hidden1_Y1.weight f4 [200, 200]
0	0x3e0b900d	0.1362917
1	0xbd4eb6b7	-0.05046722
2	0xbda3b782	-0.07993986
3	0xbe05de19	-0.13073005
4	0xbdf72e2d	-0.12069354
5	0xbe423dba	-0.1896886
6	0x3b9c4eab	0.00477012
7	0x3b41a6d5	0.0029548903
8	0xbd96b85e	-0.07359384
9	0x3e160a7b	0.14652435
10	0xbc2de825	-0.01061443
11	0x3d4eab7c	0.05045651
12	0x3dbf33dd	0.09336064
13	0xbcb0428c	-0.021516107
14	0x3ba2f566	0.0049731014
15	0xbd15cfe1	-0.036575202
16	0xbdca3448	-0.09873253
17	0xbd3c9471	-0.046040002
18	0xbc923b08	-0.017850414
19	0xbdb13954	-0.086535126
20	0x3de5ecb3	0.112267874
21	0xbd338ac7	-0.04383352
22	0xbe1d90d2	-0.15387276
23	0x3e4f66f7	0.20254122
24	0xbe287abe	-0.16453072
25	0xbc920ada	-0.01782744
26	0x399118a9	0.00027674928
27	0x3dd3d5d3	0.10343518
28	0xbd5a732d	-0.053332496
29	0xbcaec98b	-0.021336338
30	0x3c80083a	0.015628923
31	0x3d8b5358	0.06803006
32	0xbe272535	-0.16322787
33	0xbe093c6c	-0.13401955
34	0xbd8b24a9	-0.06794102
35	0x3c4f5855	0.012655337
36	0xbdf24776	-0.11830036
37	0x3c525daf	0.012839719
38	0x3dda1677	0.10648816
39	0x3dc4221b	0.095768176
40	0xbe32fc53	-0.17479067
41	0xbd8b7f50	-0.06811392
42	0xbe131a59	-0.1436552
43	0xbe1e2212	-0.15442684
44	0x3e36fa55	0.17868932
45	0xbdd3d684	-0.1034365
46	0x3dee1985	0.11625961
47	0xbdb07613	-0.08616271
48	0xbd188b09	-0.03724197
49	0xbd168d3f	-0.036755797
50	0xbd8049c6	-0.06264071
51	0xbe1ae923	-0.15127997
52	0xbc96552a	-0.018351156
53	0x3e492872	0.19644335
54	0x3a725b1d	0.00092451443
55	0xbbce6f0d	-0.0062998594
56	0xbbb76d34	-0.005597735
57	0xbdb1697c	-0.08662698
58	0x3e16692a	0.14688554
59	0xbdd1a7ee	-0.10237108
60	0xbd93e01d	-0.072204806
61	0xbcd85053	-0.02640549
62	0xbe832ff5	-0.25622526
63	0xbe10ad75	-0.14128669
64	0xbe32c551	-0.17458083
65	0x3d50eeeb	0.0510091
66	0x3e5b92d4	0.21442729
67	0x3dbec4c7	0.09314876
68	0x3db21697	0.08695715
69	0x3e33bb96	0.17552027
70	0xbdbaec41	-0.09127093
71	0xbcdb0c3c	-0.026739232
72	0xbce8503b	-0.02835857
73	0xbd297862	-0.04137457
74	0xbc81d8c9	-0.015850442
75	0xbc472356	-0.012154421
76	0xbdabe948	-0.08394104
77	0x3b65ccc6	0.0035064681
78	0xbe2cd2e6	-0.16877326
79	0xbe187464	-0.1488815
80	0x3dc29efe	0.095029816
81	0xbd68459b	-0.056707006
82	0xbba72aa1	-0.0051015173
83	0x3e070342	0.13184837
84	0x3c0530a5	0.008129274
85	0xbc91dfcc	-0.01780691
86	0xbcb4a22c	-0.022049986
87	0xbd968f59	-0.0735156
88	0xbbb82212	-0.005619296
89	0xbd6e81aa	-0.058229126
90	0xbe0b5985	-0.13608368
91	0xbdbc98f8	-0.09208864
92	0x3dbacb58	0.09120816
93	0x3dd1e567	0.10248833
94	0x3d30f5c7	0.04320314
95	0x3e06cc9d	0.13163991
96	0x3e24ff24	0.16112953
97	0xbe2d69f1	-0.16934945
98	0xbdd3c359	-0.10339994
99	0xbba0a376	-0.0049022986
100	0xbe0503c6	-0.1298972
101	0xbdb04dc0	-0.0860858
102	0xbd040c9b	-0.032238584
103	0xbd996c0f	-0.07491314
104	0xbd03901c	-0.032119855
105	0xbd7530f0	-0.059861124
106	0x3c09695e	0.008386938
107	0x3dd5305b	0.10409614
108	0x3d93fdf0	0.07226169
109	0x3d943e93	0.072384976
110	0x3dbff4cb	0.093728624
111	0x3ce65fea	0.028121907
112	0x3b7e1447	0.003876941
113	0x3d02f0f1	0.03196806
114	0xbbc0fea1	-0.005889729
115	0x3dfb8c0a	0.1228257
116	0x3e0b6920	0.13614321
117	0x3d37e700	0.044898033
118	0xbd4baf7f	-0.049727913
119	0xbe3ac2ad	-0.18238325
120	0xbdda9bab	-0.106742226
121	0x3c600118	0.013672136
122	0x3dde0fe8	0.108428776
123	0x3dce606c	0.10076985
124	0xbdc7fccc	-0.09765014
125	0x3cf542d1	0.029939087
126	0x3e94c59a	0.29057008
127	0xbd306b01	-0.043070797
128	0xbcdecb1c	-0.02719646
129	0x3df0ba09	0.117542334
130	0xbe4d53c2	-0.20051482
131	0x3d87cef6	0.066312715
132	0xbc681993	-0.014166254
133	0xbd5fed62	-0.054669745
134	0xbd9f9102	-0.0779133
135	0x3d186048	0.037201196
136	0x3d1178e9	0.0355157
137	0xbe0a3859	-0.13498057
138	0xbdc07fa2	-0.09399344
139	0x3df886bc	0.121350735
140	0xbd8e193c	-0.06938407
141	0xbbd11880	-0.0063810945
142	0xbc580f31	-0.013187216
143	0xbd186576	-0.037206136
144	0xbdc201fa	-0.09473033
145	0xbdc16113	-0.094423436
146	0xbdc16dbd	-0.09444759
147	0xbcbf6510	-0.02336362
148	0xbd290c3d	-0.041271437
149	0x3e3fbf04	0.1872521
150	0x3cf22283	0.029557472
151	0xbc463133	-0.012096691
152	0xbdf56d0d	-0.119836904
153	0xbdb8d792	-0.09025492
154	0x3d90ebf5	0.07076255
155	0xbdff50e5	-0.12466601
156	0x3dc67d99	0.096919246
157	0xbc72d5fd	-0.014821527
158	0x3d15cbcf	0.03657132
159	0x3cb720d7	0.022354526
160	0xbd11a88c	-0.03556113
161	0xbdd6ce8f	-0.10488617
162	0x3a654a99	0.00087467727
163	0x3e007dbe	0.12547967
164	0xbe3b3c26	-0.18284664
165	0x3d0a6b1f	0.033793565
166	0xbcf03c70	-0.029325694
167	0xbe8caeed	-0.27477208
168	0xbe146be7	-0.14494286
169	0x3b67c07f	0.003536254
170	0xbcda8317	-0.026673837
171	0xbdea0f21	-0.11428667
172	0xbe734d8c	-0.2376005
173	0xbc43f219	-0.011959576
174	0xbd341fdd	-0.0439757
175	0xbd8125cc	-0.06306037
176	0xbe3f16ae	-0.18660995
177	0x3e407670	0.1879518
178	0x3d90fa07	0.07078939
179	0x3e43892f	0.190953
180	0x3d1cf4f6	0.03831955
181	0xbd805dab	-0.06267866
182	0xbdacd589	-0.08439166
183	0x3de5c528	0.11219245
184	0xbccd0fa7	-0.025031878
185	0xbb677222	-0.0035315831
186	0x3dc95f6f	0.09832656
187	0xbd020735	-0.031745154
188	0xbe007f29	-0.12548508
189	0x3d7cadc1	0.061689142
190	0x3dc05bc1	0.09392501
191	0x3d4d3af4	0.05010505
192	0x3d93e0ec	0.07220635
193	0xbd99dd09	-0.07512862
194	0x3df95023	0.12173488
195	0x3db4f323	0.08835437
196	0x3d9962f9	0.07489581
197	0xbd9245dc	-0.07142231
198	0xbe2d4c91	-0.16923739
199	0x3d9e1553	0.07718911
200	0xbeb637f0	-0.35589552
201	0x3c5b4e2e	0.013385339
202	0xba34e382	-0.00069003564
203	0x3d90dd56	0.070734665
204	0x3c0c63cc	0.008568715
205	0x3dd94540	0.106089115
206	0xbdacc26b	-0.0843552
207	0xbd450f8d	-0.048110534
208	0xbe006f30	-0.12542415
209	0xbe1dea38	-0.15421379
210	0xbdd013b9	-0.10160012
211	0xbdd5e4c8	-0.10444027
212	0x3d39534b	0.04524545
213	0x3d4af698	0.049551576
214	0x3d13f83a	0.0361254
215	0xbd193e13	-0.037412714
216	0x3d0e3c05	0.034725208
217	0xbdc0c83b	-0.09413191
218	0x3a45eb63	0.0007550029
219	0xbc3e489f	-0.011613994
220	0x3d9f425a	0.077763274
221	0xbd950242	-0.07275821
222	0x3dfd36ff	0.12364005
223	0xbda49f74	-0.08038226
224	0x3cb9073a	0.022586454
225	0x3e66f902	0.22555926
226	0x3cdd39d5	0.027005116
227	0xbd07abf1	-0.03312296
228	0xbd881bfc	-0.066459626
229	0xbe45f16a	-0.19330373
230	0x3d2929f7	0.041299786
231	0x3da8509e	0.082185015
232	0xbb90ba9e	-0.0044167778
233	0x3d27e96a	0.040994085
234	0xbdccdf81	-0.100035675
235	0x3d56d49e	0.05244886
236	0xbd4c8caf	-0.049938854
237	0xbddfb17c	-0.10922524
238	0xbdb22a89	-0.08699519
239	0xbddfa739	-0.10920567
240	0x3d6038a5	0.05474152
241	0x3d4ae7aa	0.04953734
242	0xbde12dfa	-0.109950975
243	0x3e560f53	0.20904283
244	0xbd64e6f3	-0.055884313
245	0x3d25402d	0.040344406
246	0xbbfe7766	-0.0077656982
247	0xbe99fc1c	-0.30075157
248	0xbdb8f0b9	-0.09030289
249	0x3d3e9232	0.04652614
250	0xbde5818f	-0.11206352
251	0x3c34c3b4	0.011032987
252	0x3ce447e6	0.027866315
253	0x3c05503f	0.008136808
254	0xbe2cb205	-0.16864784
255	0x3dd5ba4f	0.10435926

hidden1_Y1.bias f4 [200]
0	0xbc334ad4	-0.010943133
1	0xbcc466c6	-0.023974787
2	0xbe11eedc	-0.14251274
3	0xbd439c83	-0.047756683
4	0xbdb0ced9	-0.08633203
5	0x3dbea30a	0.09308441
6	0xbce2cb74	-0.027684905
7	0xbdf3aef4	-0.11898604
8	0xbdc004c7	-0.09375911
9	0x3e25bec0	0.16186047
10	0xbc49ea1f	-0.012323885
11	0xbc1ee63d	-0.009698448
12	0x3c3695c4	0.011144105
13	0x3ccb5de6	0.024825048
14	0x3db7ab55	0.08968226
15	0xbdd58e98	-0.10427588
16	0x3de3d95c	0.111254424
17	0xbdf10837	-0.11769145
18	0xbdec9500	-0.11551857
19	0xbdcd6f9c	-0.100310534
20	0x3cb14d48	0.021643296
21	0xbe12e94b	-0.14346807
22	0xbdfc3333	-0.12314453
23	0xbde647a8	-0.11244136
24	0xbdbdcf38	-0.092680395
25	0xbde20e36	-0.11037867
26	0x3dc846fc	0.09779164
27	0xbdb874bf	-0.090066426
28	0xbe03c033	-0.12866287
29	0x3cad0e71	0.02112505
30	0xbdf1e360	-0.118109465
31	0xbd7e1eb7	-0.06204101
32	0x3d4ae09c	0.04953061
33	0x3db6c195	0.089236416
34	0x3e56507e	0.20929143
35	0xbd84aab3	-0.06477871
36	0xbda1304f	-0.07870542
37	0x3cda6e0c	0.026663803
38	0x3e02824d	0.12745018
39	0xbda15918	-0.078783214
40	0xbdca89b3	-0.09889545
41	0x3e311409	0.17292799
42	0xbcafbbf3	-0.021451926
43	0xbc4ca031	-0.0124893645
44	0x3ded5a83	0.11589529
45	0xbd30ae99	-0.04313526
46	0xbe101b3c	-0.14072889
47	0xbdfbb9f0	-0.12291324
48	0xbdea807a	-0.11450286
49	0xbd14a465	-0.03628959
50	0xbd84516a	-0.06460841
51	0xbd614907	-0.055001285
52	0x3d90fd83	0.070796035
53	0xbdd72513	-0.10505118
54	0xbdb0e8e8	-0.08638173
55	0x3d335390	0.043780863
56	0xbc894a9e	-0.016759213
57	0x3d6166aa	0.05502955
58	0xbda325bc	-0.07966182
59	0xbcbbfb85	-0.022947082
60	0xbdc53176	-0.096285746
61	0xbe04e5d4	-0.12978297
62	0x3c4bc026	0.0124359485
63	0xbe0116d2	-0.12606362
64	0xbdb1022e	-0.08642994
65	0xbb1276f2	-0.002234873
66	0xbce04362	-0.02737588
67	0xbda39c6f	-0.07988822
68	0xbd9c32b3	-0.076268576
69	0xbe1b5f30	-0.1517303
70	0x3ddaf945	0.10692076
71	0xbda6a45b	-0.08136817
72	0xbda70a8c	-0.081563085
73	0xbe16fbc4	-0.14744478
74	0xbddffcc9	-0.10936887
75	0xbde0923a	-0.109653905
76	0xbdce23bb	-0.10065409
77	0xb9d5af69	-0.00040757217
78	0x3d509a7b	0.050928574
79	0xbc6bc147	-0.014389343
80	0xbd8feea2	-0.070279375
81	0xbd123f86	-0.035705112
82	0xbdc95d93	-0.09832301
83	0xbdca59da	-0.09880419
84	0xbd8ca847	-0.06868034
85	0xbe10674e	-0.14101908
86	0x3dbd636f	0.09247481
87	0x3e0b93ee	0.1363065
88	0xbe2116a2	-0.1573129
89	0xbd41ec32	-0.047344394
90	0x3e3d57d7	0.1849054
91	0xbde25b53	-0.11052575
92	0xbd49f72a	-0.04930798
93	0xbe29f6d4	-0.16598064
94	0x3c102681	0.008798243
95	0xbe01e43e	-0.12684724
96	0x3c88b5b8	0.016688213
97	0xbbacbb49	-0.0052713496
98	0x3bbdcd32	0.0057922835
99	0xbdf07a68	-0.11742097
100	0x3df77739	0.12083287
101	0xbd891baa	-0.066947296
102	0x3db00369	0.085944004
103	0xbdd5ca16	-0.104389355
104	0xbdb2a0c0	-0.08722067
105	0x3e13b15e	0.14423129
106	0xbdc0e884	-0.09419349
107	0xbdbb1f26	-0.091368005
108	0xbdb2323b	-0.08700987
109	0xbdb09c8e	-0.086236104
110	0x3d3b416a	0.04571668
111	0xbdc1328d	-0.0943347
112	0x3e0ff61d	0.14058729
113	0x3d99f08b	0.07516583
114	0xbdfaf6cd	-0.12254105
115	0x3c7370bd	0.014858422
116	0xbe0176de	-0.12643
117	0x3c21d9de	0.009878604
118	0xbdf642f0	-0.12024486
119	0x3e03813d	0.12842269
120	0xbd360760	-0.044440627
121	0xbd4d18fd	-0.05007266
122	0x3c342a3e	0.010996399
123	0xbcd8d1f6	-0.026467305
124	0x3d1960c4	0.0374458
125	0xbd416426	-0.04721465
126	0xbd1bb11c	-0.0380107
127	0xbdd4b367	-0.10385781
128	0x3da01b9c	0.07817766
129	0x3c591083	0.013248566
130	0xbdc28c59	-0.094994254
131	0x3c354a9e	0.011065153
132	0xbda0dbd1	-0.07854427
133	0xbdeaaca0	-0.11458707
134	0x3dc7b662	0.09751584
135	0xbdaafcbe	-0.08348988
136	0xbc2ea323	-0.010659012
137	0x3cbd8a8f	0.023137359
138	0xbdcd0305	-0.100103416
139	0xbdea40fa	-0.114381745
140	0x3d33d9af	0.04390877
141	0x3e10d8ab	0.14145152
142	0xbd81ae0b	-0.06332024
143	0xbe411344	-0.18855006
144	0xbe037c7b	-0.12840454
145	0xbc0f46a3	-0.008744868
146	0xbda4735e	-0.08029817
147	0xbd86d4ec	-0.065835804
148	0xbd173c74	-0.036922887
149	0xbddfaad7	-0.10921257
150	0xbdeaaf6d	-0.11459241
151	0x3d901953	0.0703608
152	0xbdde7557	-0.108622245
153	0xbe0a0073	-0.13476734
154	0xbdc8a207	-0.09796529
155	0xbd880e23	-0.06643321
156	0xbde21a8d	-0.110402204
157	0xbd9c560f	-0.07633602
158	0xbe0fbd4a	-0.14037052
159	0x3d565e7c	0.0523362
160	0xbde06f0f	-0.10958683
161	0xbd9c4825	-0.07630948
162	0xbbf4f0b1	-0.0074749817
163	0xbdbb0f29	-0.09133751
164	0xbd6dc0cb	-0.05804519
165	0x3d479dbb	0.048734408
166	0x3e7892dd	0.24274774
167	0x3d16ec33	0.03684635
168	0xbd84b32e	-0.06479488
169	0xbe04300d	-0.12908955
170	0xbceb62ba	-0.0287336
171	0x3d681f40	0.056670427
172	0xbdaa4360	-0.08313632
173	0xbde0d74c	-0.109785646
174	0x3d49ef3c	0.049300417
175	0xbdcdeb85	-0.100546874
176	0xbd974527	-0.07386237
177	0xbdb07bf4	-0.08617392
178	0xbd8073ad	-0.062720634
179	0xbd803791	-0.062605985
180	0xbd2e7890	-0.042595446
181	0x3b124fca	0.002232539
182	0x3e195dcc	0.14977187
183	0x3d842a5d	0.06453393
184	0xbd07d0f5	-0.03315826
185	0xbd65f202	-0.056139
186	0xbe0eb32d	-0.13935538
187	0xbd527b11	-0.051386897
188	0xbd2d0818	-0.042244047
189	0xbde3c7db	-0.11122104
190	0xbc24605c	-0.0100327395
191	0xbc0ecc2e	-0.008715672
192	0xbdcc372e	-0.09971462
193	0xbd61296c	-0.054971144
194	0xbe093eb1	-0.13402821
195	0xbe0af1b9	-0.13568772
196	0xbd386810	-0.045021117
197	0xbdd9a67c	-0.106274575
198	0xbe4b50e8	-0.19855082
199	0xbde0a034	-0.10968056

hidden2_Y1.weight f4 [200, 200]
0	0xbdc591ea	-0.096469715
1	0x3dc18d6f	0.094508044
2	0x3d80e9f7	0.06294625
3	0x3d9b6a95	0.07588688
4	0xbca8d555	-0.020609537
5	0xbd9e80ec	-0.07739434
6	0x3c782df6	0.015147677
7	0x3d8ea974	0.06965914
8	0x3c02fa70	0.007994279
9	0xbda06ae5	-0.078328885
10	0xbced2acc	-0.028951071
11	0xbd961272	-0.07327737
12	0xbbb3216b	-0.00546663
13	0x3ab5879f	0.0013849622
14	0x3e14fdb2	0.14549902
15	0x3d08a9d5	0.03336509
16	0xbc9026b3	-0.017596578
17	0xbc826262	-0.015916053
18	0x3d74d8c0	0.05977702
19	0xbda2d1a9	-0.07950146
20	0xbe58b0e2	-0.21161225
21	0xbd93bb03	-0.07213404
22	0x3db4970d	0.08817873
23	0xbd173b10	-0.03692156
24	0xbd99838a	-0.07495792
25	0xbdc27f67	-0.09496956
26	0xbcf67c2e	-0.03008851
27	0xbe36541d	-0.17805524
28	0xbe29829d	-0.16553731
29	0x3d44e693	0.048071455
30	0x3cbd2431	0.023088546
31	0xbddb7d5e	-0.10717271
32	0xbe067566	-0.13130721
33	0xbdf1fbe1	-0.1181562
34	0xbca6c872	-0.020359252
35	0x3c1a26a3	0.009408626
36	0xbd65b0e4	-0.0560769
37	0xbe114c4b	-0.1418926
38	0x3e19a98f	0.15006088
39	0x3dcef201	0.10104752
40	0x3cfa445b	0.030550173
41	0xbce8ba64	-0.02840919
42	0x3d98d422	0.07462336
43	0x3d203a4d	0.0391181
44	0x3d3bbdfa	0.045835473
45	0x3ba0ee89	0.004911248
46	0xbcb413de	-0.02198213
47	0xbde1dd1c	-0.110285014
48	0xbc64bf86	-0.013961678
49	0xba8c0a56	-0.0010684233
50	0xbab7d79c	-0.0014026049
51	0xba7e466c	-0.0009699825
52	0xbc6b37f8	-0.014356606
53	0x3cc76f0a	0.02434494
54	0xbc903701	-0.017604353
55	0xbd90a4d1	-0.07062686
56	0xbe29368c	-0.16524714
57	0xbdd32cd7	-0.10311287
58	0xbe265b80	-0.16245842
59	0x3b39d9c7	0.0028358565
60	0xbdc7a576	-0.09748356
61	0xbe017691	-0.12642886
62	0xbc639c9c	-0.013892319
63	0x3d356460	0.04428518
64	0x3ca9d036	0.020729166
65	0xbe312653	-0.17299776
66	0x3cedd207	0.029030813
67	0x3bcd2fb7	0.0062617916
68	0x3ca2fdcc	0.01989641
69	0xbdfbfd12	-0.12304129
70	0x3dca734c	0.098852724
71	0xbd90e5ed	-0.07075105
72	0x3da5d014	0.080963284
73	0x3c528f2c	0.012851518
74	0x3d869e5b	0.06573173
75	0xbd7a6750	-0.061133683
76	0x3e2747ec	0.1633603
77	0xbde23f07	-0.11047178
78	0xbe39018b	-0.18066995
79	0xbd80bd5b	-0.06286117
80	0x3dcddec5	0.100522555
81	0xbd544b7f	-0.05182981
82	0x3e0d3ec5	0.13793476
83	0x3d91d3ee	0.071205005
84	0xbce325cc	-0.027727984
85	0xbd1ca5dd	-0.038244117
86	0xbdaa8b85	-0.083273925
87	0xbe870b66	-0.26375884
88	0x3d621b27	0.055201676
89	0xbdddefd1	-0.10836757
90	0xbc680fbe	-0.0141639095
91	0x3d6c65ac	0.05771415
92	0x3e246514	0.16054183
93	0xb9e30930	-0.0004330366
94	0x3cc54de6	0.024084996
95	0x3c1736cd	0.009229374
96	0x3d7d0645	0.061773557
97	0xbc9e523a	-0.019326318
98	0xbdbfe420	-0.09369683
99	0x3de4d2ac	0.11172995
100	0xbc8de092	-0.017318998
101	0xbb782183	-0.0037861771
102	0x3d883b87	0.06651979
103	0xbd4e71db	-0.05040155
104	0xbdef67d2	-0.11689724
105	0xbe2306cd	-0.15920563
106	0xbc29ea01	-0.010370732
107	0xbe0d43e4	-0.1379543
108	0x3d43bca0	0.04778731
109	0x3d2d982f	0.04238146
110	0xbcd9c8de	-0.026585039
111	0xbc8b3065	-0.01699085
112	0xbde151a8	-0.11001903
113	0xbd5fa746	-0.054602884
114	0xbdd53e0b	-0.104122244
115	0xbd91510f	-0.07095539
116	0xbb2aa33e	-0.0026037241
117	0x3c91d828	0.017803267
118	0x3ddb71a3	0.10715034
119	0x3e4a51a2	0.19757703
120	0xbd4f2d39	-0.050580237
121	0xbd85b238	-0.06528133
122	0xbdc01590	-0.09379113
123	0xbd983750	-0.07432425
124	0x3c81212c	0.015762888
125	0xbd8f3158	-0.069918334
126	0x3d611b6b	0.05495779
127	0xbe201eb9	-0.1563672
128	0xbd817666	-0.06321411
129	0x3b933ac7	0.004493091
130	0xbe37313d	-0.17889877
131	0xbdc459b8	-0.09587425
132	0xbe0367bb	-0.12832539
133	0xbdfa13f4	-0.12210837
134	0xbe9a548e	-0.30142635
135	0x3dfe8694	0.124280125
136	0xbe163cdb	-0.14671652
137	0xbcfdcdfb	-0.030982008
138	0xbd3b261b	-0.045690637
139	0x3c62f4da	0.0138523225
140	0x3cd23d8f	0.025664119
141	0xbd896f89	-0.06710727
142	0xbd9e9d5b	-0.07744857
143	0xbdcde1dc	-0.10052845
144	0xbdb656ed	-0.089032985
145	0xbdb7081d	-0.08937094
146	0x3d98918d	0.074496366
147	0xbb89e5cd	-0.0042083026
148	0x3cc1e68d	0.023669505
149	0x3d4701e6	0.048585795
150	0xbe0246cb	-0.12722318
151	0x3d1d6718	0.038428396
152	0xbe28893d	-0.16458602
153	0xbdc2830c	-0.094976515
154	0x3c11b7e2	0.008893939
155	0xbc0b4fdf	-0.0085029295
156	0x3d91f90c	0.0712758
157	0x3c66be7b	0.0140835
158	0xbdc17ca2	-0.094476
159	0xbdf8fd37	-0.12157672
160	0xbe0bf80e	-0.13668844
161	0x3d656232	0.05600185
162	0xbcc9e8c9	-0.024647133
163	0x3d1be149	0.038056646
164	0xbd9294c9	-0.07157285
165	0x3e0ce7fd	0.13760372
166	0xbe42cfc7	-0.19024573
167	0xbe033208	-0.12812054
168	0x3dde91ad	0.10867629
169	0xbc687b65	-0.014189576
170	0x3d314100	0.04327488
171	0xbe1abfd5	-0.1511224
172	0x3daa7339	0.08322758
173	0xbde62c5c	-0.1123893
174	0x3dec369d	0.11533854
175	0x3d8ebf54	0.06970087
176	0x3dad40e5	0.08459643
177	0xbd826247	-0.06366401
178	0x3d52dafd	0.051478375
179	0xbc07c458	-0.008286558
180	0x3e1c1890	0.15243745
181	0x3d6ec74c	0.058295533
182	0xbe51b634	-0.20479661
183	0xbdd41d87	-0.103571944
184	0xbdd81bf5	-0.105522074
185	0x3cc8ff40	0.024535775
186	0xbbaa90bd	-0.0052052424
187	0x3d9bf7d7	0.07615631
188	0xbdf2dd5a	-0.11858626
189	0x3d26a706	0.04068663
190	0xbd30ad14	-0.04313381
191	0x3c8317f0	0.016002625
192	0xbd7c9011	-0.06166083
193	0xbcf890df	-0.030342517
194	0xbda82acd	-0.082112886
195	0xbe1ca6fa	-0.15298072
196	0xbd94382a	-0.07237275
197	0xbca9d0c7	-0.020729436
198	0xbd5800ea	-0.052735247
199	0xbd7f3f2f	-0.062316116
200	0xbb502ce9	-0.003176505
201	0xbcfe164a	-0.031016488
202	0xbd109beb	-0.035304945
203	0x3ce5202c	0.027969442
204	0x3d9a5bc3	0.075370334
205	0x3ddf0262	0.10889126
206	0xbc0b9232	-0.008518742
207	0x3db9ea17	0.09077852
208	0xbdf72b7c	-0.12068841
209	0x3d16448a	0.036686458
210	0xbe08c4f7	-0.13356386
211	0xbc16b085	-0.009197359
212	0x3d7d160a	0.061788596
213	0xbde24556	-0.11048381
214	0xbd980523	-0.07422855
215	0x3be85b0e	0.0070909327
216	0x3c92b190	0.017906934
217	0xbdf07583	-0.117411636
218	0xbdbc4728	-0.091932595
219	0xbdb4af4c	-0.08822498
220	0x3ad94584	0.0016576503
221	0xbd9abdbd	-0.07555721
222	0x3d66a848	0.05631283
223	0xbd609790	-0.05483204
224	0x3a41bb3d	0.00073902664
225	0xbde0fe9c	-0.10986063
226	0xbde97d5a	-0.11400862
227	0xbc2ffe4e	-0.010741783
228	0xbd71995b	-0.05898414
229	0xbe356ce4	-0.1771732
230	0x3d025e53	0.031828236
231	0x3d9b6805	0.075881995
232	0xbda1d2b8	-0.079015195
233	0x3d0a4451	0.033756558
234	0xbc80e166	-0.015732478
235	0xbd4696cc	-0.048483655
236	0xbc722204	-0.014778618
237	0xbdfe8e30	-0.12429464
238	0x3d9358d4	0.07194677
239	0x3d0912b5	0.033465106
240	0xbe131864	-0.14364773
241	0xbdf0df32	-0.11761321
242	0x3d230a5b	0.039804798
243	0xbd51ecfb	-0.051251393
244	0xbb54df20	-0.0032481626
245	0xbe12289c	-0.14273304
246	0x3d4b2c94	0.04960306
247	0xbd2aaed0	-0.04167062
248	0xbdc79fc5	-0.097472705
249	0xbe07f897	-0.13278423
250	0xbe153af5	-0.14573272
251	0x3dc83862	0.09776379
252	0xbe21051e	-0.15724608
253	0x3cbc4d81	0.022986175
254	0xbd5be465	-0.05368461
255	0xbd9fbe59	-0.07799978

hidden2_Y1.bias f4 [200]
0	0xbd933f77	-0.07189839
1	0xbd4b5460	-0.049641013
2	0xbd5986cd	-0.05310707
3	0x3eaac190	0.333508
4	0xbd02f7d1	-0.031974617
5	0xbd644ab7	-0.055735316
6	0xbd50d8c3	-0.05098797
7	0xbdcd760a	-0.1003228
8	0xbde4e338	-0.11176151
9	0xbcff79aa	-0.031185944
10	0x3e9bf9b6	0.30463952
11	0xbd662595	-0.056188185
12	0x3e8ed585	0.27897277
13	0xbde26762	-0.11054875
14	0xbd532f13	-0.051558565
15	0xbdd7312c	-0.10507426
16	0xbd7f388e	-0.062309794
17	0x3e90b9a8	0.28266644
18	0xbdb467c2	-0.08808853
19	0xbd6db542	-0.05803419
20	0xbdb7c35a	-0.08972807
21	0xbce02931	-0.027363392
22	0xbd3ddfeb	-0.046356123
23	0xbd992736	-0.07478182
24	0xbdefc0a6	-0.11706667
25	0xbdd97171	-0.1061734
26	0xbd09f0b9	-0.033676837
27	0xbc99ca6a	-0.018773276
28	0xbcfe9cd4	-0.03108064
29	0x3e5bd92a	0.2146956
30	0x3e96e824	0.29473984
31	0x3e5a37b5	0.21310313
32	0xbc89ef7f	-0.016837833
33	0xbddc6a70	-0.10762489
34	0xbe04b60f	-0.12960075
35	0xbdaaccd9	-0.08339853
36	0x3e5a3d80	0.21312523
37	0xbd258b19	-0.040415857
38	0xbd8c2c87	-0.068444304
39	0xbd20268f	-0.039099272
40	0xbd882f4a	-0.06649645
41	0xbda6fb87	-0.08153444
42	0xbcb4b160	-0.022057235
43	0xbdecda0f	-0.11565029
44	0xbd14a747	-0.03629234
45	0x3e84a2e7	0.25905535
46	0x3ebc4481	0.36771014
47	0x3d26688f	0.04062706
48	0xbdc1ad78	-0.09456915
49	0xbdb0988d	-0.08622847
50	0x3ead0cc5	0.33798805
51	0xbda6962b	-0.08134111
52	0x3cc7bd24	0.024382181
53	0x3eaf9d16	0.34299535
54	0x3e9caaa5	0.3059894
55	0xbdbae1a0	-0.09125066
56	0xbde6b7a1	-0.11265493
57	0x3ebee59c	0.37284553
58	0xbac0079d	-0.0014650706
59	0x3eb90cb1	0.36142495
60	0x3eabc3e6	0.33547896
61	0xbda5397c	-0.08067605
62	0xbd8a066f	-0.06739508
63	0x3e7ca168	0.24670947
64	0xbd937c4c	-0.07201442
65	0xbd9d04a4	-0.07666901
66	0xbc487fb8	-0.012237482
67	0xbdc7d5ea	-0.09757598
68	0x3d713f2e	0.058898143
69	0xbd8a5186	-0.067538306
70	0x3ebb6f4f	0.3660836
71	0x3ce28929	0.027653294
72	0xbddf368d	-0.108990766
73	0x3e83861c	0.25688255
74	0xbdab1784	-0.083540946
75	0xbd9f60cd	-0.07782135
76	0x3eb2c2b8	0.34914184
77	0xbdf56aad	-0.119832374
78	0x3e8e4be5	0.27792278
79	0x3b1a7f89	0.0023574552
80	0x3ea8c586	0.32963198
81	0xbe064d2c	-0.13115376
82	0xbdf1ad04	-0.11800578
83	0x3a4ad937	0.0007738056
84	0xbdacdd2e	-0.08440624
85	0xbdc36519	-0.09540767
86	0xbe08e3b5	-0.13368113
87	0x3e983452	0.29727417
88	0xbe11c1f8	-0.1423415
89	0xbd9d4721	-0.076795824
90	0xbcf78724	-0.030215807
91	0x3e89be80	0.26903152
92	0xbd7f21dd	-0.062288154
93	0xbde415a3	-0.111369394
94	0xbd145cef	-0.03622144
95	0xbc0b0378	-0.008484714
96	0xbd5d92c9	-0.054095063
97	0xbe359770	-0.1773355
98	0x3eb8aa17	0.36067268
99	0x3e8040fb	0.25049576
100	0x3ec92a21	0.39289954
101	0xbd857f21	-0.065183885
102	0x3e996d28	0.29966092
103	0x36fbe118	7.5065873e-06
104	0xbddc0824	-0.1074374
105	0xbd8d7c81	-0.06908513
106	0xbd57084a	-0.05249814
107	0xbdbe4944	-0.09291318
108	0xbd4321c7	-0.047639634
109	0xbe0c5e11	-0.13707758
110	0xbdb3164e	-0.08744489
111	0xbd5069ed	-0.05088227
112	0xbde07b76	-0.10961048
113	0xbdb1d29f	-0.08682751
114	0x3eafcb99	0.3433502
115	0x3e5c2efb	0.21502297
116	0xbd893a48	-0.067005694
117	0xbd7cc266	-0.06170883
118	0xbd846f65	-0.06466559
119	0x3e98deaa	0.2985738
120	0x3eb414ac	0.3517202
121	0x3e9215ac	0.2853216
122	0x3e7acdf6	0.2449263
123	0xbd355174	-0.044267133
124	0xbd950595	-0.07276455
125	0x3e8bef33	0.27330932
126	0xbdc0f315	-0.09421364
127	0xbdfec0c1	-0.12439109
128	0xbd6a825c	-0.057253227
129	0x3e75f2dc	0.24018425
130	0xbdae41e1	-0.08508659
131	0x3e9547cc	0.2915634
132	0x3db730ab	0.089448296
133	0xbce3bad4	-0.027799048
134	0x3eaae9ea	0.33381587
135	0x3e9655aa	0.29362231
136	0xb9ddde7e	-0.00042318174
137	0xbd394aff	-0.045237537
138	0x3ec0843e	0.37600893
139	0xbd508b52	-0.050914116
140	0x3a273089	0.0006377777
141	0xbdd60a26	-0.104511544
142	0xbdee8aa5	-0.11647538
143	0xbd6b0923	-0.05738176
144	0xbdbb6e3d	-0.09151886
145	0xbdb15c8a	-0.086602286
146	0xbd89a324	-0.0672057
147	0xbbcbac25	-0.0062155896
148	0x3e8e4bd0	0.27792215
149	0xbd7712f2	-0.060320802
150	0xbd9fb796	-0.07798688
151	0x3ec114a7	0.3771107
152	0x3eac12c1	0.33608058
153	0xbdecd89f	-0.11564755
154	0xbd9a3967	-0.0753048
155	0xbd70243b	-0.058628302
156	0xbd880dfe	-0.06643294
157	0xbd84dd3c	-0.064875096
158	0xbd2b71db	-0.041856628
159	0x3e885dea	0.2663415
160	0x3e2c479b	0.1682419
161	0x3ea7e22b	0.3278974
162	0xbcff5c7f	-0.031172035
163	0x3e6fb0ef	0.23407339
164	0xbce8a80d	-0.028400445
165	0xbdd219a0	-0.10258794
166	0xbe053a97	-0.13010632
167	0xbaa358eb	-0.0012462413
168	0x3e861608	0.26188684
169	0xbd93152c	-0.071817726
170	0x3ccb655f	0.024828611
171	0x3e8e550c	0.2779926
172	0xbd9bf4cc	-0.07615051
173	0x3ea223ec	0.3166803
174	0xbe04bf6e	-0.1296365
175	0xbdcfce0b	-0.101467215
176	0xbe050c3e	-0.12992951
177	0xbd93cae1	-0.072164305
178	0xbc95cf72	-0.018287394
179	0xbdca5207	-0.09878927
180	0x3d46f0ac	0.048569366
181	0x3dfe6ee3	0.12423494
182	0xbd75ef8f	-0.060042914
183	0x3dab575e	0.08366273
184	0x3e4541cd	0.19263382
185	0x3dfa422f	0.12219655
186	0xbdbd6ae8	-0.092489064
187	0xbd777d54	-0.060422257
188	0xbdbaa97d	-0.091143586
189	0xbdceeb0f	-0.101034276
190	0xbd1e7d2b	-0.03869359
191	0xbd216776	-0.03940531
192	0xbd9fe733	-0.078077696
193	0x3e3d4cdd	0.18486352
194	0x3e606f5f	0.21917485
195	0xbd85700e	-0.06515513
196	0xbdd1b9cd	-0.10240517
197	0xbd15036c	-0.036380216
198	0xbd914ef4	-0.07095137
199	0xbdfc84c8	-0.123300135
