DCNModel/DCN_PD_NN_Models/NN_DCN_model_iter_id_65_epoch_100_lr_0.001.pth (torch_old, 828786 bytes, 14 tensors)

shared1.weight f4 [200, 25]
00000000: 3eb5 503c b9c5 5cbd 558b 90bd aacb dcbd
00000010: 902e 2dbc b35d be3d ea4c 4e3d aeb7 a2bc
00000020: fbf9 b8bc 4fca 8fbc 3eca 02be b418 29bd
00000030: 9c89 25be 079d 3fbe 6844 993d 13d5 c9bd
00000040: 9cbe 15be 362d 863d 5fc4 183c ac3f b8bd
00000050: 3200 163e 042f aa3d 1d5e a93d cdde 73bc
00000060: 60cf 22bd fbe6 c53d 61d0 e6b9 e764 a63d
00000070: 7ca8 033d 8bb6 4d3d cadd 7a3d bd05 76bd
00000080: 7ab5 0bbe 34de 003e 6e25 44bd 066c ecbc
00000090: 9a0f 4c3c cbfe 09be 08d2 28be cd53 1abe
000000a0: 7c92 04be 93a6 fabd c350 3dbe ffab b13d
000000b0: 74af ce3d fa56 043e b067 01bc 3ffb 23be
000000c0: a817 9e3d d4a3 16be 96c8 ab3d e8a8 ce3c
000000d0: 6bea 0c3e df5d 6f3d 48bd 763d b2ba ce3c
000000e0: 55a6 b23c 06c8 87bd 7bfb 9fbd 063a d6bd
000000f0: 3411 b2bd 270f babd 0ac9 fcbd 9d69 22bd
00000100: 9347 a6bd 7064 50be 3739 463d 8aae 7cbe
00000110: 8465 21bd 21b6 fc3d 283e 76bd 1fed 28be
00000120: 0109 113e 5644 68be 2828 683e 9548 ed3d
00000130: adfa 333d f766 b13c 5307 a83d 6d6c aebd
00000140: a17d 873c 7961 afbd d601 3f3d d40e 87be
00000150: 26b7 463d ea72 b3bc 966b 2bbd 2533 3bbd
00000160: 42d6 8abe 7b53 38bd 4f03 56bd e051 3bbd
00000170: 2439 5abe 9815 df3c cc75 20be c20c e0bd
00000180: 89d9 05be 72d3 37bd 8bc4 883c df68 a9bd
00000190: 2cbc 30bc 0af7 0f3c ea4f 1abd af1b 983d
000001a0: 011b 88bd cd17 d2bd 94be 0cbe 1402 b6bd
000001b0: bfdb 1dbe 1346 06be 547c b63c 84f3 07be
000001c0: 30db b3bc a9b3 57be daed c0bd 1696 a6bd
000001d0: 2349 2b3d 6a68 873d ceac 1cbe 3872 353d
000001e0: 088e 89bd 61e7 c7bd 499b 18bd f91e f73c
000001f0: 1cf4 763d ce4c 063d a691 b4bd 4f58 35bc
00000200: fdf2 eabd 8fc5 6fbe f836 883d 49f0 f5bd
00000210: a7a5 90bd 4fe4 4e3e 6967 fe3d 0711 a73d
00000220: bcc7 2dbe 6cf7 c4be d31f 83be f2ef 27be
00000230: c7bc 64bd 2986 bcbc 4949 393d eabd 963e
00000240: 65b3 8dbe fc55 643d 461b 18be b453 06be
00000250: dcb1 15bd 9139 12be d23b a93d 8daa f53d
00000260: e802 c938 15db 923d 511a c6bd 3109 ffbd
00000270: 7c51 953d 9cfb 8ebd 1b4d 73bd 067a 283e
00000280: 60af f4bd dc5f 0dbe 4d6b 9b3d 9346 4cbe
00000290: 4123 a6bd 633b 0dbe 766e 153d 9752 b0be
000002a0: f3cb 9e3d f90b 86be 57dc a8bc def4 06be
000002b0: 1f4a 2dbc 6a62 a73d ec87 45be 9010 213a
000002c0: 872c c6bd a6c7 e1bd 3a1d 9fbd ee5e b73d
000002d0: bfab d93d 9bb9 ed3d dea1 e8bd f9b3 1ebe
000002e0: 7332 6fbe eb3f 0d3d 9797 41bd 564c b8bd
000002f0: 48d8 dbbd f2d3 5dbe 33b4 23be b3a0 1c3d
00000300: a7ac 63bd d5a3 8e3d feb2 ba3d d5d1 9d3d
00000310: 881d 1c3c 96a2 953d 42d1 f8bd 5049 77bc
00000320: 0d7a 8b3d 1068 cfbc 00a3 a23d 416a 1abe
00000330: 8056 09bc 259d 3cbe 8e8d edbd e224 cfbd
00000340: 290a a5bd 2d5b aabd 26f6 bebd 5126 a53d
00000350: b95a 44bd 5421 64be 1e71 bbbd ca5b 68be
00000360: 654b 6bbe 5c0c 5abc 77d4 3abe 283f 383d
00000370: 3939 9e3d 1bfe 353d 3e98 efbb 9100 0fbe
00000380: b566 abbd 0774 ec3c ba5d 0e3d 2f14 a8bc
00000390: c8b8 f13d 6d7a cb3d 4cbd 783e cc96 cfbd
000003a0: 0e7b d1bc 1992 933d 756c 4d3d d4b3 aabc
000003b0: 0ff0 6e3d 493e 6b3d 9b3e 8cbd 179b 5f3e
000003c0: 6b2a 50be 4f83 abbe c81a 82be 9bef c4bd
000003d0: e91f 043e f29f 123d a47e d63d e854 f03d
000003e0: 384d 6f3d 71c0 11be f97b a53d 7335 22be
000003f0: 5ce4 cc3d d0f5 13be 0ffe 89bd 7182 d9bc
0.012738524 -0.0538995 -0.070578255 -0.10781033 -0.010570183 0.092952155 0.05036632 -0.019862976
-0.022580137 -0.017552523 -0.12772462 -0.041283324 -0.16165775 -0.18712245 0.074837506 -0.09855094
-0.14623493 0.06551592 0.009324162 -0.089965194 0.14648512 0.08309749 0.08269904 -0.014884663
-0.03974855 0.09663197 -0.00044024273 0.08124714 0.0321431 0.050222915 0.06124667 -0.060064066
-0.13643447 0.12584764 -0.04788726 -0.028860103 0.012454892 -0.13476102 -0.1648637 -0.1507103
-0.12946504 -0.12238803 -0.1848784 0.08675384 0.10092059 0.12923804 -0.007898256 -0.16013812
0.07719356 -0.14710933 0.08387868 0.025227025 0.13761298 0.05843913 0.060239106 0.025235508
0.021807829 -0.06629948 -0.07811638 -0.10460286 -0.086946875 -0.09084921 -0.12343033 -0.039651502
-0.081191204 -0.20350814 0.048394408 -0.24675956 -0.039403453 0.12339426 -0.06011787 -0.16496705
0.14163591 -0.22682318 0.22671568 0.115861095 0.043940235 0.021655543 0.08204522 -0.08516774
0.016539397 -0.08563513 0.04663261 -0.263785 0.048514508 -0.021905381 -0.04185065 -0.045703072
-0.2711659 -0.04500149 -0.05224925 -0.04573238 -0.2131086 0.027231976 -0.15669936 -0.10939933
-0.13071264 -0.044879384 0.016695281 -0.08271956 -0.010787051 0.008786926 -0.03767387 0.07427155
-0.066457756 -0.10258446 -0.13744575 -0.08887115 -0.15415858 -0.13112669 0.022276081 -0.13276488
-0.021955103 -0.21064629 -0.094203666 -0.08134095 0.041817795 0.06611712 -0.15300295 0.04429838
-0.067165434 -0.09760929 -0.037257466 0.030166136 0.060291395 0.03278809 -0.08816843 -0.011068418
-0.114721276 -0.23415206 0.066511095 -0.120087214 -0.07062846 0.2020428 0.12422068 0.081575446
-0.16970724 -0.38470018 -0.25610217 -0.16400126 -0.055844095 -0.023013191 0.045235906 0.29441768
-0.2767593 0.055746064 -0.14854154 -0.13117868 -0.036546573 -0.14279772 0.08263363 0.119954206
9.584968e-05 0.07170693 -0.09672988 -0.12452925 0.072909325 -0.069815844 -0.059399705 0.16452798
-0.119475126 -0.13806099 0.075888254 -0.19948797 -0.08112193 -0.13792185 0.036482297 -0.3443801
0.07753744 -0.2618101 -0.020612879 -0.13179347 -0.010576754 0.08173068 -0.19290131 0.00061441306
-0.09676462 -0.11024408 -0.077692464 0.08953653 0.10628461 0.11607667 -0.11358999 -0.15498342
-0.23359089 0.034484785 -0.047263708 -0.08998935 -0.10734612 -0.21662882 -0.1598671 0.038239192
-0.055584576 0.06964842 0.09116171 0.07706038 0.009528525 0.073064014 -0.12149288 -0.015093163
0.06810389 -0.025318176 0.07941246 -0.15079595 -0.00838244 -0.18419321 -0.11599265 -0.10114457
-0.080585785 -0.08318172 -0.09324293 0.08063949 -0.047938082 -0.22278339 -0.09152435 -0.22691265
-0.2297798 -0.013308611 -0.18245111 0.044982105 0.07725758 0.044431787 -0.00731185 -0.1396506
-0.08369199 0.02886392 0.034757353 -0.020517437 0.11802822 0.0993546 0.24290961 -0.10136184
-0.025571372 0.072056 0.05015226 -0.020837702 0.058334406 0.057432447 -0.068478785 0.21836506
-0.20328681 -0.33498618 -0.25411057 -0.096160136 0.12902798 0.035797067 0.104733735 0.117349446
0.05842325 -0.14233567 0.080802865 -0.15840702 0.100044936 -0.14449239 -0.06737911 -0.026551457

shared1.bias f4 [200]
00000000: 4f83 6abd 570b c7bc 6bd0 16be 6c98 1abe
00000010: 77dc bcbd 95d3 05be e4d4 0dbe d236 06be
00000020: 3627 0ebe b847 cdbd c4f2 06be ab3e 2fbe
00000030: 719f 93bd b392 17be 1f7c b8bd a9f7 fcbd
00000040: 8d09 82bd c0cc 0cbe c36d 45be e273 e6bd
00000050: 032e e5bd 9215 b2bd f375 82bd 00ad e1bd
00000060: ae37 b8bd 64ec e6bd 9eda 97bd 49e0 c7bd
00000070: 7b55 edbd 7d80 0bbe 2ab3 15be 94ab fcbd
00000080: bab0 b7bd 153f 29bd 6fc7 3cbe 4b0c 06be
00000090: 1fc1 d9bd e0bf 13bd 10b5 ffbd 99c0 9abd
000000a0: bf3e f0bd 1bd5 c0bd 8d73 2abe bfdc 20be
000000b0: 7c95 e6bd f639 babd 6454 11be aaf8 0dbe
000000c0: ba9a 04be e720 1fbe bb94 b3bd 1551 a6bc
000000d0: e5a8 03be 4184 1cbe cbc7 45be aa6d f8bd
000000e0: 9f49 96bd b63d d9bd f057 b7bd d33f 3ebe
000000f0: e46b 28bd f3c7 4bbd c6ef 8abc 1e53 cabd
00000100: ab22 bdbd 5d98 8bbd 32c1 2dbe dfca cebd
00000110: 1fde 81bd 8f47 15be 275a 2dbe c473 cbbd
00000120: 3cc1 d8bd 2bc8 a2bd 4acf 72bd b997 e8bd
00000130: f314 17be 93b1 89bd 07e4 a7bd 2b25 05be
00000140: 87f2 aebd c083 f2bd bba2 e4bd d0d8 6bbd
00000150: 9f70 01be 907a 52bd 5fc7 e5bd e26f bdbd
00000160: eb49 25be 774f 19be 6ddf 09be 3ee2 adbd
00000170: f6ed d6bd 13ee 22be 253d 44bc 726d 77bd
00000180: 9656 dabd 1860 7abd 4e2f 18be 86bb 1cbe
00000190: 07df 19be e6b3 f4bd afbb 1fbe 12db d0bd
000001a0: f899 e7bd b529 d2bd c24e b4bd 848f 04be
000001b0: 5046 aebd c41d c2bd 5fc2 79bc d7ec 3abd
000001c0: 83a1 2dbe 37ce b7bd b021 1bbd ce9e 96bd
000001d0: b9b1 02be e637 ddbd 6aaf a9bd 4a3b 7abd
000001e0: 29b3 24be 613c b8bd af8c 02be b1f4 cbbd
000001f0: 0f12 fdbd 38e6 e4bd d3c7 2fbe 68a1 59be
00000200: fbae 46bd 4acc e3bd 5f08 21be fe79 0bbe
00000210: 3969 2cbe 7b9b e8bd 698f b4bd 4065 15bd
00000220: c4ce 00be 66c4 7abd 4c81 c3bd 811e 0dbe
00000230: 806e 98bd c73d 82bd 0ebd 08be b3e1 f4bd
00000240: a4c4 d9bd 6372 b6bd 5b8d e43c 17c5 ebbd
00000250: eb57 c7bd 22a4 65bd 4b38 d7bd b25c 9bbd
00000260: 1b30 d4bd ed09 05be c781 0fbe 91c8 b4bd
00000270: a5e4 debd 28e5 fdbd bb0d a6bd 6204 a4bd
00000280: 9170 87bd a705 03be 9282 a4bd 5c8b 0fbe
00000290: 30c1 0abe c3ef 0ebe d158 22be 2e90 26be
000002a0: 3287 cbbd 9aff 10be c8da d8bd bc57 2dbe
000002b0: a36d b6bd 1dfa b3bd 7e9b 34be 8f99 57be
000002c0: 10fe 15be 20ee 20be 17fb b3bd 7689 7ebd
000002d0: ef52 6bbd 6be8 dcbd 767c 1ebe 833b 49bd
000002e0: 9a15 2abd 7f45 f2bd cba8 fbbd ef0c ddbd
000002f0: 7b5c c7bd be51 aebd 23f7 babd 0e19 12be
00000300: 52ca c3bd 0e4c f3bc 30ef 03be d364 ffbd
00000310: 7a1c 04be 4741 84bd 5528 57bd 950c ebbd
-0.057254132 -0.0242974 -0.14727943 -0.15097207 -0.09221738 -0.13068993 -0.13850743 -0.1310685
-0.13882145 -0.10023445 -0.13178545 -0.1711375 -0.072081454 -0.14802055 -0.09008049 -0.12351925
-0.06349478 -0.13749981 -0.19280152 -0.11252572 -0.11190417 -0.086955205 -0.06370153 -0.11019325
-0.08994995 -0.11275557 -0.07414745 -0.09759576 -0.1158857 -0.13623233 -0.14619127 -0.123374134
-0.08969255 -0.041319925 -0.18435453 -0.13090627 -0.10632538 -0.036071658 -0.12485707 -0.07556266
-0.11730718 -0.09415647 -0.16645642 -0.15709208 -0.11258981 -0.090930864 -0.14192349 -0.13864389
-0.12949648 -0.15539895 -0.087686025 -0.020302335 -0.12857397 -0.15284826 -0.19314496 -0.12130292
-0.07338261 -0.106074736 -0.089523196 -0.18579035 -0.041118518 -0.049751233 -0.016960036 -0.098791346
-0.09235128 -0.0681617 -0.1696823 -0.10097288 -0.06341194 -0.14578079 -0.16928922 -0.0993419
-0.105837315 -0.07948335 -0.059279718 -0.11357064 -0.14754085 -0.06723323 -0.0819779 -0.1300246
-0.08542352 -0.118415356 -0.11163851 -0.057579815 -0.12640618 -0.051386416 -0.11219668 -0.092498556
-0.16141479 -0.1497172 -0.13464136 -0.08490418 -0.10494606 -0.1591113 -0.011977469 -0.06040711
-0.10661046 -0.0611268 -0.14861795 -0.1530591 -0.15026484 -0.119483754 -0.1559894 -0.10198034
-0.11308664 -0.10261861 -0.08804084 -0.12945372 -0.08509505 -0.094783336 -0.015244096 -0.045636024
-0.16956143 -0.08974879 -0.037873924 -0.07354508 -0.12763108 -0.108016774 -0.08285411 -0.0610917
-0.16083969 -0.08995891 -0.12748979 -0.099587806 -0.1235696 -0.11176723 -0.1716607 -0.21252978
-0.048506718 -0.111229494 -0.1572585 -0.13620755 -0.16837014 -0.113577805 -0.08816416 -0.036473513
-0.12578875 -0.061222456 -0.09546146 -0.13781168 -0.07442951 -0.06359439 -0.13353369 -0.11957111
-0.10633209 -0.08908536 0.027899435 -0.11512201 -0.09733566 -0.056064732 -0.10508784 -0.075860396
-0.10360738 -0.12992068 -0.1401435 -0.088273175 -0.10883454 -0.12397224 -0.08108088 -0.080086485
-0.06613267 -0.12795125 -0.08032717 -0.14018005 -0.13550258 -0.1395865 -0.15854193 -0.16265938
-0.09937896 -0.14160004 -0.10588604 -0.16928 -0.0890763 -0.0878794 -0.1763744 -0.21054672
-0.14647698 -0.15715837 -0.08788126 -0.06214281 -0.05745214 -0.10786518 -0.15477166 -0.04912902
-0.041524507 -0.118296616 -0.12288054 -0.107934825 -0.09734436 -0.08511685 -0.09129169 -0.1426737
-0.09560074 -0.029699352 -0.12884212 -0.124704026 -0.12901488 -0.06457763 -0.052528698 -0.11477009

shared2.weight f4 [200, 200]
00000000: 5a98 51ba 3928 9a3d 2198 68be 3c49 6bbd
00000010: 104b 0dbe 03c2 febd 0c7f f0bc 60c8 383d
00000020: 2b66 2e3e ab8d c9bd 04b2 44be 8396 8abd
00000030: a48a 82bd 5520 23be b798 053d f356 04bd
00000040: c2d1 c23d e6ec 56be 86a9 32be b612 d03d
00000050: 0f27 b0bd ab1f ca3d c892 b6bd b2e7 29be
00000060: a557 e23d 8722 1a3b 5a01 a8bc 2b00 d23c
00000070: 193e e63d aff0 acbd 4595 c43c 8f50 203e
00000080: 271c 8f3d b979 62bd fa0b c63d f1ad 60bd
00000090: c5a7 9b3b 573a f7bd a1c0 5f3d 9c68 10bd
000000a0: e5ac 12be c316 46bd e6b4 c8bd 002a 92bc
000000b0: e21e 1dbe 0a62 ccbd ca26 67bd b32d 36bd
000000c0: a988 e53d d026 76bc 5b8c 903c 703c 013d
000000d0: 48b6 673d 73e7 21be 2df1 b63d 9572 dd3d
000000e0: 057b b8bd 924e 10bc ee35 f5bd e731 cabc
000000f0: 066a 59bc f117 d63d 0cbd 15be 14b6 11be
00000100: 2a0c 6c3c 9a3f edbd 47f5 01be 0e17 6a3d
00000110: ae79 ccbd 5b48 683c 6397 17be 7382 163d
00000120: 5352 153d 423f 92bd 92d1 9dbe cbaa 573e
00000130: 5916 19be 1640 d9bd dc63 673d 1f8e acbc
00000140: e94d f93c dc48 463d 2e63 06be 6e14 26bd
00000150: 463a 1dbc de0c 4f3d e96f b73d caa9 84bc
00000160: d6b3 a53c 4c27 7fbd 0006 2dbc 2166 33be
00000170: b88b 12bd 875f f43d 7d40 e4bc 7e63 763e
00000180: 6816 90bd 1a92 55bd 9819 05be 868e 2dbe
00000190: 4219 383d 8aee e53d c39b 00bd 8376 913c
000001a0: 5bfa b1bd 9cc9 67be 8c0d 513d 639b a13d
000001b0: 45f3 83bd 4e37 c3bd f2f2 5fbe 8e84 0f3d
000001c0: 00b3 fe3d a75a b9bd 0e2f 20bd 6930 a23a
000001d0: 0ad7 193d 35a4 27bd f6ea c23d 755c 1abd
000001e0: e49d 95bd 868e 8cbc 5258 12be 5ce0 ffbd
000001f0: bece 423d fd1e f4bd 80dd bbbd 69d7 c9bd
00000200: d0cc 063e 0197 13bc 98b2 af3d d8d4 89bd
00000210: 374b 36bd 55cf 34be ecb1 57bd 94bd 8f3c
00000220: cacb 7d3d ee01 4cbe 4ac8 8ebd 00be a33d
00000230: cab9 8bbd fe23 0c3e bb63 fe3d a5d4 18bd
00000240: c79d 12be 5ee6 4e3c c854 123d ff14 89bd
00000250: 2e3a 823c dfaf 4e3a c709 38be a6d7 cf3d
00000260: c426 fdbc 539c 66bd 6eb3 2f3d 6f86 97bd
00000270: 4fcb f0bd f997 74bd 7d4b 97bd 2e6b ecbd
00000280: 1c50 9ebd 4c18 c2bb 75ba 5dbd cd5c d63d
00000290: 6aef 3bbe 2072 e13d 906a 923d d71c 37be
000002a0: fdac 9cbd 3e70 9ebd 4429 443d e145 48be
000002b0: aa50 a03d db83 38bd d6d7 9bbd b658 153c
000002c0: 947f db3c b7b8 a6bd 0a78 02be 5575 993d
000002d0: d1a6 02be 520c 2ebb fe85 afbd 58ab 623b
000002e0: 1cc6 9a3d 9915 6e3d 6877 92bd 2d00 b9bc
000002f0: baf2 b2bd ed5e 18be bba3 cebd 9be7 3fbd
00000300: 9efe 88bd 1e4e dabd d0f1 333d 0b89 39bc
00000310: c8e7 103e 3554 13be 7c84 5a3d a6dc 983d
00000320: bece 623d 4dd2 f03c 2d5b 9cbc 65bf 95bb
00000330: d1e5 ef3c 51bf 71bd cb8c d5bc 79c4 c2bc
00000340: 1652 debd f740 26be 8bbf 283e cb6d 3a3e
00000350: d50d e7bc dbab 8cbc a509 a4bd cc55 68bd
00000360: 00d0 a03d 4b9f c5bd d3f4 8f3b 5d77 fabd
00000370: 5a4f 83be 4d34 673d 7e9f f5bd 4905 1e3d
00000380: 32f7 0ebd 28a7 cebc 0424 913c 3ce9 70bd
00000390: 1f69 9fbd 59f2 ce3b 0bca 0dbe 78b3 22be
000003a0: 2500 683d 8a4a debc cc53 103c 6040 913c
000003b0: 0368 ea3b 1f9a 9a3c 6368 21bd 94b1 1c3d
000003c0: 0b7a a9bd 5009 103e 29da f13b e44b 26be
000003d0: ae11 1cbe c8c1 d93c c8f1 88bd 9802 443e
000003e0: 175a 1f3c 7954 aebd af7f 8ebd 659b 87bd
000003f0: eea7 813c e073 a7bd 23fe ecbc d7b5 9fbd
-0.00079954194 0.07527203 -0.22714283 -0.05744289 -0.13798165 -0.124393485 -0.029357456 0.045112967
0.17031161 -0.09841474 -0.19208533 -0.06766989 -0.063741 -0.15930302 0.032616343 -0.032309484
0.095126644 -0.20988807 -0.1744748 0.10159819 -0.086012 0.098693214 -0.08914715 -0.16592291
0.11051873 0.0023519115 -0.020508457 0.025634846 0.11242313 -0.08444344 0.023996959 0.1565573
0.069877915 -0.055291865 0.09670253 -0.054853383 0.0047502243 -0.12071674 0.054627065 -0.035256013
-0.14323767 -0.04836155 -0.09800129 -0.017842293 -0.15343812 -0.09979637 -0.056433477 -0.044477176
0.112077065 -0.015023902 0.017645052 0.03155178 0.05657032 -0.15810947 0.089327194 0.108128704
-0.09007839 -0.008807795 -0.11973177 -0.024681998 -0.013269907 0.10453785 -0.14622897 -0.14229614
0.014407197 -0.11584397 -0.12691222 0.057150893 -0.09984146 0.014177407 -0.14803843 0.0367455
0.036455464 -0.07140972 -0.30823952 0.21061246 -0.14949931 -0.106079265 0.056491718 -0.021063862
0.030432658 0.048409328 -0.13123772 -0.040546827 -0.009596413 0.05054938 0.08956892 -0.016194243
0.020227354 -0.062293336 -0.010560513 -0.17519428 -0.035777777 0.11932283 -0.027862782 0.24061391
-0.07035524 -0.052141286 -0.12998044 -0.169489 0.044945963 0.11227138 -0.031398546 0.017756706
-0.0869033 -0.22635502 0.05103831 0.07890966 -0.06442884 -0.09532033 -0.2187002 0.035038523
0.12436485 -0.09050494 -0.039107375 0.0012374046 0.037558593 -0.040928084 0.095174715 -0.03768583
-0.07305506 -0.017157804 -0.14291504 -0.12493965 0.047560446 -0.11919973 -0.09173107 -0.09855539
0.13164067 -0.00900817 0.08578986 -0.0673005 -0.044505324 -0.17657216 -0.052659914 0.017546453
0.061961927 -0.19922611 -0.06971796 0.07995224 -0.06822546 0.13685605 0.12421366 -0.03731217
-0.14318 0.012628166 0.035725385 -0.06693458 0.015896883 0.0007884483 -0.1797248 0.101485536
-0.030902274 -0.056301426 0.042895727 -0.07398688 -0.11757528 -0.059715245 -0.07387445 -0.115438804
-0.077301234 -0.0059233066 -0.054132897 0.10466919 -0.18353048 0.11008096 0.071492314 -0.17882095
-0.076501824 -0.07736252 0.047890916 -0.19557907 0.078278854 -0.045047622 -0.07609527 0.009115389
0.026794232 -0.081407 -0.12741104 0.074930824 -0.12758948 -0.0026557636 -0.08570479 0.0034586992
0.075573176 0.058126066 -0.07151681 -0.022583092 -0.08737703 -0.14879961 -0.10089823 -0.046851736
-0.066891894 -0.10659431 0.043931782 -0.0113241775 0.14150918 -0.14387591 0.053349003 0.0746396
0.055372946 0.029397154 -0.019086445 -0.004569935 0.02928439 -0.059020344 -0.026068112 -0.023775326
-0.108555004 -0.1623572 0.16479318 0.18205945 -0.028204838 -0.01717179 -0.08009652 -0.056722447
0.07852173 -0.09649523 0.004393199 -0.12229798 -0.25646478 0.056446362 -0.11993311 0.03857926
-0.034903713 -0.02522619 0.017717369 -0.05881618 -0.07783722 0.006315511 -0.13846605 -0.15888774
0.056640763 -0.027135152 0.008809041 0.017730892 0.0071535124 0.018872319 -0.03940619 0.03825529
-0.08275231 0.14066052 0.007380743 -0.16239887 -0.1524112 0.02658166 -0.06686741 0.19141614
0.009726069 -0.08512206 -0.069579475 -0.06621436 0.015827145 -0.08176398 -0.028929776 -0.07798355

shared2.bias f4 [200]
00000000: e9ee 64bd da33 6b3c 4933 113d 90df 5ebd
00000010: 26e6 81be 4c0b ef3d 7a5a 4fbe 99d9 eebd
00000020: 1e5b 67bd b002 77be 663d f8bd f66c 14be
00000030: f8c6 4ebe f966 4cbe 9991 0abe 3635 c5bd
00000040: ffdb 0ebd af2d 1c3e a37e 14be 7519 a73b
00000050: 1736 9dbd 7f43 5d3c 0e3d 7f3d 048b ddbd
00000060: e71a 223d 054d 85be fc62 37be 8e4a 09be
00000070: 7b87 53be 55f5 4cbe e1b4 00be f620 afbd
00000080: 59da 12be c781 58be f0fd 7ebe 5a40 7dbd
00000090: ece3 3cbe 7dcc efbd ab0a 56be 0d41 a9bd
000000a0: 52da cf3b 6740 9dbc 673b 43be 1a86 41be
000000b0: 0cb2 68be aadc 0abe 266b e4bd 7506 b3bd
000000c0: 269d 9fbd d85c e0bd c63e f9bd fc82 68be
000000d0: 1aec b2bc 0bfd 88be 9363 74be 88ec 54be
000000e0: f36d 50be ca46 68bd b9ef 21be bf60 68be
000000f0: 1a98 85bd 76fc adbd e326 27be ba31 74be
00000100: 91fa 49be 99f2 c9bd 2f85 6dbe 0890 60be
00000110: 304a 32be 896f d4bd a3dd 06be 641b 80be
00000120: 08a9 3abe b584 88bd 6997 69be b8bf a7be
00000130: 7505 2abe dbe9 9abd 5898 33be d6aa d7bd
00000140: bc50 22be 546e 93bd 2836 74be 18c1 17be
00000150: 1610 0dbe 3e55 1fbe e79a d0bd 5d90 6abe
00000160: 38fc 54be 7bc7 8abe 88ed 64be 8092 0f3c
00000170: b959 67be e9af b5bd ab67 32be 2ade 04be
00000180: 27b4 4abe 8f7f 0fbe 6fb0 433d 2f71 28be
00000190: bf50 3ebe 30c4 e1bd 4030 5ebd 557e ddbd
000001a0: bb41 863a d753 38be cd5e 9a3d 2ea7 9dbd
000001b0: d2d6 bbbd d6ed 133d 5b11 1fbe 61bc dbbd
000001c0: 3f44 39be 7805 48be f707 82be 8502 50be
000001d0: 3b52 21be 09db a7bd a047 82bc 294f 06be
000001e0: db5e 48be 7704 c03c 790d 5bbe 5638 dcbd
000001f0: ef5d 4abd 9d36 39be 0c91 2fbe 71ee 4fbe
00000200: 2c4c 54be 7a9a 14be c6fc 3fbe a918 17be
00000210: f0f1 8fbc 6197 84be 15a3 24be bdb9 51be
00000220: 398c 3cbd a94b 01be 74ed cdbd 5b25 5dbd
00000230: 5e8f 3bbe 3b27 18be 755d e0bd 1439 e4bd
00000240: c39e 3ebc 9638 59be d5b1 6abe 501c 5ebe
00000250: 21cc 29be a9ce 853d 3dd5 01be 9d52 7dbe
00000260: 0014 9bbd 0b1d 29be 3b92 d2bd b174 efbd
00000270: d6ea 82be 8dea 80be d6c9 8abe be78 18be
00000280: f55a a03d 0987 1cbe 2aa4 49be 6af0 03be
00000290: cf66 7abe cff2 093d dcb6 35be db5f 3cbe
000002a0: 45d6 1dbe 0806 57be e92b c6bd c093 b2bd
000002b0: 3ec9 2cbe 3918 3fbe a87b 1bbe fc79 0cbd
000002c0: 4191 33be a397 5bbe a594 97bd 7bf6 82be
000002d0: 3bf3 3fbe 7d64 4fbe 0135 50be 70ce cfbc
000002e0: cc1e fbbd dcf2 24be dc86 5cbe 6e64 39be
000002f0: 188d d5bd 0cab 52be c99b 70be 0edb 003d
00000300: 6f7e 1ebe 40ab 09be 01db 15be 4abc 8dbe
00000310: 9017 81be bd72 55bd 35e7 26be 6edf 8bbe
-0.055891905 0.014355624 0.0354493 -0.054412425 -0.25370902 0.116720766 -0.20249358 -0.11662597
-0.05648338 -0.24122119 -0.12121086 -0.1449469 -0.20193088 -0.19961156 -0.13532104 -0.0962929
-0.034877773 0.15251802 -0.14501433 0.0050994703 -0.076763324 0.013504862 0.062314086 -0.10817531
0.039576437 -0.26035324 -0.17908853 -0.13407347 -0.2065715 -0.20015462 -0.12569 -0.08551209
-0.14341106 -0.21143256 -0.24901557 -0.06182895 -0.1844632 -0.11708925 -0.20902507 -0.082643606
0.0063431645 -0.019195748 -0.19065629 -0.18898812 -0.2272417 -0.13560739 -0.111532494 -0.08741466
-0.077936456 -0.109552085 -0.12170176 -0.22706217 -0.021841098 -0.26755556 -0.2386611 -0.20793355
-0.20354442 -0.056708135 -0.15814103 -0.22693156 -0.06523152 -0.08495419 -0.16323428 -0.23847094
-0.1972449 -0.09860725 -0.23195337 -0.21929944 -0.17411113 -0.10372836 -0.13170485 -0.25020897
-0.18228543 -0.06665937 -0.22811665 -0.32763457 -0.16603644 -0.07564136 -0.17538583 -0.10530631
-0.1585111 -0.07198778 -0.23848784 -0.14819753 -0.13775668 -0.15559861 -0.10185795 -0.22906633
-0.20799339 -0.27105317 -0.22356236 0.008762956 -0.2259282 -0.08871443 -0.17422359 -0.12975374
-0.19795285 -0.14013503 0.047775682 -0.16449426 -0.1858549 -0.11023748 -0.054245234 -0.108151115
0.0010242978 -0.18000732 0.07537613 -0.076979026 -0.09171833 0.03611549 -0.15533964 -0.1072929
-0.1809244 -0.19533336 -0.25396702 -0.20313461 -0.15754025 -0.081960745 -0.015903294 -0.13116135
-0.19567434 0.023439629 -0.21391858 -0.10752933 -0.04940599 -0.1808724 -0.17145175 -0.20305802
-0.20732182 -0.14512053 -0.18748769 -0.14755501 -0.01757142 -0.25896743 -0.16077836 -0.2048101
-0.046032164 -0.12626518 -0.10055056 -0.053990703 -0.18316409 -0.14858715 -0.109553255 -0.11143699
-0.011634531 -0.21212992 -0.229194 -0.21690488 -0.16581775 0.06533558 -0.12679 -0.24738546
-0.07572174 -0.16514985 -0.102817975 -0.11692179 -0.2556979 -0.25178948 -0.27107114 -0.1488981
0.07829849 -0.15285887 -0.1969153 -0.1288468 -0.24453281 0.033678826 -0.17745537 -0.18395941
-0.15413769 -0.20998394 -0.09676344 -0.08719587 -0.16873643 -0.18661584 -0.1518389 -0.03429602
-0.17535879 -0.21444564 -0.074013986 -0.25578675 -0.18745129 -0.20253177 -0.2033272 -0.025366992
-0.122617334 -0.16108268 -0.2153582 -0.18104717 -0.10427302 -0.20573062 -0.23496927 0.031458907
-0.15477918 -0.13444233 -0.14634325 -0.27682716 -0.2521329 -0.052111376 -0.16299136 -0.273189

hidden1_Y1.weight f4 [200, 200]
00000000: 4feb c43d af88 073d 1c04 c83d c6cb 9dbc
00000010: 0c69 dabd 7b39 36bd 9b3d d6bc 8c6f bdbd
00000020: c922 813c 74cc b8bc c42a 4fbd b96c 9dbd
00000030: 74cc bb3d 696d acbb fc0e 37bd 6773 01be
00000040: f14e 483d 5c16 4cbb f1f7 8bbd 61ac 28be
00000050: 11c5 8d3d f157 93bd b5ac 0fbe 7e8c e13c
00000060: ecd3 653b d2a8 b63d 425c 3bbd fc82 acbd
00000070: d863 1d3e ef5d 00be 6ff3 2dbb 76c0 be3d
00000080: c6fa cbbd 3822 04bc 5d9c 133e 91b1 2cbe
00000090: 11d0 8bbc a7a8 203c c114 6d3d afbc a9bc
000000a0: fe4e cd3c e156 e0bd 1e80 f73c b8d4 d53d
000000b0: c5e0 60bc 0052 e6bc 4a9c 95bc 8298 12be
000000c0: 6abd 3e3d 32e1 e8bd d77b 67bd 96ad 32be
000000d0: 4734 33be f69e 823d 4575 cb3c add3 47bd
000000e0: 83e6 7ebd 1473 25bd 5a22 15bd 2c32 8cbd
000000f0: a157 853c 9714 933d 1230 c0bd 603c b0bd
00000100: 6437 1abe 8d61 e7bc bfdb a83c de11 0cbd
00000110: c9ee 0bbd 3aa1 db3d 3445 29bd adaf 8cbd
00000120: be12 553d 3165 1c3e 4169 153d f7a4 45be
00000130: 4f92 78bd 4cda e9bd 21a1 cb3d 101e 29be
00000140: c88e cb3d 51e6 e1bd be10 1e3c 875c e23c
00000150: 6680 01bb ef50 ddbd 90ce 1a3e be78 9abd
00000160: cbd6 103d 998f d83d ef57 f8bd bdf2 32bd
00000170: 416c 78bd cafd 133e a716 d2bc 15cd be3b
00000180: f125 a1bd d3ee 843b a8ad b5bd a912 1c3e
00000190: 5233 923d 76d7 5c3c 62d7 30bd d91f e13d
000001a0: 7041 68bc 89fc d3bc b1f3 17be f3ab fa3d
000001b0: f24f 04be 23a8 6b3d 1a27 2f3d 6565 16bc
000001c0: 40f0 6ebc da22 15bd afe2 173e c365 9d3d
000001d0: 8723 153e 6b28 cfbb df5e 673d 1ef2 2cbe
000001e0: e1bc 42be 7482 2bbd 9763 95bc ffb9 00be
000001f0: 5b45 463b 6f60 463d 78a8 88bd ad59 b83b
00000200: 5605 f6bd 6bf2 1abc e0d5 f6bc ba1d ff3d
00000210: 9231 b1bd 71d2 6fbe b854 673b eb9b 4b3d
00000220: af86 093d ce42 5c3d 64e3 bf3d e2ff fa3c
00000230: 7d7c a83d c5eb babd 341c 9cbc ba4e bdbd
00000240: 6f83 a5bd f46a 20be 4a3f 56bd 49e5 a1bd
00000250: fafa 84bd 4ca3 773d 834a 463d 58b8 b13d
00000260: 1f64 b5bd c929 473c c972 13be ad4d 313d
00000270: f4bd babd 23bb 5f3d ad5c 4f3d 933b bc3c
00000280: 2403 09be a16e 01be b1e7 9fbd 5c1b e6bd
00000290: 6901 96bd 8ae6 0bbd ab2e 2f3d 5b9f 94bc
000002a0: 2eea 30bd 2443 b9bd b50b e83d 29f8 c03d
000002b0: 732f 803d f1b7 56be b378 93bd 5319 103c
000002c0: cdf6 09be fd91 b5bd 940d bebd b832 113d
000002d0: 4273 aa3c 5792 f23d f6d1 503d 987a dfbd
000002e0: 5b1e e2bd 7241 2abd bb92 9dbc 8725 513d
000002f0: a651 26bd fd22 e5bd fdca da3d 3d52 57be
00000300: 731b c9bd 9643 0f3c a50e 53bc 7629 4d3d
00000310: e3c5 d9bd fe9b 4fbd e8be af3d 619f d03d
00000320: 7106 a03d b09e 18bd 47ed cbbd d2e8 273d
00000330: 0bed 9b3c 18c9 4bbd 1e0c 923b 24d1 203d
00000340: 5876 94bd 1656 89bb 320b 63bb 7210 3cbe
00000350: c500 50bc e6e3 80bd d57b 083c 79e6 0a3e
00000360: 9821 eebb 0970 e73c 7d9c 4abd 599a 063e
00000370: a377 8abc cccc 66bd d6fc a8bd 24e8 d33d
00000380: c1fe 743c 0ec0 bf3c 4d5b 90bd d6f3 523d
00000390: 3c01 6fbc e65b 1cbe 7b2c 16bd 30d7 1dbd
000003a0: fb38 96bd fcbb a3bd 9a09 7fbd 10b0 44bb
000003b0: c44a 163c a83e 2ebd 639b b53c 8325 f23b
000003c0: df91 43bd fc3d 0cbe 8d84 c03c 44f1 0fbd
000003d0: c94e 68bd ace7 193d a7c6 b03d d6e1 21bd
000003e0: 5918 413d f396 173d 64b4 3abd 6fc7 b4bd
000003f0: f785 f63c 639a bd3d 9c0f 5c3d 606f 1b3c
0.09615194 0.033089336 0.09766409 -0.019262206 -0.10664567 -0.04448841 -0.026152423 -0.092497915
0.015763657 -0.022558428 -0.050577894 -0.07686753 0.09169856 -0.005262066 -0.044692025 -0.12641679
0.04890341 -0.0031141257 -0.068344004 -0.16472007 0.06922353 -0.07194508 -0.14030726 0.027532812
0.0035068942 0.08918919 -0.04574228 -0.08423421 0.15370119 -0.12535833 -0.0026542803 0.09314053
-0.099599406 -0.008064799 0.14415117 -0.16864611 -0.017066987 0.009805835 0.05788112 -0.020719854
0.02506208 -0.10954071 0.030212458 0.104409635 -0.013725464 -0.028115273 -0.018263001 -0.1431599
0.046567358 -0.113710776 -0.056514587 -0.1744903 -0.17500411 0.06377976 0.024836192 -0.048785854
-0.06223155 -0.04039295 -0.036409713 -0.06845507 0.016277136 0.071816616 -0.09384169 -0.086052656
-0.15060192 -0.028244758 0.020612596 -0.034196727 -0.03416327 0.10724111 -0.041325763 -0.06869445
0.052019827 0.15272976 0.03647733 -0.1930121 -0.060686406 -0.1141859 0.09942842 -0.16515374
0.09939343 -0.110302575 0.009647546 0.027632011 -0.001976037 -0.108064525 0.1511786 -0.07542561
0.035361093 0.10574264 -0.12126147 -0.043688525 -0.060650114 0.14452282 -0.025645567 0.0058227875
-0.07868565 0.0040567904 -0.08871013 0.15241493 0.07138695 0.013479104 -0.043174155 0.109924026
-0.014175758 -0.025877254 -0.14839055 0.12239828 -0.12921122 0.057533395 0.0427619 -0.009179448
-0.014583647 -0.03641019 0.14832567 0.07685425 0.14564334 -0.006321957 0.05648696 -0.16889235
-0.19017364 -0.041872457 -0.018235965 -0.12570952 0.0030253741 0.04843181 -0.06672758 0.0056259246
-0.120127365 -0.009457211 -0.03013128 0.12456842 -0.08652033 -0.23420121 0.00352983 0.04970924
0.03357571 0.053774647 0.09369543 0.030639593 0.08226869 -0.09127001 -0.019056417 -0.092435315
-0.080817096 -0.156658 -0.05230645 -0.07905061 -0.064931825 0.060458466 0.048410904 0.08677739
-0.08856987 0.012155958 -0.14399256 0.043286968 -0.09118262 0.054621827 0.050625492 0.022977626
-0.13380104 -0.12639858 -0.078078635 -0.11235687 -0.07324488 -0.034155406 0.042769115 -0.018142393
-0.04319208 -0.09046009 0.11330358 0.09422333 0.0625905 -0.20968606 -0.07200756 0.0087951
-0.13473053 -0.08865736 -0.092799336 0.03544876 0.020806912 0.11844318 0.050981484 -0.10912055
-0.11040946 -0.04156632 -0.019235006 0.05106118 -0.04060521 -0.11188314 0.10683248 -0.21027465
-0.09819689 0.008744141 -0.0128819095 0.05008837 -0.10633447 -0.050685875 0.08581334 0.10186649
0.078137286 -0.03726071 -0.099573664 0.04099352 0.01903393 -0.049752325 0.004457011 0.039261952
-0.07249135 -0.0041911704 -0.0034644124 -0.18365648 -0.012695496 -0.06293468 0.008330305 0.13564481
-0.0072671883 0.028251665 -0.049465645 0.13144816 -0.01690275 -0.056347653 -0.0825135 0.10347012
0.014953316 0.023407008 -0.07048664 0.05150207 -0.014587697 -0.15269431 -0.036663514 -0.038535297
-0.07335087 -0.079948395 -0.062265016 -0.0030012168 0.009173099 -0.042540222 0.02216882 0.0073897257
-0.047746535 -0.1369552 0.023500705 -0.0351422 -0.05671576 0.037574455 0.0863164 -0.039522015
0.04714236 0.03700919 -0.04558219 -0.088271014 0.030093176 0.092579626 0.053725824 0.009487003

hidden1_Y1.bias f4 [200]
00000000: e368 91bd 2754 5dbd 5fad 09be 233d efbd
00000010: 144a 893c 0f54 c0bd 5171 433d 46f3 14bd
00000020: 4a8f 0fbe b71f 19be 07b7 b9bd d982 b73b
00000030: b6d5 88bd f314 733c 272b 21bd 84c6 d7bd
00000040: c221 13be 3b9e f5bd 4ae6 18bd bcde cdbd
00000050: 8a26 053c 926b d83c 4912 12be e5cf eebd
00000060: fe4c b7bc 4453 253e b9eb 75bd 23a1 bdbd
00000070: 8949 d5bd 618b 3dbe 15ca 84bd fe14 0bbe
00000080: bd65 e5bd 2ac9 6dbd 3396 2ebd 51d2 0ebe
00000090: 6a7a 1dbe 6ce1 28bd 3ecd 17be 0032 17be
000000a0: d001 b43d a3da d9bc 72ec a4bc b4dc c4bd
000000b0: bc4b d3bd c4ed 3cbd b3ea 84bd 3236 a63c
000000c0: 3b43 243c 017f 07be 40ab 00be 0dd3 0c3d
000000d0: 184e 14be 7125 ff3d 7d6d 91bd 1d7d 72bd
000000e0: 986f 17be b342 583d 746c e93c cbb0 e23d
000000f0: 5ebd 90bb dc81 943d f7a2 5ebd b78b b4bc
00000100: 249f 00be d601 0dbe 99d4 14be fbca 403b
00000110: 7a0a 99bd 49e8 50bd 07cd bebc 334f 71bc
00000120: 1cd4 b6bd 0b19 d6bd a402 0ebe c176 12be
00000130: f20f 2cbc 7cf4 c3bd 2c59 d7bd 5bd6 50bd
00000140: 0ae3 d3bd c368 d1bd 6f6f 93bd 39b0 e5bb
00000150: 4e6f dd3c 6f88 1abe 78c8 58bd 79d5 24bd
00000160: d80c 943d 5492 d2bd 4abc 84bd bba4 a5bd
00000170: 9b83 4d3d fe6a 7139 f3d6 33bc cc04 cbbd
00000180: 9a2f 9b3d 73a0 03be 1c93 91bc 5bde e7bd
00000190: 517f fcbc 6acf b0bc 0f77 7ebd eae5 04be
000001a0: bdb5 303c b53f b83d 67d7 0f3d c041 e33d
000001b0: ae75 9e3a 4fe2 c6bd 1ded f7bd 0079 863d
000001c0: c291 6f3d e518 e7bd 5205 97bd b692 853c
000001d0: 83b0 6a3d 853b 31be 83ae 0abd 04e1 f9bd
000001e0: 63bf 33bd 74f7 42be 0a66 b33d 7569 273e
000001f0: 46a9 0ebe c4d5 2cbe 25df 53bd 83f4 fbbd
00000200: a3db d0bd 5bd1 e5bd 41d1 b13c ae73 00be
00000210: 849b 12be 37db c83d ee13 dabd 0044 07be
00000220: 7e05 a5bd 4174 a03d 674a a6bd 50b4 be3d
00000230: df35 0ebe 8bd9 21be 067c 76bb bde5 943d
00000240: 9fdb f4bb c8e5 b03c 72ad fcbd f833 91bd
00000250: f921 cabd 079e 04bd bbf5 4cbc 3a61 0f3e
00000260: 5649 03be d9b4 b93b eb74 133e 66d1 bdbd
00000270: d750 05bd cd35 aebd cd16 dabd 5a4f 453d
00000280: dbc4 31bd a41a 23be 307e a5bd acad ebbd
00000290: fe03 ff3d 90fb c6bd b6df 70bd 4a2e 3f3c
000002a0: 3f56 cabd 0761 8d3c 5bca b1bd 3455 003e
000002b0: 9df0 133e 6442 abbd b80c 65bd dbe2 0cbe
000002c0: ffb9 e9bd 14b4 6ebc 2aab fcbd b660 27bc
000002d0: 8ca9 a7bd e5cd f8bd 5238 fbbd 8fa9 403d
000002e0: fba3 c83d c367 20be 6a62 20be 0ca4 7dbc
000002f0: 9c0b cabd a5eb ccbd 1176 7fbd 5e0b e7bd
00000300: 2b24 2bbd ca24 d0bd f235 99bd d21a 7dbc
00000310: 36f5 e2bd 606c 26bd 947d 1e3d 42e1 06be
-0.07100084 -0.054035332 -0.13445042 -0.11681583 0.016758956 -0.09391033 0.04771549 -0.036364816
-0.14019504 -0.14953505 -0.09068113 0.005600315 -0.06681387 0.014836538 -0.039347794 -0.10535911
-0.14368346 -0.11993071 -0.037328996 -0.10052249 0.008126864 0.026418481 -0.14264788 -0.116607465
-0.02237558 0.16145045 -0.060039256 -0.0925925 -0.10414416 -0.185102 -0.064838566 -0.13582227
-0.11201046 -0.058053173 -0.04262371 -0.13947417 -0.15378729 -0.041230604 -0.14824387 -0.14765167
0.08789408 -0.026593512 -0.020132277 -0.09612408 -0.103171796 -0.04612519 -0.06490078 0.020289514
0.010025795 -0.13232042 -0.12565327 0.03438096 -0.14482915 0.12458313 -0.07100961 -0.05920135
-0.14788663 0.052797984 0.028494097 0.11068877 -0.0044171056 0.07251331 -0.054354634 -0.022039277
-0.12560707 -0.13770232 -0.14534225 0.002941786 -0.07472701 -0.051002774 -0.023291124 -0.014728355
-0.089271754 -0.10453995 -0.13868195 -0.14303114 -0.0105018485 -0.09568116 -0.10515055 -0.050985675
-0.10346039 -0.1022506 -0.07198989 -0.007009533 0.027030613 -0.15091108 -0.052925557 -0.040242646
0.07229012 -0.10281816 -0.06481226 -0.080880605 0.050174337 0.00023023409 -0.010976541 -0.09913024
0.07577439 -0.12854175 -0.017770343 -0.11321708 -0.030822428 -0.021583278 -0.062125262 -0.1297833
0.010785517 0.08996526 0.035117533 0.11096525 0.0012089515 -0.09711134 -0.12105773 0.06566048
0.058488615 -0.11284045 -0.07374062 0.016305309 0.05729724 -0.17307861 -0.033857834 -0.122011214
-0.043883692 -0.19039708 0.08759697 0.16348822 -0.1393176 -0.1687842 -0.05172648 -0.12302496
-0.101981424 -0.11221572 0.021706225 -0.12544128 -0.14317137 0.09807437 -0.106483325 -0.13209534
-0.08057688 0.07834674 -0.0811966 0.09311736 -0.13887738 -0.15805642 -0.0037610545 0.072703816
-0.00747247 0.021593943 -0.123377696 -0.070899904 -0.09869761 -0.03237727 -0.012509759 0.14001933
-0.12820944 0.0056673107 0.1440007 -0.09268455 -0.032547798 -0.085063554 -0.1064888 0.04817138
-0.043400627 -0.15928131 -0.08080709 -0.11507735 0.12451933 -0.097159505 -0.058807097 0.011668751
-0.098797314 0.01725818 -0.08681174 0.12532502 0.14447255 -0.083622724 -0.055920333 -0.13758413
-0.11412429 -0.014569301 -0.123373345 -0.010215929 -0.081866354 -0.12148646 -0.122666016 0.047036704
0.09796902 -0.15664582 -0.15662542 -0.015481006 -0.098654956 -0.10005883 -0.062368456 -0.11281465
-0.04178254 -0.10163267 -0.074809924 -0.015448289 -0.110819265 -0.0406307 0.03869398 -0.13171867

hidden2_Y1.weight f4 [200, 200]
00000000: 37b1 94b8 8e5d 1cbc 7f6c 0a3e 9fe7 3a3d
00000010: a841 10ba c94d 5bbd 6ad4 00be 1dcb b33d
00000020: 9d2b 79bd 83c2 67bd 0e69 95bb 984d 0dbe
00000030: 031c bb3d 888f a23d 8cbe 2cbd 8e8f a63c
00000040: 5e1e 203d 2edb 2dbd 8fd2 1f3d d573 7a3c
00000050: 12b0 4e3d 978e d6bd 9c0c 233a 4455 ca3d
00000060: 177e 893d 2fe2 7ebe 03e1 54bd 05ff 1e3d
00000070: 1a08 493d baa2 19be c8ad 963d 1e2b 803c
00000080: 4688 68bd e9e1 ad3d 00fe b83d 9fc9 bdbd
00000090: e45d 1f3d 7567 70bd 486c dfbc f731 db3c
000000a0: fa6c b23d 2ae9 913c f2b8 063e 3efd 2b3d
000000b0: 18a8 2e3d f431 80bd 6ca1 ee3d 7985 f43d
000000c0: 4d88 f738 2bbf f5bd 65ea 0ebe 2a4f 633e
000000d0: 330e 1e3e e2f5 e6bd 62b4 d1bd 2987 e73c
000000e0: 3811 1dbd c124 1f3d 00ad c13d 2f13 ecbd
000000f0: 924d e43d ee7e 40bd aafe 433d 7fde a03c
00000100: 20e9 bcbc c53b fdbc f2d8 133d 4305 a4bc
00000110: e99a bf3c 3f47 c7bd e795 44bc 0eb1 6cbd
00000120: 62ae 82be ec85 dc3d 8d9d 90bd 11ab ae3d
00000130: b278 93bc 2b5a b43b 17ef c93d 5baf 8d3e
00000140: a09e 02be e769 c63c be37 dfb9 ae9c a8bd
00000150: bf3e 7c3d 5332 1cbe 2e06 acbc 54c5 06bc
00000160: 1ca9 103e 5cc1 9abd cc53 ee3d 880d cf3d
00000170: 55fc 153e 3bea 213e 7729 44bd 4f04 c4bd
00000180: de02 603e 82a6 2dbe 7ea7 1a3e 6491 01be
00000190: 24f7 31be 5c6d dabd 6eee 2abe fbff 42be
000001a0: 7800 7b3e 2c34 56be 70ab 55be cfd3 10bd
000001b0: d426 c73d 834a abbc a008 20be d975 c6be
000001c0: 3ab2 09be 6276 1dbe 28be e6bd ce6a 6dbe
000001d0: 36f7 43bd afaa afbd aa71 603d 9bd8 16be
000001e0: 6110 74bd d7eb 87bd 3dc9 8cbe 0fe6 adbd
000001f0: c7d0 57bd c17c 4a3e 9e6f 243e b246 093e
00000200: e647 16be 092d 583d 0810 5f3d 7057 0e3d
00000210: e24b ebbd 711d 10be 1bf3 d53a a4fb 9fbd
00000220: 6949 b13d 4073 47bd 9032 cd3c 3969 e5bd
00000230: e1ce 52bd 6b59 b83d e040 0dbd 51d5 933d
00000240: b23b 4c3e 11d3 a93d dd7d 9a3d 0001 383c
00000250: 4258 d1bd d30e 0fbe 1861 15be 3868 043e
00000260: e826 dfbd 5ab7 4bbe 8b22 14be 618d cebd
00000270: d4a6 89be 8944 8b3d 54ae 2dbd 1eb7 423e
00000280: d81e 5b3d 144e b43d cf77 873b 6054 0bbd
00000290: b511 c33c b39b e3bd 0e2e 1dbe 1a55 66bb
000002a0: d382 543d c5da 9d3d b055 833d d856 eebd
000002b0: 218e 43be 045c 65be 4bb2 d4bd 6482 dd3d
000002c0: 575d 20bd 98c0 813d 8099 9fbd 0145 b63d
000002d0: 42d7 d9bd 414a 4cbc c6df 40bd bacd b53d
000002e0: 59ee 95bd 7f28 3fbe 8240 c03d 6688 ec3d
000002f0: 11a7 123d 603c 9e3d e300 733c 4789 0cbe
00000300: e3d3 113d d629 d23c cc4d d3bc 5d6b 4b3d
00000310: a077 7e3d 2e50 5c3e d2e0 453c 7757 0a3d
00000320: fb92 75bd f956 6cbb 5e7d a2bd 6f49 10be
00000330: 4a28 0a3e b1c7 843d e825 a8bd e58b 8cbd
00000340: 7d57 4bbd e9bb 9a3d 94fb b53d a240 98bd
00000350: 0c51 f0bd 4238 1c3d 5b56 97bd 57b3 663d
00000360: 246f 063d de5d 55bd abfb 16be 013e b53c
00000370: d8f6 a63d a462 0fbd 5a1b ccbd 0894 553d
00000380: 3115 f43b 5c48 a7bc 44fd e03d e6ba e13d
00000390: 7179 373e 911e 843c 2b31 05be ad14 073e
000003a0: 4403 71be 2df1 e03d 7147 f93d bcc8 54be
000003b0: a8c8 de3d ce20 97bd 541b 193e cbc8 f13d
000003c0: 4265 6f3d e1ff 21bd 0029 65be 0590 5f3d
000003d0: 47bb a5bd 24ad 3bbe da83 febd 8a75 53be
000003e0: 1a3d 02be cf2f 54bb d3f9 30be 6891 803e
000003f0: 840a 1b3d 7b01 90bd d9d7 933d 8ee6 07be
-7.090199e-05 -0.00954379 0.1351795 0.045631047 -0.00055029476 -0.05354098 -0.1258103 0.08778975
-0.06083261 -0.056581985 -0.0045596426 -0.13799131 0.09136202 0.07937533 -0.042173907 0.020332124
0.03909146 -0.042445354 0.039019164 0.015286406 0.050460882 -0.104764156 0.00062198355 0.098795444
0.06713503 -0.2489097 -0.0519724 0.038817424 0.049079992 -0.15003482 0.07357365 0.01564556
-0.056770585 0.084903546 0.09032822 -0.09266972 0.0389079 -0.058692414 -0.027273312 0.026757224
0.08712192 0.017811377 0.13156489 0.041989557 0.042640775 -0.06259528 0.116518825 0.119395204
0.00011803266 -0.11999353 -0.13956602 0.22198167 0.15435104 -0.11277367 -0.102394834 0.028262692
-0.0383465 0.03885341 0.09456825 -0.115270965 0.11147608 -0.04699605 0.04785029 0.019637344
-0.023060381 -0.03091229 0.036095567 -0.02002204 0.023389297 -0.09730386 -0.01199863 -0.05778604
-0.2552367 0.10767731 -0.070613004 0.08528722 -0.018001888 0.005503913 0.09860056 0.27672848
-0.12755823 0.02422042 -0.00042575406 -0.08233009 0.061583277 -0.15253572 -0.02099904 -0.008225758
0.1412701 -0.075564116 0.11637077 0.10110003 0.14647038 0.15812008 -0.047891106 -0.09571134
0.21876094 -0.16958049 0.15102956 -0.12653118 -0.17379433 -0.1066539 -0.16692516 -0.19042961
0.24511898 -0.2091834 -0.2086618 -0.035358246 0.09724203 -0.020909553 -0.1562829 -0.38761786
-0.13446894 -0.1537719 -0.11266738 -0.23185274 -0.04784318 -0.08577477 0.0547959 -0.14731066
-0.059585933 -0.0663678 -0.27497283 -0.08491146 -0.05268934 0.19774152 0.16058204 0.13405874
-0.14675865 0.052777324 0.054458648 0.034751356 -0.11489083 -0.14073731 0.0016323061 -0.078116685
0.0865658 -0.048693895 0.025048524 -0.1120171 -0.051466826 0.0900143 -0.034485698 0.07218421
0.19944647 0.08292211 0.07543538 0.011230707 -0.10221912 -0.13970499 -0.1458782 0.12930381
-0.10896093 -0.19894162 -0.14466302 -0.1008556 -0.26885092 0.068001814 -0.04240258 0.19015166
0.05349621 0.08803955 0.0041341553 -0.034016013 0.023812154 -0.11113682 -0.153496 -0.003514594
0.051882576 0.077077426 0.06412828 -0.11637658 -0.19097187 -0.22398382 -0.10385569 0.10815886
-0.039151516 0.063355625 -0.0779295 0.0889988 -0.1063676 -0.012468875 -0.047088407 0.0887713
-0.07320852 -0.18667792 0.09387304 0.115494534 0.03580386 0.07726359 0.014831754 -0.13724242
0.03560246 0.025654715 -0.025793932 0.049662936 0.062125802 0.21514961 0.012077527 0.03377482
-0.059954625 -0.0036062582 -0.07934068 -0.14090513 0.13491932 0.064834006 -0.08210355 -0.0686262
-0.049643982 0.07555372 0.08885875 -0.07434203 -0.117342085 0.03813959 -0.07389518 0.056323376
0.032820836 -0.05209147 -0.14744441 0.022124292 0.081525505 -0.03500618 -0.099661544 0.052143127
0.0074488153 -0.020420246 0.109858066 0.11021976 0.1791742 0.016127856 -0.13007037 0.13191481
-0.23536402 0.10983501 0.121718295 -0.20779699 0.10878116 -0.07379304 0.14951831 0.11805876
0.058446176 -0.039550666 -0.22378922 0.054580707 -0.08092361 -0.18327767 -0.124274924 -0.20650306
-0.12718621 -0.003237713 -0.172828 0.25110936 0.037851825 -0.070315324 0.07218904 -0.13271543

hidden2_Y1.bias f4 [200]
00000000: ed06 943e 7dfd 743e 2e23 dabd 0137 90bd
00000010: eed7 9c3d 9ec8 28be f4de eb3c a908 96bd
00000020: 0839 343b 4d88 9dbd 9402 f2bd df7d 723e
00000030: 89d5 d5bd f866 03bd 718f 9a3d 7dae 04be
00000040: 1e4f 0dbe 8baa 4c3e 7860 403c 10fe c2bd
00000050: eb83 cb3c 6bff a03e 2e40 78bd f43a 27be
00000060: 73d8 aebd 1f49 6ebd a77d a6bd e583 19be
00000070: 9e0e 873e 9298 e6bd 1736 5fbd c3b4 983e
00000080: bc4a 3fbd 5a57 bfbd 3f34 3cbd 3288 7bbd
00000090: 5236 88bd e28c 0fbe 6413 b23d 4309 813e
000000a0: f7a5 1cbb 96b7 0e3e 9634 9b3b ee1e 0bbd
000000b0: cc5c d0bd 4bc1 3e3e 4e9d c0bd 9c29 69bc
000000c0: 5a48 c63c c181 b1bd b0a5 bfbd 354d 323c
000000d0: 6724 04bd c47b 73bd de70 583e fd3a dbbd
000000e0: 2d76 4a3d fc48 dbbd 95fa bbbc e87c 103e
000000f0: ea52 76bb a980 c1bd 3808 8b3e e867 8c3e
00000100: b899 453e 8966 083d c65b aebd ba12 9abd
00000110: 8518 833e 8bf0 02be 97a1 d0bd 3062 04bd
00000120: b9fd 57bc 7799 17bd 127a 373d c83f 88bd
00000130: 2aea 95bd 2bc9 2c3c 8c2a d1bc 2db1 82bd
00000140: 1d97 34bd 1bf2 2ebc a032 ca3a 7313 79bc
00000150: b003 4fbd 39e4 5f3d 5fbc 58bb ec4e aabd
00000160: ba01 afbd 107b 353e 7b82 7d3e 6b9e e5bd
00000170: 04af 4c3e 5e58 66bd 40c0 19be 7865 9dbd
00000180: 0f19 c1bd d85d 6f3e 4460 db3d ffeb c5bd
00000190: 7bc7 88bd c1a2 d73c 3d12 313e b0de 433e
000001a0: 7179 f8bd ef40 51bd 2eb5 853d 0d14 f5bd
000001b0: 81f5 cdbd 8db4 823e 7884 09be 2b47 f8bb
000001c0: 8d76 773e 3eaa dfbd a9bd cdbd c198 6c3e
000001d0: 0b88 b7bc 6c66 8dbd 9cca b0bd 5de8 7cbd
000001e0: a2eb 4abc 8872 5b3d d710 b33e 6f69 57bd
000001f0: c17a 8bbd ed6e cebd 1b5f af3b b284 e7bd
00000200: bacf 683e 225e e0bd 83cd 923e 730c 033d
00000210: 3abf 73bd ad4b b43e e1fc 743e 1853 2dbe
00000220: ed01 533e d23a f5bd 4cb5 18bc 2b52 133c
00000230: f691 63bd dd84 913e 3baa 733e e87a 8e3e
00000240: 6f58 d8bd 9b36 ecbd ec80 07bd 7a02 bb3d
00000250: db4d a63e 037a e4bd 5e49 83bd 04c4 e23b
00000260: cad0 02bd 7db1 783e d996 cebd a1c9 f5bd
00000270: 0696 a43e e93c 9d3e 9f1c 343e 32bd abbd
00000280: 985f 7cbc 2565 453e c43f dabd 7614 edbd
00000290: 3027 80bd 6630 d2bc b3e1 0ebe b971 f7bd
000002a0: cb2e dd3d fb42 67bd 0940 15be a4a3 0ebd
000002b0: 7978 83bd fb12 bbbd 75df 05be 10ef dc3d
000002c0: f314 433d 9416 0dbe c336 79bd 953b 703e
000002d0: d28f afbd ea07 ac3c 988f bd3d d43d a3bd
000002e0: e199 4b3e 3d9c fb3b 6440 ddbd e33b babd
000002f0: f467 01be 26e5 733d 8027 1d3d 9028 923e
00000300: c879 863e 315e f9bd a2b6 8a3e 03dc 833e
00000310: e8ba c7bd d27d dabd 3c22 cdbd 4e53 42be
0.28911534 0.23924823 -0.10651241 -0.07041741 0.07658373 -0.1648278 0.028792836 -0.073258705
0.0027499814 -0.07692013 -0.11816898 0.23680829 -0.10441119 -0.03208062 0.075468905 -0.12957187
-0.13799712 0.19986932 0.01174175 -0.09521115 0.024843177 0.31444868 -0.06060808 -0.16331083
-0.08537378 -0.058175202 -0.08129435 -0.1499172 0.2637834 -0.11259569 -0.054494943 0.2982541
-0.04670213 -0.09342833 -0.045948263 -0.061409183 -0.06650986 -0.14018586 0.08695105 0.2520238
-0.0023902634 0.1393722 0.0047364933 -0.033965044 -0.101739496 0.18628423 -0.094050035 -0.014231112
0.024204422 -0.08667327 -0.09357774 0.010882665 -0.03226128 -0.059444204 0.21136805 -0.107046105
0.049429107 -0.1070728 -0.022946635 0.14110148 -0.0037586042 -0.09448368 0.27154708 0.27423024
0.1929692 0.03330091 -0.08513598 -0.07523103 0.25604644 -0.12787072 -0.10187071 -0.0323202
-0.013183051 -0.03701159 0.04479415 -0.0665279 -0.07320054 0.010546009 -0.025532983 -0.0638145
-0.044089425 -0.01067784 0.0015426464 -0.015202391 -0.050540626 0.05466101 -0.0033071262 -0.083158344
-0.08545251 0.17722726 0.24756806 -0.112118565 0.19988638 -0.056236617 -0.15014744 -0.07685369
-0.09428608 0.23375642 0.107117206 -0.09664153 -0.06678673 0.026322724 0.17292114 0.19127917
-0.12132538 -0.051087316 0.06528698 -0.11966715 -0.10056592 0.25528374 -0.13429439 -0.0075768433
0.24166317 -0.10921143 -0.100459404 0.23105146 -0.022403738 -0.06904301 -0.08632395 -0.061745036
-0.012385281 0.053576022 0.34973785 -0.052590784 -0.06810523 -0.10079751 0.0053519136 -0.113046065
0.22735491 -0.109554544 0.28672418 0.031994294 -0.05950854 0.35213986 0.2392459 -0.16926229
0.20606203 -0.1197411 -0.009320568 0.008991758 -0.05555912 0.2842168 0.23795407 0.27828145
-0.10563742 -0.11533853 -0.033081934 0.09131332 0.32481274 -0.111560844 -0.06410478 0.0069203395
-0.031937398 0.24286456 -0.10087366 -0.12001348 0.3214571 0.30710533 0.17589043 -0.083856955
-0.015403651 0.19276865 -0.106566936 -0.11576168 -0.062574744 -0.025657844 -0.13953285 -0.12082238
0.10799941 -0.056460362 -0.14575209 -0.03482403 -0.06419463 -0.091344796 -0.13073523 0.10787785
0.0476274 -0.13778144 -0.06084324 0.23460229 -0.085723534 0.020999867 0.09255904 -0.07970777
0.19882919 0.007678537 -0.10803297 -0.09093454 -0.12637311 0.059544705 0.03836775 0.28546572
0.26264787 -0.12176169 0.27092463 0.25753793 -0.097524464 -0.106685296 -0.10016295 -0.1897709

out_Y1.weight f4 [1, 200]
00000000: 37b4 af3d 2af2 a73d 290f 083d 9c29 0e3c
00000010: e7ce 363d 707d 15bc 00b3 023e 1922 50be
00000020: 3cba 8bbc cc91 42bd c30c ba3d ec36 db3d
00000030: bff6 d3bc eab4 3e3d bd89 8dbc 2a16 683c
00000040: e639 34bc 20c5 533d e950 6ebd ff12 d0b8
00000050: 425b a2bb 0dcf 353e 73be 003e 710c 853c
00000060: 359a c2bd cfef 4dbd 0eee e9bb 128c a33b
00000070: 4988 b73d 5579 3e3c 49cb 92bd 963f 3b3e
00000080: bccf 13bd 4832 34bd 6e62 82bd 5475 c4bd
00000090: 909f aabd 9f1d 65bc 56b6 bfbc d841 213e
000000a0: 7b60 4cbe a485 1d3d 3759 3d3c c8ac dabd
000000b0: ba5e 353c 3f48 ae3d 62da 243c 7f34 983d
000000c0: e208 77bd eaf4 573d 137c 53bc bfd6 10be
000000d0: d126 6abc dfd9 243d 6160 5d3d c949 be3d
000000e0: 9d5a 80be 59d4 353d 5ee0 473c 068f 973c
000000f0: 2087 96bc 305a ae3d 0879 d93d feae ae3d
00000100: 5be5 493d 7531 a0bd a0f1 223d 0f9f 0ebc
00000110: b1e0 2d3e 26f3 fd3c f90e 013b d5b6 9b3c
00000120: 5ad5 b7bd 22ee c5bb d000 423d abc2 a23d
00000130: e859 61bc ca3e a33c b03e 3d3d 7c7c 12bb
00000140: 2ce4 f43c 2790 853d d968 71be e90b 6fbc
00000150: d12f eb3a 9f80 b5bc 4bfb a6bd 488c 39bb
00000160: edd0 48bb c8bc ce3d faf0 0f3e 0712 cbbd
00000170: 8e26 623d f587 49bc 0618 86bd ae5f b83b
00000180: 0d1d 493c 3eec 1f3e dea7 45bc 134f e13c
00000190: 18fb 6ebc b146 ca3c c8ff 5a3d be8c 563d
000001a0: 9b32 00bc 7e2f 12be bdbe babc 74e9 95bb
000001b0: 4d62 aa3c 8c93 e23d 7bd2 13bc d0d3 55bd
000001c0: 9d98 e03d 4e61 2bbc 20cf eebb beaf 8f3d
000001d0: c3f4 5a3b 8dc3 013d a883 803a 1039 823c
000001e0: 7ec7 adbd 7af4 4a3c 94b0 4c3e eb27 c1bc
000001f0: 5e49 2a3d 2042 c0bb b927 eebd 67af a43b
00000200: 1235 913d 2fa2 a13c d8a8 193e 8676 6abd
00000210: ecd8 8b3b c78c 403e bfa4 e43d 4c1d d8bc
00000220: 495c c13d e81d 4a3b 996d a4bd f2a9 54be
00000230: 9d42 76bd 33b5 ee3d 0656 9e3d f6f2 c53d
00000240: 646e d3bb b5ff 3d3d cdf4 4cbd d703 993d
00000250: ddee c53d a0ee a2bc 2ef6 15bd 3b68 c8bd
00000260: 1b66 02bd 81b6 bf3d bdee bd3c 4c26 2c3c
00000270: 0b6a eb3d 4f0b 2a3e 4862 573d 6808 d7bd
00000280: fa8c e1bd 2ed0 c83d 16af b13c c1ff 8eb9
00000290: e6ed 0dbd fd05 f7bd 2292 5bbd 2987 d3bc
000002a0: 0694 673c f538 4f3c 825a 653c cd32 d5bc
000002b0: 19bf b4bd 5781 eebd 7a5a 8cbb eba3 1f3d
000002c0: 1615 083d 4b7a 14bc 6ed2 e53c 6b6c ce3d
000002d0: 95eb 663c 2b34 0cbe 1beb a8bd 0d80 fa3c
000002e0: 4527 c83d b4bc bbbd ff23 1bbe a8ee 133c
000002f0: 6bb5 4bbd dcf5 53bd e8b0 2bbe 4330 173e
00000300: 5e1c 2e3e 2930 d53b e94f 143e 1f1b cc3d
00000310: ba97 8a3c fe6e 22bd 119f caba 8d6c c2bc
0.08579295 0.08200486 0.033217583 0.008676913 0.04463091 -0.009124145 0.12763596 -0.20325507
-0.017056577 -0.047502324 0.09084465 0.10703835 -0.025874494 0.04655925 -0.017277593 0.014165441
-0.011000132 0.051701665 -0.05818263 -9.921751e-05 -0.0049547264 0.17754765 0.1257265 0.016241284
-0.09502069 -0.050277527 -0.007138974 0.004991063 0.08961541 0.0116256075 -0.0716768 0.18285975
-0.036086783 -0.043993264 -0.0636643 -0.09592691 -0.083312154 -0.013984113 -0.023402374 0.15747774
-0.1995868 0.038457528 0.011556915 -0.10677487 0.011069948 0.085098736 0.010061832 0.07431888
-0.060311206 0.052723803 -0.012908 -0.14144419 -0.014291481 0.04024684 0.054046992 0.09291417
-0.25069132 0.044391964 0.012199489 0.018500816 -0.01837498 0.08513296 0.10618788 0.08529471
0.049290996 -0.07821933 0.039781213 -0.008704915 0.16980244 0.030999731 0.0019692762 0.01900808
-0.089762405 -0.0060403505 0.047364056 0.07947286 -0.0137543455 0.019927401 0.04620236 -0.002235203
0.029893957 0.065216355 -0.23575152 -0.014590242 0.0017943328 -0.022156058 -0.08153399 -0.0028312374
-0.0030642108 0.10094601 0.14056769 -0.09915548 0.05521255 -0.012300481 -0.06547551 0.0056266403
0.012274993 0.15617463 -0.012063948 0.027503526 -0.014586233 0.024691911 0.05346659 0.052380316
-0.007824565 -0.1427593 -0.02279603 -0.004574949 0.020798827 0.110632986 -0.00902235 -0.052203953
0.10966609 -0.010460211 -0.007287875 0.07015942 0.003341005 0.031680632 0.0009804862 0.01589635
-0.08485316 0.012387389 0.19989234 -0.023578605 0.041573875 -0.0058672577 -0.1162867 0.0050257924
0.070902005 0.019730655 0.15005815 -0.05724194 0.0042678025 0.18803702 0.11164235 -0.026381157
0.0944143 0.003084058 -0.080287166 -0.20767954 -0.06012212 0.11655655 0.077312514 0.09665482
-0.0064523686 0.04638644 -0.050038148 0.074714355 0.096647 -0.019889176 -0.03661173 -0.097855054
-0.031835657 0.09360982 0.023185128 0.010507178 0.114948355 0.16605876 0.052583963 -0.1049965
-0.11013217 0.09805332 0.021689933 -0.00027274902 -0.034650706 -0.12061689 -0.05360616 -0.025821285
0.014134413 0.012647857 0.0139986295 -0.0260252 -0.088255115 -0.11645763 -0.0042832466 0.038974684
0.033223234 -0.00906236 0.028054442 0.10079273 0.014094253 -0.13691776 -0.08247968 0.030578637
0.09773115 -0.09166852 -0.1515045 0.009029068 -0.04973356 -0.05174814 -0.16766703 0.14764504
0.17003009 0.0065059853 0.14483608 0.099661104 0.016918052 -0.03965663 -0.0015458782 -0.023733402
