DCNModel/DCN_PD_NN_Models/NN_DCN_model_iter_id_80_epoch_100_lr_0.001.pth (torch_old, 828778 bytes, 14 tensors)

shared1.weight f4 [200, 25]
-0.022508344 -0.021170784 0.007474614 0.03821328 0.066196136 -0.021784931 -0.094074525 0.13063234
0.0149506135 0.0011514269 -0.11674431 -0.1377309 -0.10246783 0.022710431 -0.090658836 -0.14975365
-0.15346359 0.02242403 0.14677984 0.032204047 -0.0939706 -0.028674155 -0.10374707 -0.057408735
-0.13195617 0.04831167 0.087715246 0.087453425 0.07596171 0.036817387 0.28078765 -0.09378846
0.054175135 -0.039409585 0.051920895 0.02772974 -0.0021008556 -0.021448404 -0.16044945 0.32097253
-0.20039691 -0.049045093 -0.049477134 0.052251976 0.0013254425 -0.101741746 -0.05281518 0.22404328
0.16044702 -0.22570415 -0.03884612 -0.0067409487 0.0073026824 0.08968553 0.04614668 -0.09865329
-0.045221727 -0.13396667 -0.13845372 -0.027242506 0.051239334 0.0035979408 0.03319426 -0.069106705
-0.016330568 -0.036089186 0.0052595255 -0.15638903 -0.13874747 -0.007018684 -0.0590726 -0.0011468038
-0.05666143 -0.10575065 -0.20023136 0.0811973 -0.15086058 -0.033941694 -0.23173824 0.023202669
-0.08728678 -0.062420815 0.04818116 0.01601582 -0.27438664 0.26411808 -0.100471236 0.07049501
-0.08418291 -0.25069648 -0.119124785 0.16796064 -0.1827836 0.10023471 0.14083272 0.057988185
0.045660526 -0.07379725 -0.016802153 -0.3906107 -0.020839013 -0.018303474 0.051985916 0.05897591
0.026895402 0.08713653 -0.044508982 0.055770736 0.033838063 -0.12656014 0.03909917 -0.051346555
-0.08613353 -0.07203785 -0.044489354 -0.119687244 -0.090084754 -0.2603646 -0.055010337 -0.14725187
-0.18175188 -0.16322957 0.09813698 -0.0013896486 -0.07305667 -0.19328903 0.041905668 -0.17646147
0.1994633 -0.065767795 -0.12049067 -0.22726783 0.113340266 -0.16636537 0.0132455425 0.0479805
-0.021551313 -0.009881148 -0.089793 0.18718308 -0.008207166 -0.2559328 -0.22706379 0.10549573
-0.25833237 0.036877133 -0.11517341 0.050817516 0.08819759 -0.078019425 0.0037622002 0.08055502
-0.19354932 0.04041491 -0.020095386 0.11916283 -0.2957057 -0.3449681 0.14351204 0.13423492
-0.31137106 -0.112039335 -0.045156464 -0.1727265 0.017953657 -0.0033078666 -0.25816485 -0.09315108
-0.21024556 0.12514056 -0.12529194 0.09034389 0.008564783 0.17428185 0.073186226 -0.059544243
0.056672458 -0.11836585 -0.016236497 -0.037404865 0.18053564 -0.2711273 -0.12329356 -0.07792
-0.022993231 0.039087635 -0.14396949 -0.0756699 -0.07700048 0.10931822 -0.15806682 -0.28960738
-0.23088165 -0.023261018 0.027679732 0.037976168 0.0880325 -0.049056277 0.065056354 -0.10576185
-0.018858762 0.101705566 -0.010124124 -0.012320221 -0.06896765 -0.0875065 -0.29097778 -0.038104426
-0.25106388 -0.014432263 0.033914376 0.042540994 -0.116502576 -0.111888155 -0.06667823 -0.057010334
-0.19743083 -0.16112043 -0.103845336 -0.21062964 0.020168455 0.010438633 -0.094301276 0.042419605
-0.019630713 0.036321837 -0.060914796 0.03354079 -0.03605049 -0.050339043 -0.01987958 -0.1083043
0.12674488 -0.049941693 -0.032016262 0.0025498453 0.12035178 -0.10740085 -0.08734174 -0.0360617
-0.16077231 -0.021887124 -0.046136778 -0.08658465 -0.21370083 -0.0604932 0.03539371 -0.10580167
0.09887131 -0.04586948 0.030155951 0.03548987 -0.052266378 -0.08743156 -0.20742498 -0.0039395946
00000000: 6b63 b8bc 5a6e adbc 9bed f43b 8785 1c3d
00000010: d791 873d 5076 b2bc 25aa c0bd 7cc4 053e
00000020: 6bf3 743c 7aeb 963a a417 efbd 5409 0dbe
00000030: a7da d1bd 3a0b ba3c 57ab b9bd 0559 19be
00000040: 8f25 1dbe 99b2 b73c 744d 163e 64e8 033d
00000050: a873 c0bd 10e6 eabc 5879 d4bd 6c25 6bbd
00000060: 851f 07be 75e2 453d 0da4 b33d c81a b33d
00000070: d091 9b3d d4cd 163d 66c3 8f3e 2a14 c0bd
00000080: bfe6 5d3d f26b 21bd 01ab 543d 7b29 e33c
00000090: 82ae 09bb 90b4 afbc dc4c 24be 8356 a43e
000000a0: d934 4dbe 82e3 48bd 89a8 4abd 2b06 563d
000000b0: 78ba ad3a fa5d d0bd bb54 58bd 9a6b 653e
000000c0: 394c 243e fd1e 67be 1c1d 1fbd 2de3 dcbb
000000d0: 574b ef3b 0cad b73d 4d04 3d3d bc0a cabd
000000e0: 6b3a 39bd 8f2e 09be d0c6 0dbe ad2b dfbc
000000f0: 56e0 513d 6ecb 6b3b b4f6 073d d187 8dbd
00000100: afc7 85bc 41d2 13bd 1958 ac3b 7224 20be
00000110: d113 0ebe fdfc e5bb 1cf6 71bd 5a50 96ba
00000120: d115 68bd cc93 d8bd 7309 4dbe c54a a63d
00000130: 327b 1abe 7206 0bbd ca4c 6dbe 8613 be3c
00000140: 69c3 b2bd f8ac 7fbd 9c59 453d 9c33 833c
00000150: 687c 8cbe 7c3a 873e ddc3 cdbd b05f 903d
00000160: 1768 acbd 4a5b 80be b2f7 f3bd e0fd 2b3e
00000170: a02b 3bbe db47 cd3d 7436 103e 0585 6d3d
00000180: 8806 3b3d 0323 97bd aba4 89bc 20fe c7be
00000190: 94b6 aabc 2bf1 95bc 2fef 543d b990 713d
000001a0: bf53 dc3c a374 b23d 0d4f 36bd db6f 643d
000001b0: c899 0a3d fb98 01be 7426 203d c450 52bd
000001c0: c766 b0bd 9588 93bd 783a 36bd 961e f5bd
000001d0: 5b7e b8bd 824e 85be 8552 61bd 32c9 16be
000001e0: 2a1d 3abe a725 27be 0afc c83d df24 b6ba
000001f0: bc9e 95bd 8fed 45be 47a5 2b3d 51b2 34be
00000200: 1b40 4c3e 44b1 86bd d0c3 f6bd e6b8 68be
00000210: f11e e83d af5b 2abe d503 593c 3387 443d
00000220: 618c b0bc 8ae4 21bc 64e5 b7bd ecac 3f3e
00000230: 5977 06bc a009 83be 6983 68be 250e d83d
00000240: 2444 84be 7a0c 173d 09e0 ebbd 0726 503d
00000250: f0a0 b43d a6c8 9fbd 3f8f 763b 08fa a43d
00000260: cb31 46be 1b8a 253d 149f a4bc a40b f43d
00000270: bd66 97be a99f b0be d2f4 123e e174 093e
00000280: 076c 9fbe e174 e5bd fcf5 38bd 37df 30be
00000290: 8c13 933c cbc8 58bb 2f2e 84be fec5 bebd
000002a0: 9d4a 57be d924 003e 884c 00be 3806 b93d
000002b0: 4e53 0c3c f176 323e a9e2 953d aae4 73bd
000002c0: 6121 683d cb69 f2bd 6702 85bc d835 19bd
000002d0: 56de 383e 33d1 8abe 5681 fcbd 8594 9fbd
000002e0: 4d5c bcbc 5b1a 203d bd6c 13be d2f8 9abd
000002f0: 6db2 9dbd 3be2 df3d 45dc 21be 6b47 94be
00000300: 3d6c 6cbe e48d bebc 9bc0 e23c e68c 1b3d
00000310: 624a b43d 3cef 48bd 443c 853d ab99 d8bd
00000320: b17d 9abc 024b d03d a7df 25bc c1da 49bc
00000330: e93e 8dbd 9c36 b3bd 0afb 94be 6313 1cbd
00000340: 728b 80be 4c75 6cbc cde9 0a3d 773f 2e3d
00000350: e798 eebd 9e25 e5bd 998e 88bd ab83 69bd
00000360: 4f2b 4abe c1fc 24be ddac d4bd 4caf 57be
00000370: 5138 a53c cd06 2b3c 0721 c1bd 2ec0 2d3d
00000380: 97d0 a0bc 35c6 143d cb81 79bd 1162 093d
00000390: aea9 13bd 5030 4ebd 80da a2bc a5ce ddbd
000003a0: 69c9 013e a98f 4cbd 7c23 03bd 4e1b 273b
000003b0: fe7a f63d faf4 dbbd 3ae0 b2bd 6fb5 13bd
000003c0: 7fa1 24be a04c b3bc ebf9 3cbd 4b53 b1bd
000003d0: 64d4 5abe b8c7 77bd fff8 103d 8cae d8bd
000003e0: 0b7d ca3d a3e1 3bbd 9d09 f73c d35d 113d
000003f0: 4515 56bd 510f b3bd 3767 54be b717 81bb

shared1.bias f4 [200]
-0.12781918 -0.17050768 -0.17698364 -0.105569445 -0.120877706 -0.04267995 -0.16612427 -0.23270261
-0.18005888 -0.05935389 -0.044655494 -0.070057854 -0.042202674 -0.09325351 -0.10861391 -0.05507372
-0.124104604 -0.07238629 -0.06290257 -0.08740458 -0.080291085 -0.124091096 -0.16376294 -0.14555715
-0.16294415 -0.04451446 -0.086848825 -0.093863435 -0.029954605 -0.08032635 -0.020227328 -0.13120393
-0.20442852 -0.17024752 -0.17820284 -0.110991865 -0.102311485 -0.12710652 -0.08355243 -0.07647505
-0.05906862 -0.04012277 -0.051153913 -0.10845777 -0.116147734 -0.12200974 -0.09576692 -0.12362957
-0.049443964 -0.048523027 -0.04611391 -0.20126261 -0.12121651 -0.14630702 -0.060451817 -0.11117415
-0.055734817 -0.16075003 -0.10155249 -0.090619355 -0.040362064 -0.14768517 -0.08566345 -0.14755425
-0.12798691 -0.15529005 -0.14320754 -0.16069636 -0.13858266 -0.15159298 -0.19527453 -0.10375853
-0.031789318 -0.1001716 -0.11496811 -0.06531364 -0.0987551 -0.11262491 -0.056180436 -0.029134657
-0.03593053 -0.09315751 -0.08612713 -0.15213598 -0.058850423 -0.11340109 -0.031853307 -0.124825336
-0.066643395 -0.053161457 -0.012251117 -0.03257243 -0.2171426 -0.09987653 -0.0777529 -0.1676448
-0.116618395 -0.06928113 -0.102938116 -0.14952981 -0.15227978 -0.041420612 -0.13235083 -0.09503928
-0.18992163 -0.11075515 -0.07009863 -0.07642863 -0.0043750494 -0.12155418 -0.026497718 -0.13620487
-0.13388732 -0.081278145 -0.1776697 -0.13630615 -0.15332589 -0.18731014 -0.06301568 -0.121576056
-0.181969 -0.06453711 -0.093992874 -0.11710927 -0.11676638 -0.07468073 -0.17696606 -0.10980732
-0.18990567 -0.08291978 -0.09863272 -0.18691131 -0.001297404 -0.15070924 -0.09999884 -0.15676953
-0.10968176 -0.14541978 -0.04505403 -0.08267963 -0.10740528 -0.15550584 -0.1679904 -0.10581323
-0.11198305 -0.1507079 -0.11861174 -0.035060305 -0.09952868 -0.11274825 -0.10007508 -0.070563726
-0.13306618 -0.17335364 0.033735227 -0.116207935 -0.07286981 -0.1379803 -0.13138136 -0.06922968
-0.09487003 -0.077599615 -0.1428351 -0.090907745 -0.1292338 -0.19596341 -0.13233197 -0.10269723
-0.17534336 -0.09744757 -0.092589535 -0.048924554 -0.14500108 -0.053329248 -0.1073268 -0.14267723
-0.12025672 -0.11955257 -0.09503731 -0.14599311 -0.07002038 -0.054685064 -0.12654075 -0.1008259
-0.12216916 -0.12773891 -0.09393621 -0.1591376 -0.08773344 -0.14915547 -0.02577219 -0.074893996
-0.08887327 -0.11372385 -0.10951938 -0.047733497 -0.054189473 -0.13462229 -0.15150309 -0.059002943
00000000: 08e3 02be 9199 2ebe 333b 35be cb34 d8bd
00000010: bb8e f7bd 2cd1 2ebd 7b1c 2abe 9849 6ebe
00000020: 5b61 38be 111d 73bd aee8 36bd 7e7a 8fbd
00000030: b6dc 2cbd b2fb bebd f870 debd fb94 61bd
00000040: 8e2a febd 433f 94bd 10d3 80bd 2c01 b3bd
00000050: a76f a4bd 7923 febd 79b1 27be ef0c 15be
00000060: d5da 26be cb54 36bd ccdd b1bd 793b c0bd
00000070: 5c63 f5bc 2482 a4bd c8b3 a5bc 535a 06be
00000080: b655 51be 5e55 2ebe ce7a 36be b44f e3bd
00000090: af88 d1bd 3628 02be 891d abbd f39e 9cbd
000000a0: f0f1 71bd c657 24bd c486 51bd 1b1f debd
000000b0: ddde edbd 3ee0 f9bd 7221 c4bd 8031 fdbd
000000c0: c185 4abd 15c0 46bd f0e1 3cbd c917 4ebe
000000d0: 5d40 f8bd 82d1 15be 539c 77bd 46af e3bd
000000e0: 314a 64bd a89b 24be c0fa cfbd a496 b9bd
000000f0: b152 25bd c83a 17be 5270 afbd 7618 17be
00000100: 000f 03be 5b04 1fbe ffa4 12be 968d 24be
00000110: 9de8 0dbe 313b 1bbe 0cf6 47be 5a7f d4bd
00000120: 8435 02bd c526 cdbd 6774 ebbd 28c3 85bd
00000130: 1d40 cabd e4a7 e6bd 751d 66bd ceab eebc
00000140: e42b 13bd 5dc9 bebd 6c63 b0bd 89c9 1bbe
00000150: 240d 71bd d53e e8bd 9d78 02bd 6da4 ffbd
00000160: 557c 88bd d4bf 59bd e9b8 48bc ab6a 05bd
00000170: a15a 5ebe 118c ccbd ea3c 9fbd 14ab 2bbe
00000180: a0d5 eebd 44e3 8dbd 38d1 d2bd 581e 19be
00000190: 3bef 1bbe a9a8 29bd fa86 07be f4a3 c2bd
000001a0: d17a 42be 99d3 e2bd df8f 8fbd 9d86 9cbd
000001b0: 935c 8fbb 66f1 f8bd be11 d9bc 4a79 0bbe
000001c0: c219 09be 2875 a6bd 0cef 35be d793 0bbe
000001d0: 7601 1dbe 3bce 3fbe 5d0e 81bd defc f8bd
000001e0: 1556 3abe 082c 84bd 567f c0bd fcd6 efbd
000001f0: 3623 efbd 36f2 98bd 9736 35be a9e2 e0bd
00000200: a276 42be d8d1 a9bd f4ff c9bd ae65 3fbe
00000210: a70d aaba 8653 1abe 31cc ccbd 3188 20be
00000220: d5a0 e0bd ece8 14be 938a 38bd f053 a9bd
00000230: 4df7 dbbd ec3c 1fbe ad05 2cbe 9bb4 d8bd
00000240: 5f57 e5bd 2c53 1abe b6ea f2bd 659b 0fbd
00000250: b1d5 cbbd 8ee8 e6bd 2af4 ccbd b783 90bd
00000260: 8042 08be 9e83 31be f32d 0a3d 6dfe edbd
00000270: c43c 95bd b54a 0dbe d688 06be 4ac8 8dbd
00000280: 384b c2bd 8cec 9ebd 5d43 12be d72d babd
00000290: de55 04be a2aa 48be 0882 07be ed52 d2bd
000002a0: 368d 33be 9792 c7bd 959f bdbd 1d65 48bd
000002b0: 2a7b 14be c56f 5abd 27ce dbbd fb19 12be
000002c0: 2849 f6bd fad7 f4bd eca2 c2bd 387f 15be
000002d0: d866 8fbd 72fd 5fbd e693 01be cf7d cebd
000002e0: d333 fabd fdcd 02be a161 c0bd f8f4 22be
000002f0: 97ad b3bd 36bc 18be 3320 d3bc 0662 99bd
00000300: 3003 b6bd 0de8 e8bd b24b e0bd 3384 43bd
00000310: c8f5 5dbd 6dda 09be a023 1bbe 12ad 71bd

shared2.weight f4 [200, 200]
-0.035420645 -0.13647163 0.04531409 -0.040994737 0.03301332 -0.009646553 0.03008978 -0.05654066
-0.0059214532 0.10612124 0.13250612 -0.032947175 -0.12590715 0.106726564 -0.039393026 0.011548293
0.123030655 -0.025282996 -0.13526477 -0.16354255 -0.03365804 -0.072962165 -0.14910662 0.0015747197
-0.0069278153 -0.1657924 -0.048733428 -0.16620322 0.22455104 -0.111009635 -0.34082094 -0.07761244
0.00691344 -0.04992146 0.032004442 -0.13981737 -0.16159025 0.030763242 -0.03892244 -0.07347296
0.0540542 -0.02821284 0.12838787 0.0830268 0.025700612 0.18581063 0.031154148 -0.17837882
0.008830593 0.08806153 -0.060568716 -0.10848687 -0.037472278 0.10028213 -0.04769884 0.08057353
-0.18739037 -0.10106434 -0.2714276 0.1368131 0.09424214 -0.22070758 0.06620226 0.14578061
0.0023640846 0.0080612935 -0.05098176 -0.115445666 0.20322986 -0.0014764001 -0.11797692 0.025311137
-0.10775051 -0.038661446 -0.06967898 0.039527502 0.13187815 -0.02259668 0.16279472 -0.0011063667
-0.086114116 0.29711422 0.075448826 0.061950177 0.061900724 0.035879854 -0.015156468 0.009448384
-0.015446617 -0.0818771 -0.21936767 0.046240292 0.09218225 -0.19991638 0.3889643 -0.13361508
-0.08629226 -0.016089149 -0.11521659 0.09053702 -0.17822279 0.04479792 0.016878027 -0.1974735
-0.1339223 0.022377228 -0.051547267 -0.09583183 -0.10116909 -0.13427544 0.16384916 0.019063126
-0.12378036 -0.13445938 0.044558056 0.07851032 0.061527546 -0.05088162 0.08177398 0.122547686
-0.109899156 -0.14511964 -0.026206361 -0.21395494 -0.06450233 -0.029523835 -0.07178086 -0.12047875
-0.046141922 -0.020318357 0.015529295 -0.048172813 -0.042156067 0.15420176 0.056490134 -0.2442877
0.07943262 0.021861356 -0.100630656 0.13613252 -0.015019413 0.022528715 -0.06535618 -0.04185991
-0.07988157 -0.022045223 0.022205032 0.005506484 -0.064191334 -0.075360514 0.11503388 0.061008327
-0.0021671827 0.037685245 0.2692031 -0.08382649 -0.0121109 0.14501925 -0.118734926 -0.034080695
-0.19542147 -0.15763177 0.10510894 -0.026070911 -0.09668193 -0.09338657 0.03264362 0.042877715
-0.11461944 -0.16511759 -0.11521645 -0.08145262 -0.14258075 0.020668175 -0.14704852 -0.038132645
-0.05959835 -0.08753124 0.0163764 0.0011807026 0.0061254445 -0.10855428 -0.0037149212 0.047207437
-0.0014558523 0.041770097 -0.30456522 -0.16253208 -0.07436885 -0.19072379 0.027901236 0.052397173
0.060346544 0.042030204 -0.18598567 -0.27189216 -0.044034977 -0.09424548 -0.050935034 0.08428606
-0.0720192 -0.12361287 -0.104560025 0.27502608 0.07828835 0.28214285 -0.113233924 -0.14800677
0.12997799 0.032155283 0.2658653 -0.1555421 0.20878242 0.012202268 -0.010514582 -0.16524117
-0.061039172 0.10314781 0.036303848 -0.03275213 0.06343562 0.046259157 0.0005391194 -0.105908155
-0.022903822 -0.11114599 0.18444574 -0.028415954 0.048747253 0.0047547007 0.018515568 0.15819773
0.016680175 -0.089260966 -0.073341526 0.07830771 -0.0026089447 0.17095795 0.16297574 0.04605355
0.078985445 -0.07790898 -0.29495674 0.004913394 -0.07125798 0.2992379 -0.043308154 0.14278696
-0.08030719 0.099649265 -0.079216585 0.059288733 -0.086207315 -0.09091053 0.16141115 0.10657671
00000000: 3d15 11bd 38bf 0bbe 449b 393d 19ea 27bd
00000010: fa38 073d 930c 1ebc d87e f63c 2e97 67bd
00000020: c008 c2bb 1856 d93d afaf 073e 9ef3 06bd
00000030: ceed 00be 7593 da3d 955a 21bd 0d35 3d3c
00000040: 7ff7 fb3d 491e cfbc d982 0abe b377 27be
00000050: 03dd 09bd 306d 95bd 68af 18be d366 ce3a
00000060: ba02 e3bb 7cc5 29be b49c 47bd 2d31 2abe
00000070: b5f0 653e 0559 e3bd 1580 aebe 45f3 9ebd
00000080: 238a e23b 727a 4cbd 1717 033d 492c 0fbe
00000090: ea77 25be 3203 fc3c 236d 1fbd fe78 96bd
000000a0: f067 5d3d 9d1e e7bc 1c78 033e f409 aa3d
000000b0: 178a d23c 2445 3e3e fc36 ff3c f0a8 36be
000000c0: 31ae 103c 9a59 b43d e716 78bd 5d2e debd
000000d0: 887c 19bd b860 cd3d dc5f 43bd bc03 a53d
000000e0: 43e3 3fbe d2fa cebd 8ff8 8abe bc18 0c3e
000000f0: 0602 c13d 2b01 62be 0d95 873d 8347 153e
00000100: c2ee 1a3b 8413 043c 40d2 50bd c76e ecbd
00000110: 7d1b 503e c483 c1ba e29d f1bd 4d59 cf3c
00000120: 4dac dcbd 775b 1ebd dab3 8ebd 97e7 213d
00000130: 110b 073e ac1c b9bc a9b3 263e 8203 91ba
00000140: 995c b0bd 5b1f 983e ea84 9a3d 78bf 7d3d
00000150: 9d8b 7d3d c1f6 123d d652 78bc 65cd 1a3c
00000160: cf13 7dbc 2eaf a7bd eba1 60be 7666 3d3d
00000170: 0cca bc3d e1b6 4cbe 5426 c73e 64d2 08be
00000180: ffb9 b0bd 64cd 83bc adf6 ebbd 796b b93d
00000190: 0980 36be 067e 373d ca43 8a3c 7e36 4abe
000001a0: ed22 09be 7350 b73c 3a23 53bd 7a43 c4bd
000001b0: bd31 cfbd 807f 09be 13c8 273e 462a 9c3c
000001c0: 8f80 fdbd b8af 09be 8282 363d 05ca a03d
000001d0: 4f04 7c3d 3f69 50bd 1e79 a73d 48fa fa3d
000001e0: cf12 e1bd 3e9a 14be b9ae d6bc 0117 5bbe
000001f0: cc19 84bd f8db f1bc d801 93bd 90bd f6bd
00000200: 50ff 3cbd af72 a6bc 966e 7e3c db50 45bd
00000210: d7ab 2cbd 11e7 1d3e 3362 673d 8e26 7abe
00000220: 92ad a23d 9616 b33c 7217 cebd 5366 0b3e
00000230: fc13 76bc 248e b83c 76d9 85bd 4c75 2bbd
00000240: f398 a3bd 2f98 b4bc 54e7 b53c bc6f b43b
00000250: bf76 83bd 9d56 9abd e296 eb3d dee3 793d
00000260: 4b07 0ebb d85b 1a3d fdd4 893e 39ad abbd
00000270: cc6c 46bc ed7f 143e 4c2b f3bd 3398 0bbd
00000280: 911c 48be 396a 21be 5b43 d73d aa92 d5bc
00000290: 2d01 c6bd 7541 bfbd 51b5 053d 8ba0 2f3d
000002a0: 99bd eabd 9614 29be 9af6 ebbd a2d0 a6bd
000002b0: b000 12be 4e50 a93c e393 16be fa30 1cbd
000002c0: 661d 74bd 9443 b3bd cd27 863c cec1 9a3a
000002d0: f4b7 c83b b551 debd 0976 73bb 965c 413d
000002e0: 4cd2 beba 1f17 2b3d f9ef 9bbe cf6e 26be
000002f0: b24e 98bd 194d 43be 2291 e43c 6b9e 563d
00000300: f02d 773d dd27 2c3d 0773 3ebe 7335 8bbe
00000310: 055e 34bd c603 c1bd 41a1 50bd 2b9e ac3d
00000320: cd7e 93bd bf28 fdbd 9123 d6bd 38d0 8c3e
00000330: a455 a03d 0775 903e 30e7 e7bd 168f 17be
00000340: f318 053e 42b5 033d 7f1f 883e 6e46 1fbe
00000350: 0fcb 553e 05ec 473c 5a45 2cbc fb34 29be
00000360: 3604 7abd 293f d33d 58b3 143d 1927 06bd
00000370: 89ea 813d 3e7a 3d3d b153 0d3a 60e6 d8bd
00000380: cca0 bbbc 82a0 e3bd 58df 3c3e 93c8 e8bc
00000390: 33ab 473d 52cd 9b3b f6ad 973c 96fe 213e
000003a0: dda4 883c 74ce b6bd 1534 96bd cb5f a03d
000003b0: d4fa 2abb 9a0f 2f3e 1de3 263e a6a2 3c3d
000003c0: 1fc3 a13d be8e 9fbd 9204 97be 8900 a13b
000003d0: b4ef 91bd b635 993e e463 31bd bf36 123e
000003e0: 1978 a4bd ea14 cc3d 4e3c a2bd bed8 723d
000003f0: 768d b0bd 4d2f babd f748 253e e444 da3d

shared2.bias f4 [200]
-0.03626792 0.019879138 -0.20161092 -0.19149473 -0.08244393 -0.15018392 0.09791149 -0.10674989
-0.0741316 -0.17765754 -0.1703713 -0.24359977 -0.080513604 -0.09837664 -0.26856062 -0.13786952
-0.18187279 -0.050441395 -0.05416525 -0.19218744 -0.10146261 -0.16607444 -0.18956256 -0.005491034
-0.2483709 -0.22500716 0.07654261 0.025897924 -0.096292086 -0.21560684 -0.08618797 -0.17723684
-0.17688234 -0.11178864 -0.20552957 -0.16996439 -0.15545464 -0.18059184 -0.074512154 -0.29685834
-0.09325818 -0.09698622 -0.22436778 -0.12409076 -0.19426325 -0.09379367 -0.05498637 -0.24093042
-0.11128945 -0.18816239 -0.24068993 -0.19130096 -0.19999225 -0.13829617 -0.15970436 -0.14410308
-0.20363858 -0.2090149 -0.22208439 -0.119242564 0.026412643 -0.13587964 -0.23468019 -0.13490951
-0.1751653 -0.009022641 -0.111167 -0.08919506 -0.14929467 -0.05101017 -0.12153032 -0.10429534
-0.07699381 -0.14751185 -0.11032593 -0.08108566 -0.25073227 0.015947305 -0.14702015 -0.103976995
0.06620651 0.012511317 -0.07294573 -0.11690609 -0.19425362 -0.20558235 -0.14884341 -0.32690802
-0.12436283 -0.19897829 0.038441833 -0.08269283 0.0733301 -0.16124114 -0.1224694 -0.18529838
-0.0970638 -0.10127279 -0.19297194 -0.048276205 -0.20645946 -0.11964963 -0.07522061 -0.19240013
-0.059487782 -0.08246103 -0.09650793 -0.12083884 -0.047844213 -0.2784117 -0.1212256 -0.14618734
-0.16117218 -0.019517392 -0.17115812 -0.0619127 -0.17423502 -0.21053891 -0.16950008 -0.17760834
-0.17753953 -0.240745 0.0576864 -0.16418941 -0.057778798 -0.12583448 -0.12427305 -0.0010011189
-0.2389286 -0.16917731 -0.12736213 -0.14387393 -0.20507923 -0.1322673 -0.18090817 -0.043005608
-0.20385331 -0.11439656 -0.25416234 -0.18198434 0.06719628 -0.18718813 -0.22941284 -0.2264102
-0.16000721 -0.071060345 -0.047153052 -0.04856815 -0.1988872 -0.11643687 -0.22761051 0.050288983
-0.20070395 -0.17967877 -0.059372146 -0.06295737 -0.18904682 -0.15685081 -0.09815908 -0.13556036
-0.121579275 -0.16879046 -0.15844958 -0.12732771 -0.10250189 -0.27329174 -0.12345192 -0.12104116
0.059815288 -0.03300926 0.008512186 -0.11887223 -0.21485785 -0.19653288 -0.20417921 -0.21835358
-0.24067445 -0.17361072 -0.1529486 -0.2349552 -0.0762696 -0.24483347 -0.011507736 -0.09886249
-0.1458679 -0.11184888 0.016513491 -0.04579725 -0.19618186 -0.05872496 -0.18280402 -0.24322984
-0.15365829 -0.22392133 -0.18214111 -0.0992437 -0.15762727 -0.22488977 -0.11039734 -0.13770951
00000000: ac8d 14bd 93d9 a23c 1873 4ebe 3217 44be
00000010: 5dd8 a8bd d0c9 19be d285 c83d b09f dabd
00000020: 4fd2 97bd dceb 35be d075 2ebe 3872 79be
00000030: 51e4 a4bd b179 c9bd c780 89be ab2d 0dbe
00000040: dc3c 3abe a39b 4ebd 62dc 5dbd c9cc 44be
00000050: a1cb cfbd 6b0f 2abe b01c 42be 22ee b3bb
00000060: f154 7ebe 4768 66be 5fc2 9c3d e227 d43c
00000070: c934 c5bd 0ac8 5cbe 5283 b0bd 937d 35be
00000080: a520 35be 71f1 e4bd 5876 52be 250b 2ebe
00000090: 802f 1fbe 11ed 38be d499 98bd d1fd 97be
000000a0: 25fe bebd b6a0 c6bd abc0 65be 4c23 febd
000000b0: f2ec 46be e516 c0bd 6339 61bd 77b6 76be
000000c0: b9eb e3bd a4ad 40be 6c77 76be 66e4 43be
000000d0: c5ca 4cbe 839d 0dbe 8a89 23be c28f 13be
000000e0: a286 50be 0008 56be 176a 63be 7235 f4bd
000000f0: 545f d83c 0824 0bbe 0150 70be b825 0abe
00000100: 885e 33be b3d3 13bc 86ab e3bd e6ab b6bd
00000110: b4e0 18be 0af0 50bd e3e4 f8bd cc98 d5bd
00000120: eeae 9dbd 590d 17be 90f2 e1bd 3d10 a6bd
00000130: fb5f 80be eca3 823c 738c 16be e4f1 d4bd
00000140: 4797 873d 44fc 4c3c 9264 95bd 766c efbd
00000150: 6cea 46be 2e84 52be 686a 18be 7d60 a7be
00000160: f0b1 febd f7c0 4bbe 2f75 1d3d dc5a a9bd
00000170: 172e 963d 661c 25be 3dd1 fabd dcbe 3dbe
00000180: 63c9 c6bd 1c68 cfbd 709a 45be 45bd 45bd
00000190: 1c6a 53be dd0a f5bd 430d 9abd 8a04 45be
000001a0: 76a9 73bd 54e1 a8bd f3a5 c5bd 5b7a f7bd
000001b0: 4bf8 43bd fa8b 8ebe 2145 f8bd 22b2 15be
000001c0: 520a 25be f0e2 9fbc 1344 2fbe 2c98 7dbd
000001d0: aa6a 32be 8397 57be 6e91 2dbe f6de 35be
000001e0: eccc 35be db85 76be 9348 6c3d 4521 28be
000001f0: 76a9 6cbd c1da 00be de82 febd fa37 83ba
00000200: b3a9 74be d13c 2dbe 386b 02be b053 13be
00000210: 4a00 52be 1471 07be fe3f 39be a626 30bd
00000220: ecbe 50be be48 eabd 9121 82be 1a5a 3abe
00000230: 349e 893d 3fae 3fbe 33eb 6abe 13d8 67be
00000240: eed8 23be 1688 91bd 8f23 41bd 65ef 46bd
00000250: 16a9 4bbe 7476 eebd bb12 69be d2fb 4d3d
00000260: 5685 4dbe b6fd 37be 3530 73bd cbef 80bd
00000270: 7d95 41be 809d 20be a107 c9bd 56d0 0abe
00000280: 8efe f8bd 68d7 2cbe 9b40 22be 3262 02be
00000290: 83ec d1bd e5ec 8bbe 5cd4 fcbd 6de4 f7bd
000002a0: e000 753d b834 07bd b276 0b3c 4973 f3bd
000002b0: b203 5cbe ea3f 49be 5b14 51be 1598 5fbe
000002c0: 5d73 76be 02c7 31be 8f9e 1cbe 1998 70be
000002d0: 3c33 9cbd a0b5 7abe f18a 3cbc 6b78 cabd
000002e0: 655e 15be 0711 e5bd 4d47 873c e695 3bbd
000002f0: e6e3 48be 9589 70bd fa30 3bbe 3e11 79be
00000300: 9958 1dbe a24b 65be 3383 3abe 4840 cbbd
00000310: 0b69 21be 8149 66be 0018 e2bd b903 0dbe

hidden1_Y1.weight f4 [200, 200]
-0.009281126 0.0708901 0.20708627 0.16068305 -0.03183017 0.080095574 -0.0625196 0.28826612
0.06929163 0.07265687 -0.08288232 -0.08299653 0.1521181 -0.17184505 -0.039065957 0.11978829
-0.07382233 0.0035798452 0.06531893 -0.079773806 -0.08630756 0.058053616 0.1595899 0.23146018
-0.022748329 0.20550258 -0.0014701695 -0.13913551 -0.23061259 -0.06175721 0.2730623 -0.01051477
0.12485621 0.08947938 0.097045355 -0.05988083 -0.03014929 0.040680215 -0.17178445 0.049030665
0.031950157 -0.20164324 0.124819756 0.26932597 -0.11540432 -0.12976797 -0.06350881 -0.10917377
-0.20656241 0.02996401 -0.14587735 -0.09641831 -0.13930124 0.081592984 0.029387815 0.098009035
0.07012189 0.18894835 -0.009838176 -0.2002834 -0.19594003 -0.16423254 -0.027465321 -0.21688086
-0.065281205 0.5189193 0.20710817 0.0058119535 0.04391544 -0.02510889 -0.14398004 -0.033765223
0.30260414 -0.0032835086 0.12630145 0.059773922 0.07453967 0.0556946 0.007553282 0.10114148
0.082206994 0.19453636 -0.12840223 0.0063958075 0.059664976 0.093923055 0.021148192 0.36803877
-0.026395977 -0.21040443 -0.22214107 0.28759605 0.08240723 -0.106387004 0.049769998 0.055672474
0.01223274 -0.21965905 -0.0039362796 0.013316661 0.1814505 0.10027905 0.029327856 -0.024688879
-0.14075284 0.16564733 -0.15594558 -0.18372522 0.18430957 0.2602083 -0.13077606 -0.15888998
0.14943534 -0.041978125 -0.08414522 0.11767018 -0.033511575 0.12692596 -0.10048048 0.056436323
0.030695459 0.036907792 0.06365583 0.044989794 0.08127277 0.0065834057 -0.0021058507 -0.06997807
-0.08537505 0.039329264 -0.12774764 0.30400935 -0.024275491 -0.14561215 0.061159614 0.27289233
0.07381177 0.017960638 -0.15360221 -0.05947148 0.09027743 -0.12133259 -0.110427804 -0.12525333
0.17657912 0.18266982 0.0036538618 -0.014878485 -0.10725306 -0.15949705 -0.011222397 -0.24362889
0.043716848 0.07102758 0.044859674 -0.03906437 -0.085788354 -0.014701602 -0.17889297 -0.11185107
-0.08698315 -0.05215752 0.006485288 -0.09035789 -0.10719066 0.07539767 -0.15298139 0.021144336
-0.12567165 0.14027558 -0.048769344 -0.040887173 -0.0067085754 -0.05228051 0.0895746 0.15634353
0.021359276 0.08779297 -0.07044159 -0.0010506132 -0.12165347 0.06480084 -0.011921297 -0.06464031
0.005943716 0.058299646 -0.23916161 -0.00030675263 0.038773626 -0.05774738 0.11259601 0.13786374
0.083553955 0.026407259 0.06569671 0.065564126 0.13249159 0.115080886 0.011742732 -0.17938207
-0.025973946 -0.05697511 -0.0076750135 0.010891016 -0.09588512 0.053438827 -0.06685353 0.0327191
-0.015122018 -0.004567125 0.04257815 -0.11766301 -0.042999752 0.027259078 0.08288368 -0.032466378
-0.062717095 -0.17861941 0.0041796304 0.07169842 0.03224139 0.025620367 0.14084117 -0.088520974
0.089337476 -0.009997723 -0.06123268 -0.10796566 0.06947704 0.038941164 -0.06460457 -0.06456276
0.039654694 0.08104665 -0.14257458 0.024726534 0.02501321 -0.13587184 -0.095274456 -0.14693317
0.07311818 0.072496794 -0.043987487 -0.15986186 -0.08242896 0.03053775 0.054169945 0.050784543
0.080948144 0.109832376 0.040788013 -0.17133158 -0.062529266 0.07835338 -0.08498813 0.0347585
00000000: dd0f 18bc d42e 913d 6c0e 543e 198a 243e
00000010: 5a60 02bd 2609 a43d 470a 80bd 9e97 933e
00000020: c5e8 8d3d 20cd 943d 35be a9bd 16fa a9bd
00000030: d9c4 1b3e 26f8 2fbe a003 20bd 9053 f53d
00000040: 2930 97bd d69b 6a3b eec5 853d 7360 a3bd
00000050: 05c2 b0bd a1c9 6d3d 896b 233e e603 6d3e
00000060: b45a babc 456f 523e b4b2 c0ba 8a79 0ebe
00000070: b525 6cbe 21f5 7cbd d2ce 8b3e 2446 2cbc
00000080: 9db4 ff3d f740 b73d b7bf c63d 9a45 75bd
00000090: a5fb f6bc 4ca0 263d 43e8 2fbe 61d4 483d
000000a0: 2bde 023d 917b 4ebe 80a1 ff3d 18e5 893e
000000b0: 1a59 ecbd e5e1 04be e810 82bd 7f96 dfbd
000000c0: 1985 53be 1577 f53c df60 15be f776 c5bd
000000d0: fca4 0ebe 391a a73d b7be f03c f6b8 c83d
000000e0: 119c 8f3d ad7b 413e 4d30 21bc 1717 4dbe
000000f0: 81a4 48be 932c 28be f4fe e0bc 0416 5ebe
00000100: 27b2 85bd e5d7 043f 2a14 543e 3372 be3b
00000110: ade0 333d 29b1 cdbc 816f 13be 674d 0abd
00000120: eeee 9a3e 2230 57bb 2b55 013e 80d5 743d
00000130: 41a8 983d 0520 643d 8681 f73b 4423 cf3d
00000140: 245c a83d 8a34 473e e07b 03be ec93 d13b
00000150: 4363 743d bb5a c03d f93e ad3c 946f bc3e
00000160: 603c d8bc 4274 57be f378 63be ca3f 933e
00000170: 1fc5 a83d 6ee1 d9bd a0db 4b3d d208 643d
00000180: d56b 483c 4dee 60be e8fb 80bb 202e 5a3c
00000190: 29ce 393e 1a5f cd3d f940 f03c 5540 cabc
000001a0: 8321 10be 749f 293e 33b0 1fbe 7722 3cbe
000001b0: a6bb 3c3e 063a 853e 29ea 05be 0eb4 22be
000001c0: 9405 193e 41f1 2bbd 5454 acbd 10fd f03d
000001d0: 6f43 09bd e1f8 013e b6c8 cdbd c629 673d
000001e0: 0b75 fb3c a02c 173d fd5d 823d 3847 383d
000001f0: 5772 a63d 9cb9 d73b 5002 0abb aa50 8fbd
00000200: 1dd9 aebd b917 213d 47d0 02be 1da7 9b3e
00000210: 65dd c6bc 5a1b 15be 8182 7a3d 8bb8 8b3e
00000220: a02a 973d 3022 933c e649 1dbe 5e98 73bd
00000230: 60e3 b83d 397d f8bd f927 e2bd 6942 00be
00000240: 28d1 343e cc0d 3b3e a175 6f3b e4c4 73bc
00000250: 7ea7 dbbd 3253 23be 25de 37bc da79 79be
00000260: 7010 333d e876 913d c7be 373d f601 20bd
00000270: ceb1 afbd fdde 70bc b82f 37be 2c12 e5bd
00000280: 3924 b2bd 20a3 55bd 8a82 d43b 8f0d b9bd
00000290: c786 dbbd 186a 9a3d 27a7 1cbe e336 ad3c
000002a0: 12b0 00be 67a4 0f3e 5dc2 47bd 4f79 27bd
000002b0: 9cd3 dbbb 1724 56bd e372 b73d 8518 203e
000002c0: a6f9 ae3c cdcc b33d ae43 90bd bbb4 89ba
000002d0: 7425 f9bd 4eb6 843d 8b51 43bc 2462 84bd
000002e0: 81c3 c23b 9ccb 6e3d c8e6 74be a4d3 a0b9
000002f0: 18d1 1e3d 8488 6cbd bd98 e63d 272c 0d3e
00000300: 561e ab3d 0954 d83c ff8b 863d 7c46 863d
00000310: e0ab 073e 87af eb3d 9664 403c efaf 37be
00000320: 50c7 d4bc bc5e 69bd ae7e fbbb 3b70 323c
00000330: 6b5f c4bd ace2 5a3d 81ea 88bd 7704 063d
00000340: 57c2 77bc d2a7 95bb 6d66 2e3d 4ef9 f0bd
00000350: 8220 30bd 6e4e df3c ebbe a93d 77fb 04bd
00000360: d271 80bd 02e8 36be 48f5 883b 9fd6 923d
00000370: 8c0f 043d cee1 d13c ab38 103e 7c4a b5bd
00000380: 91f6 b63d 7dcd 23bc 1ecf 7abd 1a1d ddbd
00000390: fa49 8e3d c580 1f3d 674f 84bd 7b39 84bd
000003a0: f66c 223d c9fb a53d 12ff 11be 4d8f ca3c
000003b0: 81e8 cc3c fd21 0bbe 411f c3bd a675 16be
000003c0: fcbe 953d 3379 943d 392c 34bd d4b2 23be
000003d0: 84d0 a8bd 4e2a fa3c 4ee1 5d3d 7403 503d
000003e0: 24c8 a53d ccef e03d 5511 273d 8c71 2fbe
000003f0: 580f 80bd bd77 a03d 420e aebd ee5e 0e3d

hidden1_Y1.bias f4 [200]
0.008923197 -0.11744677 -0.017570147 -0.10819533 0.080103345 -0.0910553 0.045834824 -0.06375586
0.057962295 -0.07527113 0.037571996 -0.07501421 -0.08346832 -0.15643373 -0.018980188 -0.14752129
-0.01347927 -0.12138665 -0.107316084 -0.03348849 -0.05837199 -0.092370816 0.017406818 -0.15550984
-0.14915408 -0.056418456 0.14932722 -0.083594106 -0.07082339 0.020622207 0.02399811 0.0065683224
-0.028494723 0.07412491 0.181425 -0.0051722154 -0.06226825 -0.15549356 0.0797656 0.03546284
-0.08394566 -0.1461283 0.10986141 -0.10957955 -0.12387221 -0.113259025 0.07657643 -0.05782963
-0.09273556 -0.021132575 -0.032045487 -0.11646911 -0.0028884818 -0.094227694 -0.037423033 0.06904744
-0.08737079 0.0922625 -0.1454455 -0.083042435 0.033610675 -0.030660305 -0.103112414 -0.00037744286
0.106355466 -0.14168707 -0.095522664 0.06341546 -0.024580065 -0.10232325 0.032972764 -0.1218228
-0.19403449 -0.10908245 0.009681847 -0.092855155 0.004349988 -0.04943522 -0.06627539 -0.042812426
-0.061683144 -0.15477718 0.01109014 -0.106251396 -0.14497714 0.08684205 -0.12185873 -0.08977873
0.017728483 0.029780654 0.0091073355 -0.04079406 -0.16262466 0.007476922 0.006653553 0.029885495
-0.047267836 0.17360201 -0.09147693 -0.03283 0.03150615 -0.11811847 0.070407994 -0.08658195
0.14093846 -0.0619912 -0.117818035 -0.066320345 0.1626781 -0.13849099 -0.124509156 -0.124170646
0.017143227 -0.079754956 -0.007264002 -0.09415489 0.03492819 -0.10167363 0.02082015 -0.0106475325
-0.10412885 -0.021564173 -0.05854406 -0.1335261 0.0015498555 0.12438615 0.15374476 -0.060305238
0.09727003 -0.14989002 0.05209406 -0.073037475 -0.1145906 -0.12689428 0.10417672 0.083634704
-0.09616803 -0.12209817 -0.077534184 -0.09629942 -0.08678445 -0.053733848 0.07815668 -0.09153522
-0.03410691 -0.07461609 -0.07999906 -0.033266246 -0.05081805 0.14435317 -0.09058901 -0.12362416
0.019158836 -0.13380376 -0.011020361 0.052008007 -0.00887638 -0.07865633 -0.0053549996 -0.14782731
0.045826014 -0.1272504 -0.095450856 -0.12128185 -0.13641219 -0.1587329 0.08214451 0.13511042
-0.007857828 0.042584587 -0.09694059 -0.10390297 0.056242727 -0.12098683 -0.06876298 0.013455621
0.1673593 -0.104658075 0.036920443 -0.074874006 -0.06492751 0.004488673 -0.04988357 -0.12559308
-0.10651219 -0.12464627 -0.106529124 -0.0717088 0.09929624 0.05453117 -0.08717397 0.06431521
-0.015114416 -0.07721415 -0.021663068 -0.0030397694 0.0456797 0.10398543 -0.08035529 -0.08767349
00000000: 9a32 123c ef87 f0bd 45ef 8fbc 8395 ddbd
00000010: 390d a43d 337b babd 4cbd 3b3d 6f92 82bd
00000020: df69 6d3d c027 9abd 18e5 193d 0da1 99bd
00000030: 70f1 aabd 2a30 20be 577c 9bbc d20f 17be
00000040: 28d8 5cbc 9099 f8bd 89c8 dbbd 3a2b 09bd
00000050: 7817 6fbd e92c bdbd be98 8e3c f93d 1fbe
00000060: d9bb 18be 0a17 67bd 3ce9 183e 6333 abbd
00000070: da0b 91bd e7ef a83c af97 c43c 153b d73b
00000080: c46d e9bc cdce 973d 7ac7 393e b07b a9bb
00000090: fe0c 7fbd b439 1fbe 265c a33d 7c41 113d
000000a0: b4eb abbd a8a2 15be 05ff e03d 3e6b e0bd
000000b0: b7b0 fdbd 59f4 e7bd 1ad4 9c3d c3de 6cbd
000000c0: 24ec bdbd 391e adbc 2142 03bd 5b87 eebd
000000d0: af4c 3dbb 73fa c0bd e548 19bd bf68 8d3d
000000e0: 75ef b2bd 1ff4 bc3d aaef 14be 2712 aabd
000000f0: 59ab 093d 522b fbbc 9a2c d3bd 86e3 c5b9
00000100: e5d0 d93d 6a16 11be 63a1 c3bd f7df 813d
00000110: 225c c9bc da8e d1bd 730e 073d 3b7e f9bd
00000120: fab0 46be 9f66 dfbd 9ca0 1e3c d82a bebd
00000130: 588a 8e3b 967c 4abd 64bb 87bd 155c 2fbd
00000140: 77a7 7cbd e97d 1ebe 6bb3 353c 559a d9bd
00000150: e374 14be 3fda b13d 1291 f9bd e9dd b7bd
00000160: 533b 913c 8ff6 f33c ef36 153c ac17 27bd
00000170: 1487 26be f800 f53b 0c06 da3b 6dd2 f43c
00000180: eb9b 41bd bac4 313e 4258 bbbd c078 06bd
00000190: 980c 013d 19e8 f1bd 1132 903d e151 b1bd
000001a0: 2c52 103e 7cea 7dbd 954a f1bd f6d2 87bd
000001b0: 1695 263e 95d0 0dbe a8fe febd 2e4d febd
000001c0: f46f 8c3c 9156 a3bd de06 eebb 47d4 c0bd
000001d0: dd10 0f3d 443a d0bd 058f aa3c fd72 2ebc
000001e0: 8241 d5bd 59a7 b0bc e5cb 6fbd 11bb 08be
000001f0: 8524 cb3a 2abe fe3d 446f 1d3e a002 77bd
00000200: 8235 c73d c57c 19be 9560 553d ac94 95bd
00000210: 7aae eabd 93f0 01be 9b5a d53d ac48 ab3d
00000220: bef3 c4bd 9b0e fabd 3eca 9ebd a138 c5bd
00000230: 0cbc b1bd 0618 5cbd 9c10 a03d d176 bbbd
00000240: b0b3 0bbd 52d0 98bd 8cd6 a3bd 3042 08bd
00000250: 9626 50bd 51d1 133e bb86 b9bd aa2e fdbd
00000260: fef2 9c3c da03 09be bf8e 34bc 5906 553d
00000270: 3c6e 11bc 9216 a1bd fe78 afbb 0b60 17be
00000280: 0fb4 3b3d ee4d 02be bd7b c3bd 9e62 f8bd
00000290: a3af 0bbe e18a 22be 613b a83d 635a 0a3e
000002a0: 1fbe 00bc 2d6d 2e3d ca88 c6bd 15cb d4bd
000002b0: c65e 663d f1c7 f7bd 9bd3 8cbd f774 5c3c
000002c0: 3d60 2b3e f956 d6bd e439 173d 8b57 99bd
000002d0: b7f8 84bd b815 933b b752 4cbd 799b 00be
000002e0: 1023 dabd 8b46 ffbd f12b dabd 10dc 92bd
000002f0: d45b cb3d 135c 5f3d 4488 b2bd b1b7 833d
00000300: 75a2 77bc 7422 9ebd bf76 b1bc de36 47bb
00000310: a31a 3b3d 50f6 d43d 5091 a4bd 298e b3bd

hidden2_Y1.weight f4 [200, 200]
-0.07342041 0.056862574 0.0659911 0.13409445 0.089485034 -0.062632605 0.015028764 -0.032621834
-0.16192238 0.0710414 0.1305342 -0.09370978 -0.00029521066 -0.1600693 0.05616995 -0.022666123
0.06407116 -0.013774899 -0.09397657 -0.090743646 -0.02895681 -0.13305329 -0.14302418 -0.10948911
0.0671213 -0.05005174 0.0962258 -0.12052855 -0.043219697 0.010572422 -0.08111267 0.05054309
0.07202954 -0.06954944 -0.16478787 -0.046860635 -0.03827433 -0.017747538 -0.06632228 0.10923651
0.02719726 0.011352496 -0.10478718 0.045927018 -0.024658429 0.025690457 -0.1499378 -0.10308297
-0.054122265 0.053711962 0.027054762 -0.13019054 -0.17772971 0.13247244 0.122653194 0.0512939
-0.0968766 -0.11462692 -0.17447886 -0.020858321 -0.025968757 0.018176802 -0.018886788 -0.034688536
0.10013259 -0.09194397 -0.05802436 0.0065752813 -0.031458754 -0.0020789062 0.087502904 0.15547818
0.07766941 -0.021919686 -0.06856718 0.00795057 -0.11224996 -0.16583167 -0.11824514 0.0056948755
0.06544267 0.01375769 0.077631705 -0.09547179 0.02200202 0.019507313 0.08695906 -0.09237585
-0.14166655 -0.007523852 -0.07114938 -0.07276152 -0.06474594 0.04438875 -0.101064935 -0.15177824
0.09872353 -0.1331284 0.084243186 0.032794945 0.08170488 -0.10384638 -0.03486498 0.12665345
-0.14218147 0.09053849 -0.1075314 -0.017692726 -0.058239404 -0.09247381 0.08918226 -0.10354827
-0.09163018 -0.18959305 -0.11385453 0.120500766 0.009296302 -0.056169227 0.01851528 -0.110797584
-0.07049611 -0.12951458 -0.16972184 0.028618189 -0.0036001017 -0.03314935 -0.16713965 -0.018709365
-0.119058006 0.083717376 -0.18475774 -0.105518974 -0.09804612 -0.061585687 -0.13936484 -0.10626575
0.033100486 -0.06566341 -0.09760432 0.020160856 -0.01584575 0.1414457 -0.035090186 -0.11226329
0.05539377 -0.099476956 0.012413314 -0.0074812844 -0.11940031 -0.124511465 -0.030813461 0.013737527
-0.18300052 -0.053654086 -0.16401999 -0.094348095 -0.010746391 -0.086990505 0.06283978 0.024974767
-0.031303667 -0.07077922 0.01709198 -0.059274513 -0.048182968 0.01572863 -0.12859651 -0.02801867
-0.087055884 0.10065224 -0.047042288 0.059447955 0.0017942897 -0.06464757 -0.0839402 0.08073981
-0.029029844 -0.06804142 0.07580029 -0.044847753 -0.111774094 -0.054742556 -0.09424315 0.02856522
-0.101824775 0.11538256 0.041575182 0.12129844 -0.18343279 -0.02674478 0.13885249 0.008251549
-0.07137661 -0.095739536 -0.032563485 -0.08839734 -0.04332422 -0.018739628 0.05396994 -0.10101193
0.022814803 -0.08353321 0.04231947 0.054385133 -0.092825 -0.050632812 0.0431458 -0.044053953
-0.04554036 -0.022773067 0.013103003 0.028496481 -0.13826409 -0.006077349 0.10613514 0.008392179
-0.0075051636 -0.08419094 0.11346171 -0.053832795 0.11563148 0.022021376 -0.014919855 0.09393901
-0.10644684 -0.08923454 -0.09914628 -0.0056897304 -0.13374092 0.006809158 -0.079728134 0.023024414
-0.069936335 0.06672359 0.014993465 0.009190471 -0.031398144 -0.10495431 -0.065279946 -0.11342043
0.11763137 -0.13579504 -0.08408462 0.074566446 0.055168815 -0.086271346 0.006346938 0.056281496
0.118450545 -0.11507567 0.023279466 -0.10604963 0.020166837 -0.09063268 -0.021266922 0.0019895867
00000000: 715d 96bd bbe8 683d 5826 873d 0e50 093e
00000010: ee43 b73d 8645 80bd 343b 763c 799e 05bd
00000020: fbce 25be 277e 913d c2aa 053e eaea bfbd
00000030: 81c6 9ab9 35e9 23be 7612 663d 4eae b9bc
00000040: be37 833d 1db0 61bc ca76 c0bd ced7 b9bd
00000050: d536 edbc 1f3f 08be ee74 12be d43b e0bd
00000060: e476 893d 0e03 4dbd 0812 c53d acd7 f6bd
00000070: 2307 31bd f437 2d3c 661e a6bd 4506 4f3d
00000080: 3984 933d f06f 8ebd 27be 28be f0f0 3fbd
00000090: 8bc5 1cbd 4963 91bc fad3 87bd 64b7 df3d
000000a0: cacc de3c d2ff 393c a99a d6bd f81d 3c3d
000000b0: 7900 cabc cb74 d23c 4b89 19be 2a1d d3bd
000000c0: 4faf 5dbd 1301 5c3d f3a1 dd3c ab50 05be
000000d0: c7fe 35be dba6 073e 9931 fb3d 8d19 523d
000000e0: 3d67 c6bd 85c1 eabd 96aa 32be 12df aabc
000000f0: 6ebc d4bc 84e7 943c 77b8 9abc 9115 0ebd
00000100: 5112 cd3d 1f4d bcbd f4aa 6dbd 7575 d73b
00000110: e5da 00bd 423e 08bb b934 b33d ac35 1f3e
00000120: 2411 9f3d ea90 b3bc f36c 8cbd 1c43 023c
00000130: 4fe3 e5bd c7cf 29be 822a f2bd 149c ba3b
00000140: ce06 863d ef67 613c 5ffd 9e3d b786 c3bd
00000150: 953d b43c cdcd 9f3c 9717 b23d 8d2f bdbd
00000160: 0911 11be a58a f6bb c4b6 91bd fe03 95bd
00000170: 8599 84bd fad0 353d 22fb cebd c16b 1bbe
00000180: 902f ca3d d052 08be b187 ac3d fe53 063d
00000190: e354 a73d 69ad d4bd 95ce 0ebd 71b1 013e
000001a0: 0598 11be 3e6c b93d 6c39 dcbd 56f0 90bc
000001b0: 718c 6ebd e962 bdbd 30a5 b63d 1e11 d4bd
000001c0: 9ba8 bbbd ae24 42be 902c e9bd 1bc9 f63d
000001d0: 844f 183c b411 66bd 5bad 973c d8e9 e2bd
000001e0: 4460 90bd 789f 04be 90cb 2dbe b170 ea3c
000001f0: afef 6bbb 9dc7 07bd a826 2bbe 6244 99bc
00000200: afd4 f3bd 0474 ab3d 2231 3dbe 551a d8bd
00000210: 67cc c8bd 4641 7cbd a8b5 0ebe dca1 d9bd
00000220: 6094 073d 8a7a 86bd c6e4 c7bd 6128 a53c
00000230: f2ce 81bc 24d7 103e baba 0fbd 4cea e5bd
00000240: 94e4 623d 93ba cbbd 3661 4b3c 9025 f5bb
00000250: 2688 f4bd deff febd 836c fcbc 5d13 613c
00000260: 7d64 3bbe 63c4 5bbd dbf4 27be 9339 c1bd
00000270: a111 30bc 1428 b2bd 24b2 803d e297 cc3c
00000280: 4638 00bd b2f4 90bd 7b04 8c3c d5c9 72bd
00000290: 815b 45bd 54d9 803c ceae 03be 6987 e5bc
000002a0: 5b4a b2bd c322 ce3d 6aaf 40bd b37f 733d
000002b0: 5f2e eb3a f265 84bd d7e8 abbd ea5a a53d
000002c0: ffcf edbc 4d59 8bbd 2f3d 9b3d 47b2 37bd
000002d0: d1e9 e4bd bb39 60bd 8d02 c1bd 9c01 ea3c
000002e0: 8289 d0bd b14d ec3d bd4a 2a3d 516b f83d
000002f0: ced5 3bbe de17 dbbc 592f 0e3e 8131 073c
00000300: e62d 92bd 1713 c4bd 4a61 05bd aa09 b5bd
00000310: bd74 31bd d983 99bc 950f 5d3d 58df cebd
00000320: 1ce6 ba3c 7613 abbd 2e57 2d3d f2c2 5e3d
00000330: 091b bebd 5a64 4fbd a6b9 303d eb71 34bd
00000340: 8788 3abd 958e babc faad 563c 7471 e93c
00000350: 1a95 0dbe 8024 c7bb 615d d93d 5a7f 093c
00000360: e0ed f5bb 4d6c acbd 9d5e e83d c77f 5cbd
00000370: 33d0 ec3d 2c66 b43c 6872 74bc 1863 c03d
00000380: cd00 dabd 99c0 b6bd 340d cbbd eb70 babb
00000390: 61f3 08be 5b1f df3b 8148 a3bd b29d bc3c
000003a0: c83a 8fbd 61a6 883d 26a7 753c a193 163c
000003b0: 579b 00bd 49f2 d6bd 7eb1 85bd f848 e8bd
000003c0: b7e8 f03d db0d 0bbe 8f34 acbd 4bb6 983d
000003d0: b2f8 613d 08af b0bd faf9 cf3b 6d87 663d
000003e0: 3396 f23d cbac ebbd 94b4 be3c 8c30 d9bd
000003f0: ec34 a53c a09d b9bd f837 aebc ba63 023b

hidden2_Y1.bias f4 [200]
-0.036607277 -0.065173656 -0.0025316589 -0.026726382 -0.07148301 0.32015595 -0.09151074 -0.11864581
-0.05224429 -0.072828494 0.15499063 -0.08538978 0.07669656 0.123439044 0.03356979 0.12021659
0.1669326 0.15377685 -0.04629053 0.1259028 -0.12001216 -0.14287296 0.24143298 0.032433957
-0.06409924 -0.03968943 0.07810093 0.017978117 0.28114444 0.017843558 -0.08325812 0.010861216
-0.13668206 0.1323099 -0.09730739 0.0066139163 -0.005042718 0.26538223 -0.06345161 0.1508949
-0.11405692 0.07200396 0.030804103 0.19879271 -0.13643236 -0.05559922 -0.09343322 -0.06631345
0.069676094 -0.12621978 -0.03086341 0.0722373 -0.10081773 0.29273903 -0.11613681 -0.11925103
0.16714913 0.26979837 0.04369086 0.071240544 -0.06770135 0.028735261 -0.12879865 -0.09916886
-0.08779439 -0.09333656 -0.06664456 0.1166776 0.22066396 -0.08336349 -0.08786655 -0.06374589
-0.12732299 0.20813704 0.30964023 -0.032210488 -0.055176605 0.15440784 -0.08584589 0.18203104
0.17100185 0.05624728 0.09522148 -0.07303876 0.14023124 -0.030164246 0.25087133 -0.021163177
0.020519545 -0.08763843 -0.039902493 0.000958831 -0.09243358 -0.1119489 -0.04702691 -0.0992433
-0.077338874 -0.08784196 0.24628614 -0.07237246 -0.0634105 0.20526244 -0.17410892 -0.0762286
-0.109712176 0.092277706 -0.0896437 0.27645752 -0.02545972 -0.071871236 -0.05036322 -0.10479722
-0.10573887 -0.03963569 -0.09041731 -0.075474784 -0.1444926 -0.12888987 -0.047762956 0.1029009
-0.04676104 0.2484186 -0.05873615 0.045575507 0.12675102 0.30843362 0.13326101 -0.107688114
-0.06353296 -0.038607076 0.015040917 -0.1395243 -0.081691705 -0.0020381506 -0.0057827896 0.22215569
0.23993877 0.12533228 -0.05169823 0.26071623 0.0016349357 -0.08972608 -0.081640415 -0.034300514
-0.06623151 0.28473437 0.23224768 -0.07228189 -0.080167525 -0.08126827 0.045310862 0.033398025
-0.058478102 -0.14341988 0.121060155 -0.034323867 0.28684998 -0.1112529 0.22108437 -0.057750955
0.017289732 -0.020742636 -0.10448573 0.27997234 0.05733555 -0.059609026 0.22509539 0.31216708
-0.10028025 -0.11021762 -0.07874355 0.09466499 -0.12632176 0.049718477 0.037435945 -0.10162778
-0.09720255 0.054904304 -0.0133344885 -0.074367754 0.0103700375 0.24825329 -0.062168542 -0.060405593
-0.08709553 -0.024616916 -0.026030004 -0.048343662 -0.06652539 0.08340729 0.21688278 -0.044946488
0.26304352 -0.07928514 0.29552907 -0.09670411 -0.11098654 -0.08731381 0.2793811 0.18418491
00000000: 83f1 15bd c479 85bd 30ea 25bb 49f1 dabc
00000010: af65 92bd 7beb a33e fc69 bbbd 93fc f2bd
00000020: 1cfe 55bd 1b27 95bd ddb5 1e3e d6e0 aebd
00000030: 1613 9d3d 9ccd fc3d 7a80 093d 1e34 f63d
00000040: 61f0 2a3e ae77 1d3e 249b 3dbd aaec 003e
00000050: efc8 f5bd 4a4d 12be 353a 773e 78d9 043d
00000060: 7646 83bd 6291 22bd 61f3 9f3d d846 933c
00000070: 2af2 8f3e a72c 923c 3c83 aabd 3ef3 313c
00000080: 62f6 0bbe 3f7c 073e 1949 c7bd 8db9 d83b
00000090: 623d a5bb 2ee0 873e ebf2 81bd 3184 1a3e
000000a0: ad96 e9bd d076 933d e358 fc3c 5190 4b3e
000000b0: edb4 0bbe 02bc 63bd eb59 bfbd 59cf 87bd
000000c0: 57b2 8e3d c23f 01be 43d5 fcbc 26f1 933d
000000d0: 8779 cebd e4e1 953e 23d9 edbd e239 f4bd
000000e0: 2429 2b3e 0323 8a3e 30f5 323d 90e6 913d
000000f0: 01a7 8abd 3666 eb3c cbe3 03be 0b19 cbbd
00000100: 8ccd b3bd 3d27 bfbd f17c 88bd aaf4 ee3d
00000110: bcf5 613e 7aba aabd 61f3 b3bd 358d 82bd
00000120: f560 02be e021 553e 2a89 9e3e 25ef 03bd
00000130: dd00 62bd 171d 1e3e f8cf afbd 5866 3a3e
00000140: 1c1b 2f3e 8c63 663d 7b03 c33d 5895 95bd
00000150: c798 0f3e 021b f7bc 3572 803e 665e adbc
00000160: 9b18 a83c c77b b3bd cc70 23bd 0f5a 7b3a
00000170: d14d bdbd 7745 e5bd 4a9f 40bd 1240 cbbd
00000180: d863 9ebd 7ce6 b3bd 6f32 7c3e 0338 94bd
00000190: 5ddd 81bd 5130 523e 9c49 32be be1d 9cbd
000001a0: c7b0 e0bd 18fc bc3d 1e97 b7bd d78b 8d3e
000001b0: e790 d0bc 3a31 93bd aa49 4ebd ed9f d6bd
000001c0: 9f8d d8bd 0959 22bd b62c b9bd 8692 9abd
000001d0: def5 13be b5fb 03be 17a3 43bd b5bd d23d
000001e0: 8188 3fbd 7261 7e3e 5195 70bd 62ad 3a3d
000001f0: 05cb 013e 03eb 9d3e 9375 083e 968b dcbd
00000200: 921d 82bd 7422 1ebd 2e6e 763c 75df 0ebe
00000210: fb4d a7bd 7e92 05bb 8e7d bdbb c87c 633e
00000220: 82b2 753e 1b57 003e 86c1 53bd 997c 853e
00000230: 574b d63a 4fc2 b7bd 1733 a7bd b27e 0cbd
00000240: 63a4 87bd b4c8 913e 56d2 6d3e 8708 94bd
00000250: df2e a4bd fb6f a6bd e297 393d 5ecc 083d
00000260: bc86 6fbd a9dc 12be 63ee f73d 2f97 0cbd
00000270: 00de 923e 8fd8 e3bd f163 623e 448c 6cbd
00000280: 32a3 8d3c 76ec a9bc 9dfc d5bd 8958 8f3e
00000290: afd8 6a3d 9828 74bd 687f 663e 5dd4 9f3e
000002a0: bb5f cdbd c7b9 e1bd 4c44 a1bd b8df c13d
000002b0: 7e5a 01be 9aa5 4b3d 6f56 193d 3a22 d0bd
000002c0: 2112 c7bd 56e3 603d e678 5abc 1f4e 98bd
000002d0: 17e7 293c 1c36 7e3e 71a4 7ebd db6b 77bd
000002e0: 245f b2bd 6aa9 c9bc e03c d5bc 0104 46bd
000002f0: 773e 88bd 71d1 aa3d 8516 5e3e cf19 38bd
00000300: a4ad 863e 3f60 a2bd 964f 973e ce0c c6bd
00000310: e94c e3bd 95d1 b2bd 0a0b 8f3e f89a 3c3e

out_Y1.weight f4 [1, 200]
-0.007873334 0.11004686 -0.03220608 -0.09953013 -0.08895876 0.14617623 0.025052913 0.0125783915
-0.006662608 0.017887093 0.021176616 0.021266326 -0.12284182 0.008296348 -0.0077093607 0.060785346
0.085260004 0.020538999 0.033995654 0.104782276 -0.0947168 -0.0041507175 0.1310733 -0.11471885
0.014425775 0.05450549 -0.21779792 -0.06593641 0.14343804 0.006958375 -0.005964001 -0.07478156
-0.0029334542 -0.082752205 0.0029118294 -0.28677353 -0.08663502 0.12516205 0.07151221 0.15360363
-0.05112096 -0.123062044 0.006195593 0.11243781 -0.043050826 0.004324126 0.0019334062 0.026336942
-0.21490434 0.03891681 -0.007357936 -0.1151455 0.019995108 0.11787156 -0.081621855 0.021746283
0.032245096 0.056782726 -0.15966232 0.0070303977 -0.04000612 -0.109645694 -0.010312923 -0.13496137
0.023111785 0.02084589 -0.09724306 0.05475358 0.08262265 0.05533114 0.011886427 -0.013878767
-0.15512568 0.09165409 0.14442627 0.002613552 -0.01739819 0.04972733 -0.020153103 0.09868805
0.11765881 -0.22193803 -0.20871012 -0.0581511 0.0054774694 -0.09039206 0.08224407 0.01871994
-0.050804958 -0.011089641 -0.13576463 0.021234723 -0.06670579 -0.025404604 0.027117828 -0.0026603374
0.0028230762 -0.019268312 0.071181715 -0.040189397 0.003230373 0.12444197 -0.02354287 -0.17563379
-0.020832112 -0.025136875 0.034085773 0.12559597 0.056164116 0.0031003065 0.011837547 0.013850212
-0.029990643 -0.11093678 0.038849123 0.025438152 -0.08504586 0.016920893 0.025710551 -0.051495105
-0.03354729 0.13004817 -0.17499349 -0.042404443 0.08212641 0.1241979 0.03016307 -0.024106463
-0.022251843 -0.08086783 -0.14520676 -0.062044658 0.011516643 -0.0071248165 -0.08412186 0.07795729
0.03232297 -0.13863876 -0.025148464 0.12800427 0.058434192 -0.04700021 -0.06737318 -0.0012983225
0.047573254 0.15161999 0.09180386 -0.023001442 0.012651763 -0.03115133 -0.009585377 -0.08843885
0.022509038 -0.008087573 0.013308546 -0.08691931 0.123775385 0.0021824192 0.060081676 -0.019852536
-0.20577422 -0.027820325 0.05737369 0.15066662 -0.10211123 -0.025828348 0.09571024 0.12493856
-0.04098502 -0.0049376637 -0.033018816 -0.07546268 0.002049793 -0.07235101 -0.14713326 -0.029405855
-0.09871395 -0.009794079 -0.07164956 -0.029725505 -0.01347814 0.08409559 -0.012217573 0.10865899
-0.112945676 -0.16831827 -0.0025754247 -0.021440482 0.014326411 -0.11463398 0.08647135 -0.010397053
0.093194485 -0.10798538 0.13921295 -0.18207987 -0.037952147 -0.027771542 0.10579135 0.041497294
00000000: 28ff 00bc 4060 e13d 86ea 03bd 74d6 cbbd
00000010: 0330 b6bd 39af 153e c43b cd3c 9915 4e3c
00000020: 0252 dabb f487 923c 957a ad3c b836 ae3c
00000030: 7e94 fbbd 68ed 073c ce9e fcbb 0efa 783d
00000040: cc9c ae3d 6741 a83c 073f 0b3d 1798 d63d
00000050: e2fa c1bd be02 88bb 1438 063e b7f1 eabd
00000060: 165a 6c3c 2641 5f3d 6b06 5fbe ab09 87bd
00000070: 6ce1 123e 1503 e43b ab6d c3bb 1327 99bd
00000080: 323f 40bb fd79 a9bd 64d4 3e3b fbd3 92be
00000090: b46d b1bd 7b2a 003e fe74 923d 454a 1d3e
000000a0: 3664 51bd f407 fcbd 6704 cb3b cb45 e63d
000000b0: 1056 30bd 66b1 8d3b 596a fd3a 92c0 d73c
000000c0: e20f 5cbe 3c67 1f3d d71a f1bb 67d1 ebbd
000000d0: c8cc a33c a566 f13d 5c29 a7bd 4325 b23c
000000e0: 6f13 043d 0195 683d 857e 23be 405f e63b
000000f0: 75dd 23bd ec8d e0bd 89f7 28bc 5033 0abe
00000100: ed54 bd3c 00c5 aa3c 5f27 c7bd 4a45 603d
00000110: 1036 a93d e8a2 623d 4abf 423c c563 63bc
00000120: 44d9 1ebe 24b5 bb3d 7be4 133e 2048 2b3b
00000130: a686 8ebc e3ae 4b3d 1f18 a5bc f61c ca3d
00000140: 1af7 f03d b943 63be 1bb8 55be d92f 6ebd
00000150: 587c b33b 791f b9bd 946f a83d 8f5a 993c
00000160: dc18 50bd 53b1 35bc e205 0bbe 71f4 ad3c
00000170: 0c9d 88bd 511d d0bc 3526 de3c 0e59 2ebb
00000180: 5c03 393b 94d8 9dbc b8c7 913d a39d 24bd
00000190: aab4 533b 6edb fe3d fadc c0bc 58d9 33be
000001a0: 1ba8 aabc d9eb cdbc 869d 0b3d 3b9c 003e
000001b0: 580c 663d 832e 4b3b 45f2 413c 00ec 623c
000001c0: f0ae f5bc d332 e3bd 4220 1f3d ac63 d03c
000001d0: 862c aebd af9d 8a3c ef9e d23c 88ec 52bd
000001e0: e268 09bd 592b 053e 7e31 33be 48b0 2dbd
000001f0: e431 a83d 785b fe3d 8b18 f73c eb7a c5bc
00000200: 7f49 b6bc 089e a5bd 15b1 14be 8a22 7ebd
00000210: 4db0 3c3c 4b77 e9bb 1548 acbd 12a8 9f3d
00000220: 1765 043d 52f7 0dbe 2704 cebc 8d13 033e
00000230: b158 6f3d 4b83 40bd f3fa 89bd 792c aaba
00000240: 2cdc 423d 4542 1b3e aa03 bc3d 856d bcbc
00000250: 5749 4f3c 1331 ffbc fc0b 1dbc 6e1f b5bd
00000260: e064 b83c bd81 04bc 160c 5a3c c002 b2bd
00000270: f37d fd3d eb06 0f3b 3418 763d c9a1 a2bc
00000280: 7ab6 52be 73e7 e3bc ad00 6b3d 5a48 1a3e
00000290: b11f d1bd f995 d3bc bb03 c43d cadf ff3d
000002a0: e9df 27bd 20cc a1bb bd3e 07bd 2d8c 9abd
000002b0: d255 063b c42c 94bd 1aaa 16be 8ce4 f0bc
000002c0: 8a2a cabd 5877 20bc 01bd 92bd e782 f3bc
000002d0: 6bd3 5cbc 4f3a ac3d 372c 48bc 9b88 de3d
000002e0: 1050 e7bd a05b 2cbe 75c8 28bb f3a3 afbc
000002f0: 53b9 6a3c 38c5 eabd e417 b13d 6758 2abc
00000300: c0dc be3d 7027 ddbd d78d 0e3e 2573 3abe
00000310: b673 1bbd 2581 e3bc 23a9 d83d 11f9 293d
