DCNModel/DCN_PD_NN_Models/NN_DCN_model_iter_id_34_epoch_500_lr_0.001.pth (torch_old, 828782 bytes, 14 tensors)

shared1.weight f4 [200, 25]
00000000: bbbb 3cbd 780c a03c 9509 323b 5eda e7bd
00000010: 5024 ba3c a519 963d 9556 0dbe 06d0 82bc
00000020: 2f69 cd3c 13d6 3ebb 3847 b5bc e341 123e
00000030: 880b efbd 52f7 2dbe 60de 2ebe f471 5ebe
00000040: b48c b3bd 07f5 79be 85d3 cf3d fe10 783d
00000050: a560 9b3c 5cfc 133e 5f35 283e 48a1 8b3d
00000060: 5792 78bd 0aed 103d 9c5c 4abd 2620 d23c
00000070: 4acd 723d 2e06 80bc a42c 70bd 8377 1e3d
00000080: 1702 babd b2dd 5dbd b5b7 963d eed1 de3d
00000090: 2977 04be 05ab 89be a4d7 79be c5ab 4bbd
000000a0: 3aef f6bd 4dcf b2bc bee8 403d 67a9 e73d
000000b0: f14b 49be 3e68 33be 1e81 5bbd 1c9d fa3d
000000c0: 725c f4bc cb27 3fbe 0dd1 cf3d 48c1 7ebc
000000d0: de96 693d 5ea8 a13d cfa7 063d a80e c63c
000000e0: 09b3 283e 7904 bdbd a842 e2bd 605b b43b
000000f0: 5498 b7bd 8198 0dbd f57a 8bbe a477 ffbd
00000100: 2816 dfbd 0e57 68be b8d0 d6bd 16f8 f4bd
00000110: 2dca fdbd 6667 093e c21c 77be 8634 5c3e
00000120: 94c4 e9bd 5521 79be 6989 16be d341 04bc
00000130: c23c af3e 8dbb a43e 58ab 913e 5611 263d
00000140: ed5e 81be 0e99 8a3e a355 7ebf cb75 83be
00000150: f547 98bd d7a4 863e 8d35 a1be b6f4 59bf
00000160: 8da8 f4be 8c16 9bbe 1ded 933b e360 43bc
00000170: 6d8d 87be 0808 383e c0b2 683e ff41 aebd
00000180: e7c7 a53e ba25 fb3c a73b 1dbd f451 323f
00000190: f1cb c4bd 7112 7a3e cdc1 403d f2b8 89be
000001a0: 399f 13be 03f5 5c3e ad10 643e 7ea1 d73e
000001b0: 69e6 cebe a173 74bd 6e4d d33e da2c 0abe
000001c0: 66b3 b5be dbfe a8be 5374 6cbe 3e45 b7be
000001d0: a351 00bd 4f35 97be 2720 e2be 92f1 c03e
000001e0: 23ea 9e3d 5f34 adbd 92b6 01be 8f87 7f3e
000001f0: 2f3b 903e e411 80bc 82fb b83d e10d 0d3e
00000200: a913 da3d 9798 15be 66a6 453c 410e ecbc
00000210: 1443 90be 9245 debe b7e6 adbd d1ab 33be
00000220: 031a ec3d 91a7 fabe 558d 66be 9b22 63be
00000230: baf2 82be a203 8bbd 3c30 49be a2ca 93be
00000240: 8944 b7be 47e4 b53d f021 423d fb29 f7be
00000250: 3cfe 3cbd fd68 633e 4f87 04bd 2379 c73c
00000260: 8a1c 323d 2155 083d 12d7 60bc c1dd 843c
00000270: e3e5 35bd 9077 8ebc 0ab7 01be cf51 61bd
00000280: ede2 5fbc 1891 06bd c901 39be 8b20 52bd
00000290: 6092 133b 0cb6 0cbe 7c37 92bd f880 1ebe
000002a0: fd41 55bc a4b2 ffbd c8f2 5abd 917b 8e3d
000002b0: 8156 e73d 2d06 55bc 3323 c93d b750 8c3d
000002c0: add1 243d f1d5 a03d 79df a93c 5ba1 113c
000002d0: 466c 0ebe 6569 67be e5ea cb3d b610 a4be
000002e0: 5425 d2be d9e4 6dbe 6a99 e4be d368 043d
000002f0: 8f53 88be 00a5 19be ffa2 58bd 7d99 0cbf
00000300: e94f 8bbd 59b8 39be 53a2 56be 9ef8 1abe
00000310: 967b 40be 142d a13e cca3 823d ab39 8fbe
00000320: 9f92 f3bd 17c3 f83e 42d5 6b3e 9dba 60be
00000330: 0548 4fbe 8b19 93be 0529 38be 38b6 e7be
00000340: f745 b9be 97c1 673e c6ef a53d df5e b7be
00000350: 4d7d ad3e cda9 83be 9a61 1abf 8a9e babd
00000360: 8323 6e3e 9f81 5e3d be3f 62bf 18cf 56bf
00000370: 8924 a83e 6ab9 683e 2ef8 ccbe 71a2 03bc
00000380: f28c 4b3e 5160 0d3f 3a83 cebe 5ece 5cbd
00000390: 4e58 bdbe 4f97 783d f6f5 a8bd 63c6 873e
000003a0: d04e dabe bcc0 2b3f 9199 64be 884c a33d
000003b0: 5ce7 133f deb8 b33d ea53 7abe 3428 1fbe
000003c0: d45d 7abe 7994 b7be 80b6 fbbd 0a0d 013f
000003d0: a0f8 a7be 529e 1a3d 0b41 983d 4fee e23e
000003e0: 0898 d13c a46b 17be c97f 623e 9f9f 0a3e
000003f0: 40c8 1b3e 8858 0eb7 02f0 8abc edff 913d
-0.04607747 0.019537196 0.0027166356 -0.11320947 0.022722393 0.0732911 -0.1380256 -0.015968334
0.02507457 -0.0029119297 -0.022128686 0.14282946 -0.11672121 -0.16988876 -0.17077017 -0.21723157
-0.08767071 -0.24409877 0.10147766 0.06056308 0.018966982 0.14451736 0.1642661 0.06817871
-0.060686436 0.035382308 -0.049404725 0.025650095 0.05927781 -0.015627947 -0.058636323 0.038688194
-0.0908243 -0.054166503 0.07359258 0.10879885 -0.12936081 -0.2688829 -0.24398667 -0.04972436
-0.120573476 -0.021827364 0.04709696 0.11311608 -0.19657876 -0.17520234 -0.053589933 0.122369975
-0.029829238 -0.18667524 0.10147295 -0.0155490115 0.057028644 0.078934416 0.03287488 0.02417691
0.16474546 -0.09229369 -0.1104787 0.005504057 -0.08964601 -0.034569267 -0.27242246 -0.124739915
-0.10892898 -0.22689459 -0.10489029 -0.11961381 -0.123920776 0.1341835 -0.24132064 0.21504411
-0.114144474 -0.24329121 -0.14700855 -0.008072334 0.34226042 0.3217434 0.28451037 0.040543877
-0.25267735 0.27069896 -0.9934942 -0.25675806 -0.074356 0.26297638 -0.31486169 -0.85139024
-0.47784844 -0.3029064 0.00451435 -0.011924955 -0.26475087 0.17971814 0.22724438 -0.085086815
0.32379076 0.030657638 -0.038386967 0.696563 -0.09609211 0.24421097 0.047059823 -0.26898915
-0.14416207 0.2157784 0.22271986 0.42115396 -0.40410164 -0.059680585 0.41270012 -0.13493672
-0.35488433 -0.3300694 -0.23091249 -0.35795015 -0.031327855 -0.2953286 -0.44165155 0.37684304
0.07759502 -0.084572546 -0.12667301 0.24954055 0.28170153 -0.01563353 0.09032346 0.13774826
0.10648281 -0.1460899 0.012063598 -0.02881539 -0.28176177 -0.43412453 -0.08491271 -0.17546012
0.11528399 -0.48955968 -0.22514851 -0.2218117 -0.2557581 -0.06787802 -0.19647306 -0.28865534
-0.35794476 0.08881431 0.047395647 -0.48274216 -0.046140894 0.22208019 -0.032355603 0.024349755
0.04348425 0.03328431 -0.013723152 0.016219022 -0.04440869 -0.017390996 -0.1266748 -0.05500966
-0.013664943 -0.032853216 -0.18067087 -0.051300567 0.0022517666 -0.1374132 -0.07139489 -0.15478885
-0.013016221 -0.12485245 -0.05345419 0.06957162 0.11295796 -0.013001961 0.09821167 0.06851333
0.040239025 0.07853306 0.020736443 0.008888568 -0.1390849 -0.22598799 0.09956912 -0.32044
-0.41044104 -0.2323183 -0.44648296 0.03232653 -0.2662625 -0.15004349 -0.05288982 -0.54921705
-0.06802351 -0.1813673 -0.2096036 -0.15133902 -0.18797144 0.31479704 0.06378898 -0.27973685
-0.118932 0.48586342 0.2303057 -0.21946187 -0.20242317 -0.28730425 -0.17984398 -0.4525621
-0.3618619 0.22632442 0.08102374 -0.35814568 0.3388466 -0.25715485 -0.6030518 -0.0911227
0.23255734 0.054322835 -0.8837851 -0.8390975 0.32840374 0.2272698 -0.40033096 -0.0080343345
0.19877985 0.5522509 -0.40334493 -0.053907745 -0.36981434 0.060691174 -0.08250038 0.26518545
-0.42638254 0.67090964 -0.22324206 0.079735816 0.577749 0.08775495 -0.24446073 -0.1554268
-0.24449855 -0.35855463 -0.122906685 0.5041052 -0.32806873 0.037748642 0.07434281 0.4432244
0.02558519 -0.14787155 0.22119059 0.13537453 0.15213108 -8.484472e-06 -0.016960148 0.07128892

shared1.bias f4 [200]
00000000: 4038 ce3d a50a 32be 0f6f efbd 4e8d 08be
00000010: b3bb a8be 6cbe 6abe ed6a e7bc a1c9 4abe
00000020: 3a54 a8bc fe01 b3be 527d f9be 2323 7dbe
00000030: 1201 a3be f7ec 7dbe 6495 f7bd d5d5 2abe
00000040: 20c2 c7be 0358 4bbe ca3c 98be 36f5 3fbe
00000050: d513 b2be 28e9 25bd aad6 a0bd c92c e3bd
00000060: e6ee f7bc 7c30 62bd 2c24 a8be 4846 54be
00000070: a086 443d da4b afbd cad9 f7bd b315 283d
00000080: d1b8 d8bc 4b8f d33d aac5 8fbe fcfa 80be
00000090: db37 1abd 24a7 8fbe d83d aabc acc5 75be
000000a0: f829 21be 386a 5cbc 90e0 ce3d 47b0 c6be
000000b0: f48c f7bd 8a0d 82be b023 ef3b 8c4f 45bd
000000c0: 2f18 85be 8d19 a1bd 2cc2 7bbe 1ed0 983d
000000d0: 84d6 80bd 92be 8abe cfd3 4cbe 0ca2 29be
000000e0: a663 a6be 0343 4fbe 8552 5f39 24c0 4dbe
000000f0: b925 febe 538f c3be afa9 20be 3eb8 a4be
00000100: 71fa 1fbe cc63 2dbe 65ef b0be f7bb 9fbe
00000110: 272c 23bd ab07 f7bd 16df 53be 3ecf 81be
00000120: 8f1b 9bbd 9824 86be 6d5d ffbd afa9 e5bc
00000130: 99c1 b1bd 43f3 a7bd bfcc 91be 128d 82bc
00000140: 8db5 0bbe ca49 07bd 3fe0 dabd 7ac3 bdbd
00000150: 085e 56be 2c30 81be c5ea acbe 4aba a7be
00000160: b317 02be 678b 1ebd b6bf 99bd 9468 51be
00000170: 504e d3bc 553b b5be 6268 97bd 9907 9abe
00000180: 13dc 2b3d f63d a2be 9669 36be 2b6d 45be
00000190: fd5d 40bd 50bd 4cbc 98cc 7abe a3dc 4cbc
000001a0: c8f0 6ebe ede6 1bbe af6c 95be c94d dbbd
000001b0: 00e1 4dbe 8108 60bc b21e a7be 14b1 a6bd
000001c0: f524 c4be 4a60 c5be 7b06 4abe 0901 9ebe
000001d0: bbad 48be d69b 15be 70dc 4cbe 3065 85be
000001e0: ebcf 4cbe 8901 92bd 168f 82be 3d19 1fbc
000001f0: 280f 3ebe b949 43be 41ee 86be 6f15 30bd
00000200: c766 e1be f8ef 26be e25b b0be 0205 80be
00000210: ac0a e1bd 764a 14be 3e19 dabd 06df 8dbe
00000220: 3727 14be 636b edbc 9641 80be defe 09be
00000230: a879 84bd 8ed7 88be e964 4abe bbea 00be
00000240: d043 3cbe f7da a7be 1c4d 81bb 7d41 5e3c
00000250: 2f53 f03d b145 9ebe 66cd 92be b064 fcbc
00000260: e657 a3bd d6fd 47be 97df 00bf 17be 6ebe
00000270: a8f7 8bbe a399 c5be 911e f8be 8a1a 75be
00000280: e016 08be 2a9a 8fbe fb3e b0be 9a53 56be
00000290: 88ce 543b 2143 8abd a639 4fbe d44a 7abe
000002a0: a375 0bbe 274f 303d e4c9 99be 9857 58be
000002b0: 2b92 e4bc bb33 06be 3006 96be 4679 d1bc
000002c0: 2d6a 4bbe 2e61 e6be e1c4 5dbe f6c0 7cbe
000002d0: c60f ffbd 8e7d 92be df6e d6bd e1ae 1dbe
000002e0: 8c47 7fbe 6722 86be 9fc5 64bb 9220 9ebd
000002f0: 7a18 1fbe 5d52 64be c804 42bd 5582 59be
00000300: 15b1 cbbc 5cde 80be 4d32 77be 776d 99be
00000310: c690 64bd 2290 4cbe a20c a3be 5524 eebe
0.100693226 -0.17386873 -0.116911046 -0.13335153 -0.32955703 -0.22924203 -0.028249228 -0.19803478
-0.020547975 -0.34962457 -0.48728424 -0.24720435 -0.31836754 -0.24797426 -0.12089041 -0.16683133
-0.39015293 -0.19857793 -0.29733878 -0.18745884 -0.34780756 -0.04050556 -0.07853444 -0.110925265
-0.030265283 -0.05522202 -0.32840097 -0.20729935 0.04797995 -0.085593894 -0.12102087 0.04103632
-0.026455315 0.10330065 -0.28080493 -0.25191486 -0.037650924 -0.28057206 -0.020781443 -0.24001187
-0.15738666 -0.013453059 0.10101426 -0.38806364 -0.120874316 -0.25400954 0.0072979555 -0.048171565
-0.25995013 -0.078662015 -0.2458579 0.0746157 -0.062909156 -0.2709852 -0.20002674 -0.16565722
-0.324979 -0.20240407 0.00021297678 -0.20092827 -0.49638155 -0.38195285 -0.15689729 -0.32171816
-0.1562288 -0.169326 -0.34557644 -0.31198093 -0.03983703 -0.120620094 -0.2069057 -0.25353426
-0.07573616 -0.26199794 -0.124689914 -0.028035013 -0.08679504 -0.08200695 -0.2847652 -0.015936408
-0.13643475 -0.033029355 -0.10687303 -0.092658 -0.20934308 -0.25232065 -0.33772865 -0.32759315
-0.12704353 -0.038707163 -0.07507269 -0.2045005 -0.025794178 -0.3539683 -0.07392956 -0.30083922
0.041957926 -0.31687897 -0.17813715 -0.19279926 -0.046964634 -0.0124963075 -0.24492109 -0.012503776
-0.23334038 -0.1522481 -0.29184482 -0.10708196 -0.20105362 -0.0136739025 -0.32640606 -0.08139244
-0.38309446 -0.38550025 -0.19729035 -0.30860165 -0.19597523 -0.14610228 -0.20005965 -0.26053762
-0.2000119 -0.07129199 -0.2549979 -0.009710607 -0.18560469 -0.19071092 -0.26353648 -0.04298919
-0.44023725 -0.16302478 -0.344451 -0.2500382 -0.109883636 -0.1448153 -0.10649346 -0.27709216
-0.14468084 -0.02898187 -0.25050038 -0.1347613 -0.064685166 -0.26726955 -0.19765057 -0.12589543
-0.18385243 -0.32784244 -0.0039459597 0.013565418 0.11734616 -0.30912545 -0.28672332 -0.03080973
-0.0797575 -0.19530424 -0.5034117 -0.23314701 -0.27337384 -0.38593778 -0.4846082 -0.23935905
-0.13289976 -0.28047305 -0.3442305 -0.20930329 0.0032471735 -0.06751085 -0.20236835 -0.24442607
-0.13619094 0.043044236 -0.30036843 -0.21127164 -0.02790173 -0.13105671 -0.29301596 -0.025570523
-0.19864722 -0.44996017 -0.21657135 -0.24682984 -0.124541804 -0.28611416 -0.10470366 -0.15398742
-0.24929637 -0.26198122 -0.003490783 -0.07721056 -0.15536681 -0.22297044 -0.04736784 -0.21241124
-0.024864713 -0.25169647 -0.24140282 -0.29966328 -0.05580213 -0.19976857 -0.31845576 -0.46512094

shared2.weight f4 [200, 200]
00000000: e6f6 c6bc f253 9a3d 447a e7bd d349 abbd
00000010: bb2d b5bd 21eb 32be 0e4e a03c ed67 bfbd
00000020: 5c49 903c f9dd d53e 9278 623e d6ee 0cbe
00000030: 1f59 51be ec70 f73c 5edf 0fbe e753 2dbe
00000040: 7fde 0c3d fd3e 80bc 3aac f4bc 9efd 5f3e
00000050: 9dcf 90be 98da 243f 3975 4e3d 5111 10bd
00000060: 59e9 08bf 28b2 a2bd c81f 903b ff1e 77be
00000070: 0b3b f2bd 769d 5e3d 5e21 db3e 5fcf 4a3e
00000080: 99f4 bc3d ce17 55bd be26 57bd f19c a6bd
00000090: 1dbf 923a 56e0 433b 303a 30bc ce92 123e
000000a0: 3070 a83d 0364 fe3d be60 b53e 0adf c03c
000000b0: a691 48be da7c 8a3c 81a8 61bd af24 b53d
000000c0: 2146 fb3b c44c 6a3d 6850 08bd 8fe5 82bd
000000d0: 5da3 f83d 6334 13bf 109b 383d 144f 7cbe
000000e0: 1e5b 04bd cd6e f4bd fc23 343e 7f50 a6bc
000000f0: e534 c03e 04ba acbe 6d8a 913e ce0e 173d
00000100: 3255 8fbe f253 ab3d ff78 50bc bff2 85be
00000110: 0e24 fcbd 03e6 723d 75be 3ebe 3a4f d13c
00000120: 99d6 f9bc f318 863d 7823 b73d 67e0 3bbe
00000130: bb5d 07bd 2070 533e 2e32 973e 6f2f 88bd
00000140: caad 21be 3d0c 20bd ca4c a0be a153 013d
00000150: 6f04 81be b2b6 923d 9bde 36bf d7f6 f03e
00000160: 36a6 e03d 3a04 b9bd 578f bb3e 2cb0 bd3c
00000170: 6771 ac3d 2d39 523d 21e5 77be 9c58 17be
00000180: 7521 923c 6c39 fabd 8ff3 0bbe 5ce2 c5bd
00000190: 935c 973a 8a2b 7bbd 64c6 84bd 299c 4e3c
000001a0: f54a 5d3e b8a4 ae3c a73f 13be 1a26 d53c
000001b0: c84a e83c b42e e3be 5ce0 243e 8725 6f3c
000001c0: cb14 463d 1fac 2abb a549 d53c e8e0 363d
000001d0: 34af bebe d946 d6bd 5535 1a3d ec69 5abe
000001e0: 93a9 5fbc d2da 393d f7fa 0fbe 5c4b 103d
000001f0: d297 d4bd 1c9b ecbd 68be dc3d 9f3b 94bd
00000200: 47d8 cabe 5b50 27be ea39 2b3f 39b2 f8bd
00000210: 29c9 ba3d be12 8f3d 1740 1f3e 11f6 f7be
00000220: b22d 3ebd cc22 d53d 497e b3bd 72d8 833b
00000230: 8c9d 0abd 5001 913e 8f2e 57bd 69d5 8bbe
00000240: 1701 c83e b74d 9ebe eeab ffbd 4b16 133d
00000250: a0da dd3d 128b ea3a 8abc b23e e0d7 84be
00000260: 055f 953d 0780 22be c913 84be 35e4 7abd
00000270: 6e2e 6d3d f2c5 2a3c 584a 42be 0843 e5bd
00000280: 1c86 69bd cb3c 27be c82e 853e 0559 25be
00000290: 5676 c5bc 6d17 d8bd 0e78 22be 06f6 de3c
000002a0: 65ae f0bd 6c9b 8d3d cb28 8abe e61c 5fbd
000002b0: 2db0 8c3d 8da2 b2be 9a6d 193d aac7 82bd
000002c0: 3dea a8be 0aff 283e fd61 07bd a1a0 7e3d
000002d0: b35b 673d f055 533e 890b 5a3d faf5 c13d
000002e0: da66 413e 91b5 63bd e0ea 59bc d5c3 1b3e
000002f0: d4cb 183e 9771 adbe aff8 b3be 8660 6b3e
00000300: f26c 1ebe fef0 3d3d 50c7 d5bc 5f06 54be
00000310: a2af c33d 103a f9bd 39b3 cabe 2f77 063e
00000320: 61f7 313d c153 bebd fadc c83c 7b90 5a3d
00000330: bfc7 f2be 71d3 233e 977b 9e3d a26e 25be
00000340: 03d3 4ebe 8acc ac3e f0a1 733d c470 ffbd
00000350: 1f91 84be e248 cf3d 8a84 9b3d 85af 70be
00000360: 8f1f ab3d fa6d 3fbe 5e3e 473d 6f71 ddbc
00000370: 1f86 dc3c 0be0 2c3e 6cef 333d 4818 7c3d
00000380: ef3d 33be e3d9 cb3b 4c84 b9bc 894e 49bd
00000390: 25f5 7a3c 498f 8f3c 0c1a c63e 5aa7 a43e
000003a0: 68ae 2c3d 258f c53d 2c90 02bd d53b 30bd
000003b0: 80c9 bebd c920 303d 5eb6 35bd 261b 1ebe
000003c0: 4016 97bc 4b68 26be 172c 773d 2db5 963e
000003d0: 9129 92be a33c 54be 69c6 54bd 0ef4 0ebd
000003e0: 2bf6 8bbd 73cf 2fbd 2d41 f6bd cf98 a5bd
000003f0: 6080 183d 0b8f 17be 0c2a 43bd 5973 ebbd
-0.024287652 0.075355425 -0.11302617 -0.0836369 -0.08846613 -0.17472507 0.01956847 -0.09345994
0.017613105 0.41770914 0.22116306 -0.13762984 -0.20444153 0.030205213 -0.14050052 -0.16926537
0.034391876 -0.015655035 -0.02986728 0.21874091 -0.28283396 0.6439605 0.05040476 -0.035172764
-0.5348106 -0.07944137 0.00439832 -0.24132918 -0.11827668 0.054349385 0.42798895 0.19805668
0.09226341 -0.052024655 -0.05252718 -0.08135403 0.0011195872 0.0029888353 -0.0107560605 0.14313814
0.08224523 0.124214195 0.3542537 0.023543853 -0.1958681 0.016905237 -0.05509234 0.088448875
0.007668272 0.057202116 -0.033279806 -0.06391441 0.12140534 -0.5750181 0.045069754 -0.24639541
-0.03231346 -0.11935196 0.17591852 -0.020302055 0.37540355 -0.3373567 0.28425923 0.036879353
-0.27994686 0.08365621 -0.01272416 -0.26161763 -0.123115644 0.059301388 -0.18627341 0.025550473
-0.030497836 0.065477274 0.08942312 -0.18347321 -0.033048373 0.20648241 0.29530472 -0.06649672
-0.15788952 -0.03907417 -0.31308585 0.031573895 -0.25198695 0.071637526 -0.7143342 0.47063324
0.10969202 -0.09034009 0.36632797 0.023155294 0.08420067 0.05132406 -0.242085 -0.14779896
0.01783822 -0.122179836 -0.13667129 -0.09662315 0.0011547975 -0.06132082 -0.064831525 0.012610474
0.21610625 0.021318778 -0.1437975 0.026019145 0.028355971 -0.4437157 0.16101211 0.01459635
0.048359673 -0.0026042534 0.026036093 0.04464808 -0.37243044 -0.10462732 0.037648518 -0.21329468
-0.0136512695 0.0453747 -0.14060579 0.03522812 -0.1038052 -0.11553022 0.107785046 -0.07237934
-0.39618132 -0.16339247 0.66885245 -0.12143368 0.091203995 0.06985997 0.15551792 -0.4842992
-0.046430297 0.104070276 -0.08764321 0.004023605 -0.033841655 0.28321314 -0.052534636 -0.27311257
0.3906333 -0.30918667 -0.12483965 0.035909932 0.10832715 0.0017894229 0.3490947 -0.2594595
0.07293514 -0.15869151 -0.25796345 -0.06125279 0.057905607 0.01042317 -0.18973672 -0.11194426
-0.057012662 -0.16331784 0.26012254 -0.1614724 -0.024104279 -0.10551343 -0.1586611 0.027216922
-0.11752013 0.0691441 -0.26984248 -0.05447092 0.0686954 -0.3488964 0.03745804 -0.06385739
-0.3299121 0.1650354 -0.033052433 0.062164906 0.056483936 0.20638251 0.053233657 0.094707444
0.18886891 -0.055593077 -0.0133006275 0.15211423 0.14921504 -0.33875725 -0.35150668 0.2298604
-0.15471247 0.046372406 -0.026096016 -0.20705555 0.09554984 -0.12169278 -0.3958986 0.13131402
0.04344881 -0.092933185 0.024519432 0.053360444 -0.4741802 0.15998627 0.07738417 -0.16155484
-0.20197682 0.337498 0.059480608 -0.1247268 -0.2589197 0.10121323 0.07593639 -0.23504455
0.08355629 -0.18694296 0.048643462 -0.027031628 0.026919423 0.1688234 0.043929502 0.061546594
-0.17504095 0.0062210425 -0.022646092 -0.049147163 0.015317236 0.017524378 0.38691747 0.3215893
0.042158514 0.09646443 -0.031875774 -0.04302581 -0.09315777 0.043000016 -0.044363372 -0.15440044
-0.018443227 -0.16250722 0.06034478 0.294351 -0.28547338 -0.20726256 -0.05194703 -0.034900717
-0.06834062 -0.04292245 -0.1202415 -0.080857866 0.037231803 -0.1480066 -0.04764752 -0.1149661

shared2.bias f4 [200]
00000000: 9cd2 14bd c858 6bbd 5abb cbbe 5da8 9ebe
00000010: d0d8 81be ec41 c0be c118 b1be c365 e4bc
00000020: d7e2 f5be cc49 e1bd 72c9 c7be 5e7d 1bbf
00000030: b320 18be ce91 75be 1cd6 58be c35e fd3d
00000040: 1505 403e 3320 ae3c 2041 c8be c96f 0b3e
00000050: 0c1e 7e3e 563c 88be 2d98 22be a243 bbbc
00000060: 68e2 05bf 59ad 96be 7295 84be 204b e4bd
00000070: 506a 233d 7746 0dbf 521d f2be a865 e1be
00000080: 9f3f e9be 200f 9bbe b904 f7bc 161b a8be
00000090: 0d8f 953e feaf 8abe 6ba0 abbe 782e 503e
000000a0: c1a6 4ebe 6d74 c1be e234 3b3e 3cd1 6a3e
000000b0: 7770 01bf 589d 17be 1181 7fbe befb cabe
000000c0: 31bf 63be e654 30bc 11d2 b2bd 7221 c2be
000000d0: f656 dcbe 2ed1 093d 33be 903d ef13 0abe
000000e0: c975 bfbe 54aa 113c a048 3abe eb05 aabe
000000f0: bf1d 97be 1fcb c6be d942 cabc 0091 213d
00000100: 8992 c9be 0533 f2bd 27f7 c3be 62c5 d4be
00000110: 86f5 0f3d ef61 0ebf 44b6 8ebe 1677 86be
00000120: 48fc c2be 0dd5 1cbe 2f72 853e 5e7c c3be
00000130: 6577 c13d 1358 cfbe 3ee3 8ebe 4ba6 74be
00000140: 14e0 99bc 6278 3d3e 6e13 54be 9926 6dbe
00000150: 0259 bcbe e938 bbbe cf4b 85be 5810 77be
00000160: dd3a 7c3e 4b7b 813e a096 7bbd f71b e1be
00000170: 6e81 94be 8333 c53e 8799 173e da5f 6ebe
00000180: e22f c6be 9af9 06bf f443 6dbe 0fad c2be
00000190: 344c a63d e8e5 c4be 7992 efbe ab69 973e
000001a0: a35d d9be 330b d3be 109a 6c3e e527 c0be
000001b0: e16b dd3d ef4b e3be 2c52 75be e8d3 8fbe
000001c0: d7f6 323e eaa4 e9be 9637 20be fbf1 c6be
000001d0: 53aa 93be 05bb d4be 600a 553d a56f dfbe
000001e0: 6588 c5be 9542 b8be a7a4 adbe d0f0 b4be
000001f0: f996 06bf 1f2c 53bd 982c a2be f700 0abf
00000200: 7f75 e0be feec 5c3e 5aed abbe 836c 04bf
00000210: 9b96 d4be 44ba 72bd 67cf 633e d5f0 dd3c
00000220: 75de 87be 1989 e53e 4386 403e 39aa e9be
00000230: 50f5 3dbe 6790 bfbe 961f babe ad92 fb3d
00000240: 264e c3be e40c d1be 4256 bcbe a60e 41be
00000250: 9ac4 dabe 627c 933e 1a6d eabe 2ca6 97be
00000260: cc9a 10bd bb0c 8ebe 5650 473d 9319 29be
00000270: a6e7 b3be 5b00 d0be 86d9 00bf 5f9a 3d3d
00000280: 3ff6 c4be e283 d6be 3c4b c8be 9044 8cbe
00000290: 9afb 95be 7458 80be cb18 85be a5c7 f2be
000002a0: e1f9 ec3c fbe2 cebe 17f3 b0be b219 e2be
000002b0: 95a7 97be 5a85 b7bd 17fc 05bf a5c1 233e
000002c0: 5be4 a6be 936e b9be 3be9 023d 1753 ebbe
000002d0: fb09 fcbe 9d91 ffbe 9616 b0be 51b5 12bd
000002e0: 9997 07be 475a abbe e582 c5be 79a6 dfbe
000002f0: 8b74 5b3e a5f5 cfbe aebd 213f 431c 8f3e
00000300: d83e 47be 70ec 2ebf 8f6a 91be 0ebe 183e
00000310: f974 7abe f36c afbe ae0a 68be 663d 35be
-0.036333665 -0.057457715 -0.39791375 -0.30987826 -0.25360727 -0.37550294 -0.34589198 -0.027880555
-0.48024628 -0.11000404 -0.39020878 -0.6073817 -0.14856224 -0.23981401 -0.21175426 0.1237159
0.18751939 0.021255588 -0.39112186 0.13616861 0.2481615 -0.26608533 -0.15878363 -0.022859398
-0.52298594 -0.2942913 -0.25895268 -0.111471415 0.03989631 -0.55185646 -0.47287995 -0.4402287
-0.45556352 -0.30284977 -0.03015362 -0.32833165 0.29210702 -0.27087396 -0.33520827 0.20330226
-0.20180799 -0.37784138 0.18281892 0.22931379 -0.5056223 -0.14806116 -0.24951579 -0.3964519
-0.22240902 -0.010762429 -0.08731473 -0.37916142 -0.43035096 0.033646755 0.070675276 -0.13484167
-0.3739455 0.008890707 -0.18191767 -0.3320764 -0.29514882 -0.38826844 -0.024690079 0.039444923
-0.3936961 -0.118261375 -0.382745 -0.4155684 0.03514626 -0.55618185 -0.27873433 -0.2626273
-0.380831 -0.15315647 0.26063678 -0.38180822 0.09446601 -0.40496883 -0.27907747 -0.2389156
-0.018783607 0.18502954 -0.20710537 -0.23159255 -0.36786658 -0.36566857 -0.260344 -0.24127328
0.2463183 0.25289378 -0.061422944 -0.43966648 -0.29004997 0.38515863 0.1480466 -0.23278752
-0.38708407 -0.5272461 -0.23170453 -0.38022658 0.08120003 -0.38456655 -0.46791437 0.29572806
-0.42454252 -0.41219482 0.23105645 -0.37530437 0.10811592 -0.4439387 -0.23957127 -0.2809136
0.17476974 -0.45633632 -0.15646204 -0.3885649 -0.28840885 -0.41548935 0.052011847 -0.43639866
-0.38580623 -0.35988298 -0.33914682 -0.35339975 -0.52574116 -0.05155575 -0.31674647 -0.5390772
-0.43839642 0.2157478 -0.33579522 -0.51728076 -0.41521153 -0.059259668 0.22247086 0.027092377
-0.2653691 0.4483116 0.18801217 -0.45637682 -0.1855061 -0.37414858 -0.36352223 0.122838356
-0.3814556 -0.40830147 -0.3678456 -0.18853244 -0.4272812 0.28805834 -0.45786363 -0.29618967
-0.035303876 -0.27744088 0.0486606 -0.16513662 -0.3513767 -0.4062527 -0.50331914 0.046289798
-0.3846912 -0.41897494 -0.391199 -0.2739606 -0.2929352 -0.25067484 -0.25995478 -0.47417942
0.028927745 -0.40407547 -0.34560463 -0.4416023 -0.29620042 -0.08960982 -0.52337784 0.15991838
-0.32596096 -0.36217174 0.031960707 -0.4596183 -0.49226364 -0.49915782 -0.34392232 -0.035817448
-0.13241424 -0.33467314 -0.38576427 -0.43681696 0.21431176 -0.406171 0.63180053 0.2795125
-0.19457567 -0.68329525 -0.2840161 0.1491625 -0.24458684 -0.3426281 -0.22660324 -0.17699203

hidden1_Y1.weight f4 [200, 200]
00000000: e639 13be b03b 02be 34de 263e fb0a 54be
00000010: 517e 04bc 0e69 df3d 366c efbd 60c4 033d
00000020: f3a4 88bc df61 b73d 44d4 323c 0358 8e3e
00000030: cbd9 a13d 2fa1 af3d 0adf 8bbd df3b 03be
00000040: 20fd 3fbd 08af 45be 52c5 b03d 1dc8 57be
00000050: 84db 59be a935 5e3d ed96 23bd d064 15be
00000060: 89c9 a13a 6e20 d7bd ef18 cb3d 30e8 46be
00000070: 22bc 2abb 6628 6dbb 0cf3 7ebd 0543 9c3d
00000080: 92c0 8a3d ea16 f1bd 5a5f 1bbc a26d d0bb
00000090: 59b7 303d bbcd babe 0679 15be b5a7 9a3c
000000a0: 1a41 cc3c f5d0 213c a952 47be bf09 75be
000000b0: f41e 913e 3c87 413d 9042 1f3b 0bcd 213e
000000c0: 6109 633c de62 a5bd 83d0 9a3d 7b55 8fbd
000000d0: cdda 783c 7d5b 6cbd fecb 48bd 5fda af3c
000000e0: e70a 053d b5c1 ec3d 4463 adbd 8cc9 eabd
000000f0: d1bc 90bd d391 d2bd d1f8 1fbc 1b1a 7d3e
00000100: 1490 c93a 854e afbd 8687 75bd 8c36 293d
00000110: 494c cfbc e96b 1fbd 356d a03c ff6f 463d
00000120: 04ab 75bd 33a5 aa3d 2f75 7ebe 73bf bcbb
00000130: 9027 a2bd c06f 73bd 7b0a 87ba 6f6d 9dbe
00000140: 4df7 19be f2fa 693c d8e0 853e aec6 7d3e
00000150: 91d1 4bbd 519f 853e 00a3 163b 94e1 4bbe
00000160: 5e13 a73c 102d febd 5265 a1be d64f 3a3c
00000170: fc0b e83c c74e bdbd e708 12bc 766d 043d
00000180: ef2c 85bb 6798 abbe 5b12 16be b7db ffbd
00000190: 3e06 b83d b005 a83d 276d 053e 97bf bcbd
000001a0: 1f5d fbbd c4a7 993d 44a5 283e bfd6 d5bc
000001b0: d90b d7bc 096b e2bd 717b 85bd a8d8 d23c
000001c0: 1e87 b5bd 05b0 863d 3815 c4ba 5a42 863c
000001d0: 46ca 0abc 9faa 4bbc 10f9 40be 14e5 f13b
000001e0: fab6 06bd 22db ce3d 9155 aabd dcee c93d
000001f0: 4b91 e3bd 2eac 91bd f251 20bd 08c2 ba3c
00000200: cfad fabb 8df5 a63e 5700 1fbe fb98 c23c
00000210: 532a 48be b24e 48be 730c 3dbe a658 b33d
00000220: 66e4 f33c c946 8f3d 27c8 9bbd dc0b bfba
00000230: 4c04 8539 b803 533c 7548 093a aa08 8ebe
00000240: e5e0 bdbd ad91 903e f8fd c73d b2c1 bc3d
00000250: e3ca 07bd 5349 bb3c 0ebf 2a3e 851e 21be
00000260: a0db 943c d2b0 833d 18b4 513b 653c b83c
00000270: 2b19 15be 20ad 043e 0440 3ebd 0078 82be
00000280: 0d17 713e cbf1 c43d 3fb7 063e 70c1 9b3d
00000290: fca1 7fbd cf22 11bd 0314 36be c625 b3bc
000002a0: 282d 5ebe 0383 623b b00c 0cbe df47 893d
000002b0: 9a2d 073d f835 803e ff33 3abc 8e75 f0bd
000002c0: 4c8b 403e 5509 833d 86f0 d4be a07a 003e
000002d0: a55c fdbd a463 5cbd 603d 373d f9d3 11be
000002e0: c595 2ebe 2216 4ebb c883 513c db53 b0be
000002f0: c7ab 01be 6bce 3abe e834 c8bd 94c8 91bd
00000300: d1cf c9bd a638 2ebe 96a5 3e3b ff1f fdbd
00000310: 9f64 d83d fb29 5bbe a49c 9fbb 5129 7e3c
00000320: fbfa 603e 08c6 97bd cdb6 253e 8ed3 89bb
00000330: 1355 62ba faaa c33e 3381 29be 7dbc 2f3d
00000340: 8ef5 a8bc 5cf2 d53d ed28 4dbd e99e 62be
00000350: 979c f6bb 891c 34bc d97a 6d3d aa2d 1abf
00000360: 34b6 f7be 0342 f83d a327 eb3d e424 cfbe
00000370: 88ad febd 9e5f 74be df74 0cbe 404a 4b3e
00000380: 89ac 133d 1daf 6f3e 168c 4e3d fd40 0e3d
00000390: f694 34be cf18 b9bb a891 933d 4334 70bc
000003a0: 9e39 0cbe 31fa 863e 707c 1ebe 5264 e6bc
000003b0: e79e 03be 9e12 05bd dadc 99bc daf9 a4bd
000003c0: ae58 dabd 25b5 243d d43e c7bd e555 febb
000003d0: a154 3fbd f4f9 ac3d 44be 71be b87c 283d
000003e0: f216 b7bd 7439 fbbe f26a f03d 72cc adbd
000003f0: e988 acbd 5c1b bbbd 2d85 f3be 2a4a c0be
-0.14377555 -0.12718081 0.16295701 -0.20707314 -0.008086757 0.109087095 -0.116905615 0.0321697
-0.016680216 0.08954214 0.010914866 0.27801523 0.07902869 0.08575665 -0.06829651 -0.12815808
-0.04687226 -0.1930505 0.08631386 -0.21072431 -0.21275145 0.054250393 -0.039938856 -0.14589238
0.0012343387 -0.10504232 0.09916865 -0.1942451 -0.0026052077 -0.003618741 -0.062243506 0.076299705
0.06775011 -0.11771949 -0.009483183 -0.0063607255 0.043143604 -0.36485085 -0.14596948 0.018878797
0.024933387 0.009876479 -0.19465126 -0.23929499 0.28343928 0.04724811 0.002430115 0.15800874
0.013857217 -0.08075498 0.07559302 -0.06998726 0.015188885 -0.057704438 -0.049022667 0.021466432
0.0324811 0.11560384 -0.08466199 -0.11464223 -0.07067264 -0.1028172 -0.009763912 0.2471699
0.0015378022 -0.08559898 -0.0599437 0.041311786 -0.02530493 -0.03892127 0.019583324 0.04844665
-0.059977546 0.083322905 -0.2484939 -0.005760127 -0.07917702 -0.059432745 -0.0010302806 -0.30747554
-0.15035744 0.014281021 0.26148105 0.24782822 -0.049760405 0.2609811 0.002298534 -0.1991027
0.020394977 -0.12410939 -0.31522614 0.011371573 0.028326027 -0.09243541 -0.008913255 0.032330953
-0.0040641944 -0.3351471 -0.1465544 -0.12493079 0.089855656 0.0820421 0.1302992 -0.0921623
-0.12273621 0.07502702 0.16469294 -0.026103375 -0.026250767 -0.110555716 -0.06517685 0.025738075
-0.08863662 0.06576542 -0.0014959937 0.01638906 -0.008471077 -0.012430816 -0.1884501 0.0073820446
-0.032889344 0.1010039 -0.08317102 0.09860012 -0.11111697 -0.07112919 -0.03914065 0.0227976
-0.007650114 0.32609215 -0.15527473 0.023754587 -0.19547395 -0.1956127 -0.1846178 0.08757143
0.029771995 0.06995923 -0.076065354 -0.0014575678 0.00025370938 0.012879305 0.0005236932 -0.27740985
-0.09271411 0.28236142 0.097652376 0.09216632 -0.033152472 0.022862112 0.16674444 -0.15734299
0.018171132 0.0643021 0.0031998213 0.022489736 -0.14560382 0.12956667 -0.04644777 -0.25482178
0.2354395 0.09616431 0.1315584 0.07605255 -0.06241034 -0.035433587 -0.17781071 -0.021868598
-0.21696913 0.0034562952 -0.13676715 0.067031614 0.033002473 0.25041175 -0.011364936 -0.11741172
0.18803138 0.06398264 -0.41589755 0.12546778 -0.12371186 -0.053805962 0.044736266 -0.14241017
-0.1704932 -0.0031446298 0.012787767 -0.34438977 -0.12663184 -0.18242805 -0.09775716 -0.07118335
-0.09854091 -0.17013797 0.0029090396 -0.123596184 0.10566067 -0.21402733 -0.004870968 0.01551278
0.21970741 -0.07410818 0.16183014 -0.0042061275 -0.0008633893 0.38216382 -0.16553192 0.042904366
-0.020624902 0.10446617 -0.050087858 -0.22130932 -0.007525991 -0.010993131 0.057978485 -0.6022593
-0.48381197 0.12121966 0.114821695 -0.40457833 -0.12435442 -0.238646 -0.13716458 0.19852543
0.036053214 0.23406644 0.050426565 0.034729946 -0.17634949 -0.0056487094 0.07205516 -0.014660898
-0.13693854 0.26362756 -0.15477157 -0.028124008 -0.12853585 -0.032488458 -0.018782068 -0.08055468
-0.106614456 0.040211815 -0.097287804 -0.0077617043 -0.046711568 0.08446112 -0.23607737 0.041134566
-0.08939923 -0.4906727 0.11739148 -0.084862605 -0.08424551 -0.09136078 -0.47562543 -0.37556583

hidden1_Y1.bias f4 [200]
00000000: e98e 82be 76bf b53e d772 28be 6f92 b6be
00000010: db03 623e b634 2bbe bbf2 a0be 9a8d 75be
00000020: ca87 3bbe 4f3a 03be df04 40bd afc2 793e
00000030: aeb7 73be 7baf 26bd 8fa4 7fbe 1526 a0be
00000040: 3ee1 67bd cfaf c23e 2ea4 93be be9b 56be
00000050: 9406 66be e485 80be 09bc c83e a820 37be
00000060: d3d3 aa3d 8461 f8bd dbff ffbe 1f1d 87be
00000070: 7d02 263a d9e2 d6bc 9a21 b43e 428a 11be
00000080: f430 9cbe 6f7d c83e 2675 d43c af6f a9be
00000090: f976 7dbe 9edf 70be 7f75 e63d 4f1d d73d
000000a0: d0d6 7abe 7604 82bd 0f99 d1bd c1ac 57be
000000b0: 8fd5 87be 842c 19be 4446 21be 9d66 acbe
000000c0: da3e 4cbe 4680 543e af7e 20be 6932 81be
000000d0: 7e2e 24be 0cb5 84be e2fc 81bd d525 85be
000000e0: 9aa4 81bc 30c3 89be 84ba b4be dbca 8cbe
000000f0: 89ed a1be aeb6 25be 75bc 69be a3a8 54be
00000100: cd3a 62be a6a1 5abe d084 3fbe 77da 33be
00000110: 0887 0cbe 426a b0be ef21 81be be12 6fbe
00000120: 9cae 93be 5fce 843e 2beb 77be 90c6 02be
00000130: dd2a 92be 2abb 5bbe a167 a2be dfed 8bbc
00000140: a93f 84be cdd3 7ebe fe10 58be 1bda 95be
00000150: 577a 14be 0395 a5be 9f53 7cbe c798 433d
00000160: 7a5f 98be 3a7a afbe 2d53 96be daa6 dcbd
00000170: e75a 80be 1c6b 53be 931d f6bd 736e 15be
00000180: 33b8 01be 1a87 2ebe ede0 9dbd dcde 8ebe
00000190: 1d1e 4e3e 567d 21be 6b16 da3e 5738 a9be
000001a0: 3c1d 003e ac79 05be cb84 03bd 90c9 543e
000001b0: 5ffb 09be 6019 a9bd 2f8b a1be 7cf5 c9bc
000001c0: 7faa cdbe 60ba 84be 0684 a5be a866 8cbe
000001d0: 1417 933d 3274 56be 1701 fe3e cd3d f5bd
000001e0: 8e7f 4cbe 8d7c 21be 1d15 74be d056 a7bd
000001f0: 1eb4 4abe 76ea d3be 94c6 d4bb cac0 b1bd
00000200: e603 95be 6118 75be e080 6fbe b010 6dbe
00000210: b591 0abe 0f20 6cbe 7d37 233e b096 a93e
00000220: 85df eebd 383a a8be d16a 9cbe 4717 263e
00000230: cf62 76be 47bf 1abe b3fb 4fbe adf8 51be
00000240: 399c 9ebe 0b61 78be 9147 bebe d5b8 bcbd
00000250: 780a febd b1f3 7cbe 894f 13be be85 5c3e
00000260: b601 1cbe e658 8dbe 2547 49be e6bb 23bd
00000270: 1450 59be 77cd c33e 4311 99be 52b4 99be
00000280: ba34 4ebc 1986 243e f7e6 9ebd 0635 7e3e
00000290: 3e65 aabe 1597 71be 1231 8abd a961 8bbe
000002a0: abfc 873e 1de0 a8bd f5eb 54be 4465 38be
000002b0: 043e 04bf 41bc 56be 4afa 80be b4c3 62be
000002c0: 8260 8ebe 2e0f 72be 2a76 8cbe f0a9 653d
000002d0: 2b36 e8bd 8eae 01be 652f 91be 211d 03be
000002e0: 0d02 2ebe e726 a6be 1b46 25be 1cca 6abe
000002f0: 9b54 c4be db1f 15be 5fd1 5bbe 139f 533e
00000300: 81d1 aabd f708 20bd 671a 273c 1de4 95be
00000310: 61e6 c03e b80d c9be 9e31 83be 5e3f 07be
-0.25499657 0.35497636 -0.16450058 -0.35658595 0.22071783 -0.16719326 -0.3143519 -0.23979798
-0.18313518 -0.12815212 -0.046879645 0.24390672 -0.23800537 -0.040694695 -0.24965118 -0.31279054
-0.056611292 0.38024756 -0.28836197 -0.20957848 -0.22463447 -0.2510215 0.3920596 -0.17883551
0.083411835 -0.12127975 -0.4999989 -0.26389405 0.0006332768 -0.026231216 0.35181886 -0.14212897
-0.30506098 0.39158198 0.025934767 -0.3309302 -0.24752416 -0.23522803 0.11252879 0.10503637
-0.24496007 -0.06348507 -0.10234272 -0.21061994 -0.2653012 -0.14958388 -0.1574946 -0.33672038
-0.19945851 0.20752057 -0.15673326 -0.25233772 -0.1603336 -0.25919378 -0.06347062 -0.26005426
-0.015825558 -0.2690673 -0.3529855 -0.27498516 -0.31626537 -0.16182968 -0.22825797 -0.20767455
-0.22092743 -0.21350726 -0.18703008 -0.17563806 -0.13723385 -0.34456068 -0.25221202 -0.23346993
-0.28844154 0.259387 -0.24210803 -0.12771058 -0.28548327 -0.21458116 -0.31719688 -0.0170812
-0.2582982 -0.24885483 -0.21100232 -0.29267964 -0.14499794 -0.3234025 -0.24641274 0.04775312
-0.29760343 -0.3427294 -0.29360333 -0.10774012 -0.25069353 -0.20646328 -0.120173596 -0.14592914
-0.12667923 -0.17043725 -0.07708917 -0.27904403 0.20128675 -0.15770468 0.4259523 -0.33050796
0.12511152 -0.13034695 -0.032109063 0.20780015 -0.13474797 -0.08256793 -0.315515 -0.024653189
-0.4016914 -0.25923443 -0.32327288 -0.2742207 0.07182136 -0.20942762 0.49610206 -0.11974678
-0.19970533 -0.15770169 -0.23836179 -0.08170855 -0.19795272 -0.41389817 -0.006493399 -0.0867935
-0.29104537 -0.23935081 -0.23389006 -0.23150897 -0.13532145 -0.23059104 0.15939136 0.33122778
-0.11663727 -0.32856917 -0.30550244 0.16219817 -0.2406113 -0.15112029 -0.2031086 -0.20505019
-0.30978563 -0.24255769 -0.37163976 -0.092149414 -0.124043405 -0.24702336 -0.14385809 0.21535394
-0.15235028 -0.27606887 -0.19656046 -0.039974116 -0.21221954 0.38242695 -0.29895982 -0.30020386
-0.012585813 0.16066779 -0.07758897 0.24824914 -0.33280367 -0.2359279 -0.06747641 -0.27222946
0.26559958 -0.08245871 -0.20793135 -0.1800738 -0.5165713 -0.2097025 -0.25190955 -0.22144967
-0.27808005 -0.23638603 -0.27433902 0.05607027 -0.11338457 -0.12664244 -0.28356472 -0.1280408
-0.1699297 -0.32451555 -0.16140024 -0.22928661 -0.383458 -0.14562933 -0.21466587 0.20666151
-0.08340741 -0.03907105 0.010199166 -0.292756 0.37675765 -0.3926828 -0.25623792 -0.13207766

hidden2_Y1.weight f4 [200, 200]
00000000: 2e95 aabe d63d 8abe 7116 03be ed87 d73d
00000010: 4fdf 01be ea00 03bd 1b98 22be 7a92 da3d
00000020: 5ea2 a03d 0b9c 093e b0d7 19be c0c9 b8be
00000030: 8e00 eebd 5901 c4be c6cc 27bd 3a30 ef3a
00000040: 324a c63d 2fd5 54be e8db 213e 9968 d5bd
00000050: 3eb5 d7bd 701c 56be a86a 1abd a411 49be
00000060: e9a7 99be 20b7 c33d a812 96be b660 e9bd
00000070: 4bd8 40be 1f7e 68be 520e 143e e52f 46be
00000080: a5c5 d3bd 05ba cdbd cd2f 5abd 3f94 533e
00000090: fd7b 7dbd 6fc0 803c 9bed 4f3e 134f d2bd
000000a0: 0788 0fbe e293 48bc 9b5d aa3d 341e 1c3d
000000b0: 8bec 693c 66d7 10bd 077f 21be 12a1 94bd
000000c0: 5bbd e1bd b90a 44be 4d0c a03d f68d 01bc
000000d0: 44d8 da3d d574 043e 6dfc 1abd 8b11 823c
000000e0: c6c2 e73d d7ce a3bd 72a3 6abd bd96 ca3d
000000f0: 98f1 0a3d 1267 8fbe ba8d 66be 8f6d 193d
00000100: d967 34bd ff31 0dbe 2fbc 2ebe 87f9 e53c
00000110: e7af dfbb 6f7b 8b3c f6c3 313e 6f2b c4bd
00000120: 15c2 863c e00f 873d 7cf3 f43b 1d41 8ebd
00000130: 212f 90bc 0ca6 853d b525 fe3c 6834 c4be
00000140: 5591 b1bc f657 c33d cf30 21be 4e0d 7fbe
00000150: c759 72bd d4fc 57be d4bb 053d faf9 03be
00000160: fd49 68bd e96b 54be d3b9 8abd 3e91 4b3b
00000170: d4bf 14bd d7f5 363e 4304 c9bd 304a ad3d
00000180: aa35 86bd 20ba 543c ef0f 02bd 4736 4bbd
00000190: 1a2e c7be 29f7 c53d 0cf3 ebbd eb52 abbe
000001a0: 215a 4cbe d553 1ebe 2ecc 013c f4a9 d9bd
000001b0: 6709 6cbe 2b0b 92be 2001 9bbd 8510 363d
000001c0: 65fa f7bc ba43 48be 2793 f63d bd0c 173d
000001d0: 076c 08bd 8162 ecbc 4df9 32be 6e18 60be
000001e0: b468 c8bb aca4 d7bd b117 1a3d 78ef 2fbe
000001f0: 4f47 463d 10e4 ce3d b229 1c3d 0b09 4ebd
00000200: ad6f 15be 8d40 e2bc 8f04 e4bd 2354 b73c
00000210: e9be cdbd e77b d9bc 20e2 1d3e 26bf dbbd
00000220: d002 173d 122b 1d3d ff96 813d c4dc c13d
00000230: 2a89 a7bc c845 91be 0e00 5b3d 1370 4dbd
00000240: 14b4 2fbd fa5c a53b 9463 81be 397c 86be
00000250: 7b52 43bd 27e7 b73b 4a7d 98be 23b8 0cbe
00000260: f71e f13c f3ce 3abe c365 843d 09ea 563d
00000270: b455 28be c7eb 7abe 52b9 f9bb 7169 b8bb
00000280: e47e e4bd bcb4 6ebd 3477 a2bd 876d 2abe
00000290: 25c5 acbe bc9b 15be 164c 46bc b2a2 1ebe
000002a0: 10b4 37be 724d 4c3d ee3c 5ebe dea5 25be
000002b0: 3e2c 47be 79ce 41bd 9930 b3be 3217 55bc
000002c0: d644 c4be 386b 62bd 656d 29bd 5cb5 833c
000002d0: ac17 373d 0f67 3dbd 1162 17bd 56d8 8dbe
000002e0: 0bbc f73d 949a 80bd 464c fe3c cce4 afbd
000002f0: 8b4b 923c 9413 b5bc 4b57 47be cb8f 883d
00000300: d2bb 22be d9d1 33bd 1dad 5fbd 5e75 f6bd
00000310: 8bf8 85be e8f0 15bd 38bd 7dbe c70d 05bd
00000320: ac37 55bd 7609 27be eb5c e5bb 6eaa 8cbd
00000330: 370c 4abd 0a74 f2bd 7ba8 bd3d bccd 1abd
00000340: b260 2ebe bf0f 20be 32a0 6fbd c614 b0bd
00000350: 31ef acbd 1df1 8abd 60c6 d9bd f93f ecbc
00000360: 151d 373d e59d b3be 721b 163e a9eb 933d
00000370: de20 5cbe af93 003e d4ed 4bbe f284 9abe
00000380: dc2e ecbd f402 18be 646d 3abc e57b 8fbe
00000390: 7a4c 30be 8879 49bd f903 52be dbf0 a9bd
000003a0: 0eff 05be 9a95 e7bd c27f 683d f539 d3bd
000003b0: 6246 95bd 7623 de3d db20 eebd 856b 26be
000003c0: 4f11 ba3c 6700 42be 4fc3 813c 2f89 053d
000003d0: 6454 68bc 7f1c dcbd 4dca aebc 0e50 483d
000003e0: 2701 f8bd 1566 ec3c e422 19be e53b 293d
000003f0: bb62 ebbd 041b 94bd 6bf9 5bbe e33d 0b3d
-0.3331694 -0.27000302 -0.1280153 0.10523973 -0.12682842 -0.031983294 -0.15878336 0.106724694
0.07843469 0.13438432 -0.15023685 -0.36091423 -0.116211995 -0.38282278 -0.04096677 0.0018248626
0.096821204 -0.20784448 0.15806544 -0.10420341 -0.10532616 -0.20909286 -0.03769937 -0.19635636
-0.30010918 0.09556413 -0.2931111 -0.11395399 -0.18832509 -0.22704361 0.14458588 -0.19354208
-0.10340432 -0.10045246 -0.053268243 0.2066202 -0.061885823 0.01571676 0.20305483 -0.102689885
-0.14016734 -0.012242289 0.08318635 0.03811474 0.014277588 -0.03536167 -0.15771113 -0.07257284
-0.11022445 -0.19144715 0.07814846 -0.007907381 0.10685781 0.12935193 -0.03783839 0.015877506
0.11316447 -0.07998436 -0.05728478 0.09892032 0.033921808 -0.28008324 -0.22515002 0.037458
-0.04404435 -0.13788603 -0.17063974 0.028073085 -0.006826389 0.017026631 0.1735991 -0.09578597
0.016449967 0.06594825 0.0074753147 -0.06946013 -0.017600598 0.065258116 0.03102384 -0.38321233
-0.021675745 0.095382616 -0.15741275 -0.24907419 -0.05916765 -0.2109254 0.03264983 -0.12888327
-0.056711186 -0.2074429 -0.067737244 0.0031061913 -0.036315754 0.17867218 -0.09815266 0.08461416
-0.06553204 0.012983829 -0.031753477 -0.04961231 -0.3890236 0.09666283 -0.11520967 -0.334617
-0.19956256 -0.15461667 0.007922215 -0.10628119 -0.23050462 -0.28524145 -0.07568574 0.044449348
-0.030270765 -0.19557086 0.12039786 0.036877383 -0.033306148 -0.028855564 -0.17477913 -0.21884319
-0.006115997 -0.105294555 0.03762025 -0.17181194 0.04840785 0.10102093 0.0381257 -0.050301593
-0.14593382 -0.02761867 -0.11133682 0.022378987 -0.10046179 -0.026548339 0.15418291 -0.10729818
0.036867917 0.038371153 0.06327628 0.09465936 -0.020451147 -0.2837355 0.05346685 -0.05015571
-0.042896345 0.005046484 -0.25271285 -0.2626665 -0.04768608 0.0056122723 -0.29783088 -0.13742118
0.02943371 -0.18243007 0.06464722 0.052469287 -0.16438943 -0.24504004 -0.007620969 -0.005627804
-0.11157015 -0.05827783 -0.079328924 -0.16643344 -0.3374416 -0.14610189 -0.012103101 -0.15491751
-0.17939782 0.049878545 -0.2170293 -0.16176555 -0.19450471 -0.04731605 -0.34998015 -0.0130060185
-0.38333768 -0.055278033 -0.041364092 0.01607769 0.04470031 -0.046240862 -0.036958758 -0.27704114
0.12096413 -0.062794834 0.03104223 -0.085885614 0.017858287 -0.022104062 -0.19466893 0.06668051
-0.1589196 -0.0439013 -0.054608453 -0.12034105 -0.26166186 -0.0366067 -0.24779212 -0.032483842
-0.052055046 -0.16312203 -0.006999602 -0.068684444 -0.049328055 -0.11838539 0.09260651 -0.03779386
-0.17029074 -0.15631007 -0.058502384 -0.08597712 -0.0844406 -0.0678427 -0.1063354 -0.028839098
0.04470547 -0.350814 0.14658907 0.07222683 -0.21496913 0.12556337 -0.19914943 -0.30179554
-0.11532375 -0.14844877 -0.01137862 -0.28024212 -0.17216673 -0.049188167 -0.20509328 -0.08297893
-0.13085577 -0.11307831 0.056762464 -0.10313789 -0.07288815 0.108466074 -0.116273604 -0.16251953
0.022713332 -0.18945466 0.0158402 0.03260153 -0.014180277 -0.10747623 -0.021336699 0.04890447
-0.12109595 0.02885727 -0.14954716 0.041316886 -0.11493441 -0.07231715 -0.21481864 0.033994567

hidden2_Y1.bias f4 [200]
00000000: bac9 89be 0bf1 99bd 1592 e23e 7d11 d0be
00000010: e6bc 5c3d c0cd be3b 6efc 04be 55e5 a23e
00000020: cede 803e 9306 30be 9312 1f3e ac8f 52be
00000030: 0793 423d e432 a9be 7a69 82be 6e06 41be
00000040: 9453 1e3e 0746 3fbe d780 eebd a729 0a3f
00000050: 964d 44be ccda f7bd 3a22 23be b593 b2bd
00000060: 4ee5 13be 4273 28be 6f08 d93e 1ede 85be
00000070: b4ae 1c3f d40e 7ebe e3bb 9ebd 2715 71be
00000080: ce41 46be 6b78 423e 9181 a2be 06ff fbbd
00000090: 6834 373e 1e3e 323c a7fc a63e 851a 143e
000000a0: 65b6 c6bd f003 89be 472e c1bd c3d1 32be
000000b0: b631 023d 0384 bc3e b593 75be dee0 8ebe
000000c0: dd39 30be c07f 3b3f 3c84 06be 479f 383f
000000d0: 9997 85be 1e6c 22be c246 70be c66f 4cbe
000000e0: 54e9 7bbe 9ba2 c0bc 281a 77be b2e5 1c3e
000000f0: c8c6 09bf 80ab cbbe acbd b8be 2d49 69be
00000100: a12a 4bbe 8644 2ebe 022c 233e 90f7 88be
00000110: a6a8 a2bd 0f75 d63e 7992 ebbd 6dc0 24be
00000120: 130f 86be 8d93 cc3e dd05 13bd cdd4 fe3e
00000130: 951e 5cbe 56e2 053d bc3b e9bd fc54 913c
00000140: 67fe 22be ec86 3cbe 7034 1abe d7b5 db3d
00000150: cc22 abbe ac9f d4be 66b2 85be ee2e 90be
00000160: 6f51 95bd 7261 54be 242e 53be 7385 853e
00000170: f54f 42bd 0734 a63c b68b b33e e3ce e8be
00000180: 272d 993d 5b44 ecbe d89f c5be 9d8e f63c
00000190: 3f8c 533b 08a4 01bf f4fa 8dbe 3eea e6bd
000001a0: 42d5 58be fc65 a93d 784e 27be b294 c3be
000001b0: 5828 f0be 0482 0bbe 934d 6cbe 28cd 0abe
000001c0: f7eb 1bbe 0cc3 7fbe 580c ed3e 48c5 43be
000001d0: d0f3 35be 669b 51bc 726d 21be d8a7 b9bd
000001e0: f060 53be b10d 683e 32ed 93be 13cd 87be
000001f0: 07f3 96be 3f58 1a3f fc16 90bd 9230 56be
00000200: 3264 6dbe dcf9 9bbd db29 27be 8a03 41be
00000210: 43aa f9bd 77db 44be 9294 a3be d0cd ca3d
00000220: d135 393e f527 533e 4c83 b2bd ffbf 86be
00000230: ee89 143d 716b 05be 5d6c 5abe bf59 18be
00000240: 5208 8cbe ba2c 6bbe 2bee 27be 8d63 20be
00000250: 37f3 573e 9720 d73c bea3 d2bd c5ce 0bbe
00000260: 9e67 62be 5d9d 2e3f d666 36be a39b 98be
00000270: 739b e5be 195a 9abe 5138 3cbe 1e35 92be
00000280: f744 193e e267 37be 2240 0fbe ab1c 76bc
00000290: de3f 99bb e516 22be f284 bc3e 87ec ac3e
000002a0: 4c5c 90be c623 54be fe06 b13e 106d 5fbe
000002b0: ea30 083d cb60 46be 2248 6ebe 9229 9dbd
000002c0: 44b3 6b3e cee3 84be b978 92be b429 88be
000002d0: 59af 9ebe aeba b9bd 92e9 c2be 507a c9be
000002e0: 813d 07be c5eb a13e f6c1 053c 6c5b febd
000002f0: 0934 91be dfd0 4dbe 1172 a53d 2394 45be
00000300: 1002 73be a441 68be f4c5 a23e fde1 bdbd
00000310: 0b8d 59be 236c 6cbe 425f 703d b380 c63e
-0.26911718 -0.075166784 0.44252077 -0.40638342 0.053891085 0.005822867 -0.1298692 0.3181559
0.25169986 -0.17190008 0.15534429 -0.20562619 0.047503497 -0.3304664 -0.25471097 -0.18850109
0.1546157 -0.18679057 -0.11645668 0.53969806 -0.19170222 -0.12102279 -0.15931025 -0.08719579
-0.14442942 -0.16450217 0.42389247 -0.26146024 0.61204076 -0.24810344 -0.0775068 -0.23543225
-0.1936104 0.18991248 -0.31739476 -0.12304501 0.17891085 0.010879068 0.32614633 0.14463241
-0.09702758 -0.26760817 -0.09432655 -0.1746283 0.03178569 0.36819467 -0.23982127 -0.27905935
-0.17209573 0.73241806 -0.13136381 0.7211804 -0.26092222 -0.15861556 -0.23464492 -0.19964513
-0.24600726 -0.023515036 -0.24131072 0.15321997 -0.5381894 -0.39779282 -0.36082208 -0.2278182
-0.1984048 -0.17018327 0.15934756 -0.26751375 -0.079423234 0.41886184 -0.11502547 -0.1608903
-0.26183376 0.39956322 -0.035894264 0.4977173 -0.21496041 0.032686554 -0.113883466 0.017740719
-0.1591736 -0.18410844 -0.15059066 0.107280426 -0.33424985 -0.4152807 -0.2611267 -0.28160805
-0.07290923 -0.20740297 -0.2062307 0.26078376 -0.047439534 0.02028848 0.35067528 -0.45470342
0.07479315 -0.461459 -0.38598514 0.0300973 0.0032279638 -0.50640917 -0.27730525 -0.11275147
-0.21175101 0.08271405 -0.16338527 -0.38199383 -0.4690578 -0.13623816 -0.23076467 -0.13554823
-0.15226732 -0.24976748 0.4629848 -0.19118226 -0.17768788 -0.0127933975 -0.15764406 -0.09065217
-0.20642447 0.22661473 -0.28891903 -0.26523647 -0.2948229 0.602909 -0.07035634 -0.20916966
-0.23182753 -0.07616016 -0.1632456 -0.18849006 -0.12190678 -0.19224344 -0.31949288 0.09902537
0.18086936 0.20620711 -0.08716449 -0.26318356 0.036264353 -0.13029267 -0.213304 -0.14877985
-0.27350098 -0.2296628 -0.16399448 -0.15662976 0.21088873 0.026260657 -0.102851376 -0.13653095
-0.2210984 0.6820887 -0.17812666 -0.2980624 -0.4484516 -0.30146864 -0.18380858 -0.2855615
0.14967714 -0.17910722 -0.13989308 -0.015021483 -0.004676803 -0.15829046 0.3682018 0.33774206
-0.28195417 -0.20716771 0.34575647 -0.21818948 0.033249773 -0.19372861 -0.23269704 -0.076739445
0.23017603 -0.2595505 -0.2860773 -0.26594317 -0.30993155 -0.090688094 -0.38068825 -0.3935113
-0.13207056 0.3162519 0.00816392 -0.12419781 -0.28360012 -0.20099209 0.08078397 -0.19294791
-0.23731256 -0.2268129 0.3179165 -0.092716195 -0.2124521 -0.23088126 0.058684595 0.38770065

out_Y1.weight f4 [1, 200]
00000000: 58f2 3a3d f219 923c 52d6 39bd a4d3 d8bc
00000010: 48c6 ff3c 156a c33d 3778 edbc f1c3 e3bd
00000020: af81 853d ef62 4abc a5e1 f93c c800 353d
00000030: 04e1 1f3c df76 a1bc 72de 8a3c 14f4 573c
00000040: 894c e9bd 3159 91bd f7b8 49bc 3f96 0abe
00000050: fa3d 773b 67d0 053d 8d8d 78bd 4b5b 3bbd
00000060: 06e2 b9bc 4bd0 273b f3da 2fbe 1d0a eabc
00000070: 1267 58be e229 27bd 047c 1fbb 3ae1 793d
00000080: 1fcf f3bc deed 443d 5577 ae3a 34f7 80bd
00000090: ab16 d63c bb55 9f3d 1a97 2cbe f5cf c6bd
000000a0: 328f a43c 360b e5bc 11da 6e3c fb03 2ebd
000000b0: f4e1 023e adea 4ebe 2a6a 153d 9af9 1c3d
000000c0: 3f9c cf3c 0a23 c1bd ee01 bf3a 29e0 5cbe
000000d0: ed92 f8b9 6e92 24bd fc28 be3d f0be 8bbb
000000e0: 449d 01bd 6a14 b2bc ccff 86bd b220 b93b
000000f0: 9488 ba3c a58d aa3c 6f38 093c e632 9fbc
00000100: e2e0 8b3b a712 003d c8d2 d4bd 086f 8d3c
00000110: c76c d53b dcc4 25be acbd 993c 2e09 a6bc
00000120: 4a3d 833c 781e 8dbd 92b6 b63d b69c 66be
00000130: e0cd f93c fc3b cf3b f2aa 34be a3aa 7e3d
00000140: 4a43 d0bc 9d11 a7bd 7f8d 753c 8075 bd3c
00000150: 8bd4 01bc 1bb0 a8bd 279a d13c d940 073d
00000160: 5be7 88bb 42be f43c 79a6 963c a935 67be
00000170: 3f44 1fbd 83df cabc 078d 3cbe da4d 1c3c
00000180: f9b7 1b3c 3327 a5bc 91a5 47bd 1226 3abd
00000190: 597d 093c bf4f 6e3d d426 8d3c 7d26 2b3b
000001a0: a53d 51bc 0e2a a73d 1ca6 543d f7d0 b6bc
000001b0: 11e7 5dbc 7c2e 0d3e a2e3 293d 2084 19bc
000001c0: 195d f63c 8a31 70bc a68d b0bd be0e cbbc
000001d0: b274 97bb a2e7 913c 1c90 a53c c9b7 bdbc
000001e0: df3f 53bc e44c 08bd 1847 c73c d477 b6bb
000001f0: 91a7 88bb cd9d 3ebe 149e 6cbd 07e9 8739
00000200: 8134 fe3b 1bad ed3d c908 5f3d bc02 1dbd
00000210: 1376 81bc ad50 89bc af60 d33d 0e8f 55bc
00000220: 78a2 f53c bdc9 1cbe 20a1 5f3c 7692 3e3c
00000230: d027 333d 5e77 853d c493 c4bc 270f 423c
00000240: 748c 00ba e831 b2bc ac08 013d 80b4 633d
00000250: 6c7c 89bd 59b7 da3c 9ad3 4f3d 5331 473d
00000260: 1fcd 893c 5835 0cbe 53b1 efbc 16d7 70bc
00000270: 396c e5bb 3231 dcbc 7663 64bd 12a4 a0ba
00000280: b218 d7bd 5d98 1a3d dd0a a53c cc0f a1bd
00000290: 723b 03bb 250c 8c3d f91d d4bd b41e 793d
000002a0: 28de 22bc fd85 c63c f94a 00be 01c1 96bb
000002b0: ecbb 25bc 062d 58bc 6f75 f239 0412 f03b
000002c0: f203 503d b898 64bc b588 0bbc 3a22 c43c
000002d0: c010 88bc ed53 973c 9412 d03c e0da aab8
000002e0: 7ad4 ee3c a18e 1cbe 0b86 0ebd e996 833d
000002f0: 3ab6 d13b da56 9f3d 1180 133b f245 093d
00000300: 8b13 5fbc 3120 bfbc 2945 eabd 68e2 243d
00000310: 883c 9fbc a817 a23c 9a32 26be 26a3 04be
0.045641273 0.017834637 -0.045370407 -0.026468106 0.031222478 0.09541718 -0.028987987 -0.11121357
0.06518876 -0.012352689 0.030503104 0.0441902 0.009758238 -0.019710002 0.016951773 0.013180751
-0.11391551 -0.0709709 -0.012312165 -0.13533877 0.003772615 0.03266945 -0.06068187 -0.04574136
-0.022690784 0.002560633 -0.17173366 -0.028569276 -0.21133068 -0.040811427 -0.0024335394 0.06100581
-0.029761849 0.04807841 0.001331071 -0.0629715 0.026133856 0.07780024 -0.16854516 -0.097076334
0.020087812 -0.027959447 0.014578358 -0.042484265 0.12781507 -0.20206709 0.0364782 0.038323976
0.025343059 -0.09430511 0.0014572719 -0.21569885 -0.00047411714 -0.04017871 0.09285161 -0.004264705
-0.03164412 -0.02173825 -0.06591758 0.0056496495 0.022770204 0.020819495 0.008375271 -0.01943345
0.0042687515 0.03126779 -0.10391766 0.017264858 0.0065132114 -0.16188377 0.0187672 -0.02026805
0.016020436 -0.06890577 0.08921541 -0.22520718 0.030493677 0.0063242894 -0.17643335 0.06217445
-0.02542271 -0.08157656 0.014987349 0.023127317 -0.007924209 -0.082367145 0.0255862 0.033020828
-0.0041779703 0.029875878 0.018389927 -0.22579063 -0.038883444 -0.024764782 -0.18413173 0.009540046
0.009504312 -0.020160293 -0.04874188 -0.045446463 0.008391702 0.05818152 0.017230429 0.002611547
-0.012771045 0.08162318 0.051916227 -0.02231644 -0.01354386 0.13787264 0.041476853 -0.00936988
0.03007369 -0.0146602485 -0.08620767 -0.024787303 -0.0046220655 0.017810646 0.020210318 -0.023158925
-0.012893646 -0.033276454 0.024325892 -0.005568484 -0.004170366 -0.18614884 -0.057767943 0.00025922825
0.007757724 0.11605283 0.054451738 -0.038332686 -0.015803372 -0.016762102 0.10321175 -0.013034595
0.029984698 -0.15311332 0.013649255 0.011631599 0.04373914 0.06516908 -0.023996241 0.011844433
-0.00049037416 -0.021752313 0.03150241 0.05559206 -0.06713185 0.026698755 0.05073891 0.048631024
0.016821442 -0.13692224 -0.02925936 -0.014699718 -0.0070014265 -0.026878927 -0.055758916 -0.0012255928
-0.10502757 0.03774296 0.020146782 -0.07864341 -0.0020024446 0.06838254 -0.10357279 0.060820296
-0.0099406615 0.024233812 -0.125286 -0.0046006446 -0.010115605 -0.013194328 0.00046245332 0.0073263664
0.050785013 -0.013952427 -0.00851648 0.023942102 -0.01660955 0.018472636 0.025399484 -8.147e-05
0.029154051 -0.15288784 -0.034795802 0.06425268 0.006399897 0.077802375 0.0022506753 0.03351397
-0.013615499 -0.02333078 -0.114389725 0.04025498 -0.019438043 0.01978667 -0.1623024 -0.12952861
