DCNModel/DCN_PD_NN_Models/NN_DCN_model_iter_id_27_epoch_500_lr_0.001.pth (torch_old, 828786 bytes, 14 tensors)

shared1.weight f4 [200, 25]
000000 f8 d5 51 3d 43 09 f1 3e 1b 05 71 bc a2 66 41 3e
       0.051229447 0.4707738 -0.01471069 0.18886808
000010 ae 71 27 be dc 76 8c be 0e f1 d7 3d c0 50 b4 be
       -0.16351959 -0.27434433 0.105440244 -0.35217857
000020 84 c3 2d bf 87 34 b4 3e 6a 45 c8 bd 22 88 2b bf
       -0.6787646 0.35196325 -0.09778865 -0.670046
000030 2b f1 9c 3e ae 7f a3 be 67 d2 ef 3d 6b 90 87 bc
       0.30652747 -0.3193335 0.11710053 -0.016548356
000040 dd 6b a2 be 4c 19 96 be e1 7e 5b bf 95 8c 81 bf
       -0.31722918 -0.29316175 -0.85740477 -1.0121027
000050 46 4a fd be 71 7b 48 ba 32 ff 65 3e a4 21 1e bf
       -0.4947073 -0.0007647789 0.2246063 -0.6177008
000060 0c 38 ae be 61 ac 85 3d 09 3b 1c bd e2 99 ad 3d
       -0.34027135 0.06527019 -0.038142238 0.084766164
000070 59 6a b8 3c 59 0d 02 bd 83 f1 a2 3d 24 5c dc 3c
       0.022511648 -0.03175101 0.07956221 0.026899405
000080 bd c6 04 be c1 b1 27 bd b4 fc 0f 3e a0 6b 56 be
       -0.12966438 -0.040941004 0.14061242 -0.20939493
000090 64 5b 8e be e3 43 db bd 1f 8a 09 be be b7 81 bb
       -0.278041 -0.10706308 -0.13431595 -0.0039586714
0000a0 b2 32 d4 be 3c cc c3 be 09 c2 58 be 69 1f f1 3d
       -0.41444927 -0.38241756 -0.21167769 0.11773569
0000b0 d9 cd 1f be c0 a2 48 be 08 2e 09 bd 7f 63 ff 3d
       -0.15605868 -0.19593334 -0.033491164 0.12470149
0000c0 de 5a 28 be 0b c4 19 bd 92 36 98 bd 72 9c 52 bd
       -0.16440913 -0.037540477 -0.074322835 -0.05141873
0000d0 5a ee e7 3c ac 66 82 3c a7 fb 01 3e c0 f6 78 3d
       0.028311897 0.015918098 0.12693654 0.060782194
0000e0 1f 84 48 be 71 87 45 3d da 23 f5 bd e9 ce 12 be
       -0.1958165 0.04822487 -0.11969729 -0.14336742
0000f0 f1 2e b6 bd 6c 89 71 bb 8d e8 99 bd 51 ce 62 be
       -0.08895672 -0.0036855591 -0.07515059 -0.22149016
000100 f3 15 c3 3d 74 9e bb 3c 64 4a 44 bd 72 70 1a be
       0.09525671 0.022902705 -0.047922507 -0.15081957
000110 3e a0 1a bc 07 7d a4 3c 1d d1 16 3d 66 40 59 bd
       -0.009437619 0.020079149 0.03682052 -0.05303993
000120 b7 2e 06 bd c6 59 e2 3d 82 03 3d be d7 83 c2 bd
       -0.032759394 0.11052279 -0.1845837 -0.09497803
000130 63 f3 8a 3c 78 f6 ac bd 03 19 b0 bd fa dd cc bc
       0.016961759 -0.08445448 -0.085985206 -0.02500819
000140 56 2b 1b bc bc 02 d4 bb a0 3a 8d 3d 0d 2d 05 be
       -0.009470781 -0.0064700525 0.068959475 -0.13005467
000150 ac 77 71 3d c4 54 b5 3d 57 55 16 bd ab 93 0b bc
       0.05895202 0.088540584 -0.03670248 -0.0085190935
000160 a8 65 4a bc 55 d7 1d be bc 00 d2 3c 6c 38 a6 b9
       -0.012353338 -0.15414174 0.025635116 -0.00031704025
000170 63 15 21 be c2 43 ed 3b 6c 56 9d bd 56 8e 1c be
       -0.15730815 0.0072407434 -0.07682499 -0.15288672
000180 0b 92 da bd 7a 1e a9 bd 28 fa 00 be 8c 02 4c 3d
       -0.10672387 -0.08257766 -0.12595427 0.049807116
000190 0e 13 80 bc cf 2e b0 39 54 83 9e 3d fb 02 12 3c
       -0.015634086 0.0003360421 0.077398926 0.008911843
0001a0 eb d4 96 3d d0 cb 1b 3e 5d 6e d3 bc a8 db 32 3c
       0.0736483 0.15214467 -0.025809461 0.010916628
0001b0 68 a4 dd bd 47 af f3 3c 8c 8f 31 3d 8c c7 44 be
       -0.10822374 0.029746665 0.043349788 -0.19216746
0001c0 50 2b fa bc 8f 0d 45 be 81 cb e1 bd 80 58 2a be
       -0.030538231 -0.19243453 -0.110251434 -0.16635323
0001d0 9f 4a df 3d 3f 27 fa bd fe 77 e6 bd 86 1c 9a 3d
       0.10902905 -0.12214517 -0.112533554 0.07524972
0001e0 6e 2f 07 3e 0c 31 be 3d 60 5d 83 3b 54 01 a3 bc
       0.13201687 0.09286699 0.004008934 -0.019898094
0001f0 28 21 0a 3e 53 45 df 3d 19 e0 e3 be 10 d2 2c be
       0.1348921 0.109018944 -0.4450691 -0.16877007
000200 87 4a fc bd fc bf a4 be 64 dd f7 3c 63 ec f6 3d
       -0.123189025 -0.32177722 0.030256934 0.12056806
000210 d0 b4 27 bd d4 8c 5c be ba 8c 11 bf cd 7d 12 bf
       -0.04094392 -0.21538097 -0.56855357 -0.57223207
000220 a8 66 27 3f 8d 3b 5b bf fa 23 75 3d 0d 91 f2 3e
       0.65391016 -0.8563774 0.059848763 0.4737629
000230 b0 a1 92 3d f6 a9 90 be 9b 08 21 bf 39 19 09 be
       0.07159746 -0.2825467 -0.62903756 -0.13388528
000240 00 c0 25 bd 79 cc b0 3c 19 d7 67 be 39 e7 e6 3d
       -0.04046631 0.021581875 -0.22640647 0.11274571
000250 61 7e f7 3e ba 6c ff be d7 8e 20 3e 6f dc d5 bd
       0.48338607 -0.4988764 0.15679489 -0.10442435
000260 26 57 9f bd 10 46 14 3d 1f d0 96 3d 60 0b da bd
       -0.07780294 0.03619963 0.07363915 -0.10646701
000270 6c a0 38 be 2b 8b f4 bd d4 7b 4c be 70 3f ab bd
       -0.18029946 -0.11940607 -0.19969112 -0.08361709
000280 cd a4 c3 3d 8b 6c 2d be 81 3a 48 be 44 61 0b be
       0.09552918 -0.16935937 -0.19553567 -0.13611323
000290 2d 31 9f 3d 16 01 29 be 88 5e 81 be 39 8f 07 be
       0.077730514 -0.1650432 -0.25267434 -0.13238229
0002a0 4a 1a 1c be aa c1 c6 be ad fb d3 3d ac e1 8e 3d
       -0.15244403 -0.3881963 0.10350738 0.06976637
0002b0 a3 fe ca bd f5 3a c2 3d 5a 02 50 bd b9 e5 f2 3d
       -0.09911849 0.094839014 -0.050783493 0.11860222
0002c0 62 d5 22 bd ac 70 c8 3d 16 fa f1 3d b3 04 2c be
       -0.03975428 0.097871155 0.11815278 -0.16798668
0002d0 7c 63 01 bc 39 d4 fd bd de 09 1d 3e 58 7c e9 bd
       -0.007897254 -0.12393994 0.15335795 -0.1140067
0002e0 21 17 c8 be 6c 0a 5b be c1 b2 7e 3b 62 a7 d4 be
       -0.39080146 -0.21390694 0.003886387 -0.41533953
0002f0 fb d5 ba be 90 72 0f be cb b7 8e bd 36 69 aa be
       -0.3649138 -0.14008546 -0.069686495 -0.33283395
000300 31 bc d4 bd ef 65 a8 bd 4e 66 6f be 02 96 29 bd
       -0.10387457 -0.08222567 -0.2337887 -0.041402824
000310 0e e7 8d be d5 cc 27 be b1 bb de be ab 36 78 be
       -0.27715343 -0.16386731 -0.43502572 -0.24239604
000320 3f 22 83 bb 62 e9 db bd 5e ac 9f bd a4 53 01 be
       -0.004001885 -0.107378736 -0.07796548 -0.12629563
000330 15 98 b4 bc 72 a5 bb bd 03 45 1e be 06 41 1a bd
       -0.022045175 -0.091624156 -0.15456013 -0.037659667
000340 de 90 1b 3e c4 28 8b 3d ba c2 2b 3e d5 50 e0 3b
       0.15191981 0.06794885 0.16773501 0.0068455734
000350 83 7d ee 3d ce 06 18 be ea 63 b5 3d b3 9a 54 be
       0.11645033 -0.14846346 0.08856948 -0.20762138
000360 d6 55 db bd 85 12 54 be a3 bc 55 bd 62 8d bb bd
       -0.10709731 -0.2071019 -0.05218185 -0.09157826
000370 36 8e 41 bd d4 92 5c bc 3a 4a 02 be c0 80 e8 3d
       -0.047254764 -0.013462741 -0.12723628 0.11352682
000380 40 fb 22 bd 94 90 a0 be 27 cf 12 3e 5b 71 b4 bd
       -0.039790392 -0.31360304 0.14336835 -0.08810683
000390 bf 1f 12 3e 42 d5 1f be b7 93 f1 bd e4 68 e2 be
       0.14269923 -0.15608695 -0.117957525 -0.4422065
0003a0 5a 7d 0e bf 25 fa 5d be 53 4f 05 bf d9 95 d4 3e
       -0.5566002 -0.21677454 -0.52074164 0.41520575
0003b0 94 af ae be 30 19 2f bf 3a 58 f2 be b0 d1 b2 be
       -0.3411833 -0.6839781 -0.47332937 -0.34925604
0003c0 33 89 75 3e e7 34 38 3e cf 59 da bd f5 0a e9 3e
       0.23978119 0.1798893 -0.10661661 0.45516172
0003d0 1c 93 32 3f d9 ec d0 3e 0a a1 1b bf ef 68 c6 be
       0.6975572 0.408057 -0.607926 -0.38751933
0003e0 29 98 a7 3e d4 e0 04 3f 8d cf 02 be e3 50 99 3d
       0.32733276 0.5190556 -0.12774487 0.07486131
0003f0 34 39 5c bc 75 39 c3 3d 40 ec 91 3d 24 77 be 3c
       -0.013441373 0.095324434 0.07125139 0.02325017

shared1.bias f4 [200]
000000 74 78 70 bd 0e 07 ef 3b c8 69 38 3d 96 2c 38 be
       -0.058708623 0.007294542 0.045022756 -0.17985758
000010 30 1d 2c be fd 87 3e be 42 66 4f bc 7c bd 2f bd
       -0.16808009 -0.18606563 -0.0126586575 -0.042905316
000020 a3 46 40 be 72 c6 81 be ef b7 03 be 25 f8 08 be
       -0.18776946 -0.25346714 -0.12863134 -0.1337591
000030 19 8a 35 bc 6e c6 64 be fb 37 21 be 65 47 02 be
       -0.011080288 -0.2234132 -0.15744011 -0.12722547
000040 9b 88 a2 be 8e 7f 6a be 6d e5 e6 be c1 4b 16 be
       -0.31744847 -0.22900221 -0.45096913 -0.14677335
000050 d4 33 e0 be 48 31 02 be 17 53 7a be 7a 42 3a be
       -0.43789542 -0.12714112 -0.24445759 -0.18189421
000060 ac d4 b9 be 3e 03 8f be ec 89 4f be 94 f2 e6 be
       -0.36295068 -0.2793216 -0.20267457 -0.45106947
000070 48 07 d7 bd 05 05 fa bd ce 1b 49 be 0a 17 f6 be
       -0.10499436 -0.12207989 -0.19639513 -0.48064452
000080 4a 02 3e be 37 98 6b be cb e1 e5 be ce c9 94 be
       -0.1855556 -0.23007284 -0.4489883 -0.29060215
000090 e7 2f 9b bd d4 60 bc be 0b bc 70 be 37 35 0b be
       -0.07577496 -0.36792624 -0.23509233 -0.13594519
0000a0 44 1c ce bd cb 82 f2 be a3 91 52 be 6a 3d 05 bf
       -0.10063985 -0.47365412 -0.20563368 -0.52046835
0000b0 c1 11 29 be 03 73 82 be e1 11 e6 bd 0d 58 85 be
       -0.16510679 -0.25478372 -0.11233879 -0.2604374
0000c0 60 e2 9e bd d1 c1 74 be 16 35 99 bd fb 7b 34 bd
       -0.07758021 -0.2390206 -0.074808285 -0.04406355
0000d0 b2 cf 3c be b6 10 b1 3b b7 ac 00 be b4 8a ca bd
       -0.18438604 0.0054036034 -0.12565885 -0.09889737
0000e0 82 be 13 be 0d d8 7b be 3c 9a 6d be 71 13 e8 bc
       -0.14428142 -0.24594136 -0.23203367 -0.028329583
0000f0 b0 e8 35 bd e4 90 2e bc ce 95 c7 bd 51 ce 35 be
       -0.04441136 -0.010654662 -0.0974537 -0.17754485
000100 e9 e4 39 bd e8 91 e7 bd 63 0f dd bd 84 ed 64 be
       -0.04538432 -0.11307126 -0.107939504 -0.2235623
000110 ea 4e 9e be 35 74 ab be d5 3c 6c be f3 6a 6d be
       -0.30919582 -0.33487096 -0.2307008 -0.23185329
000120 07 14 29 bd 82 8f 3e be 3e 29 6d be d9 e9 87 be
       -0.041278865 -0.18609431 -0.23160264 -0.265456
000130 7f ee 19 be 50 b0 e4 bb 79 de c3 bd 65 92 61 be
       -0.15032385 -0.006979026 -0.09563918 -0.22028501
000140 4b ec 12 3b f1 b5 fa bd 34 8c 47 be 8b 70 51 be
       0.0022418674 -0.12241734 -0.19487077 -0.20453088
000150 80 6f 92 be 62 9b ec bd 59 8d 5f 3d bc 4d e4 be
       -0.28600693 -0.115530744 0.05457816 -0.44590557
000160 30 14 8a be 73 33 c1 be 9f 88 fa bd 34 62 3e 3c
       -0.26968527 -0.37734565 -0.1223309 0.011620093
000170 40 55 bd 3c 8a 42 bb be 4f 98 9a 3c 05 95 3c bd
       0.02311194 -0.36574203 0.018871455 -0.046040554
000180 e7 d3 b6 be de d5 ca be d8 48 30 bd 26 a8 a7 bd
       -0.35708544 -0.39616293 -0.04303822 -0.08186369
000190 eb ef d1 bd 26 0b 47 bc a1 ab 90 be 7f 8f 90 be
       -0.10250839 -0.012148654 -0.28255942 -0.2823448
0001a0 e4 ae d9 3b 01 be 69 be 7d 00 09 be f2 c7 94 be
       0.006643163 -0.22826387 -0.13379093 -0.29058796
0001b0 bf 8f 92 3a 56 3c 3f 3d f6 6e 70 bc f8 62 7b be
       0.0011181756 0.0466884 -0.014674893 -0.24549472
0001c0 63 b0 49 3c b6 51 37 be e0 0f 72 be d2 d8 82 be
       0.01231012 -0.17902264 -0.23638868 -0.25556046
0001d0 31 ca fd bd 97 4d 10 bf f3 e8 1e be 2b 43 2b be
       -0.123920806 -0.5636839 -0.1551855 -0.16724841
0001e0 6c 55 3a be 9f ae 9a be 48 68 36 be a7 af 6b be
       -0.18196648 -0.3021135 -0.17813218 -0.23016225
0001f0 2e b6 a2 be 8f 99 07 be d2 40 28 be 6e d6 c1 be
       -0.31779617 -0.13242172 -0.16430977 -0.3785891
000200 50 6e 6a be 21 1f d9 be 05 39 0c be c9 6f 7d be
       -0.22893643 -0.42406562 -0.13693626 -0.24749674
000210 64 57 89 be 97 1c b3 be 0b bd c7 be 78 0c d4 be
       -0.26824486 -0.3498275 -0.39011416 -0.41415763
000220 49 b3 42 be 07 d9 46 be 53 85 33 be 9a 43 2c be
       -0.19013704 -0.19418727 -0.17531328 -0.16822663
000230 ef c6 0e be 45 7b c8 be 1f fa e1 bd 3d bf 4f bd
       -0.13943075 -0.39156547 -0.11034035 -0.05071949
000240 89 92 9b be 3e b2 14 be 1f c1 83 be c5 14 a9 bc
       -0.30385235 -0.14521119 -0.25733277 -0.020639786
000250 9e e3 b6 be 5f 5c 50 be ed 40 36 bd d0 ba 7d be
       -0.35720533 -0.20347737 -0.04449551 -0.24778295
000260 fd 2a 5b be a1 fd ed bc ee 56 ba bc c0 5f 21 be
       -0.21403117 -0.029051604 -0.02274653 -0.15759182
000270 38 bf 00 bf 48 8e 6c be d1 21 01 39 13 cf da bc
       -0.50291777 -0.23101151 0.00012314996 -0.026710069
000280 95 c1 93 3d 9b 03 78 be 99 b9 83 be a4 72 83 bd
       0.07214657 -0.24220125 -0.25727537 -0.0641835
000290 22 f4 c8 be ad aa 32 be 96 78 7b be 78 73 af bc
       -0.3924876 -0.1744792 -0.24557719 -0.021417364
0002a0 9b 57 8b 3c 87 c0 ac 3b 2b 42 be bd ef 8f a7 be
       0.017009547 0.0052719745 -0.09289964 -0.32727
0002b0 73 24 a6 3d 65 ad 97 bd b3 d1 07 bf 4f 22 91 bd
       0.08112421 -0.07406119 -0.5305435 -0.07086622
0002c0 d5 65 2a be bc e9 5c be 8c 32 27 be 5d 43 92 bc
       -0.16640408 -0.21573538 -0.16327876 -0.017854387
0002d0 67 67 42 be 94 14 a0 be e6 92 a7 be ad ce 6f be
       -0.18984757 -0.312657 -0.32729262 -0.23418684
0002e0 e5 3b e5 be 38 50 a3 bd 2d 0f a2 ba 59 15 7b bd
       -0.44772258 -0.07974285 -0.0012364142 -0.061299656
0002f0 a7 1b 6b be 03 bb 96 3b 10 14 da be 98 c0 51 bd
       -0.22959767 0.0045999303 -0.4259343 -0.051209062
000300 12 95 4d be 90 b1 2e be e4 a7 df bd 70 ea 89 be
       -0.20076397 -0.17059922 -0.109206945 -0.26936674
000310 bf 50 f0 bd 23 36 e5 be 24 a5 f0 bc 21 8b 80 3d
       -0.11734151 -0.44767866 -0.02937562 0.06276537

shared2.weight f4 [200, 200]
000000 92 db 3c 3e 64 c2 6b bd 09 7a 67 bd f2 b7 de bd
       0.18443134 -0.057558432 -0.056512866 -0.108749285
000010 71 b1 d6 3d 11 b1 c4 3d f6 58 ef 3c 4d 1a 32 bd
       0.10483063 0.09604085 0.029217225 -0.043482114
000020 87 8d a6 bd 72 c5 c2 3d 8e 39 0c be 95 2f d7 bd
       -0.08132463 0.09510316 -0.1369383 -0.105071224
000030 c9 fa c6 3d 69 2f 81 3c 25 40 9a 3d 4e 69 44 3d
       0.09715802 0.015769677 0.07531766 0.04795199
000040 a4 03 34 3d b4 37 0e 3e ae 7a 3c be 00 6c 03 bb
       0.043948784 0.13888437 -0.18406174 -0.0020053387
000050 37 9b 6f 3d 45 0b 0d 3d 3c 76 b2 bd e3 d9 80 be
       0.058497634 0.034434576 -0.08713958 -0.25166234
000060 09 96 35 be 50 77 a4 be 28 2a 82 3c 63 df e2 3d
       -0.17733015 -0.32122278 0.015889242 0.11077764
000070 5c 2d 9b 3d 16 39 3d be 59 fa 09 bd fd 2b 38 be
       0.07577011 -0.18478808 -0.033686016 -0.1798553
000080 5e 98 e3 bd cc fa c1 bd 3a b6 41 be 12 95 a4 3d
       -0.11113046 -0.09471664 -0.1891717 0.080362454
000090 d2 0f cc 3d b3 b6 2f 3d 80 77 fb bd f8 fb 83 3b
       0.09963955 0.042898845 -0.12278652 0.0040278398
0000a0 b1 61 de bc ec 51 9b bd 90 7e 82 ba 55 87 c1 3d
       -0.027146192 -0.07583985 -0.0009955931 0.09449641
0000b0 af d7 63 bd 81 a4 71 be 7e 5c 44 3d e8 09 b6 be
       -0.055625614 -0.2359791 0.04793977 -0.35554433
0000c0 5f d2 21 3e da 98 0d bd 56 6b 87 3d 03 93 92 be
       0.15802906 -0.0345696 0.066122696 -0.28627786
0000d0 db 10 3c be f6 2d 76 3d c0 f0 6b bc d8 9b 60 3d
       -0.18365805 0.060102426 -0.014400661 0.054836124
0000e0 4b 5a 94 be f3 4b 05 be d1 4c 13 be 44 53 a3 bd
       -0.28975138 -0.13017254 -0.14384772 -0.07974866
0000f0 18 e9 6d bd ff 30 04 bd b7 d8 39 be f4 f8 c6 bc
       -0.058083624 -0.03227329 -0.18149076 -0.024288632
000100 82 0e 53 bd 30 5c 13 be 18 1e e5 3b 0e 83 3c 3e
       -0.051527508 -0.14390635 0.006992113 0.18409368
000110 8c 6b 62 bd 9d ea 41 be d0 48 fc bc 3d f8 09 be
       -0.055278346 -0.18937154 -0.030796438 -0.13473602
000120 a2 2c 91 3d 3b 7d d8 3d 0c 50 89 bd 8a 0c e5 bd
       0.07088591 0.10570761 -0.06704721 -0.11184032
000130 b6 b1 d4 bd 3e dd 03 be 34 78 07 bd 6a 53 08 be
       -0.10385458 -0.12877366 -0.03307362 -0.1331307
000140 26 0f 04 3e 84 65 73 bc 32 11 0a be 02 2b 5b 3e
       0.12896404 -0.014855746 -0.13483122 0.21403125
000150 db 72 fc 3c 54 27 7b 3e fd f1 11 bc db 69 c6 3d
       0.030816486 0.24526721 -0.008907792 0.09688159
000160 bb 7e 2f be b9 7a 24 3c fb 4c c6 3c f9 13 ea 3d
       -0.17138188 0.010039025 0.024206629 0.11429591
000170 d4 7a 08 be 78 87 38 be 80 bf 05 3c 0d 7e 55 3e
       -0.13328105 -0.18020427 0.008163333 0.20848866
000180 ef 96 12 be 7f eb 26 be 70 b6 ae 3d c1 4d f2 bc
       -0.14315389 -0.16300772 0.08530891 -0.029578092
000190 f5 e5 d8 bd ab 8a 9a bd 45 c7 ee bd fc 45 c0 3b
       -0.10590736 -0.0754598 -0.116591014 0.005867718
0001a0 ea c4 0e be ae b8 cc 3d 69 ec 9b 3d 1b 0a 6e 3d
       -0.13942304 0.09996162 0.07613451 0.058115106
0001b0 c1 51 7a 3d e2 bd 88 3c 20 78 3e 3d 23 5a a1 3d
       0.061113123 0.016692106 0.04650128 0.0787852
0001c0 25 ab 64 bd 41 49 31 bd 7f fe 2b be bc 5c 9c 3d
       -0.05582728 -0.04328275 -0.16796301 0.07634875
0001d0 77 68 1a 3e 87 2c 7a be 86 35 a8 bd f3 df a9 bd
       0.15078913 -0.24431048 -0.08213334 -0.08294668
0001e0 27 3d 20 bb 04 a4 25 bd a3 6f 50 be db 11 88 be
       -0.0024450512 -0.04043962 -0.20355086 -0.26576123
0001f0 31 71 83 bd 7b f9 60 3c 9a 51 16 3d 1a d0 83 bd
       -0.06418074 0.013731356 0.036698915 -0.064361766
000200 57 86 57 be 1a 96 1b be 36 a9 71 3e 9c 66 86 3d
       -0.2104734 -0.15193978 0.23599705 0.0656254
000210 ac 4f ac bd 94 a8 24 be 38 0c 6b be b5 1a 8c 3c
       -0.08413634 -0.16079932 -0.2295388 0.017102579
000220 0b 31 25 3e e0 50 52 3d 4a e2 2a 3d a9 4a 31 bd
       0.1613199 0.05134666 0.041719712 -0.043284092
000230 71 f2 2a 3e 79 03 e6 bc 76 06 b3 bd 16 a7 d1 bd
       0.16694047 -0.028077828 -0.08741467 -0.10236947
000240 b8 9a aa be 71 3d 54 bd 40 41 e0 3d d2 5f c7 bd
       -0.33321166 -0.051816408 0.109499454 -0.09735073
000250 38 48 05 bd a3 8e c2 bd 18 8c d0 bb f8 84 d8 3c
       -0.032539576 -0.09499862 -0.0063643567 0.026430592
000260 92 62 44 be 02 3b 58 3d 20 05 28 bd b1 ca 54 be
       -0.19178227 0.05279065 -0.041020513 -0.20780446
000270 12 d3 10 3d 0c 08 80 bd ac 51 fe bc 2f cb d8 bd
       0.035357542 -0.06251535 -0.031044804 -0.10585629
000280 a3 45 89 bd af 9d d5 3d fc 53 a3 3d 9e f6 53 3b
       -0.06702735 0.104304664 0.07975003 0.003234304
000290 a2 82 1a b9 1b ec b2 bd 9f 70 81 be 56 37 9b 3d
       -0.00014735249 -0.0873644 -0.25281236 0.07578914
0002a0 c1 f1 41 3d d9 a2 b3 3d b7 12 83 bd 10 69 89 bd
       0.047349695 0.08771295 -0.06400054 -0.06709492
0002b0 96 2d 97 bd 31 c8 e8 bd a8 94 3f be ac e7 a3 bd
       -0.07381742 -0.113663085 -0.18709052 -0.08003172
0002c0 3c e3 ed 3c 8d 15 57 bd 1c b5 87 3d ce 22 db bd
       0.029039018 -0.052510787 0.06626341 -0.10699998
0002d0 ee 35 de bc 0c ba 11 3e c2 ab d9 3d 04 f3 0d be
       -0.027125325 0.14231128 0.10628463 -0.13862234
0002e0 79 e7 1a bd 65 9d 18 3d e4 92 90 bd ed 1e 3f bd
       -0.037818406 0.037259478 -0.07059267 -0.046660352
0002f0 dc f2 36 3d f8 0c a6 3d e5 d2 e8 3c b9 f4 d2 3d
       0.044665202 0.08107942 0.028420875 0.103005834
000300 bb 09 a6 bd 53 b6 1c bd 68 98 ff 3d ab c2 2f bb
       -0.08107325 -0.038259815 0.12480241 -0.0026818912
000310 ad f0 6b bd aa 31 ab 3d cb 6f d3 3b 21 fc cf bd
       -0.057602573 0.08359082 0.0064525357 -0.10155512
000320 62 19 a5 3d f2 79 12 be 8b 46 1a be b5 80 60 ba
       0.08061482 -0.14304331 -0.15065973 -0.0008564101
000330 da 07 28 3d a6 a1 93 be 5e ba 02 3e 11 db 12 bd
       0.041023113 -0.28834265 0.12766406 -0.03585345
000340 b0 5a 95 3d 4c 8c a8 be c0 bf e5 3d f5 ca b2 bd
       0.07292688 -0.32919538 0.11218214 -0.08730117
000350 05 11 1e 3d bc 15 19 bd 9e 64 c2 3d fa ba 88 3d
       0.03859045 -0.037374243 0.094918475 0.06676288
000360 33 3f 14 bd 1c d1 b8 be d6 f5 79 be 73 39 4c bb
       -0.036193084 -0.36097038 -0.24410185 -0.0031162172
000370 f6 f9 92 bd 2a b4 3d 3d 05 e9 88 3d cb 36 a0 be
       -0.071765825 0.046314396 0.0668507 -0.31291804
000380 d3 f6 31 bd 9a a4 82 be 9c 82 25 3c 56 d2 88 be
       -0.04344828 -0.25516206 0.0101019405 -0.26722974
000390 9f ed 3a 3d 38 06 2d 3c 48 14 f9 be c3 6c a0 be
       0.04563677 0.010560565 -0.48648286 -0.3133298
0003a0 ae f8 57 bd d3 d9 f5 be 9c 30 07 bd 4b e2 bb ba
       -0.052727394 -0.4801775 -0.033005342 -0.0014334408
0003b0 b2 df c8 bc f0 1e 15 be 18 a2 8b 3e c0 26 8a 3e
       -0.024520729 -0.14562583 0.27272105 0.2698269
0003c0 6f 7e 0e 3e 89 d8 28 bd 23 a8 a6 be 7b 51 bd 3e
       0.13915418 -0.04122213 -0.32550153 0.36976227
0003d0 4f ea 1f bd 69 73 27 bd e6 83 4e bd f4 e8 90 3d
       -0.039041813 -0.040881548 -0.050418757 0.07075682
0003e0 9f db 38 be ee f4 51 3c b9 e1 88 3d 63 e0 10 bd
       -0.18052529 0.012814743 0.06683678 -0.03537024
0003f0 d4 7e 98 3d 08 fa 2e bd 60 f7 78 bd fd f3 9e 3d
       0.074460655 -0.042718917 -0.06078279 0.07761381

shared2.bias f4 [200]
000000 c5 8a d2 be b9 2b 01 3d 64 47 a2 be a7 f1 97 be
       -0.41121498 0.031535838 -0.31695092 -0.29676554
000010 b4 ff a2 be 9a 4b a8 3e 3f c4 c9 be a5 32 bb be
       -0.3183571 0.3287018 -0.39407536 -0.36562076
000020 6b e9 ab be 2b ce 3b be 81 96 5b 3e 96 e8 b5 be
       -0.3357652 -0.18340366 0.21444131 -0.3552901
000030 b1 42 a6 be 2e 0c e0 3b 40 a1 97 be 4e 39 f9 3d
       -0.32472757 0.0068373894 -0.2961521 0.12169133
000040 71 d6 b3 be 9d 19 6f bb 24 ce 01 bf e9 ba 2d 3e
       -0.35124543 -0.0036483773 -0.5070517 0.16965832
000050 96 3c 83 be 22 7f ca be b1 2a 43 be c6 05 50 3d
       -0.2563216 -0.3955012 -0.19059254 0.050786756
000060 51 21 cc be c5 8b d7 be b2 f5 bd be fd ef f5 be
       -0.39869168 -0.42098823 -0.37101513 -0.4803466
000070 37 14 01 bf d8 d2 03 be 96 fb d5 bd e2 a8 ca be
       -0.5042147 -0.128734 -0.10448377 -0.39581972
000080 e3 b5 d2 be 11 08 ee be a5 01 92 be 1a 11 b8 3d
       -0.41154394 -0.4649053 -0.2851688 0.08987637
000090 b1 69 bc be b1 69 bc be cf 42 96 be 88 47 de be
       -0.36799386 -0.36799386 -0.29347846 -0.4341395
0000a0 ba 78 a4 be 80 a9 ce 3d 0c ed 40 be 56 f2 3f be
       -0.32123357 0.10090923 -0.18840426 -0.18744788
0000b0 e3 46 69 3e b5 62 1d bf d3 63 d2 be 4b 39 68 3e
       0.22780947 -0.6147874 -0.41091785 0.22678106
0000c0 53 35 89 be 19 27 3c be 9a 48 89 3e df fb bf be
       -0.26798496 -0.1837429 0.26813203 -0.3749685
0000d0 d0 96 bb be b9 65 3a be d0 88 9c be fe 85 63 be
       -0.36638498 -0.18202867 -0.3057313 -0.22219083
0000e0 38 fa 4b 3e 5f 18 09 bf 8b 50 ed be 0c 97 b4 be
       0.1991967 -0.5355281 -0.46350512 -0.3527149
0000f0 ca 86 f2 be e5 70 c0 be d5 d8 d5 3d dc e2 c8 be
       -0.4736846 -0.37586132 0.10441748 -0.3923558
000100 75 35 05 bf 6b 22 07 3d 1b 3c 00 bf c6 31 b2 3d
       -0.52034694 0.032991808 -0.50091714 0.087009
000110 05 08 d1 be 7b 64 c9 3e e5 22 8f be a8 04 fa be
       -0.4082643 0.39334473 -0.2795631 -0.48831677
000120 58 a6 ef be e3 1d af bd d1 61 b1 bb cc 94 f5 be
       -0.46806598 -0.08550622 -0.005413272 -0.47965086
000130 14 62 e1 be 4e 61 a7 be 4f 94 7a be 2f 91 9b be
       -0.4402014 -0.32691425 -0.24470638 -0.30384204
000140 5a ed 46 bd be 1a 07 bf 5d ed ba be a1 c2 a8 be
       -0.0485662 -0.5277518 -0.3650922 -0.3296099
000150 51 26 95 be 4d ba b7 be 00 a1 bf be 13 d7 89 3e
       -0.29130796 -0.35884324 -0.3742752 0.269219
000160 8d 74 ac be b4 d2 f0 be 9c 75 0d bf a5 fa a2 be
       -0.3368267 -0.47035754 -0.5525758 -0.31831852
000170 16 f4 c2 be ae 02 0c 3e a8 2f bd bd b7 73 c7 be
       -0.38076848 0.13672897 -0.09237605 -0.3895547
000180 44 d9 1b bd 39 c8 9e be ec bc 12 3c db 07 e7 be
       -0.038048998 -0.31012133 0.008956175 -0.4512318
000190 34 7c ec be 73 76 81 3e 07 d1 60 be f9 2e a4 3e
       -0.4618851 0.25285682 -0.21954738 0.32067087
0001a0 9a 5b 73 be 85 94 b0 be f8 7d cc be 2b 79 bc 3d
       -0.23765412 -0.3448831 -0.39939857 0.092027985
0001b0 cd d9 94 be d4 b4 46 be 96 89 e0 be 6c 47 5d 3d
       -0.2907242 -0.19404918 -0.4385497 0.05402319
0001c0 56 75 b3 be 19 43 c3 be 38 77 cc be 98 27 a3 bd
       -0.35050458 -0.3813713 -0.39934707 -0.07966536
0001d0 be 4c 77 be 3c c0 87 bc 75 72 0b bf aa a4 01 bf
       -0.24150369 -0.016571157 -0.5447152 -0.5064188
0001e0 8b 58 99 be 61 0e c0 3d 3a a3 06 bf 81 3d 7f bd
       -0.29950365 0.093777426 -0.52592814 -0.062314514
0001f0 ad 85 b7 be 64 3a d9 be 90 17 7a 3d 6e fe 88 be
       -0.35844174 -0.4242736 0.061057627 -0.26756614
000200 f6 79 b5 3d fb fc 06 bf 82 89 0f 3d db 5d 61 3e
       0.08861153 -0.5272977 0.035043247 0.2200846
000210 30 4a 2e 3e 7b 24 9c be a3 4c 93 be 9a a0 87 be
       0.17020488 -0.30496582 -0.28769407 -0.26489717
000220 15 cb d5 be 68 d6 86 3d a4 94 97 be f7 b2 0a 3d
       -0.41756502 0.065838635 -0.2960559 0.03386208
000230 25 3d f0 be 1d cd cf 3d 64 38 11 be e4 6c a3 be
       -0.4692165 0.10146544 -0.14181668 -0.31919014
000240 42 80 90 be 06 c3 12 bf 0d 8a 46 bb 83 3f a6 be
       -0.28222853 -0.5732883 -0.0030294687 -0.3247033
000250 25 18 98 3d ce db 21 3e 6c 69 d2 be 32 c4 c8 be
       0.0742648 0.15806505 -0.41096056 -0.39212185
000260 0b 08 f3 be 23 eb 94 be 1a 17 c1 be 35 6f a3 be
       -0.47467074 -0.29085645 -0.37712938 -0.31920782
000270 d4 4f 1a 3e 1b 5d 69 3e 01 0c ae be 85 22 8a be
       0.15069515 0.22789423 -0.33993533 -0.2697946
000280 ae 93 e2 be ba 57 ca 3e 01 a2 bc bd 73 51 0b bf
       -0.44253296 0.39520055 -0.09210587 -0.54421157
000290 1c 77 0e bd 5b f4 5e be 18 66 96 be 80 01 cc be
       -0.03478156 -0.21772902 -0.29374766 -0.39844894
0002a0 26 88 d9 be 53 20 bc be 62 28 e1 be 6c 67 9c 3e
       -0.42486686 -0.3674341 -0.43976122 0.30547655
0002b0 55 37 00 3c ee 3e 95 be 57 30 e9 be b6 93 50 bd
       0.007825692 -0.29149574 -0.45544693 -0.050922118
0002c0 c8 e1 a4 be f3 d2 dd be 6d 2c ab be 43 8c cf be
       -0.32203507 -0.43325004 -0.33432332 -0.405367
0002d0 0f 1b cc be e6 28 f1 be 01 1c f4 be 1b 24 e2 3d
       -0.39864394 -0.47101516 -0.47677615 0.11042043
0002e0 8c a4 01 bc 82 32 1c 3e 39 e0 b9 be 72 fb 00 bf
       -0.007912766 0.15253642 -0.3630388 -0.50383675
0002f0 7d 7d 03 3e e1 36 53 be 1e b9 ee be 3f 42 85 3c
       0.12840839 -0.20626403 -0.46625608 0.01626694
000300 9d 0f d9 be d9 37 aa be d5 2b 63 3e aa c2 d7 bd
       -0.42394724 -0.33245733 0.2218469 -0.10535176
000310 ab 04 72 be 35 8d cc be 06 8b ad be 7a 39 a4 be
       -0.23634593 -0.39951482 -0.3389513 -0.320751

hidden1_Y1.weight f4 [200, 200]
000000 17 1a 89 bd a5 77 e0 be f2 24 4c 3e e3 8b 24 bd
       -0.06694429 -0.43841282 0.19935969 -0.04017247
000010 8d 5a 95 3e d3 17 8a 3d 5d 75 24 3e e0 97 fa 3d
       0.29170647 0.06742825 0.16060396 0.12235999
000020 21 83 e5 3c 35 ef 3f 3b ae b2 b4 3d 5e 81 07 3e
       0.028016629 0.0029286866 0.08823143 0.13232943
000030 85 39 0f be c0 33 6c 3d ac 92 98 bd 07 53 2d be
       -0.13986786 0.05766654 -0.074498504 -0.16926204
000040 42 64 11 be b9 81 06 be 25 e9 e4 3c 2e 34 ef bc
       -0.14198402 -0.13135423 0.027943203 -0.029199686
000050 b6 a3 be 3d ac 8c e6 3d 5c 5d ff 3d 83 c8 93 be
       0.09308569 0.112573 0.12468979 -0.28863916
000060 0b f3 c2 3c 55 61 65 bd c4 22 2c be 29 c2 e0 bd
       0.023797533 -0.056001026 -0.16810137 -0.10974533
000070 6b 0c aa bd 92 e1 60 3c 8d d1 ee bd 9d d8 b5 3d
       -0.0830315 0.013725655 -0.116610624 0.08879206
000080 b0 70 b9 3d 1e 71 03 3d 84 e2 20 be 5b 35 e5 3d
       0.090546966 0.0320903 -0.15711409 0.111918174
000090 1f 43 ae bc da 1c cd 3d 3b 88 43 bd 46 c4 39 3e
       -0.02127224 0.100152686 -0.04773734 0.18141279
0000a0 2b 2d 84 3c a8 fb 26 be 6d a2 ac bd b9 3e 08 bd
       0.016134819 -0.16306937 -0.08429418 -0.033262942
0000b0 ff 84 0c 3e 81 51 37 3e 4d c7 90 3c b2 b1 64 bd
       0.13722609 0.17902185 0.017673159 -0.055833526
0000c0 c9 10 12 3e d1 e2 51 bd 16 c4 29 3d 38 de a7 3c
       0.14264216 -0.0512417 0.041446768 0.020491704
0000d0 0e 9b 8c 3e 0b 4c 6a be 10 4e bb 3e 38 25 b4 bd
       0.27462047 -0.2288057 0.36582994 -0.087961614
0000e0 0c e8 66 3d a5 75 6c 3d 90 02 ce 3d 1f 44 61 3c
       0.05637364 0.057729382 0.100590825 0.0137491515
0000f0 e3 55 ee 3d 17 dc 04 3e 5a 26 61 3d fe f7 fe bc
       0.11637475 0.12974583 0.054968216 -0.031124111
000100 1a 07 39 3e d1 5d 65 be cd 32 d0 3d 2b 18 72 3d
       0.18069115 -0.2239907 0.101659395 0.05910508
000110 6d 50 15 be b8 ee b3 be fc 55 8c bc d5 b7 e0 3c
       -0.14581461 -0.35143065 -0.017130844 0.027431408
000120 7f 7f e9 3d 4d 69 81 be 4f 28 bb 3d f0 55 f8 3d
       0.11401271 -0.2527565 0.09138548 0.12125766
000130 82 71 8a 3e f6 2e 2d 3d 4f a1 3a be 29 d5 23 bd
       0.27039725 0.042281114 -0.18225597 -0.039998207
000140 3c a1 17 3e 4b 62 53 bd 4d 49 98 bd 1a a9 62 bd
       0.148076 -0.05160741 -0.07435856 -0.05533705
000150 f9 7d 25 3e 19 a5 13 3f ec fd 81 3d e7 e1 a9 bd
       0.16161336 0.57673794 0.0634726 -0.082950406
000160 eb 46 48 bd c6 51 47 3e 00 7b 3b 3b da d6 65 bd
       -0.048895758 0.19464788 0.002860725 -0.0561131
000170 de cc 4f 3d 38 12 78 3e 9f 16 f5 bd f8 33 50 be
       0.050732486 0.242257 -0.11967205 -0.20332325
000180 c9 65 91 be f8 80 9a bd dd 04 84 bd 86 84 e6 3d
       -0.28397968 -0.0754413 -0.0644624 0.112557456
000190 a1 79 f3 3d 92 bf 8f 3d 3c d3 45 bd e7 59 07 bf
       0.11888433 0.07018961 -0.048297152 -0.52871555
0001a0 c5 52 be 3d 42 5f c1 bc cb e2 15 bd 0e c9 f9 bd
       0.09293131 -0.023604993 -0.03659324 -0.12196551
0001b0 de 4b 94 bd 69 1c 7f 3c ed 46 11 be 16 f3 ee bd
       -0.07241033 0.015570738 -0.14187212 -0.11667459
0001c0 04 83 e2 bb 5e 9e c6 bd 08 8c 0d 3e a7 d1 db 3d
       -0.006912591 -0.09698175 0.13822949 0.107333474
0001d0 67 0c 47 3e f8 70 84 3d b4 a8 1d be 5e c5 83 bd
       0.19438325 0.064668596 -0.15396386 -0.06434129
0001e0 73 b1 ed 3d a4 df a8 be 70 30 ce 3d bf fd f8 bd
       0.116061114 -0.32983124 0.100678325 -0.12157773
0001f0 d0 70 17 3e cc 3e 1b bd 33 ef b5 bc d3 86 9e bd
       0.14789128 -0.037901685 -0.022208786 -0.077405594
000200 73 07 66 3d 51 ae 9d 3b 28 73 a3 be 89 45 53 be
       0.056159448 0.00481204 -0.31923795 -0.20631994
000210 c2 97 91 bc 6c 86 17 3d 3d 5e 8b bd 6f fa 8f 3d
       -0.01777256 0.03699343 -0.06805084 0.07030188
000220 1a 07 b9 bd 66 73 6e bd 84 43 95 bd 84 b0 78 be
       -0.09034558 -0.05821552 -0.07288268 -0.24286085
000230 5a d8 37 3d 96 7a 55 3d db 5a 8b bd b7 6a a8 bc
       0.044884063 0.05211886 -0.06804439 -0.020558698
000240 99 f9 9f bd 1e d9 03 3e 60 38 bf bc 80 1c 88 bd
       -0.07811279 0.12875792 -0.023342311 -0.06646061
000250 ba 64 ce bb ea 24 d4 bc 54 1c 17 3c b3 b2 25 be
       -0.0062986286 -0.025896508 0.009223063 -0.1618145
000260 f6 0b 75 3d 57 22 f4 bc f8 54 48 bc a6 03 d6 bd
       0.05982586 -0.02980153 -0.012227289 -0.10449915
000270 f6 e1 d4 bd 31 76 9c 3e 97 c3 7b 3e d4 83 f7 bd
       -0.10394661 0.30558923 0.2458633 -0.12085691
000280 29 a3 a7 3e 4e 6c a9 3e b5 ae 33 bd 75 7d 39 be
       0.3274167 0.33090442 -0.043867785 -0.18114264
000290 d1 20 61 be dc 8c 17 bd b5 0a 72 3e 90 85 5d bd
       -0.21985175 -0.03699957 0.23636897 -0.054082453
0002a0 f7 76 11 be b2 df 5b 3e dd 07 33 3d ba 97 c5 be
       -0.14205538 0.21472052 0.04370867 -0.3859232
0002b0 14 4a 55 3c 38 e0 07 be 10 d8 2f 3e c0 58 10 3e
       0.01301815 -0.13269126 0.17172265 0.14096355
0002c0 fe d8 f5 bd 5b 90 a9 3d 70 84 23 be 0a 2e 0b bd
       -0.120042786 0.08279487 -0.1596849 -0.033979453
0002d0 ed d0 1d be f6 1e 34 bd 1c 4d c6 bd bb 4d 81 be
       -0.1541173 -0.04397484 -0.09682676 -0.25254616
0002e0 c3 95 0b 3b fb 4c 95 bd 26 5c 0f be 6c ee 72 be
       0.0021298982 -0.072900735 -0.13999996 -0.23723763
0002f0 e1 d8 81 bc 5a d8 ad bc 49 d4 26 3c ba a1 3e bc
       -0.015850486 -0.021221329 0.010182449 -0.011635238
000300 06 a3 a9 bc d2 e1 9b bd 7d 1c 4b be 40 f0 ec 3d
       -0.020707618 -0.07611431 -0.19835086 0.115692616
000310 68 d0 96 bd 99 cb 66 be 1f 77 29 be db ae d1 3d
       -0.07363969 -0.22538604 -0.16549347 0.10238429
000320 b9 20 c8 3b 53 d7 69 bd f5 f6 a1 3e c2 a3 82 bd
       0.0061074165 -0.057090115 0.31633726 -0.063788906
000330 6f 47 be bc 4f 3b ac bd 6a e3 2c be b4 a9 ac bd
       -0.023227422 -0.0840975 -0.16883627 -0.08430806
000340 ae d5 10 3e 3c 84 fe 3c dd a3 a6 be 29 6b 0c 3e
       0.14144012 0.031068914 -0.32546893 0.13712753
000350 72 cc 9b 3d 29 1b 5e 3e ed 68 49 be 79 8d 4c be
       0.07607354 0.21690048 -0.19668932 -0.19975843
000360 66 2f 83 3d 26 53 b1 be 4a 19 44 3e f3 56 d3 3d
       0.06405525 -0.3463375 0.19150272 0.103193186
000370 88 0b eb bc ef 4e 60 bd d0 73 ad be 61 76 cf be
       -0.028692022 -0.054762777 -0.3387742 -0.40520003
000380 0d ed 93 3c 87 a9 25 3e 10 35 c3 3d 64 ed aa be
       0.01805737 0.16177951 0.09531605 -0.3338424
000390 4f 22 cb 3e e4 7a c0 3d 9a c3 d9 bd a2 e6 cf be
       0.39674613 0.093984395 -0.10633011 -0.40605646
0003a0 d3 12 1c be 21 0c 90 be 23 c3 66 3d 5e bd a5 bd
       -0.15241556 -0.28134254 0.05633844 -0.080927595
0003b0 ec 35 3c 3e e4 6e 42 bc ad 96 d1 bc 64 4a 01 3e
       0.18379945 -0.011867259 -0.025584543 0.12626034
0003c0 37 08 ad bd 2a 6b 7d be 18 42 2c 3e fd 92 ae bd
       -0.084488325 -0.24747911 0.16822088 -0.085241295
0003d0 a1 e3 7a be 37 69 0e bd bc 8b 6b 3e 97 92 8c be
       -0.24500896 -0.03476831 0.23002523 -0.2745559
0003e0 a8 97 de bd 77 48 87 3d 98 84 be bd 60 c7 1e 3e
       -0.1086877 0.066056184 -0.09302634 0.15505743
0003f0 14 ef 90 3d dc 93 63 be 64 b4 ac be fa 23 15 be
       0.070768505 -0.22224373 -0.33731377 -0.14564505

hidden1_Y1.bias f4 [200]
000000 99 05 37 be ab f5 e1 be 54 b2 4d be 14 6d 5a be
       -0.17873229 -0.44132742 -0.20087558 -0.21330673
000010 23 1a 0a 3f 90 00 d9 3e 47 24 99 be 8c 71 92 bc
       0.5394613 0.42383242 -0.2991049 -0.017876409
000020 95 1c 18 be 33 8f bf 3e 22 08 5f be 1d 51 57 be
       -0.14854653 0.3741394 -0.21780446 -0.21027036
000030 93 e8 36 be 6f a8 67 be fc 72 31 be 12 4f c4 3e
       -0.17862158 -0.22622846 -0.1732902 0.38341576
000040 a5 b5 78 be b2 ec 06 3f c0 2b 26 be e6 d0 1d be
       -0.24288042 0.5270492 -0.16227627 -0.1541172
000050 f2 24 75 be 8d 1a a0 be 16 51 2a be 1d d4 58 be
       -0.23939875 -0.31270257 -0.16632494 -0.21174665
000060 c2 21 33 bd 2d cd 92 3e c1 2d 36 be 4e a7 3b be
       -0.043733366 0.28672162 -0.17790891 -0.1832554
000070 34 2d 23 3e 35 e3 86 bd ba e3 42 be 61 1f 3e be
       0.15935212 -0.06586305 -0.19032183 -0.18566658
000080 b9 29 20 bc b5 c4 6a be 3f 02 97 be 54 13 87 be
       -0.009775572 -0.229266 -0.294939 -0.26381934
000090 67 09 31 3f 85 6c a8 be 1d a8 5f be 39 38 cb bd
       0.6915497 -0.32895294 -0.21841474 -0.09922833
0000a0 d0 23 76 be 28 7c 63 be 19 ab 5e 3e 82 9b a5 be
       -0.24037099 -0.2221533 0.21744956 -0.32345206
0000b0 aa 27 8c be 46 19 05 3f a8 72 af 3e 89 d4 f3 3e
       -0.2737401 0.5199169 0.34267163 0.4762309
0000c0 49 cb 00 be fb 44 91 be 4d 94 d5 bd d6 95 12 be
       -0.12577547 -0.2837294 -0.10428677 -0.1431497
0000d0 d7 3a 06 bf ae 3c 7c be 4e c5 79 bc 2e 5b 0a be
       -0.5243353 -0.24632522 -0.015244795 -0.13511345
0000e0 1d 9c 5d 3c b1 f9 40 be 61 22 af bd 11 1b a8 bd
       0.01352599 -0.1884525 -0.08551479 -0.082082875
0000f0 3a c6 83 be f5 6f 3b bd b8 08 b5 be c6 fe 02 be
       -0.25737172 -0.045761067 -0.35358214 -0.12792501
000100 1b bb a1 be fc 74 4c be f6 78 e5 bd 8d d0 97 3e
       -0.31588063 -0.19966501 -0.11204712 0.296513
000110 8a 53 2a 3e dc 78 6c be 55 73 6b be d2 24 c7 bd
       0.1663343 -0.23092979 -0.22993214 -0.0972382
000120 a6 74 3f 3e 6c b4 8b 3e e2 c1 4e bd da 10 46 be
       0.18696842 0.27286088 -0.05047787 -0.19342366
000130 7e 3d 51 be 1b 08 d5 3e 68 2c ff bd c2 a4 39 bc
       -0.20433614 0.41607746 -0.12459642 -0.011330785
000140 52 16 1f be a8 e1 96 bd 04 4e 3c be e3 d2 6b be
       -0.15535858 -0.07367259 -0.18389136 -0.23029666
000150 72 10 6c be c3 55 7a be 79 b5 50 be 83 4e 8f be
       -0.23053148 -0.24446778 -0.20381726 -0.27989587
000160 fc 4f 98 be 9e a4 22 be 3d d8 03 3f 3c 20 6e be
       -0.29748523 -0.15883109 0.5150183 -0.23254484
000170 10 5f 91 be 07 15 68 be f0 a4 b3 be f5 89 2e 3e
       -0.2839284 -0.22664271 -0.35086775 0.17044814
000180 9e 30 b8 be 70 ea e6 3d 9a 76 78 be 11 55 85 be
       -0.35974592 0.11275184 -0.24263993 -0.26041463
000190 db bd 25 be d2 e5 29 3f 93 47 2d bd ab 07 a2 be
       -0.16185705 0.663663 -0.042304587 -0.31646475
0001a0 dc 8d d3 3d ea fd 93 3e 56 a7 b7 3e 25 7c a2 bd
       0.10329792 0.2890466 0.35869855 -0.07933835
0001b0 8e 8d b5 be 2f 6c 61 be c8 81 61 3d 89 17 59 be
       -0.3545956 -0.22013925 0.05505541 -0.21200384
0001c0 8b 48 2c be 39 55 78 be ff 85 8b be fd fe ab be
       -0.16824548 -0.2425126 -0.27250668 -0.33592978
0001d0 96 bf d0 bd 68 7b d3 bd ba 34 ab 3e 46 68 58 be
       -0.10192792 -0.10326272 0.33438665 -0.21133527
0001e0 bd fc 3c be 12 13 61 be f4 11 97 be 44 98 25 be
       -0.18455787 -0.21979931 -0.29505885 -0.16171366
0001f0 fe 83 97 be f0 2d ab be 03 15 8a be 55 ce cd bc
       -0.2959289 -0.33433485 -0.26969156 -0.0251228
000200 d9 68 cd 3e dc 74 7e 3e 4d 31 f6 3d 4d d0 83 3d
       0.40119055 0.24849266 0.12021122 0.064362146
000210 fe 51 b5 be 66 d6 7e 3e 4d ff f6 3e 8c fc b3 3d
       -0.35414118 0.24886474 0.48241654 0.08788404
000220 9a 9a 1a 3d 30 7d 90 3d 1c d9 6a be f3 26 ae 3d
       0.037745096 0.070551276 -0.22934383 0.08503523
000230 e0 ee 2a be 58 b1 8d be 83 4b 1b 3e 90 7c 81 3e
       -0.16692686 -0.27674365 0.15165524 0.25290346
000240 d0 1c 87 be 21 91 5c be 29 98 44 be f0 02 32 be
       -0.2638917 -0.21539737 -0.1919867 -0.17383933
000250 a7 8f 08 be 7f fe b2 bd d3 84 9b be e4 c4 88 3e
       -0.13336049 -0.087399475 -0.30374774 0.26712716
000260 15 ab 6a be 4a 52 3c 3d f8 3f 02 be e2 66 87 be
       -0.22916825 0.045976914 -0.12719715 -0.2644568
000270 b7 f7 12 3e 84 2b 84 be ce 72 83 be 5d b4 a0 bd
       0.14352308 -0.2581445 -0.25673527 -0.078469016
000280 32 c2 51 be 31 64 51 be 72 46 36 be 22 69 22 be
       -0.20484236 -0.20448376 -0.1780031 -0.15860417
000290 9c f0 00 be a8 cc 8a be 25 2f 98 3e a5 89 70 be
       -0.12591785 -0.27109265 0.29723468 -0.23490007
0002a0 db cc 27 be dc 3e 12 be a2 02 5d 3e 44 77 4b 3e
       -0.1638674 -0.14281791 0.21583036 0.19869715
0002b0 7b c7 8f be 26 aa 6f be 3a fb 84 bd 9f 4d 17 be
       -0.2808188 -0.2340475 -0.0649323 -0.14775704
0002c0 f0 6b 97 3e 8e 8c e0 3e 5c 26 b8 3e 4e c6 e3 bd
       0.29574537 0.43857235 0.35966766 -0.11121808
0002d0 2c 40 0a be 3f 6e 5b be 35 25 34 3e 21 57 41 be
       -0.13501042 -0.21428774 0.17592318 -0.18880893
0002e0 03 dd 65 be 65 a9 85 be 91 c4 9b be f5 d9 94 be
       -0.2244759 -0.261058 -0.30423406 -0.29072538
0002f0 d6 1e 5c be db 2a 0f be 62 6f 9f 3d 85 db ba 3e
       -0.21496138 -0.13981192 0.077849165 0.36495605
000300 bd 86 41 be da 5d a4 3d c2 9e 99 3e 0d dc f3 bd
       -0.18899055 0.08025713 0.30003935 -0.11907206
000310 01 26 bd bd 2a 25 8e 3e cb d1 56 be be 39 26 be
       -0.09235764 0.2776273 -0.20978467 -0.16232964

hidden2_Y1.weight f4 [200, 200]
000000 8f 17 3b 3e d1 c8 12 be 5d 27 cc 3d 5e 4b 6f bd
       0.18270706 -0.14334418 0.099684455 -0.058421485
000010 05 4d 82 bd 62 b1 c9 be 4a 43 a5 3c ba 60 17 3e
       -0.063623466 -0.39393145 0.020173687 0.14782992
000020 0c 78 21 be 15 3b 20 bf a5 fd 95 3d bd c0 59 3d
       -0.1576845 -0.6259015 0.073237695 0.053162325
000030 36 f7 a7 3d be 23 bf 3d 9a 69 9d bd fc 48 6f be
       0.082014486 0.09332989 -0.076861575 -0.23367685
000040 6a b6 0f be a8 56 cf 3d d7 05 6c bd 72 bd 80 bd
       -0.14034429 0.1012395 -0.057622757 -0.06286134
000050 6c 02 15 3b 1c 1f 56 bd a5 30 2a be 9b 18 d2 bd
       0.002273704 -0.052275762 -0.16620119 -0.10258599
000060 da 5e ad 3d ca 4c 8a be d2 62 ad 3d 78 7d 32 3e
       0.08465357 -0.2701171 0.08466114 0.17430675
000070 78 1a b9 be ad c3 20 bd 07 09 21 bd 76 74 bb bd
       -0.36153007 -0.03924911 -0.03931525 -0.091530725
000080 8e fd 27 3c 4e 84 a8 bc c3 25 e4 bc 6f 71 b2 3d
       0.010253323 -0.0205709 -0.027850037 0.08713042
000090 75 1b fb bd 52 dc bf 3c 07 4d 28 be e2 11 b8 bd
       -0.122610964 0.023420487 -0.16435634 -0.08987786
0000a0 ff cb 7b be e8 9e 18 be d8 e5 10 ba f4 d3 b8 3a
       -0.24589537 -0.14904368 -0.00055274135 0.0014101253
0000b0 62 30 8d bd 28 ee 47 bc a2 70 04 3d 2e ed 7c be
       -0.06893994 -0.012202777 0.032333978 -0.24699852
0000c0 ff 0b b4 be 25 46 03 bd 6c db b7 3e c1 89 78 bc
       -0.35165402 -0.032049317 0.35909593 -0.015169562
0000d0 f4 06 3d be 64 46 11 3d 76 8d 1c bd 8f d4 6c 3c
       -0.18459684 0.03546752 -0.038220845 0.014454975
0000e0 6d 83 5c be 50 ec ce 3c 84 0d d4 bd 4e 88 90 3d
       -0.2153451 0.025259167 -0.103541404 0.07057248
0000f0 e4 1e 6e 3c 75 7a 5d be 3b d9 07 be 25 b1 a5 be
       0.014533732 -0.21628745 -0.1326646 -0.32361713
000100 5a 8c 38 be 55 c5 90 3c 40 9d 21 be 61 7e d9 bd
       -0.1802229 0.01767222 -0.15782642 -0.10619808
000110 7a 04 d5 be 8c 91 50 bb bf c2 f7 3d 23 90 c3 be
       -0.41604978 -0.0031825034 0.12097692 -0.38195905
000120 17 19 df bc 2b 6a ce be 79 1b e2 bd 2b 40 48 3d
       -0.027233643 -0.40315375 -0.11040396 0.04888932
000130 fd d4 06 be 97 74 94 bd 0e fa f8 3d 8d 5c 52 b9
       -0.13167186 -0.072488 0.12157069 -0.00020061638
000140 d3 43 ba bd 37 eb 3b 3c 3e b9 16 be 88 75 8f be
       -0.09094968 0.011469654 -0.14719102 -0.28019357
000150 fd 97 23 be b2 fc 98 3d 89 90 a5 bd 1d f3 87 bd
       -0.15975948 0.07470073 -0.080842085 -0.06638167
000160 ef e1 0c 3e d6 4c 09 be 25 16 97 3d a3 04 51 bd
       0.13758062 -0.13408217 0.073772706 -0.051029813
000170 30 9d d5 bd 7b 69 8c bd bd 97 81 bc bc 40 f9 3d
       -0.10430372 -0.06856056 -0.015819425 0.1217055
000180 53 5a b7 3d 90 34 84 bd c8 1a 53 3d 55 d2 8e 3c
       0.08952775 -0.06455338 0.051539212 0.017434279
000190 9e ff 62 bd 5b 33 21 be 64 5a 35 be 19 fc bd bd
       -0.055419557 -0.15742247 -0.17710263 -0.092765994
0001a0 99 c3 cb 3d 50 fc 90 bd 76 6e 3f be 06 2a 86 bd
       0.09949417 -0.07079375 -0.18694481 -0.06550984
0001b0 4c 9f da 3d 18 e9 10 3f 4e 14 30 bd c1 77 0c be
       0.10674915 0.5660567 -0.042988114 -0.13717557
0001c0 75 8c 8a be 9a 35 88 bd ff 93 32 3b 83 cc 97 be
       -0.27060285 -0.06650849 0.0027248857 -0.29648218
0001d0 08 3e 49 be c3 ef 2f 3e 3f ba 52 bd 6a 8e ec bb
       -0.1965257 0.17181306 -0.05144715 -0.0072191255
0001e0 1f 0e b4 bc 77 40 f9 bb a6 25 49 be 7e e7 22 3e
       -0.02197939 -0.0076065618 -0.19643268 0.1590862
0001f0 36 4d 0f 3e 97 e5 70 bd 6a 36 fe 3d 63 4c ab bd
       0.13994297 -0.058812704 0.124127224 -0.08364179
000200 1f bf c9 3c 29 d2 79 bd 2e ee 99 be 7a d9 c9 be
       0.024627266 -0.06099144 -0.3006453 -0.39423734
000210 4b f6 3f b7 6c 06 80 bd c0 3d d4 be 7a 04 d0 3d
       -1.1441832e-05 -0.06251225 -0.41453362 0.10157104
000220 82 c3 0d be 96 81 2f bd d7 28 b0 3c c7 68 15 be
       -0.13844112 -0.042848192 0.021503849 -0.1459075
000230 ab 18 02 bc 4c dd 8d bd b3 c6 06 3c ee db 73 3e
       -0.007940452 -0.06926975 0.0082260845 0.23814365
000240 0e 8f 1b 3e c7 1c 5f bc 57 b0 c3 bd 94 bb 0b be
       0.1519129 -0.013617701 -0.095551185 -0.13645774
000250 31 91 ee be 03 55 39 bd f5 72 04 bf fd d6 43 be
       -0.46595147 -0.04524709 -0.5173791 -0.1912498
000260 5e 1f 8f bd a2 98 ee 3d cd ee 25 be 9b e5 d8 bd
       -0.06988405 0.11650206 -0.16204377 -0.10590669
000270 e3 69 c7 bd a6 98 27 be 6b 3d 22 be ee 66 29 bd
       -0.09736993 -0.16366825 -0.15843742 -0.041357927
000280 c5 45 09 be 68 2a 9d 3d 93 fa 3c be 76 fa 20 3e
       -0.13405521 0.07674104 -0.18454961 0.15720543
000290 d7 a2 6f bd 02 56 3f 3d 72 23 86 be eb 48 94 be
       -0.058504906 0.046712883 -0.26198918 -0.28961882
0002a0 5a 03 5d bc aa ff 79 3c 30 ac 8c be 32 33 ee bd
       -0.013489569 0.015258709 -0.2747512 -0.116308585
0002b0 41 a4 bd 3c 3c a9 4c 3d 36 b2 75 3e bd 1e 96 be
       0.023149611 0.049966082 0.23993763 -0.29320326
0002c0 49 1f 3f bd 39 d4 f6 be 61 f2 68 bd bf 5f df 3a
       -0.046660695 -0.48208788 -0.056871776 0.0017042084
0002d0 27 bf 48 be e0 10 04 bd 89 cc 22 3e 67 e7 bc bc
       -0.19604169 -0.032242656 0.15898336 -0.02305956
0002e0 98 91 b2 bd 04 4f 54 3b 53 86 7e bd 77 d2 57 3d
       -0.08719176 0.003239573 -0.06213982 0.05269095
0002f0 38 19 cb bc bc ab fa bc 5e f9 23 bd e7 ea be be
       -0.024792299 -0.030599467 -0.040032737 -0.3728859
000300 4c 94 c5 bd cc 7e 83 3d 0b 4c d6 3c 73 69 7a 3e
       -0.09647426 0.06420669 0.026159307 0.24454288
000310 64 d8 2c 3e 09 16 09 be 2d d6 e6 bc d0 58 0d be
       0.16879421 -0.13387312 -0.028178299 -0.1380341
000320 b2 e1 c4 3d 92 5b a1 be e0 a7 f3 3d eb 9d 63 be
       0.096133605 -0.31515175 0.11897254 -0.2222821
000330 ca 4d 55 3e 84 56 97 3e 99 2a 9b bd 47 9f 39 be
       0.20830455 0.29558194 -0.07576484 -0.18127166
000340 ea 20 c3 bd d5 73 ec 3d 6a a0 f8 bd e8 a6 69 3c
       -0.09527762 0.11545531 -0.121399716 0.014260985
000350 09 2c cf 3c 21 94 9f 3d 3a 6d 89 3c 4a aa 24 3f
       0.025289552 0.07791925 0.016775716 0.6432234
000360 57 f8 8a 3d 23 60 16 3f 87 10 1c be 1a 80 45 3e
       0.06785648 0.58740443 -0.1524068 0.19287148
000370 22 09 8c bd fe 49 cc 3d e5 e0 0d 3d db 96 02 be
       -0.068376794 0.099750504 0.034638304 -0.1275286
000380 06 fb 94 bd fc 2f af 3e 73 52 20 bc bc 97 92 3d
       -0.072744414 0.34216297 -0.009785282 0.07157847
000390 57 2a 73 bd f6 c2 3c be 7b 4c ba bc e0 bc ce bd
       -0.05936655 -0.18433747 -0.022741547 -0.10094619
0003a0 c6 3e b2 3c 03 96 86 bd 5f d2 cc bd 7a 18 c8 bd
       0.021758448 -0.06571581 -0.100010626 -0.097702935
0003b0 3c 40 7a 3e 9a 13 73 be 63 36 7f bd 34 b9 5f 3e
       0.24438566 -0.23737946 -0.062307727 0.21847993
0003c0 bc 9a 82 be 09 59 f4 be a1 f4 e6 bd d6 aa 8e bc
       -0.25508678 -0.47724178 -0.11277128 -0.017415445
0003d0 07 80 f7 3d 3f 63 ed bd 1b 58 9c 3e c6 90 49 3d
       0.12084966 -0.11591195 0.3053597 0.049210332
0003e0 c0 69 f4 3d e2 0e 0d 3e 8f 89 b6 be 06 67 2d be
       0.11934233 0.13775209 -0.35651824 -0.16933832
0003f0 72 55 2c bc 61 ea 0d be 6a 77 5a be 1b 9b 39 3e
       -0.010518419 -0.1385894 -0.21334615 0.18125574

hidden2_Y1.bias f4 [200]
000000 08 92 e8 3d 14 08 e3 3d 9c c4 30 be be b2 87 3e
       0.11355978 0.11085525 -0.172625 0.26503557
000010 ea f0 09 be 1e 96 2d be 9b a3 a1 3e ee 69 88 be
       -0.13470808 -0.16951796 0.31570134 -0.26643318
000020 f3 04 d6 be fd d8 99 be d7 91 1c bd 24 1a 59 be
       -0.4180065 -0.3004836 -0.03822502 -0.21201378
000030 f9 30 a5 3e c4 fc a8 bc 4a 6b 5b be 73 cd 5e be
       0.32263926 -0.02062834 -0.21427646 -0.2175806
000040 a7 97 9f 3e 82 09 22 3c a3 99 84 be 81 a1 85 3e
       0.3117039 0.009889962 -0.25898466 0.2609978
000050 a8 93 ba bc 57 ab 3b be 6f 59 75 be b7 61 19 3a
       -0.022775486 -0.1832708 -0.23959897 0.00058510475
000060 fc 1f 9b be 74 f1 b7 bd 9b b6 75 be 2c 0b cd bd
       -0.3029784 -0.089816004 -0.2399544 -0.100118965
000070 fa f0 c8 3d 5b 98 87 be f1 62 b2 be 3e b5 82 3e
       0.09811588 -0.26483425 -0.3484111 0.25528902
000080 00 1b 26 bd 7e 41 24 be 93 38 a1 be 1e 30 98 be
       -0.040553093 -0.16040608 -0.31488475 -0.2972421
000090 6c 6f 1c be 1a 05 e7 be 20 0a cc be 22 61 82 be
       -0.15276879 -0.4512108 -0.39851475 -0.2546473
0000a0 73 7d 51 be 92 a1 71 be 2c 24 a1 be 42 fd 34 be
       -0.20458011 -0.2359679 -0.3147291 -0.17674735
0000b0 d7 06 4d 3e 18 1c cf 3e f1 fe b8 3b 6b 2a b9 be
       0.2002214 0.4045112 0.0056456258 -0.36165175
0000c0 ce a0 3c be 69 d5 33 3e a9 a8 80 bd 4f ab ab be
       -0.18420717 0.17561878 -0.06282169 -0.33529136
0000d0 4f 0d 80 be 3b 76 d9 be b0 e0 be be ea 98 af be
       -0.25010154 -0.42473015 -0.37280798 -0.34296352
0000e0 1e 90 8e be 92 a9 98 be f4 f0 9f be d3 4c 8c be
       -0.27844328 -0.29816872 -0.3123852 -0.27402362
0000f0 0f 8b 8e be b7 c3 9f be 06 2f b2 be 0e 39 c2 be
       -0.27840468 -0.31204006 -0.348015 -0.37934154
000100 50 c5 56 be 55 ae 2c be a3 b5 ec bd 86 48 13 3f
       -0.20973706 -0.16863377 -0.11558082 0.57532537
000110 78 65 b5 3e 5d ce b5 bd 99 08 64 3d 48 40 54 be
       0.35428977 -0.08877251 0.055672262 -0.20727646
000120 96 9e 03 be 68 56 a0 be 92 fd f1 bd 98 d0 56 be
       -0.12853464 -0.31315923 -0.11815943 -0.2097801
000130 d5 07 98 be 10 bb 2c be 77 0d d5 be e5 cf 76 be
       -0.29693475 -0.16868234 -0.41611835 -0.24102743
000140 09 ef 57 bd 49 ae 61 be 2c 47 9f 3d 08 50 8e be
       -0.052718196 -0.22039141 0.07777247 -0.27795434
000150 c0 4c 13 3e 78 bd 3e be d8 36 fd 3d fd 0a 5f be
       0.14384747 -0.18626964 0.12363976 -0.21781535
000160 fc ba 48 be be c9 11 bc 64 69 97 be 87 cd ad 3e
       -0.19602579 -0.008898197 -0.29572594 0.33945867
000170 d2 92 4e 3c 2b a6 b8 be 14 df 89 be ef 90 9c be
       0.012608247 -0.36064276 -0.26928008 -0.30579326
000180 2f 8f d4 be 08 fb 45 3e 0a e9 15 bc 2a 12 62 be
       -0.4151549 0.19334042 -0.009149799 -0.22077242
000190 bf 18 4d be 87 a4 a0 3e 14 7e 9b be c5 b5 92 be
       -0.20028971 0.31375524 -0.30369627 -0.28654304
0001a0 e6 3d d7 3e c7 98 4b 3e 20 ae 15 be 3f eb 1a bc
       0.42039412 0.19882499 -0.14617205 -0.009455501
0001b0 30 9e c2 3e 50 87 5a be dd 64 cd 3d 92 1d 6d be
       0.38011312 -0.2134068 0.10029004 -0.23155811
0001c0 41 ab 3b be 7d b4 30 be ea d9 f7 be a5 d1 0a 3e
       -0.18327047 -0.17256351 -0.48408443 0.13556536
0001d0 b4 56 d7 bc 2a 06 2f be 1b 06 e6 bd 97 8b 83 bd
       -0.02628646 -0.17092195 -0.11231633 -0.06423109
0001e0 11 3e 98 be 6f 48 9d 3d 03 98 73 be cc 53 a0 be
       -0.29734853 0.07679831 -0.23788457 -0.31313932
0001f0 c9 1d 65 3e e8 09 9d be 05 ac 84 be 42 85 a3 3c
       0.22374643 -0.3067162 -0.2591249 0.019961003
000200 40 1f 98 be ba 6c ee be fd ae 61 be 90 18 40 be
       -0.29711342 -0.46567327 -0.22039409 -0.1875937
000210 55 15 40 bd 44 02 06 be d5 d4 ad 3c 09 6e b6 3e
       -0.046895344 -0.13086802 0.02121965 0.35630825
000220 4d b7 3c be af f1 95 3c 1e 4d 7a be ab fc 59 be
       -0.18429299 0.01830372 -0.2444348 -0.21287791
000230 c0 53 1b be b8 ba d4 bb 8e 4f b4 3e 33 c5 63 be
       -0.15168667 -0.006491985 0.35216945 -0.22243194
000240 3e a4 88 bd 63 ca 56 be 07 59 c7 be 03 44 81 be
       -0.06671952 -0.20975642 -0.3893511 -0.252472
000250 fb fd 92 be 94 65 33 be 39 5f c0 be b2 3d a5 bd
       -0.28709397 -0.17519218 -0.3757265 -0.08068408
000260 cf c7 7f 3e 90 aa 41 3e a0 4e cb 3e 80 dc 8b be
       0.24978565 0.1891272 0.39708424 -0.27316666
000270 00 6d cd 3e fa fb c1 be 8a 4c a4 be d2 65 9a be
       0.40122223 -0.37887555 -0.32089645 -0.30155808
000280 b5 62 2d 3d f7 65 7d be 7b 30 d8 bd ad 1f 85 be
       0.042330462 -0.24745928 -0.10556122 -0.2600073
000290 3b 42 80 be 97 04 cf bd b6 6a 16 be 31 e4 87 be
       -0.2505053 -0.10108297 -0.14689144 -0.26541284
0002a0 a9 e0 7e be 81 8e ab be 61 b5 6e 3e 1c 35 b4 3c
       -0.24890389 -0.3350716 0.23311378 0.02199798
0002b0 d6 71 f8 3e 28 aa 7e b9 f8 62 1b be 2a 21 44 be
       0.4852435 -0.00024286716 -0.15174472 -0.19153276
0002c0 c4 9d be be e0 09 79 be 38 74 c9 be 3a 5c 83 be
       -0.3722974 -0.24320173 -0.3934648 -0.256563
0002d0 2b f2 8a be db 06 e4 bd 71 72 a7 3e f1 4a 9e bd
       -0.27137884 -0.1113412 0.327045 -0.07729138
0002e0 1e 63 3e 3d 4a 4e 8d be d7 22 96 bd 6d 5a 17 be
       0.046481244 -0.27598792 -0.07330864 -0.14780588
0002f0 5e 8e 4a be 3b e5 5b be 1a 69 00 3f 76 8c 52 be
       -0.19780871 -0.21474163 0.5016037 -0.20561394
000300 3c 92 bf 3e de 08 6c 3e 1a d8 d7 bd 35 53 ad 3e
       0.37416255 0.23050258 -0.10539265 0.33852544
000310 6f 9d 83 be 0a 94 07 be 47 e4 42 3e 4d 80 c8 3d
       -0.2570605 -0.13240066 0.19032393 0.097900964
