DCNModel/DCN_PD_NN_Models/NN_DCN_model_iter_id_31_epoch_500_lr_0.001.pth (torch_old, 828766 bytes, 14 tensors)

shared1.weight f4 [200, 25]
0	0x3def4071	0.11682213
1	0xbe27c587	-0.16383944
2	0xbcdd023f	-0.02697861
3	0x3dd509b9	0.10402245
4	0x3d1aab54	0.037761047
5	0x3ee4bd9e	0.44675916
6	0xbe38a9e0	-0.18033552
7	0xbdde9e6b	-0.108700596
8	0x3d136e5a	0.03599391
9	0x3d79059b	0.06079636
10	0x3e1976af	0.1498668
11	0x3e7fdea1	0.2498727
12	0xbdaef697	-0.08543127
13	0xbdad5fc3	-0.08465531
14	0x3ef80ec5	0.48448768
15	0xbf0d3727	-0.5516228
16	0xbdb436cb	-0.087995134
17	0xbf00bbc8	-0.5028653
18	0x3ec4c652	0.38432556
19	0x3eec45dc	0.46147048
20	0x3e1cb2db	0.15302603
21	0x3bee568b	0.0072735003
22	0xbded2fc8	-0.11581379
23	0x3e1081ce	0.14112017
24	0xbf102e33	-0.56320494
25	0xbe4b2176	-0.19836983
26	0x3e8690e7	0.26282427
27	0xbd9b706e	-0.07589804
28	0x3e08eee8	0.13372386
29	0x3d572492	0.05252511
30	0xbd34517a	-0.044023015
31	0xbe72e114	-0.23718673
32	0xbe1e4b9b	-0.15458529
33	0xbe9b9ebd	-0.30394545
34	0xbea61f9d	-0.32445994
35	0x3d21b2d4	0.039477184
36	0xbe82fbae	-0.2558264
37	0xbef73199	-0.48280028
38	0xbe294ae7	-0.16532479
39	0xbe79b94d	-0.24387093
40	0xbeb0e82c	-0.34552133
41	0x3db947a0	0.090468645
42	0xbe17e669	-0.14833988
43	0xbdf50c09	-0.11965186
44	0x3d86b3d9	0.06577272
45	0xbe099d36	-0.13438877
46	0xbe81f2a3	-0.2538043
47	0xbb784896	-0.0037885061
48	0xbe62c600	-0.22145844
49	0x3ea421ba	0.3205698
50	0x3e334b9a	0.17509308
51	0x3d2de666	0.042456053
52	0xbe281d55	-0.1641744
53	0x3da197eb	0.07890304
54	0x3d19ae27	0.0375196
55	0x3e908292	0.28224617
56	0xbdd0fae2	-0.10204102
57	0xbe87184b	-0.26385722
58	0xbe17c797	-0.14822231
59	0xbe2e7804	-0.1703797
60	0xbe33fded	-0.17577334
61	0x3d81697e	0.06318949
62	0xbe8ceb2f	-0.2752318
63	0xbef55b0a	-0.4792102
64	0x3e915f0d	0.2839283
65	0xbe454bee	-0.19267246
66	0xbe02a714	-0.12759048
67	0xbe96619c	-0.29371345
68	0x3e942cee	0.2894053
69	0x3e5db35b	0.2165045
70	0x3d540543	0.05176283
71	0xbe93e0cf	-0.28882453
72	0x3d7ce1e9	0.061738882
73	0x3dfd2c7b	0.123619996
74	0xbd1b927e	-0.037981503
75	0x3e2cefa6	0.16888294
76	0x3f0763ed	0.5288685
77	0xbdb9ee5b	-0.09078666
78	0xbec078ff	-0.37592313
79	0xbd4b5c09	-0.04964832
80	0xbe6c70b1	-0.23089863
81	0xbf1abbb5	-0.6044267
82	0xbeb93cb7	-0.36179134
83	0xbe8d8fb3	-0.27648696
84	0x3d61674c	0.055030152
85	0xbed8e91f	-0.42365357
86	0xbd95eec7	-0.07320934
87	0xbd5bea37	-0.05369016
88	0xbd77d740	-0.060508013
89	0x3e988833	0.29791412
90	0xbe13cfdc	-0.14434761
91	0xbea8a19e	-0.32935804
92	0xbee4bdcc	-0.44676054
93	0xbef8a127	-0.4856045
94	0xbe71a384	-0.23597533
95	0xbe8580d7	-0.2607486
96	0x3e8b8fce	0.27258152
97	0x3cc468c1	0.023975732
98	0xbe242620	-0.16030169
99	0xbe124768	-0.14285052
100	0x3dfb73e6	0.12277965
101	0xbdbcc59e	-0.0921738
102	0x3d1ce2dd	0.03830229
103	0xbdd7edb2	-0.10543384
104	0xbd176f5f	-0.036971446
105	0xbe478e5e	-0.19487903
106	0xbcba2e07	-0.022727026
107	0xbdccceec	-0.10000405
108	0x3c7d3a66	0.015455818
109	0xbe337750	-0.17525983
110	0x3d1f76f4	0.038931802
111	0xbddbff23	-0.10742023
112	0x3e4fc755	0.20290883
113	0xbdc0de9b	-0.094174586
114	0xbe71a81a	-0.23599282
115	0xbe4c732d	-0.19965811
116	0x3dc5cdbf	0.096583836
117	0xbe294ae6	-0.16532478
118	0x3e33e597	0.1756805
119	0xbdb42560	-0.08796191
120	0x3ccd4c8c	0.025060914
121	0xbe47832a	-0.19483629
122	0xbd1ee376	-0.038791142
123	0xbdc3488f	-0.09535324
124	0xbdab7f24	-0.083738595
125	0x3e1bf7aa	0.15231195
126	0xbdb00145	-0.08593992
127	0x3c579f2a	0.013160506
128	0xbdb4d004	-0.08828738
129	0x3d8b641d	0.068062045
130	0xbc868ccd	-0.01642456
131	0xbe6e7b45	-0.23289211
132	0xbd0f996a	-0.035058416
133	0xba97be9e	-0.0011577194
134	0xbe46722f	-0.19379495
135	0xbdde9d34	-0.10869828
136	0xbe74c77d	-0.23904224
137	0x3e02308c	0.12713832
138	0x3927e68c	0.00016012246
139	0x3dc996d0	0.09843218
140	0xbe88195a	-0.26581842
141	0x3d8cacbd	0.06868885
142	0xbe46ba38	-0.19406974
143	0xbd6e36ee	-0.058157854
144	0xbc165c5d	-0.009177295
145	0xbe0e947d	-0.13923831
146	0x3c7bbf56	0.015365442
147	0xbde043f3	-0.1095046
148	0x3d56c878	0.052437276
149	0xbd73bc88	-0.05950597
150	0xbeb1b5e5	-0.34709087
151	0x3e0dab75	0.13834937
152	0xbde7005a	-0.11279364
153	0xbd3b0dd3	-0.04566748
154	0x3dd4400d	0.10363779
155	0xbe346424	-0.17616326
156	0x3e485379	0.19563092
157	0xbd8c6785	-0.06855682
158	0x3e744edf	0.23858212
159	0xbf175539	-0.59114414
160	0xbf010b39	-0.5040775
161	0xbf828264	-1.0196042
162	0xbf1a275a	-0.60216296
163	0x3c4a75d4	0.012357194
164	0xbf162e6f	-0.586646
165	0xbe641403	-0.22273259
166	0x3e756758	0.23965204
167	0xbe95d06e	-0.29260582
168	0xbea6fa90	-0.3261304
169	0x3ede9c7f	0.43478772
170	0x3d62b4cb	0.0553482
171	0xbf480499	-0.78132015
172	0xbed30590	-0.4121518
173	0x3eae0a3e	0.3399219
174	0x3ec0ee7f	0.37681958
175	0x3e074a50	0.13211942
176	0xbdcb0898	-0.099137485
177	0x3c7964fd	0.015221831
178	0xbdf7bc1f	-0.12096428
179	0x3cf88008	0.030334488
180	0xbd64b340	-0.05583501
181	0xbe2d541b	-0.16926615
182	0x3d82ffa4	0.06396416
183	0xbdb9951c	-0.090616435
184	0xbdc093b2	-0.09403171
185	0xbd0ecd3c	-0.034863696
186	0xbd9422cc	-0.072331995
187	0x3cabae56	0.020957153
188	0xbdc76aa8	-0.0973714
189	0x3cc2b6d1	0.023768814
190	0x3cdb70d1	0.026787193
191	0xbd503035	-0.050827224
192	0x3df7b32a	0.1209472
193	0xbd8730cb	-0.066011034
194	0xbdd2555f	-0.102701895
195	0xbe1f6093	-0.15564184
196	0xbe06ce66	-0.13164672
197	0xbd8f30c7	-0.069917254
198	0xbe177a2d	-0.147927
199	0x3e0da278	0.13831508
200	0xbc01a49a	-0.007912779
201	0x3d99e97a	0.07515235
202	0xbd652c2a	-0.05595032
203	0xbdc548c1	-0.09633017
204	0xbd627b12	-0.05529315
205	0xbcf9e421	-0.030504288
206	0xbda3a075	-0.07989589
207	0xbea7251a	-0.32645494
208	0xbd1f5a55	-0.038904507
209	0xbd0240f3	-0.03180022
210	0xbe308ea9	-0.1724192
211	0x3e9dcd00	0.30820465
212	0xbdf97315	-0.12180153
213	0xbd20a89b	-0.039223295
214	0x3e0cb9dc	0.13742775
215	0xbe13c909	-0.14432158
216	0xbed7ba80	-0.42134476
217	0xbe5bb0f7	-0.21454225
218	0xbe731f2a	-0.23742357
219	0xbe6590d7	-0.22418533
220	0xbe438aa9	-0.19095863
221	0x3e83b06f	0.25720546
222	0x3eba5493	0.3639265
223	0xbe124bdf	-0.14286755
224	0x3d5fe023	0.054657113
225	0xbe96d647	-0.29460356
226	0xbe6c67b8	-0.2308644
227	0xbeffaf0b	-0.49938235
228	0x3ccf62db	0.025315693
229	0xbd476d0f	-0.04868799
230	0x3e036551	0.12831618
231	0xbef77be8	-0.4833672
232	0x3e2f5e0f	0.17125724
233	0x3e8bb1fb	0.27284226
234	0xbdb6a1fe	-0.08917616
235	0xbec81919	-0.39081648
236	0xbea1df75	-0.31615797
237	0x3e0cf4cc	0.13765258
238	0xbea323cb	-0.31863245
239	0x3cbff1fe	0.02343082
240	0xbd99adce	-0.07503854
241	0xbee2c856	-0.4429347
242	0xbea20032	-0.31640774
243	0x3e8a6d35	0.27036443
244	0x3e8bbd2f	0.27292773
245	0x3b85cd1d	0.0040832893
246	0xbd66495a	-0.056222297
247	0xbe339009	-0.17535414
248	0x3e53f888	0.20700276
249	0x3f242f47	0.6413464
250	0xbdcaf677	-0.09910291
251	0x3f0f28d2	0.5592166
252	0x3d24c48e	0.04022651
253	0x3e22c897	0.15896831
254	0x3d285657	0.041097965
255	0xbe2c9f89	-0.16857733

shared1.bias f4 [200]
0	0xbedbada9	-0.4290593
1	0xbe96cc33	-0.29452667
2	0xbea7949a	-0.32730561
3	0xbda3bc6f	-0.07994925
4	0xbe822771	-0.25420716
5	0xbde363ec	-0.11103043
6	0xbe902968	-0.2815659
7	0xbe629dec	-0.22130555
8	0xbe55be9f	-0.20873497
9	0xbe6883d6	-0.22706541
10	0xbe20a934	-0.15689546
11	0xbe915e48	-0.28392243
12	0xbd390263	-0.04516829
13	0xbe52c050	-0.20581174
14	0xbe9fdfa4	-0.31225312
15	0xbee1548b	-0.44009814
16	0xbe4a0280	-0.19727516
17	0xbdf7cf69	-0.12100107
18	0x3c199c89	0.0093757
19	0xbe8a20bc	-0.269781
20	0xbed1abe6	-0.4095146
21	0xbdfca3a4	-0.123358995
22	0xbed8900f	-0.42297408
23	0xbe96aff5	-0.2943112
24	0xbe6cd563	-0.23128276
25	0xbe2139f9	-0.15744771
26	0xbe72848b	-0.23683374
27	0xbd02d8d2	-0.031945057
28	0xbe1331e3	-0.14374499
29	0xbebd3324	-0.3695308
30	0xbe4ab05d	-0.1979384
31	0xbcf8043e	-0.03027546
32	0xbea106bb	-0.31450447
33	0xbe2165e1	-0.1576152
34	0xbea5218d	-0.3225216
35	0xbe4bf353	-0.1991704
36	0x3d8fe03c	0.07025191
37	0xbd441a4c	-0.04787664
38	0xbe87e06e	-0.26538414
39	0xbe3b1f0b	-0.1827356
40	0xbef0cb66	-0.4703018
41	0xbe7928cd	-0.2433197
42	0xbea66dad	-0.3250555
43	0xbe41fc11	-0.18943812
44	0xbe79bcf1	-0.24388482
45	0xbe0e8d62	-0.13921121
46	0xbec5ffea	-0.3867181
47	0xbd7de853	-0.06198914
48	0xbcfc92a6	-0.030831646
49	0xbe1cfad6	-0.15330061
50	0xbd9c6a7b	-0.07637497
51	0xbe8e822a	-0.27833682
52	0xbe2714d9	-0.16316546
53	0xbe1a484b	-0.1506664
54	0xbe8d8583	-0.27640924
55	0xbeadccd6	-0.3394534
56	0xbee89edb	-0.45433697
57	0xbe1f7f57	-0.1557592
58	0xbdf94aff	-0.121725075
59	0xbe4bc569	-0.19899525
60	0xbcc0d12b	-0.023537239
61	0xbe567625	-0.20943506
62	0xbe853349	-0.2601569
63	0xbe304fa1	-0.17217876
64	0xbe394e42	-0.18096259
65	0xbebd7a04	-0.37007153
66	0x3c9c9b84	0.019117124
67	0xbd963220	-0.07333779
68	0xbea481d6	-0.32130307
69	0xbe274867	-0.16336213
70	0xbd810173	-0.062991045
71	0xbd048106	-0.03234961
72	0xbe8a8624	-0.27055466
73	0xbe8916e3	-0.26775274
74	0xbc217f9f	-0.009857087
75	0xbdf068a0	-0.11738706
76	0xbe6ecd35	-0.23320468
77	0xbe89b523	-0.2689601
78	0xbdeea6a1	-0.11652876
79	0xbef8ad46	-0.48569697
80	0xbe390d7f	-0.18071555
81	0xbeb0c100	-0.34522247
82	0xbe8c1736	-0.2736146
83	0xbdc72073	-0.09722986
84	0xbe9244a9	-0.2856801
85	0xbe8d61c6	-0.27613658
86	0xbea0eb1c	-0.31429374
87	0xbe86d693	-0.26335582
88	0xbce2adca	-0.02767076
89	0xbe76b7cd	-0.24093552
90	0xbe307260	-0.1723113
91	0xbd32ed7b	-0.04368351
92	0xbe0dc285	-0.13843735
93	0xbe3fd033	-0.18731765
94	0xbe938fa0	-0.28820515
95	0x3d258944	0.04041411
96	0xbd64874e	-0.0557931
97	0xbd9dfe2a	-0.077144936
98	0xbe277286	-0.16352281
99	0xbdcd052b	-0.10010751
100	0xbdab00fd	-0.08349798
101	0xbed3a204	-0.41334546
102	0xbe19ac9c	-0.15007252
103	0x3d2bf82e	0.04198473
104	0xbe7f523c	-0.24933714
105	0xbdbc491b	-0.09193631
106	0xbe5925e9	-0.21205868
107	0xbe3f81e9	-0.187019
108	0xbe65ce58	-0.22441995
109	0xbe1340d4	-0.14380199
110	0xbe227c5b	-0.1586775
111	0xbe393711	-0.18087412
112	0xbeaafe6a	-0.33397228
113	0xbe594cbc	-0.21220678
114	0x3ca21611	0.019785913
115	0xbdc852b6	-0.09781401
116	0xbdf9affd	-0.1219177
117	0xbe2d9604	-0.16951758
118	0xbe31740c	-0.17329425
119	0xbe4b10a9	-0.19830574
120	0xbd9601f4	-0.07324591
121	0xbe9ea2f1	-0.3098369
122	0xbe5a1064	-0.21295315
123	0xbe620dbc	-0.22075552
124	0xbe875878	-0.26434684
125	0xbe03515a	-0.12824002
126	0xbe68a6e9	-0.22719921
127	0xbd254d48	-0.040356904
128	0xbe007074	-0.12542897
129	0xbea812fa	-0.32826978
130	0xbe9edc9c	-0.31027687
131	0xbde0c38a	-0.10974796
132	0x3d05c9dd	0.032663215
133	0xbe12825d	-0.14307542
134	0xbe252853	-0.16128664
135	0xbad2472f	-0.0016042943
136	0xbdfea2d8	-0.12433404
137	0x3c895c60	0.01676768
138	0xbd65582b	-0.055992287
139	0xbd3b5034	-0.045730785
140	0xbe00c9e9	-0.12577023
141	0xbd010f90	-0.031508982
142	0x3d82d6bc	0.063886136
143	0xbe77858b	-0.24172036
144	0xbe92b5bf	-0.28654286
145	0xbe4734e4	-0.1945377
146	0xbe66a02f	-0.22522043
147	0xbe56ca2a	-0.20975557
148	0xbe5813c5	-0.21101291
149	0x3b89f5a3	0.0042101904
150	0xbe4cd63b	-0.20003597
151	0xbe520456	-0.20509467
152	0xbe8d5850	-0.2760644
153	0xbf10b78c	-0.5653007
154	0xbe3cb027	-0.18426572
155	0xbe90379f	-0.28167436
156	0xbe36dfba	-0.17858782
157	0xbe9e7c7c	-0.3095435
158	0xbe6c08ad	-0.23050185
159	0xbdcea3e6	-0.10089855
160	0xbdc316a9	-0.095258065
161	0xbe9f0dc8	-0.31065202
162	0xbd04d802	-0.032432564
163	0xbe026290	-0.12732911
164	0x3c83821b	0.01605325
165	0xbef3eb3b	-0.47640404
166	0xbe174c5a	-0.1477522
167	0xbd5741fe	-0.05255317
168	0xbea3d048	-0.31994843
169	0x3c785840	0.015157759
170	0xbd7d1d9e	-0.061795823
171	0xbe4a9922	-0.19784978
172	0xbeac6fc5	-0.33679023
173	0xbd557b2c	-0.05211942
174	0xbed4cfe0	-0.41564846
175	0xbec0ee35	-0.37681738
176	0xbe849ef5	-0.25902525
177	0xbe501ee2	-0.20324281
178	0xbcbd629d	-0.023118312
179	0xbe2f122e	-0.17096779
180	0xbdeb1993	-0.11479487
181	0xbd29c000	-0.04144287
182	0xbe0a4151	-0.13501479
183	0xbe55c012	-0.2087405
184	0xbe897ee4	-0.26854622
185	0xbe66c247	-0.22535048
186	0xbe4e9167	-0.20172654
187	0xbe3a4e55	-0.18193944
188	0xbe814a47	-0.25251982
189	0xbec46862	-0.38360888
190	0xbe432e50	-0.19060636
191	0xbebc2f3b	-0.36754784
192	0xbe842d65	-0.25815883
193	0x3d0621ce	0.032747082
194	0xbe1b8b77	-0.1518992
195	0xbd38e64b	-0.0451415
196	0xbd8a95b1	-0.067668326
197	0xbe23f304	-0.16010672
198	0xbd9b47a9	-0.075820275
199	0xbde144e1	-0.10999466

shared2.weight f4 [200, 200]
0	0xbe28d957	-0.16489159
1	0xbd0553b8	-0.032550544
2	0x3dac7c09	0.08422095
3	0xbcae3100	-0.0212636
4	0xbdeb5fd8	-0.1149289
5	0xbd853d32	-0.06505813
6	0xbdd2dd3e	-0.10296105
7	0xbd9ff94e	-0.07811223
8	0xbec25abe	-0.37959856
9	0xbddfd251	-0.109287865
10	0x3e13d5d1	0.14437033
11	0x3c9d4aa2	0.019200627
12	0xbd6187c1	-0.055061106
13	0xbd2329bb	-0.03983472
14	0xbcf13ce4	-0.02944798
15	0x3e486646	0.19570264
16	0xbc7acd3a	-0.015307719
17	0xbca9cd23	-0.0207277
18	0x3dafa683	0.085766815
19	0xbca7e7f1	-0.02049634
20	0xbe22aa1c	-0.15885204
21	0x3dc8f352	0.09812035
22	0xbd655fa8	-0.055999428
23	0xbd84b1e5	-0.06479243
24	0xbb817aef	-0.0039514224
25	0x3dde25f8	0.10847086
26	0xbdcb54b2	-0.09928264
27	0x3db6ce1e	0.089260325
28	0x3daae26b	0.08343967
29	0x3ce73d22	0.028227393
30	0x3d79f590	0.061025202
31	0xbe8862fd	-0.26638022
32	0xbd4f59c8	-0.05062273
33	0x3c855b8d	0.016279006
34	0x3ca67643	0.020320063
35	0x3a026710	0.0004974464
36	0xbd5a0165	-0.053223986
37	0xbd6d19e3	-0.057886016
38	0x3d285fab	0.04110686
39	0xbe6502bc	-0.22364324
40	0xbd7edc86	-0.062222026
41	0xbebd377a	-0.36956388
42	0xbd3bbea5	-0.04583611
43	0x3dac7caa	0.08422215
44	0xbdc52392	-0.09625925
45	0xbe04557f	-0.12923239
46	0x3cd0ef7a	0.025504816
47	0xbd6d1534	-0.05788155
48	0xbd83712e	-0.06418072
49	0xbd56137a	-0.052264668
50	0xbe3d8612	-0.18508175
51	0xbd9e0643	-0.07716038
52	0x3de47dbc	0.111567944
53	0xbc80f784	-0.015743025
54	0x3eb16c27	0.34652826
55	0xbe496987	-0.19669162
56	0xbdbadce1	-0.091241606
57	0x3d4fb80e	0.050712638
58	0xbd4dcd97	-0.050244894
59	0xbe708252	-0.23487213
60	0xbdbc3084	-0.09188941
61	0xbd845538	-0.06461567
62	0xbe435484	-0.19075209
63	0xbe765112	-0.24054363
64	0x3e6c9d71	0.23106934
65	0xbecfe0b7	-0.4060113
66	0x3d172f87	0.03691056
67	0x3d4eee18	0.050520033
68	0xbe6e0b07	-0.23246394
69	0xbe92c5d4	-0.28666556
70	0xbd8ac579	-0.06775946
71	0xbdaf758d	-0.08567343
72	0xbda844d7	-0.08216255
73	0xbd291def	-0.041288313
74	0xbd0a17a5	-0.033713955
75	0xbd23cec7	-0.03999212
76	0xbdcacf66	-0.09902839
77	0x3c53727f	0.012905716
78	0x3ceed1b9	0.029152738
79	0xbde0b4ff	-0.10972022
80	0x3dd82a4a	0.10554941
81	0xbe3d2d4e	-0.18474314
82	0xbdd86f1e	-0.10568069
83	0xbdf4b80e	-0.11949168
84	0xbd6d2e05	-0.057905216
85	0x3e4fdd7d	0.20299335
86	0xbde9e421	-0.11420465
87	0xbeb9cb86	-0.3628809
88	0xbcecaecc	-0.028891943
89	0xbca3e38d	-0.020005966
90	0x3d13b10d	0.03605752
91	0x3b8db9a2	0.0043251077
92	0xbd1faccc	-0.03898315
93	0x3dbdb5a1	0.092631586
94	0xbd6d2e74	-0.05790563
95	0x3dcd6224	0.100284845
96	0xbd213a94	-0.039362505
97	0x3e304ab8	0.17216003
98	0x3ce20c56	0.027593773
99	0xbe4381de	-0.19092509
100	0xbe394c28	-0.18095458
101	0xbe3d7a85	-0.18503769
102	0xbd984281	-0.074345596
103	0xbdf66905	-0.1203175
104	0xbd425aaa	-0.047449745
105	0x3d99804b	0.07495173
106	0xbd0b7b5d	-0.034053195
107	0x3d7eb1ea	0.06218139
108	0xbd38a905	-0.045083065
109	0x3ec32d91	0.38120702
110	0x3dd26dad	0.10274825
111	0xbe6784e7	-0.22609292
112	0xbeaf0f79	-0.34191492
113	0x3de5adf5	0.1121482
114	0xbe0a8f34	-0.1353119
115	0x3e0ef8e5	0.13962133
116	0xbf18080c	-0.5938728
117	0xbd11e022	-0.03561414
118	0x3ddffe5e	0.109371886
119	0xbef89e59	-0.4855831
120	0xbde8521b	-0.113437854
121	0x3e927c9a	0.28610688
122	0x3c9d1dfe	0.01917934
123	0x3d11c548	0.035588533
124	0xbde88862	-0.11354138
125	0xbcee9917	-0.029125733
126	0x3cf88194	0.030335225
127	0x3ce4503c	0.02787029
128	0xbcb6203c	-0.022232167
129	0x3c82e418	0.015977904
130	0x3db63f2f	0.0889877
131	0x3d9872d5	0.074437775
132	0xbd940147	-0.07226806
133	0xbe3fa867	-0.18716584
134	0xbe234afa	-0.1594657
135	0x3d8f5961	0.069994695
136	0x3cadd238	0.021218404
137	0xbde7881a	-0.11305256
138	0x3ddc0803	0.107437156
139	0xbd7b5455	-0.061359722
140	0x3e375551	0.1790364
141	0x3db31dbe	0.08745907
142	0xbd05118f	-0.03248745
143	0xbe131980	-0.14365196
144	0xbcbed370	-0.02329418
145	0x3c906742	0.017627362
146	0x3d98bff2	0.07458486
147	0x3dbc0f72	0.091826335
148	0x3d7c2d72	0.061566778
149	0xbd93a2bc	-0.072087735
150	0xbc95d075	-0.018287877
151	0xbe498648	-0.1968013
152	0x3d49e0ca	0.04928664
153	0xbe4ce110	-0.2000773
154	0xbdba139b	-0.09085771
155	0xbe2e85ea	-0.17043272
156	0x3e00bf57	0.1257299
157	0x3df765af	0.120799415
158	0xbe34b505	-0.17647178
159	0xbc82138e	-0.015878465
160	0x3d94a343	0.07257702
161	0xbdbb1684	-0.09135154
162	0xbde8f454	-0.11374727
163	0x3d9315ac	0.07181868
164	0xbc981603	-0.018565184
165	0xbd87cf65	-0.06631354
166	0x3c8993c0	0.016794086
167	0x3b453c58	0.0030095782
168	0x3d4eb04f	0.05046111
169	0xbd6f6f31	-0.05845565
170	0x3e298bec	0.16557282
171	0xbd1e9fc6	-0.03872659
172	0xbcc0bb14	-0.023526706
173	0xbdc7f4ac	-0.09763464
174	0xbe393b0d	-0.18088932
175	0x3e395aac	0.18100995
176	0x3d85865c	0.06519768
177	0xbe5eaba3	-0.21745162
178	0xbdf6edc9	-0.12057073
179	0xbcdc0d99	-0.026861953
180	0xbe2486a0	-0.1606698
181	0xbc8567da	-0.016284872
182	0xbd92171c	-0.07133314
183	0x3e117184	0.14203459
184	0xbc33ab00	-0.010966063
185	0xbdf33eff	-0.1187725
186	0xbe55a8f5	-0.20865233
187	0x3d566246	0.052339815
188	0xbe49eb60	-0.19718695
189	0xbe6e9534	-0.23299104
190	0xbe8d1dd4	-0.2756182
191	0xbe2a4016	-0.1662601
192	0x3d880ac8	0.06642681
193	0x3d579c09	0.05263904
194	0x3cc595ed	0.024119342
195	0xbdf638a9	-0.12022526
196	0xbe2047b8	-0.15652359
197	0xbe394851	-0.18093993
198	0xbe38c783	-0.18044858
199	0x3d8a1dd5	0.06743971
200	0x3c0806a9	0.008302369
201	0xbb20db35	-0.002454472
202	0x3dcd03e8	0.10010511
203	0x3d4a38e9	0.04937068
204	0x3e2f5769	0.17123188
205	0xbda573f2	-0.080787554
206	0xbd9b9553	-0.07596841
207	0x3c4c90fd	0.01248574
208	0x3d7af7cc	0.061271474
209	0xbdcbe686	-0.09956078
210	0xbd93f505	-0.07224468
211	0x3e35efdb	0.17767279
212	0xbe565666	-0.20931396
213	0xbe11dafa	-0.14243689
214	0xbdd3ae8f	-0.10336029
215	0xbe0a054e	-0.13478586
216	0xbdb8bfc0	-0.090209484
217	0xbca77ac5	-0.020444283
218	0xbdfbb23d	-0.12289856
219	0x3df11e47	0.11773353
220	0xbc2876da	-0.010282243
221	0x3d96a97b	0.073565446
222	0xbe38d2bf	-0.18049143
223	0x3dfd22f6	0.12360184
224	0xbe311a5e	-0.17295215
225	0xbd7acadd	-0.06122862
226	0xbd0e65db	-0.034765106
227	0x3dd4dc4b	0.1039358
228	0xbce7c3b3	-0.028291559
229	0x3b2d47fc	0.002644061
230	0x3dafce6c	0.08584294
231	0xbc7d710a	-0.015468845
232	0x3cd77593	0.026301181
233	0xbd812e05	-0.06307606
234	0x3d430f9c	0.047622308
235	0xbcf96684	-0.030444391
236	0xbd5f44ac	-0.05450885
237	0xbdc5fcdd	-0.096673705
238	0x3e284aa9	0.1643473
239	0xbc2abb80	-0.01042068
240	0xbe07ef2e	-0.13274834
241	0xbe458865	-0.19290312
242	0xbca0dbc8	-0.01963605
243	0x3df9d61b	0.121990405
244	0x3ca844dc	0.020540647
245	0xbcdf8496	-0.027284902
246	0xbe1efa6c	-0.15525216
247	0xbdba1d72	-0.090876475
248	0x3c913e1e	0.017729815
249	0x3cc79680	0.024363756
250	0xbd94ba26	-0.072620675
251	0xbd3cdd5c	-0.046109542
252	0xbde62f8f	-0.1123954
253	0xbc3d1687	-0.0115410155
254	0x3b76d2ad	0.0037662194
255	0x3dc2050e	0.0947362

shared2.bias f4 [200]
0	0xbd8eae1c	-0.069668025
1	0xbee71aec	-0.45137727
2	0xbebafe79	-0.36522272
3	0xbee6dcd2	-0.45090348
4	0xbdd6aec0	-0.1048255
5	0xbe1efa3e	-0.15525147
6	0xbecef15c	-0.40418518
7	0xbe00b59d	-0.1256928
8	0xbda357c3	-0.079757236
9	0xbe91cd95	-0.2847716
10	0xbee733f2	-0.4515682
11	0xbf0d4fc1	-0.5519982
12	0xbe9788c6	-0.29596537
13	0xbd5b2c3b	-0.05350898
14	0xbebfb749	-0.37444523
15	0xbee82f42	-0.45348555
16	0xbb51187f	-0.003190547
17	0xbeb5c5bd	-0.35502425
18	0xbee2ed6f	-0.44321772
19	0xbdc7474c	-0.09730396
20	0xbec8ee86	-0.3924448
21	0xbd0d61cb	-0.03451709
22	0x3dd117d2	0.102096215
23	0xbf0d5941	-0.55214316
24	0x3d410e0e	0.047132544
25	0xbebbaf89	-0.3665736
26	0xbe59132d	-0.21198721
27	0xbda8b410	-0.08237469
28	0xbe6d898c	-0.23197001
29	0xbeac4dd5	-0.3365313
30	0x3e56e1ff	0.20984648
31	0xbeedd142	-0.46448714
32	0xbf085f2a	-0.5327021
33	0xbe9bd825	-0.30438343
34	0xbea96975	-0.3308827
35	0x3e908da7	0.28233072
36	0xbe5a9a73	-0.2134798
37	0xbe806a43	-0.2508107
38	0xbe3e073e	-0.1855745
39	0xbeab2463	-0.33426198
40	0x3dacd137	0.08438342
41	0xbe6b80cc	-0.22998351
42	0xbeba76c8	-0.36418748
43	0xbe9f6e44	-0.31138813
44	0xbeeb284f	-0.4592919
45	0xbef4542c	-0.47720468
46	0xbf385561	-0.7200528
47	0xbe8f2bd5	-0.2796313
48	0xbe504fc7	-0.20342933
49	0xbf02a43e	-0.51031864
50	0xbed90fc0	-0.4239483
51	0xbf048f1d	-0.51780874
52	0xbed45889	-0.41473797
53	0xbea8ca94	-0.32967055
54	0xbe258909	-0.16165556
55	0xbedd4840	-0.43219185
56	0xbe5ea62c	-0.21743077
57	0xbeee1f7c	-0.46508396
58	0x3d388701	0.045050625
59	0xbc315fb5	-0.010826041
60	0xbef17f00	-0.47167206
61	0xbed7db09	-0.42159298
62	0xbf073935	-0.52821666
63	0xbe8ed12f	-0.2789397
64	0xbee15154	-0.4400736
65	0xbecdf8a6	-0.40228766
66	0x3d8f1bc7	0.0698772
67	0x3e63ef3a	0.22259226
68	0x3d44bb2e	0.04803007
69	0xbead6108	-0.3386309
70	0x3e9f30d1	0.3109193
71	0xbe11314d	-0.14178963
72	0xbeae1a9e	-0.34004682
73	0xbeca6238	-0.3952806
74	0xbeb6d853	-0.35711917
75	0xbf05d3cd	-0.5227631
76	0xbf14722d	-0.5798672
77	0xbea564ad	-0.32303372
78	0xbf1d31ca	-0.614041
79	0x3d7591df	0.059953567
80	0xbc18dfe0	-0.00933072
81	0xbedbb5eb	-0.4291223
82	0xbec83db8	-0.39109588
83	0xbee8baf0	-0.45455122
84	0xbeed1cca	-0.46311027
85	0xbc4472a0	-0.011990219
86	0xbecec47b	-0.40384278
87	0x3c67e8d9	0.014154636
88	0xbeb12293	-0.3459669
89	0xbecfef74	-0.40612376
90	0xbf013210	-0.50467014
91	0xbda9db0f	-0.08293735
92	0xbed0df97	-0.40795586
93	0xbee7ccf6	-0.4527356
94	0xbec3941e	-0.38198942
95	0xbe6dbecf	-0.23217319
96	0x3dc0ceea	0.09414466
97	0xbe91633b	-0.2839602
98	0xbf136795	-0.5757993
99	0xbeb981dc	-0.36231887
100	0xbe9aba84	-0.30220425
101	0xbec72f46	-0.38903254
102	0x3c014743	0.007890525
103	0xbed54b56	-0.4165904
104	0xbebe4a54	-0.37166083
105	0xbe9037ed	-0.28167668
106	0xbde9a620	-0.11408639
107	0xbecd0a15	-0.40046754
108	0xbe988416	-0.29788274
109	0xbea69f8f	-0.3254361
110	0xbe66a254	-0.22522861
111	0xbcf8c100	-0.030365467
112	0xbee68b00	-0.45027924
113	0x3e34b9dd	0.17649026
114	0xbe5aa71f	-0.21352814
115	0x3e9821d6	0.29713315
116	0xbe9a8f96	-0.30187672
117	0xbeb9eccc	-0.36313474
118	0xbeccdd67	-0.40012667
119	0x3c21e48c	0.00988115
120	0xbf062b98	-0.5241027
121	0xbe817e8f	-0.2529187
122	0xbe29bcdf	-0.16575955
123	0xbdcbdfc0	-0.09954786
124	0x3e3be281	0.18348123
125	0xbe936e07	-0.28794882
126	0xbe8c81a9	-0.27442673
127	0xbd872de2	-0.06600548
128	0xbf03e9ac	-0.5152843
129	0xbed5af90	-0.41735506
130	0xbf3664d1	-0.71247584
131	0xbeda9543	-0.42692003
132	0xbed58d40	-0.41709328
133	0xbf0a7ca3	-0.5409643
134	0xbedeff91	-0.43554357
135	0x3db97b4a	0.09056719
136	0xbe811d9b	-0.252179
137	0xbcd7a257	-0.026322527
138	0xbe9a341e	-0.30117887
139	0xbeb659f2	-0.35615498
140	0xbd1f2221	-0.038850907
141	0xbeacbc0a	-0.33737212
142	0xbe9b23c1	-0.30300716
143	0xbe861e41	-0.26194957
144	0xbf43c174	-0.7646706
145	0xbe61ed18	-0.220631
146	0xbeb0fd0b	-0.34568056
147	0xbeb35104	-0.35022748
148	0x3db4b098	0.08822745
149	0xbeaaf3e5	-0.33389202
150	0xbf0ff463	-0.5623228
151	0xbf08b1f8	-0.5339656
152	0xbed78fcc	-0.42101896
153	0xbf121505	-0.57063323
154	0xbba34310	-0.0049823597
155	0xbe8563c1	-0.2605267
156	0xbb7fc3b2	-0.0039026556
157	0xbe4ae5e3	-0.19814257
158	0xbea81e7a	-0.32835752
159	0xbec78b21	-0.38973334
160	0xbea3444a	-0.31888038
161	0xbf075a86	-0.528725
162	0x3e98542c	0.29751718
163	0xbed05755	-0.4069163
164	0xbe560f5a	-0.20904294
165	0xbee0aa15	-0.43879762
166	0xbe72cb5c	-0.23710388
167	0xbdf57d26	-0.11986761
168	0xbe9f6e76	-0.31138963
169	0xbe7fe1cd	-0.2498848
170	0x3d351809	0.044212375
171	0x3e61545d	0.22004838
172	0xbe8f1e9f	-0.2795305
173	0xbedd1cb7	-0.4318597
174	0xbeef095c	-0.46686828
175	0xbeb939a4	-0.3617679
176	0xbeff7ee7	-0.49901506
177	0xbeab5692	-0.33464485
178	0xbe6baedc	-0.23015922
179	0xbee42bd2	-0.44564682
180	0x3e5d8eea	0.21636549
181	0xbe6a899b	-0.22904055
182	0x3c83e258	0.01609914
183	0xbeb71127	-0.35755274
184	0xbe8759b6	-0.26435632
185	0x3df07f0a	0.11742981
186	0x3e0507e6	0.12991294
187	0xbea3d491	-0.31998113
188	0xbd365801	-0.04451752
189	0xbe47320e	-0.19452688
190	0xbee7754e	-0.45206684
191	0xbe7e3d0f	-0.2482798
192	0x3ca1ab12	0.019734893
193	0x3cd4a91f	0.02595955
194	0xbec1c89c	-0.37848365
195	0xbebceba9	-0.36898544
196	0xbe804240	-0.25050545
197	0xbef0a2a8	-0.46999097
198	0xbee8349d	-0.4535264
199	0xbe54abc7	-0.20768653

hidden1_Y1.weight f4 [200, 200]
0	0x3e1a3033	0.15057449
1	0x3d945d43	0.07244351
2	0xbd646e23	-0.055769097
3	0x3d896100	0.067079544
4	0x3d84f812	0.06492628
5	0xbda6c33c	-0.08142707
6	0xbea0b17c	-0.3138541
7	0x3f10b23a	0.5652195
8	0x3e02fca9	0.12791695
9	0xbe168d8c	-0.14702433
10	0xbdfb09e1	-0.122577436
11	0xbe01d7e7	-0.12680016
12	0xbcea94a8	-0.028635338
13	0x3d80d196	0.06289975
14	0x3e4586bc	0.19289678
15	0xbd9b56b4	-0.07584897
16	0xbd63c824	-0.05561079
17	0x3dda1440	0.10648394
18	0x3d501a28	0.050806195
19	0x3e015cde	0.12633082
20	0xbe53dcb1	-0.20689656
21	0xbe2fda53	-0.17173128
22	0x3e70d8ea	0.23520246
23	0x3e632aec	0.22184342
24	0x3d9ea356	0.077459976
25	0x3db63a59	0.08897848
26	0x3e1985de	0.14992473
27	0x3eae2182	0.3400994
28	0x3dcc90d6	0.09988563
29	0x3e313876	0.17306694
30	0xbe382a45	-0.17984875
31	0xbdf84751	-0.121229775
32	0x3e1dbaec	0.15403336
33	0xbddc1084	-0.107453376
34	0xbe1ab6ed	-0.15108843
35	0xbe3cefda	-0.18450871
36	0xbdf514f6	-0.119668886
37	0x3c8d6ddf	0.017264305
38	0x3c963c9d	0.01833945
39	0x3e2536bf	0.16134165
40	0x3f0efece	0.5585755
41	0xbe8a941a	-0.27066118
42	0x3d708ef0	0.058730066
43	0x3db878a3	0.09007385
44	0x3e87ad64	0.26499474
45	0xbe30ac88	-0.17253315
46	0xbe30241c	-0.17201275
47	0xbdb9c8c0	-0.09071493
48	0xbd1f34de	-0.038868777
49	0xbe914509	-0.28372982
50	0xbd59a0b6	-0.05313178
51	0x3dfb6136	0.12274401
52	0xbe5cc9d0	-0.2156136
53	0x3e6a27f3	0.22866802
54	0xbc105141	-0.008808435
55	0x3d0bbfb8	0.034118384
56	0xbd4819d7	-0.048852768
57	0xbdb83893	-0.08995166
58	0x3e1e6959	0.15469874
59	0xbe4fc934	-0.20291597
60	0x3e33796a	0.17526785
61	0x3de767af	0.11299073
62	0xbdd0a97b	-0.10188576
63	0x3e4fec2d	0.20304938
64	0x3e3d812f	0.18506311
65	0x3d267c30	0.04064578
66	0x3d91460c	0.070934385
67	0xbe9b2b5f	-0.30306527
68	0x3ce7d405	0.028299341
69	0x3ccd8a49	0.025090354
70	0xbf122396	-0.5708555
71	0x3e4795e9	0.1949078
72	0xbd6b8fc6	-0.05751016
73	0x3d378b48	0.044810563
74	0x3e25d638	0.16194999
75	0xbdaee5fe	-0.08539961
76	0xbdbf7298	-0.09348029
77	0x3ca36bdd	0.019948894
78	0x3e6ee925	0.23331125
79	0xbec44fa8	-0.38342023
80	0xbcb7a1cc	-0.022416018
81	0xbe910d03	-0.2833024
82	0xbe1821e2	-0.14856675
83	0x3d774714	0.06037052
84	0xbdec069f	-0.115247004
85	0xbe71ed08	-0.23625576
86	0xbd944985	-0.07240585
87	0xbe0dcf17	-0.1384853
88	0x3a0053ae	0.0004895282
89	0xbd934ac4	-0.07191995
90	0xbe71989a	-0.23593369
91	0xbe08011b	-0.13281672
92	0x3db3cb3d	0.08778999
93	0xbddca546	-0.10773711
94	0xbd80fe7b	-0.06298538
95	0xbd565ba4	-0.05233349
96	0x3ea318e5	0.3185493
97	0xbd8ec570	-0.06971252
98	0xbc949697	-0.018138213
99	0xbdd4f466	-0.10398178
100	0xbefe021d	-0.49610987
101	0xbd8ac8fc	-0.06776616
102	0x3e98504b	0.2974876
103	0x3c62eb31	0.013850019
104	0x3dce0f41	0.10061503
105	0x3d4813c1	0.048846964
106	0xbe2b7607	-0.16744243
107	0xbe7058d3	-0.23471384
108	0x3d4bfa09	0.049799
109	0xbdcd84e8	-0.100351155
110	0x3e858f6e	0.2608599
111	0x3d512cb1	0.05106801
112	0xbde3973e	-0.111128315
113	0x3e803186	0.25037783
114	0x3e966f9c	0.29382026
115	0x3db8f5ed	0.090312816
116	0xbe3d037e	-0.18458363
117	0x3b773f02	0.0037726765
118	0xbe171e63	-0.14757685
119	0xbec4ebd5	-0.38461176
120	0xb7ed933f	-2.8321168e-05
121	0xbe1e208c	-0.15442103
122	0x3eaa495f	0.33259103
123	0x3e99fa44	0.3007375
124	0xbe620f48	-0.22076142
125	0xbe48f6dd	-0.19625421
126	0xbd5b873f	-0.053595778
127	0x3edb7245	0.42860618
128	0x3c5e97fe	0.013586042
129	0x3e28bc68	0.16478121
130	0x3cd330d7	0.025780125
131	0x3d7ae003	0.06124879
132	0x3d9dd781	0.0770712
133	0x3d578ca5	0.052624363
134	0xbcda1fdf	-0.026626525
135	0x3ebb9c99	0.36642912
136	0xbe358dac	-0.17729825
137	0x3ed1dced	0.40988865
138	0xbdbac2e5	-0.091192044
139	0xbd58ea49	-0.052957807
140	0x3df6f78a	0.12058933
141	0xbdffdd68	-0.12493402
142	0xbde196b0	-0.110150695
143	0x3e1e69cc	0.15470046
144	0x3e7fe250	0.24988675
145	0xbe520164	-0.20508343
146	0xbd694278	-0.056948155
147	0xbdab7aa1	-0.08372999
148	0x3c02d3c3	0.007985058
149	0x3e971cfc	0.295143
150	0xbc728ede	-0.01480457
151	0xbe0f2d0a	-0.13982025
152	0xbe023af6	-0.12717804
153	0x3c844271	0.016144963
154	0x3ce228ee	0.027607407
155	0x3dc38eee	0.09548746
156	0x3e82f8aa	0.2558034
157	0x3eb8d30a	0.3609851
158	0xbe37d45b	-0.17952101
159	0xbd91e348	-0.071234286
160	0x3db41c5c	0.087944716
161	0xbd13455e	-0.035954826
162	0x3e116be8	0.14201319
163	0x3db934a0	0.090432405
164	0x3e6d8cb7	0.2319821
165	0x3d5903a1	0.052981976
166	0x3d4774c1	0.04869533
167	0xbe22f43b	-0.15913479
168	0x3ccca617	0.024981542
169	0x3ea4714a	0.32117683
170	0x3e46cd6c	0.194143
171	0xbddfd4aa	-0.10929234
172	0x3e933db5	0.28758016
173	0xbcea8a38	-0.028630361
174	0xbd59a02a	-0.05313126
175	0x3db38986	0.08766465
176	0xbae79d5c	-0.0017670798
177	0x3dfe3853	0.12413087
178	0x3e5d2008	0.2159425
179	0x3e15016d	0.14551325
180	0x3dc8c5b1	0.09803332
181	0x3dd72062	0.105042234
182	0xbe16c3d4	-0.1472314
183	0x3d925c1b	0.07146474
184	0x3dc1ada7	0.0945695
185	0xbdbf079b	-0.093276225
186	0x3e06c318	0.1316036
187	0x3db79854	0.08964601
188	0x3ed4b4eb	0.4154428
189	0x3de18d6d	0.11013303
190	0x3d20ef78	0.039290875
191	0xbe1079ce	-0.14108965
192	0xbea2e663	-0.31816396
193	0x3d55f672	0.05223698
194	0x3c38c990	0.011278525
195	0x3d9dcfcb	0.07705649
196	0x3ef83084	0.48474514
197	0xbc49d950	-0.012319878
198	0x3eb56e5e	0.35435766
199	0xbdf925c4	-0.12165406
200	0xbe3172db	-0.1732897
201	0xbd9db7f4	-0.07701102
202	0xbd1f7823	-0.03893293
203	0xbd3be1f7	-0.045869794
204	0xbdb1e413	-0.0868608
205	0x3bfa7a58	0.007643979
206	0x3def5486	0.116860434
207	0xbd8c275d	-0.068434455
208	0xbd0aef01	-0.033919338
209	0xbe859c10	-0.2609563
210	0x3d57cf39	0.052687857
211	0xbe571cab	-0.2100703
212	0xbdd82f93	-0.10555949
213	0x3833f7e6	4.29078e-05
214	0x3e27d141	0.16388418
215	0xbe080a50	-0.13285184
216	0xbe1c854c	-0.15285224
217	0xbbfd06bb	-0.0077217496
218	0xbe3579fb	-0.17722313
219	0xbe0baaf4	-0.13639432
220	0x3dd35f3d	0.103209
221	0x3cbfd1cf	0.023415474
222	0xbd83fa84	-0.064442664
223	0x3dadf3ba	0.08493753
224	0xbdec813e	-0.115480885
225	0xbe371ea7	-0.17882787
226	0xbe6a64ae	-0.22889969
227	0x3d329089	0.04359487
228	0x3db7bfc0	0.0897212
229	0xbc47daa5	-0.012198125
230	0xbe73577a	-0.23763838
231	0xbdc5141c	-0.09622976
232	0xbe1404ed	-0.14455004
233	0x3e40b0f1	0.18817498
234	0x3bd86166	0.0066034077
235	0xbe23cc9c	-0.15996021
236	0xbe5d574d	-0.21615334
237	0x39ca8523	0.00038627637
238	0xbde1da4d	-0.11027966
239	0xbb168f8f	-0.0022973751
240	0xbeb07396	-0.34463185
241	0xbe258bb2	-0.16166571
242	0x3e2a5879	0.16635312
243	0x3c84a974	0.016194083
244	0x3d502448	0.05081585
245	0x3cb596a4	0.022166558
246	0xbd693c0f	-0.056942042
247	0xbdff95be	-0.12479733
248	0xbdd3c679	-0.1034059
249	0xbd6f6fef	-0.058456358
250	0x3da1d574	0.07902041
251	0xb9bc8e5f	-0.0003596423
252	0x3e833db2	0.25633007
253	0xbd42f21c	-0.047594175
254	0xbe3c83d2	-0.1840966
255	0xbda20ca3	-0.079125665

hidden1_Y1.bias f4 [200]
0	0xbc337fc1	-0.010955752
1	0xbdeb2df3	-0.114833735
2	0x3e773169	0.24139942
3	0xbebed0b8	-0.37268615
4	0xbe99d14d	-0.30042496
5	0xbeb4af5d	-0.35290042
6	0x3e4c5a0d	0.19956227
7	0x3aba6bb7	0.0014222775
8	0xbe667b32	-0.22507933
9	0xbd415a47	-0.047205236
10	0xbe87bedd	-0.26512805
11	0xbe8681f8	-0.26271033
12	0xbdb3b631	-0.08774985
13	0x3e714819	0.2356266
14	0xbe515c02	-0.20445254
15	0xbc9d20c1	-0.019180657
16	0xbe2893a7	-0.16462575
17	0xbdc781d5	-0.0974156
18	0xbcc68176	-0.024231654
19	0xbe23c239	-0.15992059
20	0xbdb13642	-0.08652927
21	0xbe69ca76	-0.22831139
22	0xbe843255	-0.2581965
23	0xbe98de57	-0.29857132
24	0x3e3fdca8	0.18736517
25	0xbe1bc16c	-0.15210503
26	0x3d1039c2	0.035211332
27	0xbe784a57	-0.24247108
28	0x3e0dd8a9	0.1385218
29	0x3e091e16	0.13390383
30	0xbe179334	-0.14802247
31	0xbda2a46a	-0.07941516
32	0xbcd64c15	-0.026159326
33	0xbe8cfe28	-0.27537656
34	0xbeab6c30	-0.33480978
35	0xbef47f5e	-0.47753423
36	0xbdb4abff	-0.08821868
37	0xbe0f46e1	-0.13991882
38	0xbe5d2462	-0.2159591
39	0xbcb6d9fe	-0.022320744
40	0xbd7722e1	-0.060335997
41	0xbe4d68ac	-0.2005946
42	0xbe84a5b3	-0.25907668
43	0xbead8dc0	-0.3389721
44	0xbe83c35c	-0.25734985
45	0xbe078648	-0.13234818
46	0xbd427105	-0.047471065
47	0xbe93e496	-0.28885335
48	0xbe7ad4ec	-0.24495286
49	0xbe6ef391	-0.233351
50	0xbe4a83c0	-0.19776821
51	0x3e3e09c4	0.18558413
52	0x3e0fb963	0.14035563
53	0xbe80d0bb	-0.2515925
54	0xbd09d60d	-0.0336514
55	0x3d0c37bc	0.03423284
56	0xbea43af9	-0.32076243
57	0xbe7ce889	-0.2469808
58	0xbe697bb5	-0.22801097
59	0x3c85ecdb	0.016348293
60	0x3e28b607	0.16475688
61	0xbd818cdb	-0.06325694
62	0xbe71ba4a	-0.2360622
63	0xbd16e532	-0.03683967
64	0xbda9eb5b	-0.082968436
65	0xbe6254e7	-0.221027
66	0xbe63fc8d	-0.22264309
67	0x3dcd16ea	0.10014136
68	0xbe6ac95c	-0.22928375
69	0xbec72e84	-0.38902676
70	0xbb4b35df	-0.0031007451
71	0xbd3c6e10	-0.0460034
72	0xbd2e440b	-0.04254536
73	0xbeefd37e	-0.46841043
74	0x3e3d8521	0.18507816
75	0x3e1a1377	0.15046488
76	0xbceab8a4	-0.028652497
77	0xbddf74a3	-0.109109186
78	0xbe1779f9	-0.14792623
79	0xbe58ac02	-0.21159366
80	0xbe70d58d	-0.23518963
81	0x3e291f9b	0.16515963
82	0xbde5336b	-0.11191448
83	0xbdbb5178	-0.09146398
84	0xbd5cb487	-0.0538831
85	0xbec1e966	-0.3787338
86	0xbdaef225	-0.08542279
87	0xbe910072	-0.28320652
88	0xbe8b6962	-0.27228838
89	0xbe443e37	-0.19164358
90	0xbe7c3590	-0.24629807
91	0xbda71e86	-0.08160119
92	0xbe41f1a4	-0.18939835
93	0xbe98460c	-0.29740942
94	0xbe32c711	-0.1745875
95	0xbdb2a011	-0.087219365
96	0x3e8c1eb7	0.27367184
97	0xbeee32a9	-0.46523026
98	0xbd9da367	-0.07697182
99	0xbdfe636b	-0.12421306
100	0xbe43347d	-0.19062991
101	0xbe3ee375	-0.18641455
102	0xbe90c572	-0.2827564
103	0x3e8c9876	0.27460068
104	0xbb267e36	-0.0025404817
105	0xbe818354	-0.25295508
106	0xbdb3cccd	-0.08779297
107	0x3e5c3a5c	0.21506637
108	0xbe82558b	-0.2545589
109	0x3ec2eb94	0.38070357
110	0xbe450aaf	-0.19242357
111	0xbe21bf71	-0.15795685
112	0xbe0c4cb3	-0.13701133
113	0xbe0fb7a4	-0.14034897
114	0xbe8a32ce	-0.26991886
115	0xbeb171c6	-0.34657115
116	0xbe7491da	-0.23883763
117	0x3e89f882	0.2694741
118	0xbe830914	-0.25592864
119	0xbe86f2f0	-0.26357222
120	0xbdd8a0d8	-0.105775535
121	0xbea09f67	-0.31371614
122	0xbe8d88d1	-0.27643445
123	0x3eb3a71b	0.3508843
124	0xbe3e78ca	-0.18600765
125	0xbeac20a8	-0.33618665
126	0xbe372888	-0.17886555
127	0xbeb359eb	-0.3502954
128	0xbe378630	-0.17922282
129	0xbd765c23	-0.060146462
130	0xbe84ac66	-0.2591278
131	0xbe8bde83	-0.273182
132	0xbe310f10	-0.17290902
133	0x3d782be5	0.060588736
134	0xbcd12578	-0.025530562
135	0xbe587515	-0.21138413
136	0xbe55d1f6	-0.20880875
137	0x3e96afe4	0.2943107
138	0xbed91e22	-0.42405802
139	0xbe056015	-0.13024934
140	0xbe58adfb	-0.21160118
141	0xbd3145f4	-0.043279603
142	0xbe865893	-0.26239452
143	0xbe768cb1	-0.24077107
144	0xbe7142af	-0.23560594
145	0xbd8c44ec	-0.06849083
146	0xbe463816	-0.19357333
147	0xbeb22b8b	-0.34798846
148	0xbe948b54	-0.2901255
149	0xbd499abf	-0.049219843
150	0xbdd95caa	-0.106133774
151	0xbe5a9779	-0.21346845
152	0xbe86623a	-0.26246816
153	0xbe36cf1f	-0.17852448
154	0xbe33cc85	-0.17558487
155	0x3e3e5d60	0.18590307
156	0x3e6426c5	0.22280414
157	0xbe6f87b5	-0.23391612
158	0x3ce4f851	0.027950438
159	0xbe4c45b3	-0.19948463
160	0xbe18d914	-0.14926559
161	0x3e3882c6	0.18018636
162	0xbe5e7d86	-0.21727571
163	0x3dd0257b	0.10163399
164	0xbdf0f5f6	-0.11765663
165	0xbe768c9f	-0.2407708
166	0x3e87c0ac	0.26514184
167	0xbe7ab116	-0.24481615
168	0xbe41edf0	-0.18938422
169	0xbd84be61	-0.064816244
170	0xbcd394f1	-0.025827857
171	0xbd97b3e2	-0.07407357
172	0x3e244683	0.16042523
173	0xbe6cf9ba	-0.23142138
174	0xbe6ff6f6	-0.23434052
175	0xbe181d45	-0.14854915
176	0x3ed69981	0.4191399
177	0xbea2cd0f	-0.31797072
178	0xbe3c2ebe	-0.18377206
179	0xbe5cd944	-0.21567255
180	0xbe6ab742	-0.2292147
181	0xbe835cdc	-0.25656784
182	0xbd863efc	-0.06554982
183	0x3ccf6325	0.02531583
184	0x3e32a0df	0.1744418
185	0xbd41620f	-0.047212657
186	0x3e01afe4	0.12664753
187	0xbcc3ae91	-0.02388695
188	0xbe563dfb	-0.20922081
189	0x3da3d0ba	0.07998796
190	0x3c893640	0.016749501
191	0x3e833b79	0.25631312
192	0x3e010ed5	0.12603314
193	0x3bb5cf14	0.0055483673
194	0x3b9f0eb7	0.004854049
195	0xbe33d8a0	-0.17563105
196	0xbe3c1c25	-0.18370111
197	0xbda43e45	-0.080196895
198	0xbe4084fc	-0.1880073
199	0xbebf8598	-0.3740661

hidden2_Y1.weight f4 [200, 200]
0	0xbe081fdc	-0.13293403
1	0xbe03c74e	-0.12868997
2	0x3c8b7d5a	0.017027546
3	0xbe096e04	-0.13420874
4	0xbe00fbe1	-0.12596084
5	0x3cc4bd57	0.024016066
6	0xbe23b6c4	-0.15987688
7	0xbe0a72a5	-0.13520296
8	0xbe3dce14	-0.18535644
9	0x3dcc3356	0.09970729
10	0x3c9a97d8	0.018871233
11	0x3d8ef093	0.0697948
12	0x3d7db459	0.06193957
13	0xbdf83531	-0.121195205
14	0xbd7e46ad	-0.06207912
15	0xbe4b92f5	-0.19880278
16	0xbe191469	-0.14949192
17	0xbe723afa	-0.2365531
18	0xbcdc81e8	-0.026917413
19	0xbe03c27d	-0.1286716
20	0xbded7071	-0.11593712
21	0xbd4f1178	-0.05055377
22	0x3e348431	0.17628552
23	0xb97076bc	-0.00022932416
24	0xbdc241b1	-0.09485186
25	0xbd56b1a2	-0.052415498
26	0x3d18e120	0.03732407
27	0x3c9c439c	0.019075207
28	0xbd6e5dee	-0.058195047
29	0xbde68d70	-0.11257446
30	0x3d1efdc7	0.03881624
31	0x3cdebeb1	0.027190538
32	0x3c0e36a9	0.008680024
33	0xbd960961	-0.07326008
34	0xbd7fe8d6	-0.06247791
35	0x3d90e158	0.07074231
36	0x3ce9526c	0.028481685
37	0x3dd38d84	0.10329726
38	0xbcaf9f1a	-0.02143817
39	0xbda92f28	-0.082609475
40	0x3d0628c6	0.03275373
41	0xbd26cd74	-0.04072328
42	0xbda558c7	-0.080735736
43	0x3d706586	0.05869057
44	0xbda72121	-0.08160616
45	0xbe47d9f1	-0.19516732
46	0x3e112841	0.14175512
47	0x3dcdd88c	0.10051069
48	0x3dfe6758	0.12422055
49	0xbe01eb9e	-0.12687537
50	0xbdacabb2	-0.08431186
51	0xbe1eb5b1	-0.15498997
52	0xbe37cb09	-0.17948546
53	0xbd09dbaa	-0.033656754
54	0x3c881930	0.016613573
55	0xbe3eae72	-0.18621233
56	0x3d701f41	0.058623556
57	0x3df70cb6	0.12062971
58	0x3da77ada	0.08177729
59	0xbe19cc9e	-0.15019462
60	0xbdb1bc87	-0.08678537
61	0xbd22043a	-0.039554812
62	0xbd9b4414	-0.07581344
63	0x3d33d142	0.043900736
64	0xbd84aada	-0.064779
65	0x3dc3c26d	0.09558568
66	0xbcc18f6c	-0.02362796
67	0x3cf05bdf	0.029340683
68	0xbd9d5461	-0.076821096
69	0x3c3a9ec6	0.011390394
70	0x3de4845b	0.11158057
71	0xbddaaecd	-0.10677872
72	0xbdbaca73	-0.091206454
73	0xbd805b07	-0.06267362
74	0xbc096868	-0.008386709
75	0x3c44e630	0.012017772
76	0x3cf8c7b5	0.030368665
77	0xbdcedc86	-0.10100655
78	0xbdc2e189	-0.09515674
79	0xbb07b598	-0.0020707604
80	0xbd0caf4c	-0.034346864
81	0xbd8b5a86	-0.06804375
82	0x3c0ad73d	0.008474168
83	0xbd289734	-0.041159824
84	0xbe33f735	-0.17574771
85	0x3d500fc3	0.05079628
86	0xbe3e7a71	-0.18601395
87	0x3d84da3a	0.06486936
88	0x3d24018b	0.040040534
89	0xbd19ba43	-0.03753115
90	0xbc7238a1	-0.014784009
91	0xbe10054e	-0.14064524
92	0xbd356d38	-0.044293612
93	0xbdc85f42	-0.09783794
94	0xbdb5aabe	-0.08870457
95	0xbb611d50	-0.0034349747
96	0xbd0c302e	-0.034225635
97	0xbe0088df	-0.12552212
98	0xbdb2be9b	-0.08727761
99	0xbdf8d0aa	-0.121491745
100	0xbdde45c1	-0.10853148
101	0xbde4a298	-0.11163825
102	0xbd1f818d	-0.03894191
103	0xbdfcdbcc	-0.123466104
104	0xbd56ddab	-0.052457493
105	0x3cc50427	0.024049832
106	0x3e027468	0.12739718
107	0xbd031d06	-0.0320101
108	0xbda3fc0b	-0.08007058
109	0x3c06f4c0	0.008237064
110	0xbbb8cf38	-0.005639937
111	0xbe57a24c	-0.21058005
112	0x3c3fdf42	0.011710944
113	0xbd3a2a94	-0.045450762
114	0xbe00d7e6	-0.12582359
115	0x3d888e24	0.06667736
116	0x3c8cb694	0.017176904
117	0xbe18670d	-0.14883061
118	0xbd7be48b	-0.061497252
119	0xbddf0a7f	-0.10890674
120	0xbdce414f	-0.100710504
121	0xbd02b093	-0.031906676
122	0xbde16edf	-0.11007475
123	0xbc335e70	-0.010947809
124	0xbc11ec8a	-0.008906493
125	0x3db3aefc	0.0877361
126	0xbd2d5c71	-0.042324487
127	0xbe159df6	-0.14611039
128	0x3e0e3f63	0.13891368
129	0xbabc2e41	-0.0014357046
130	0xbe299cb4	-0.16563684
131	0xbd35a81d	-0.04434978
132	0x3d7ff0d5	0.062485535
133	0xbe68bb89	-0.22727789
134	0xbe25c45a	-0.16188183
135	0xbd2e9281	-0.042620186
136	0xbdd333b9	-0.103126
137	0xbe169710	-0.14706063
138	0xbde5aaad	-0.112141944
139	0xbdd4df49	-0.10394151
140	0xbcf0fb4f	-0.029416708
141	0xbd4159dd	-0.04720484
142	0xbdd51c6c	-0.10405812
143	0xbdb701f1	-0.08935917
144	0xbd8f5e50	-0.070004106
145	0x3de48ac3	0.11159279
146	0x3bb5185f	0.005526587
147	0x3d4659fc	0.04842566
148	0x3d18b863	0.03728522
149	0xbe3a19f1	-0.18173958
150	0xbd939080	-0.072052956
151	0x3cad6d6e	0.021170344
152	0xbd67259a	-0.056432344
153	0xbd99962d	-0.07499347
154	0xbdc2358d	-0.0948287
155	0x3a84ce3d	0.0010132265
156	0xbe40f705	-0.1884423
157	0xbd6498f9	-0.05580995
158	0x3d6b8e7e	0.057508938
159	0x3d9c2804	0.0762482
160	0xbded0f8b	-0.1157523
161	0x3c83ce3a	0.016089547
162	0x3d19333b	0.037402373
163	0xbda06032	-0.07830848
164	0xbdd54719	-0.104139514
165	0x3bb30fff	0.0054645534
166	0x3d312ff6	0.04325863
167	0x3a0ec5fd	0.00054463727
168	0x3d6444b7	0.055729594
169	0xbcb288b6	-0.021793704
170	0xbde9baa9	-0.11412556
171	0x3d89be4a	0.06725748
172	0xbd964864	-0.07338026
173	0x3cf1123d	0.029427642
174	0xbce04a55	-0.027379194
175	0xbde7a0a1	-0.113099344
176	0xbe1114ca	-0.14168087
177	0xbe228fb4	-0.15875131
178	0xbd6dca4a	-0.058054246
179	0x3dd1ea56	0.10249774
180	0xbd0f7d71	-0.03503174
181	0xbdca9d43	-0.098932765
182	0xbe3052e3	-0.17219119
183	0xbc869de6	-0.016432714
184	0xbde98753	-0.11402764
185	0x3cfbfdf2	0.030760739
186	0xbdc92dec	-0.09823212
187	0x3b2d2cbd	0.0026424371
188	0xbd4876f4	-0.048941568
189	0xbdcd36ca	-0.10020216
190	0xbda9b6cf	-0.08286821
191	0xbc070d5c	-0.008242931
192	0x3cfa2cc8	0.030538931
193	0xbd8c80cb	-0.06860503
194	0xbe002912	-0.12515667
195	0xbe2144a2	-0.15748838
196	0x3dc552e5	0.096349515
197	0x3d3abd89	0.04559091
198	0xbcef7c6c	-0.029234134
199	0xbe10def6	-0.14147553
200	0xbdfacc13	-0.12245955
201	0xbd83c9f5	-0.064350046
202	0xbc7fa6a4	-0.015603695
203	0x3dc52138	0.096254766
204	0xbde96e3c	-0.11397979
205	0xbe4a68ed	-0.19766589
206	0x3e138cbd	0.14409156
207	0xbdd8c92e	-0.10585247
208	0xbcf6ccc1	-0.030126931
209	0x3d5a1d9b	0.05325089
210	0x3d507dee	0.050901346
211	0x3c5ad668	0.0133567825
212	0x3c691c8e	0.014227999
213	0xbdd60f03	-0.10452082
214	0xbe1ca929	-0.15298904
215	0x3d7f58e2	0.062340625
216	0xbe0e5209	-0.13898481
217	0xbeb40783	-0.3516198
218	0xbe1f90f8	-0.15582645
219	0xbc9e4601	-0.01932049
220	0xbdc52c34	-0.09627572
221	0x3d267703	0.040640842
222	0x3db229cf	0.086993806
223	0xbd864ca2	-0.06557585
224	0xbd4500a2	-0.048096307
225	0x3d9019cc	0.0703617
226	0xbda49e49	-0.08038003
227	0x3ddc4304	0.1075497
228	0x3e8153c6	0.25259227
229	0x3e216d4a	0.15764347
230	0xbe73dc4e	-0.23814508
231	0xbd9793e6	-0.07401256
232	0xbd63b461	-0.055591945
233	0xbe1a60b4	-0.15075952
234	0x3e0f8fa5	0.1401964
235	0xbd93c7a4	-0.07215813
236	0xbd44a9e3	-0.04801358
237	0x3da726e0	0.08161712
238	0x3d81a7bd	0.06330822
239	0xbd884b19	-0.06654949
240	0xbec49bc4	-0.3840009
241	0x3dc7c26c	0.0975388
242	0x3cc6c1e8	0.024262384
243	0x3d3f8778	0.046760052
244	0x3d0e3938	0.034722537
245	0xbe588138	-0.21143043
246	0xbe0aabff	-0.13542174
247	0xbd38757f	-0.045033928
248	0xbc868154	-0.01641909
249	0x3d432311	0.047640864
250	0x3d906b68	0.07051736
251	0xbd9d4089	-0.07678325
252	0x3dbac56c	0.091196865
253	0xbe48aba5	-0.19596727
254	0xbe8badf6	-0.2728116
255	0xbbd39409	-0.006456856

hidden2_Y1.bias f4 [200]
0	0xbe7cb8d4	-0.24679881
1	0xbe6f738b	-0.2338392
2	0x3d714fd8	0.058914036
3	0x3da4bc20	0.080436945
4	0x3efbfb44	0.49215138
5	0xbe88ce32	-0.26719815
6	0xbd90e721	-0.07075334
7	0xbe4b8b43	-0.19877343
8	0xbe83f560	-0.25773144
9	0xbe9dca5e	-0.30818456
10	0xbe0ea0a7	-0.13928472
11	0xbdb67e2e	-0.089107856
12	0xbd88f5f3	-0.06687536
13	0x3df89ee4	0.12139681
14	0xbe69a573	-0.2281702
15	0x3e5d4944	0.2160998
16	0x3ed05dda	0.40696603
17	0xbe8fa870	-0.28058195
18	0xbeacaf83	-0.33727655
19	0xbe9ef45d	-0.3104581
20	0x3ee31af7	0.4435651
21	0xbe2b0e41	-0.16704656
22	0xbe179913	-0.14804487
23	0x3ce60865	0.028080175
24	0x3da80c3f	0.08205461
25	0x3e8430c5	0.25818458
26	0xbe54a5e7	-0.20766412
27	0xbe87bd4d	-0.26511613
28	0x3e778458	0.24171579
29	0x3e0cf19c	0.13764042
30	0xbd17ee83	-0.037092697
31	0x3dde1201	0.10843278
32	0xbdfb5287	-0.122716
33	0x3ebd261c	0.36943138
34	0xbe11ee4e	-0.14251062
35	0xbda04a77	-0.07826703
36	0x3e34c025	0.17651422
37	0xbe72f201	-0.2372513
38	0xbe16b909	-0.14719023
39	0xbe230c53	-0.1592267
40	0x3df1615f	0.1178615
41	0x3e44c66c	0.19216317
42	0x3e661008	0.22467053
43	0xbe943bfb	-0.2895201
44	0x3ea16c2f	0.3152785
45	0x3d4ad4bb	0.04951928
46	0xbe377858	-0.17917001
47	0xbe053653	-0.13009004
48	0xbea45e3a	-0.3210314
49	0xbe7fa4aa	-0.24965158
50	0x3d51800a	0.0511475
51	0xbce9406a	-0.028473098
52	0xbd4357af	-0.047691043
53	0xbe2eda97	-0.17075573
54	0xbe2cad62	-0.16863015
55	0x3e86dc18	0.26339793
56	0xbe631f8e	-0.22180006
57	0x3e32a82b	0.17446963
58	0xbe72db3a	-0.23716441
59	0xbe36b554	-0.17842609
60	0xbea51ba0	-0.3224764
61	0xbe95deff	-0.29271695
62	0xbd6ff950	-0.058587372
63	0x3ec22573	0.37919196
64	0xbdc6b1d3	-0.09701886
65	0xbe89a539	-0.26883867
66	0xbe581ef2	-0.21105555
67	0xbe9950d9	-0.29944494
68	0xbe5a86fa	-0.21340552
69	0xbd5469a0	-0.051858544
70	0x3da6c89f	0.08143734
71	0xbe535f91	-0.20641924
72	0xbe52407c	-0.20532411
73	0x3d451cc4	0.048123136
74	0x3d97806a	0.0739754
75	0x3efc5f9c	0.49291694
76	0x3dd2a076	0.10284512
77	0x3ef29a9d	0.47383586
78	0xbdeae49d	-0.11469386
79	0x3ec0f628	0.37687802
80	0xbdda4ff6	-0.106597826
81	0xbda76895	-0.08174244
82	0xbdcd6537	-0.10029071
83	0xbc5735ff	-0.013135432
84	0xbe55a088	-0.20862019
85	0xbe8a1f25	-0.26976886
86	0x3e9f11b0	0.31068182
87	0x3eaffb92	0.3437162
88	0xbe4bdb09	-0.19907774
89	0x3b97f11b	0.0046368963
90	0xbe6a1681	-0.22860147
91	0xbe5db5c1	-0.21651365
92	0xbe0f141b	-0.13972513
93	0xbe9db824	-0.3080455
94	0xbdadab69	-0.084799595
95	0xbeacda9b	-0.33760533
96	0x3e8216bd	0.25407973
97	0x3e24b505	0.16084678
98	0xbd8b5f7b	-0.06805321
99	0xbe818739	-0.2529848
100	0xbe6c2b8c	-0.23063487
101	0xbdb12d2e	-0.086511955
102	0xbe8cacbe	-0.27475542
103	0xbe668ac4	-0.22513872
104	0xbe6e2ccb	-0.23259275
105	0x3ee2bad3	0.4428316
106	0x3edc5d11	0.43039754
107	0xbe6da9d3	-0.23209314
108	0x3ad40903	0.0016177002
109	0x3ee437ad	0.44573727
110	0xbe682125	-0.22668894
111	0x3d54cd4c	0.0519536
112	0x3d28a05c	0.041168556
113	0xbd8a3235	-0.067478575
114	0x3d25b1b4	0.040452674
115	0xbe395af1	-0.18101098
116	0x3d9eb11d	0.077486254
117	0xbd2ad528	-0.041707188
118	0xbe10c10f	-0.14136146
119	0xbe4ec7a4	-0.20193344
120	0xbe838874	-0.25690043
121	0xbe7bfde1	-0.24608566
122	0x3ee900dc	0.45508468
123	0xbe895490	-0.2682233
124	0xbe8e6a39	-0.27815416
125	0xbd44a279	-0.04800651
126	0xbde69c4c	-0.1126028
127	0x3e755d7a	0.2396144
128	0xbeb3c7b9	-0.35113314
129	0x3e078ab6	0.13236508
130	0xbe3b3dc7	-0.18285285
131	0xbd6ade7f	-0.057341095
132	0x3e96d299	0.29457548
133	0xbea72bc1	-0.3265057
134	0xbe60856c	-0.21925896
135	0xbec0271e	-0.37529844
136	0xbe819cdf	-0.25314996
137	0xbe613857	-0.21994148
138	0xbe7d39c4	-0.24729067
139	0xbe32568a	-0.17415825
140	0xbe9ee8e7	-0.31037065
141	0xbe8e4fe7	-0.27795336
142	0xbeb09bb2	-0.34493786
143	0x3d9eb57e	0.07749461
144	0xbdfcccff	-0.123437874
145	0x3e1827ea	0.14858976
146	0xbe43bc11	-0.1911471
147	0xbdddb30d	-0.10825167
148	0x3ef53e26	0.47898978
149	0x3d66959d	0.056295026
150	0x3e6dc0ce	0.2321808
151	0x3e950aee	0.291099
152	0xbded5eba	-0.11590333
153	0xbe179f5a	-0.14806882
154	0xbd970260	-0.073735
155	0xbe108861	-0.14114524
156	0x3ed0a744	0.40752614
157	0xbe7b73e6	-0.2455593
158	0x3e9feabe	0.31233782
159	0xbcd42b21	-0.025899472
160	0xbd1b324b	-0.03788976
161	0xbeb46b38	-0.3523805
162	0xbda79420	-0.081825495
163	0x3eb2d728	0.34929776
164	0xbe8137a7	-0.25237772
165	0xbe7327d4	-0.23745662
166	0x3ea1965f	0.31560037
167	0xbe4a8f2e	-0.19781181
168	0xbe9d7cb1	-0.30759194
169	0xbe87b1a7	-0.26502725
170	0xbe329062	-0.1743789
171	0xbec70aca	-0.3887542
172	0xbcc0635a	-0.023484875
173	0xbc7b8787	-0.015352136
174	0x3c5158c0	0.012777507
175	0xbe31d552	-0.17366531
176	0x3c9ab479	0.018884884
177	0xbcedab39	-0.02901231
178	0xbe278188	-0.16358006
179	0x3e267774	0.16256505
180	0xbe97b6ba	-0.29631597
181	0xbe99eea7	-0.3006489
182	0x3d0e6196	0.034761034
183	0xbe851ccf	-0.25998542
184	0x3f209cd7	0.6273932
185	0xbda69fab	-0.08135923
186	0xbdd1c0ba	-0.10241838
187	0xbeba9430	-0.36441183
188	0xbde3c3c2	-0.11121322
189	0xbe7ed5f9	-0.24886312
190	0xbedb51e7	-0.42835924
191	0x3e8a8023	0.27050886
192	0xbe123748	-0.142789
193	0x3bf95063	0.00760846
194	0x3bdd658e	0.006756491
195	0x3eb01631	0.3439193
196	0x3ed4750a	0.41495544
197	0xbe2bbdee	-0.16771671
198	0x3e3fb58f	0.18721603
199	0x3ef39625	0.4757549
