DCNModel/DCN_PD_NN_Models/NN_DCN_model_iter_id_41_epoch_500_lr_0.001.pth (torch_old, 828782 bytes, 14 tensors)

shared1.weight f4 [200, 25]
000000 c9 1c 4e 3d c1 45 e1 3b cb 5b 36 3e ec 85 24 3d
       0.05032042 0.0068747704 0.17808454 0.04016678
000010 9e 59 85 bd 54 57 3e 3d e0 bf 42 bb 68 b4 50 bd
       -0.06511234 0.04647 -0.0029716417 -0.0509533
000020 a3 5f 87 3d da 30 2b be e4 b5 34 be bb 16 a8 bc
       0.06610038 -0.16717854 -0.17647511 -0.020518651
000030 69 37 c3 bd d3 5e 6a be 71 d6 d1 bc 1f a2 29 be
       -0.09532053 -0.22887735 -0.025614949 -0.1656575
000040 f8 52 7f be 40 3f d3 bd 77 6d 4c 3d 41 bf 8d be
       -0.24933994 -0.10314798 0.04990908 -0.27684978
000050 60 10 14 3e 3f 8b 20 be 3b 2d 1b bc 2d 22 80 bd
       0.14459372 -0.15678118 -0.009471233 -0.062565185
000060 e1 ba 2d be b2 e4 c5 3d be 87 85 ba fd f7 c9 3d
       -0.1696582 0.09662761 -0.0010187549 0.09861753
000070 f2 ae 53 bd 0a 77 a1 3d 82 5e dc 3c 17 14 86 3b
       -0.051680513 0.07884033 0.026900534 0.0040917504
000080 cf 6f 11 be 05 be 04 be 58 0b 31 bd 50 2b f8 bd
       -0.14202808 -0.12963112 -0.04322371 -0.12117636
000090 55 84 e8 bd 81 f7 51 be f6 b7 83 bd ac c5 af 3d
       -0.11353365 -0.20504571 -0.06431572 0.08582625
0000a0 04 64 83 3d d7 97 c6 bd ba 0c 82 be f2 b3 1c bd
       0.06415561 -0.0969693 -0.25400335 -0.038257547
0000b0 28 45 bc bd 37 c3 39 bd e9 3e c5 bd 06 54 f5 bd
       -0.09192878 -0.045352187 -0.0963114 -0.11978917
0000c0 c4 89 29 3e d6 f8 a0 3d ee a8 3c be 33 c1 26 bd
       0.1655646 0.07859962 -0.18423817 -0.040711593
0000d0 17 45 60 3e af c7 79 3c d4 22 8d 3e a3 c3 02 3f
       0.21901356 0.015245362 0.27565634 0.5107977
0000e0 4e c0 20 3e eb 82 c7 be 16 09 45 3e 01 4a 8e be
       0.15698358 -0.3896707 0.19241747 -0.27790835
0000f0 ff 95 09 3e 6d 73 08 bc 32 e8 88 3d 0b 45 88 be
       0.13436125 -0.008328301 0.06684913 -0.26615176
000100 c8 f8 23 3f ab 73 c4 be 64 8f 62 be 74 2b e9 be
       0.64051485 -0.38369498 -0.22125012 -0.45540965
000110 20 da 3f 3e 88 50 63 3e 6d fa c6 bd 68 f3 49 3e
       0.18735552 0.22198689 -0.09715734 0.19721758
000120 8c c8 b3 3e 8b bc 82 be 32 a2 01 bf 15 5c 36 3d
       0.35113943 -0.25534472 -0.50638115 0.04452141
000130 97 81 07 bd 2f 5f b0 bb c3 ce 26 bd c2 66 c2 bd
       -0.03308257 -0.0053824405 -0.040724527 -0.09492256
000140 55 f6 9e 3d f1 9d b3 3d 7d b4 0d bd f4 b6 b6 3d
       0.07761828 0.08770359 -0.034595955 0.08921614
000150 fe d4 46 be c2 5e 4a bd 33 8d 81 be 96 e2 f7 bd
       -0.19417188 -0.049406774 -0.2530304 -0.12103765
000160 b4 9c 21 bd d4 f8 e8 3d 85 35 1c be 0b 7b 5b be
       -0.039456084 0.11375585 -0.15254791 -0.21433656
000170 69 f7 08 be e2 32 42 bc 64 9b f4 3d a0 8d 16 be
       -0.1337563 -0.011852952 0.11943701 -0.14702463
000180 87 09 00 be de 24 c4 bb 61 7a c6 bd 28 0e 6e 3a
       -0.12503634 -0.00598584 -0.09691311 0.0009081089
000190 7f be da bc 90 13 d4 3d 83 bf 25 3e 8c 82 54 bd
       -0.026702164 0.10355294 0.16186337 -0.05188231
0001a0 61 66 0d bc 74 a8 02 3b e6 7f fd bd 48 71 c6 bc
       -0.008630366 0.0019936832 -0.1237791 -0.024223939
0001b0 45 6f 91 be 77 87 11 be 4e 12 d7 3d 2c 7c 84 bd
       -0.28405204 -0.14211832 0.10501538 -0.064689964
0001c0 73 59 dc bd b8 0d b2 bd 43 3f 04 be 4d bd 7a be
       -0.107592486 -0.08694023 -0.12914757 -0.24486275
0001d0 3e b2 0f be 06 88 29 be 15 aa ff bd 38 1c 52 bd
       -0.14032838 -0.16555795 -0.124836124 -0.051296443
0001e0 e2 7b 5f be f0 21 c3 bc f1 be 09 be 60 37 de 3d
       -0.21824601 -0.023819894 -0.13451745 0.10850406
0001f0 90 a4 d2 3d d6 a9 ec bd 0f 91 7f ba 10 a6 11 bd
       0.10285294 -0.11555831 -0.00097490934 -0.03555876
000200 f7 13 58 3d 72 71 83 bd 62 62 8f bd ea 22 c3 bd
       0.052753415 -0.06418122 -0.07001187 -0.09528144
000210 17 9d e1 3d e6 a7 37 be cb d4 d0 bd ed c8 0a bf
       0.11016291 -0.17935142 -0.10196837 -0.5421284
000220 d9 44 bf 3d 60 84 4a be 21 99 6d bd 05 72 a3 bd
       0.093393035 -0.1977706 -0.058007363 -0.07980732
000230 1c a2 94 be 62 a9 ff bd d4 60 4f bc 0f 48 14 be
       -0.2902993 -0.12483479 -0.012657363 -0.14480613
000240 2c 36 0b bf 46 98 24 bd 50 85 8b 3e a3 0c 29 bd
       -0.54379535 -0.04018428 0.27250147 -0.041271817
000250 76 a1 2a be b6 36 bc 3c b0 e9 7b 3e 6b 3c cd be
       -0.16663155 0.022975307 0.24600863 -0.40085158
000260 26 3f de bd 95 51 92 be df 25 43 be fe f0 ae be
       -0.10851888 -0.28577867 -0.19057415 -0.34168237
000270 0d 0d 6f 3e bc c9 19 3f 01 a4 b9 3e fe ed ef ba
       0.23344822 0.6007345 0.36257938 -0.001830518
000280 ab fd 1d be 74 b4 b6 bd 75 1d 40 be 31 75 15 be
       -0.15428798 -0.089211375 -0.18761237 -0.14595486
000290 98 c9 e8 be 58 8e b1 bd 0a 50 4b bf de 15 97 be
       -0.45466304 -0.08669728 -0.79419005 -0.2950887
0002a0 f9 23 5d bd da 0d 2d bf 25 70 bd be fc 87 24 3f
       -0.053989384 -0.6759926 -0.36999622 0.64269996
0002b0 db e3 94 be 65 13 c2 be da 8b ce 3e 6b ff 7a bd
       -0.2908009 -0.37905422 0.40341073 -0.06127874
0002c0 71 db 80 3d 53 21 c3 3b 63 aa 53 bd f7 52 e3 3d
       0.06291855 0.0059549003 -0.051676165 0.11099809
0002d0 cb 33 29 3d 4d 75 fd bb bc 47 94 3d 3d d6 55 be
       0.04130916 -0.0077349306 0.07240245 -0.20882507
0002e0 25 fc 40 be 3c 17 1d 3e 84 fe 0a be 8c 69 9f be
       -0.18846186 0.15340894 -0.13573653 -0.31135213
0002f0 39 9d b3 bd 8a dd d1 bc 0e 35 25 be 94 7a b3 bc
       -0.08770222 -0.025618333 -0.1613352 -0.021909036
000300 f2 de b8 be ae 8f 75 3c e5 8c 04 3e cc de 49 3c
       -0.36107594 0.014987869 0.12944372 0.012321185
000310 ac 03 bb 3c 5b fb b1 bc b9 e9 93 bc c9 9d 0d be
       0.0228289 -0.021726301 -0.018055784 -0.13829722
000320 34 f8 fc 3d 7a 5a 61 3e c6 22 94 3d 0c 41 fc 3d
       0.123520285 0.2200717 0.07233195 0.12317094
000330 50 28 5a bd 65 78 06 3f 30 ba 17 bf 50 81 2c 3d
       -0.0532611 0.5252746 -0.59268475 0.04211551
000340 3d 43 60 be 6c 2b 6e bd 3c 40 19 3e fe d6 1b 3c
       -0.2190065 -0.05814688 0.1496591 0.009511707
000350 59 e4 55 3e be ce 5d be 3a 2f f4 3e 7d d9 b4 be
       0.20887889 -0.21660897 0.4769228 -0.3532218
000360 89 53 5b 3d df 86 63 be 80 97 a0 bd 8c 7f 62 3e
       0.053546462 -0.22219418 -0.07841396 0.22118968
000370 51 14 10 3e 61 22 af be f8 52 91 3e 6b d2 a2 3e
       0.1407025 -0.34205917 0.28383613 0.3180116
000380 6a af df bd 4f 17 e9 3d f5 f9 7f 3d b9 0f a8 bd
       -0.109221295 0.11381399 0.062494237 -0.08206124
000390 59 c3 69 3e 4b 1c f8 3e ad 7a f3 be 20 4b f5 be
       0.22828425 0.48459086 -0.47554532 -0.47908878
0003a0 83 d6 f3 3c 4c b2 b7 bc 6f 19 13 bf f0 e7 89 3d
       0.029765373 -0.022423886 -0.57460684 0.06733692
0003b0 77 6f 9a 3d f4 bd 5e 3e e6 94 bd be 2f 0c c7 be
       0.075407915 0.21752149 -0.37027663 -0.38876483
0003c0 f5 ad 22 be 14 19 d8 3d a5 d2 16 be ec 2c fe be
       -0.15886672 0.10551658 -0.14728792 -0.49643648
0003d0 b1 85 9f be f9 7a f2 3e b6 ca 54 3e e2 e0 7e be
       -0.31156686 0.47359446 0.20780453 -0.24890473
0003e0 ea 60 66 3e 04 25 02 bf a6 2c 80 3d d5 91 df 3c
       0.22497907 -0.5083773 0.06258516 0.027291218
0003f0 16 0c eb 3d cc 3a dc bd 16 55 d1 3d 72 1b 34 bc
       0.114769146 -0.10753402 0.10221307 -0.010992872

shared1.bias f4 [200]
000000 4c b5 6f bd 9a e0 38 be 95 37 17 be ab 96 4b be
       -0.058522508 -0.18054429 -0.14767297 -0.19881694
000010 c6 a9 18 be 10 c6 9b be 11 05 fc be e1 a7 9d bd
       -0.14908513 -0.30424547 -0.49222615 -0.07698036
000020 f7 da e0 bd d1 0b 5e be 28 ec d7 bd 9d f4 02 bf
       -0.10979264 -0.21684195 -0.1054309 -0.511545
000030 19 a0 b6 3d 27 4b f2 bd b6 c5 6c be 2c 49 93 be
       0.08917255 -0.118307404 -0.23122296 -0.28766763
000040 83 cb 26 be 16 33 81 bd c4 03 40 be f9 0f 2a be
       -0.16288571 -0.06308572 -0.18751436 -0.16607656
000050 d7 e1 63 be 21 7c 7d be 65 84 94 be ee 65 3b be
       -0.2225412 -0.24754383 -0.2900726 -0.18300602
000060 b3 92 c6 bd 02 ac aa be c3 e2 96 be 62 82 27 be
       -0.096959494 -0.33334357 -0.2946988 -0.16358331
000070 de f8 9e bd 23 0b 47 be d1 0a c7 be 1d e1 8e bd
       -0.077623114 -0.19437842 -0.3887544 -0.06976531
000080 c3 be 2b be d9 bb 84 bd 70 e6 b7 be 8f 34 42 be
       -0.16771989 -0.064811416 -0.35917997 -0.18965362
000090 ce c8 6a be ba d7 26 bc a0 7d 99 be ce 23 46 3b
       -0.22928163 -0.010183269 -0.29978657 0.0030233744
0000a0 1e 29 e7 bb 8d 99 02 be 59 7c bd be 1d dd 5f be
       -0.007054462 -0.12753887 -0.37008932 -0.21861692
0000b0 59 fc b9 ba a3 e3 36 be 7d 07 6a 3c 6b 47 6c bc
       -0.0014189585 -0.17860274 0.014284012 -0.014421324
0000c0 0f a4 fc bd 0b 52 81 bd 2c c1 69 be 72 61 d0 bd
       -0.12335979 -0.063144766 -0.22827595 -0.10174836
0000d0 e0 62 84 be 24 13 43 bc 7b b5 6e bd 11 0d 19 bd
       -0.25856686 -0.011906419 -0.058278542 -0.037365977
0000e0 eb fe e5 be b8 0e ac be 78 6c 9b bd 9a 61 87 bd
       -0.4492105 -0.3360498 -0.07589048 -0.06610413
0000f0 f4 6f 3f be 00 ce 69 be a6 53 80 be 52 04 fb bc
       -0.1869505 -0.22832489 -0.2506382 -0.030641709
000100 31 f7 a2 be 19 48 f2 bd 91 05 92 be 6e ba 09 be
       -0.31829217 -0.11830158 -0.28519872 -0.13450024
000110 1f 31 15 be 11 db 0f be 87 bb eb be 90 d3 1c be
       -0.1456952 -0.14048411 -0.4604151 -0.1531508
000120 93 18 8a be bd 03 fc be a0 ba 6c be 6f 3d 2c be
       -0.26971874 -0.49221602 -0.23118067 -0.1682031
000130 b4 28 8f bd a5 18 bd bd 4e e7 56 bb 5a b2 f2 bc
       -0.069901854 -0.09233216 -0.0032791677 -0.02962606
000140 5f 00 86 be 1f 7a d0 bd 0a ed fb bd d2 59 26 be
       -0.26172158 -0.10179543 -0.12301071 -0.16245201
000150 b9 99 1c be 9c 6c 2b be b9 c4 da be 2a b2 5e be
       -0.15293016 -0.1674065 -0.42728212 -0.21747652
000160 41 88 21 be c3 1d 88 be 2d ad 60 be e6 64 5a be
       -0.15774633 -0.26585206 -0.21941061 -0.21327552
000170 5a 6c bd bc 84 e3 af 3c 02 33 50 be a4 b9 8c be
       -0.023122955 0.021470793 -0.20331958 -0.27485383
000180 4c 7e cb be 17 f6 86 be e3 fb 91 3c 2a ec 4e be
       -0.39744794 -0.26359627 0.017820304 -0.20207277
000190 3a bb 6d be 3a 18 9c bd 4c 03 4a bd 12 e7 97 be
       -0.23215953 -0.07621808 -0.04931955 -0.2966848
0001a0 1b ee 0a be c9 c6 09 bf 2b 7c 94 be cb a5 2a be
       -0.13567393 -0.5381895 -0.29000983 -0.16664807
0001b0 d7 24 65 be f7 78 0b be dc 0c cb 3d f1 43 f2 be
       -0.22377335 -0.13620363 0.09914562 -0.4731746
0001c0 65 24 d2 bd 50 10 93 bd 26 85 37 be b3 e9 6f be
       -0.10260848 -0.07180846 -0.17921886 -0.23428993
0001d0 f9 b6 29 3d 71 5f 8c be cb 6f 65 be 87 de 07 bc
       0.041434262 -0.27416566 -0.22405927 -0.008292801
0001e0 5a d4 b2 be 49 e1 9f be 19 a4 98 be 83 a1 c3 be
       -0.34927636 -0.31226566 -0.29812697 -0.3820916
0001f0 0d 5d 2c 3c e0 d3 94 bd b3 04 cf be ac a3 19 be
       0.010520232 -0.072669744 -0.40433273 -0.15003842
000200 02 67 9f be dd 56 6e be 07 d9 20 be f9 d1 00 be
       -0.31133276 -0.23275323 -0.1570779 -0.12580098
000210 ee b6 5b be 5f b6 02 be 4f e6 90 3c 7f bf 62 be
       -0.21456501 -0.12764882 0.017687945 -0.22143362
000220 38 55 72 be dd 44 1d be a7 1b 05 be 61 84 ce 3c
       -0.23665321 -0.153583 -0.1299883 0.025209608
000230 89 8d 3f be 43 36 a8 bd eb 18 02 be a5 d4 77 be
       -0.18706335 -0.082134746 -0.12704818 -0.24202211
000240 f7 ad a5 be 33 ef 36 bd 9b 06 9c be 9e 9c 91 be
       -0.32359287 -0.044661712 -0.3047379 -0.28439802
000250 f5 cf 7d be a1 2d 85 be b0 83 63 3d 00 53 19 bd
       -0.2478636 -0.26011375 0.05554551 -0.03743267
000260 b8 10 20 be d4 7e 8e be c6 28 28 be 28 af ca be
       -0.15631378 -0.27831137 -0.16421804 -0.3958676
000270 08 5a 32 be 17 2a 22 be 26 1f 3c be 45 ff 61 be
       -0.17417157 -0.15836369 -0.18371257 -0.22070034
000280 c6 00 61 bd 0c bb bb be e9 79 3e bd ef 24 a6 be
       -0.05493238 -0.36666143 -0.04650298 -0.32450053
000290 d7 8f 4f 3c 32 3a 99 3d f2 69 1a be 19 d0 86 be
       0.012668571 0.07481803 -0.15079477 -0.2633064
0002a0 00 94 9c be b6 83 9f be d5 28 a1 bd 06 9e 7e be
       -0.30581665 -0.31155175 -0.07869116 -0.24864969
0002b0 38 f8 e7 bc 4d bf 9f be 16 b3 51 be 29 cd 9b be
       -0.028316602 -0.31200638 -0.20478472 -0.30429962
0002c0 22 a6 8e be 5f e5 e1 bd 4a 5b 04 bd 51 8f 5f be
       -0.27861124 -0.11030077 -0.032313623 -0.21832015
0002d0 41 71 37 be 00 33 6a be 69 ef 2c be 8c 47 b7 bd
       -0.17914297 -0.22871017 -0.16888203 -0.08949193
0002e0 8a 88 08 be 10 46 8a be 71 35 3c be 9f 20 78 be
       -0.13333336 -0.27006578 -0.18379761 -0.24231194
0002f0 83 6a ab be 10 cd 8c be ef 72 9d bd 4d 58 a1 be
       -0.334797 -0.275002 -0.076879375 -0.3151268
000300 be e4 3e bd 3f b6 80 be 47 5c 28 be 24 9b ce 3b
       -0.046604864 -0.25139043 -0.16441451 0.0063051153
000310 09 9c b1 bb 56 70 5e be fb b7 63 be d5 7e 84 be
       -0.005420212 -0.2172254 -0.22238152 -0.25878015

shared2.weight f4 [200, 200]
000000 26 59 5d be 60 5a c2 3d 83 ed b4 3c 1c 59 40 be
       -0.21616039 0.09489894 0.02208591 -0.18783993
000010 3e f5 04 be 6e 3c 90 bd 8a 84 09 bd be c8 eb bc
       -0.12984177 -0.07042776 -0.033573665 -0.028782245
000020 bc fe 2d bd 19 86 a6 bd 3d cb a7 bd 3d c6 c7 bd
       -0.04247926 -0.08131046 -0.081930615 -0.09754608
000030 75 e2 3b be 52 2a 91 3d 41 54 d9 3c 0a b8 3b bd
       -0.18348105 0.0708815 0.026529433 -0.04582981
000040 bc 0d 2c be 1b 82 4b bd b3 77 46 3d 9d d2 eb 3d
       -0.16802114 -0.049684625 0.048453998 0.11514781
000050 58 01 0a bd 34 d0 72 bd 9b 6c af bd 6d e8 1a be
       -0.033692688 -0.05928059 -0.08565637 -0.15127726
000060 3b 36 5a be b1 fd 5c be 15 73 2e 3c f2 0f 19 bd
       -0.2130975 -0.2158115 0.010647555 -0.037368722
000070 3b e9 e2 3d 36 8e 47 bd a3 a3 a7 bd 7b 21 13 bd
       0.110796414 -0.048719607 -0.08185508 -0.0359206
000080 47 da 0e be 8c 25 c3 3b 61 4a c9 3d c7 a8 7d bd
       -0.13950454 0.0059554037 0.0982864 -0.061928537
000090 29 ff a2 bd 51 6f 3e 3d ef 8f 8c 3c fb ad ca 3d
       -0.07958824 0.04649288 0.017158477 0.098964654
0000a0 1f 55 f9 3d 33 9f 3b 3d 3d 52 ff bc 58 a4 41 3d
       0.12174439 0.04580612 -0.031167144 0.04727587
0000b0 82 fa f7 3d 4e c0 ad 3d d5 3a 10 3d 37 bc 0b bc
       0.121083274 0.08483945 0.035212357 -0.008528761
0000c0 95 a0 90 3d 5a d0 d2 bb 14 a4 29 be 86 2e 4c bb
       0.070618786 -0.006433529 -0.16566497 -0.003115566
0000d0 f9 bb c7 bd 7d cc 90 bd 75 a6 26 3d a7 68 df bd
       -0.0975265 -0.07070253 0.04068609 -0.10908633
0000e0 a5 fa 10 3d 64 7f fc bd 3d 55 a5 3c 61 68 54 bd
       0.035395283 -0.12328985 0.020182246 -0.051857356
0000f0 20 38 c0 3d 54 b1 88 3a 6d a7 ab bc b0 c8 07 3d
       0.09385705 0.0010428824 -0.020953858 0.033150375
000100 8d 8f 12 be c8 9c 3f be 28 23 41 3a 0a 1a a0 bc
       -0.14312573 -0.18712151 0.00073676044 -0.019543666
000110 14 86 6f bd 17 37 d7 3d d4 37 42 3b 3c af d9 bc
       -0.058477476 0.105085544 0.0029635327 -0.026572816
000120 d2 f2 e8 bc cd d2 59 be 87 9a 33 be 3e 0e 37 3d
       -0.028436098 -0.2127182 -0.17539416 0.044691317
000130 4a 92 a9 bd 12 ae 83 3d ff 42 f5 bd 4a ba 17 3d
       -0.082798555 0.06429686 -0.11975669 0.037042893
000140 11 76 1c bd 09 d4 1c bd 96 84 02 be d2 0b a2 bd
       -0.038198534 -0.03828815 -0.1274589 -0.07912411
000150 0c f7 ee bc 6c ee c1 3d a7 b9 73 bd 9a 83 02 be
       -0.029170536 0.094693035 -0.059503224 -0.12745515
000160 54 06 23 bd bc 8f 03 bd 53 b9 72 3d 60 8d d1 bd
       -0.039800957 -0.032119498 0.05925877 -0.10232043
000170 24 eb d6 bd c8 e4 92 bd c3 fe 8a bd ed 50 00 3e
       -0.10494068 -0.07172543 -0.06786873 0.1253087
000180 61 79 5e bd e1 39 f5 bd 25 21 20 be 82 83 81 bc
       -0.054314975 -0.1197393 -0.15637644 -0.015809778
000190 ea da 23 bc ad 6d 82 bd ca 1a 23 3d 4c 8c 8a 3d
       -0.010000924 -0.06368575 0.03982047 0.06765041
0001a0 48 7b 25 3b 09 cb bb bd 29 5a 8b 3d ef 4b 19 bc
       0.0025250483 -0.09169585 0.06804306 -0.009356483
0001b0 40 3c 47 be dd c9 8e bd dc 71 70 3d 83 1b c5 3c
       -0.19456577 -0.06972096 0.058702335 0.02406097
0001c0 74 dc a2 bd a9 96 83 bd 34 4a 17 be 7a c6 5d bd
       -0.07952204 -0.064252205 -0.147744 -0.05414436
0001d0 3d db 86 bd c7 40 a8 3d 73 85 9e bc fa d9 96 3c
       -0.06584785 0.0821548 -0.019350743 0.018414486
0001e0 a9 9a 1c bc 4c be d1 3c 11 12 2c 3d 9b 75 df bd
       -0.009558358 0.025603436 0.042009417 -0.10911103
0001f0 6d 80 a7 bd 69 4e 66 bd 21 18 db bd db 80 49 be
       -0.08178792 -0.05622712 -0.106979616 -0.1967806
000200 c3 e5 67 be 33 0e d6 3d 35 b1 b9 bd 22 09 1c bd
       -0.22646241 0.10451927 -0.09067003 -0.038094647
000210 72 98 e3 3a 34 e3 c1 bd b4 1d a0 bd e7 7f ac 3d
       0.0017364158 -0.09467164 -0.078181654 0.08422833
000220 c8 f9 19 be 9e a1 98 bd 2e 87 3a bd 94 32 3f bd
       -0.1503669 -0.07452701 -0.045539074 -0.046679094
000230 04 e7 70 3d c1 4a 0e 3d d7 ad 4f 3d 93 89 4c 3d
       0.058814064 0.03473926 0.050702896 0.04993589
000240 f5 a3 43 be 05 e7 30 be d8 68 ec 3b f0 a1 c2 bd
       -0.19105513 -0.17275627 0.007214647 -0.095035434
000250 7e 28 0e 3d 0c 2e 84 bd 75 46 17 3e 4b 70 0a bc
       0.034706585 -0.06454095 0.14772971 -0.008449624
000260 bc 31 e4 3d a8 16 c4 bd 62 72 c3 3d ed 1a 23 3d
       0.111422986 -0.09574634 0.09543301 0.0398206
000270 0f f9 ce bc d9 4d 8e be 14 f2 27 be 18 57 80 be
       -0.025265245 -0.27793768 -0.16400939 -0.25066447
000280 d2 0f 3c 3d fb 5c 8e bd e1 24 ae 3d 42 10 76 3c
       0.045913525 -0.06951328 0.08503128 0.015018525
000290 ee 36 4d be 31 2d 74 bd 87 c4 c1 bd 47 59 88 3d
       -0.20040485 -0.05961341 -0.09461313 0.06657653
0002a0 0b eb 84 bc 17 24 cf 3d d0 35 ed 3b 42 dc b9 bd
       -0.016225358 0.101143055 0.007239081 -0.09075214
0002b0 8d b3 e0 bc 8d 08 8e bd 01 eb 10 be c0 b5 05 bd
       -0.027429366 -0.06935225 -0.14152147 -0.032644033
0002c0 c9 9a 2d be 5f e0 8d 3d 6b e9 ca b8 a2 39 f8 bd
       -0.16953577 0.06927561 -9.675588e-05 -0.121203676
0002d0 4c 6a 39 be d7 5a 44 be 90 3d e1 bd f1 2b 2f be
       -0.18106955 -0.19175278 -0.1099807 -0.17106606
0002e0 15 dc f7 3d 17 8a b8 be f3 c1 c3 bd b1 92 86 bd
       0.12102524 -0.36042854 -0.09558477 -0.06570948
0002f0 4f 29 3d 3d 0c 9a 54 be b0 07 72 bd 34 e2 73 bd
       0.046181973 -0.20761889 -0.059089363 -0.059541896
000300 89 8e 2c be 00 d3 ca bd 7a 08 24 3e 8f 52 c6 3d
       -0.16851248 -0.09903526 0.16018859 0.096837156
000310 97 a4 2c be be f2 1d be 23 a6 95 bd ec fa a8 bd
       -0.16859661 -0.1542463 -0.07307079 -0.082509845
000320 c6 e6 14 be 10 c2 25 3d 31 7b f7 3c dc 1d 1f be
       -0.14541158 0.040468276 0.03021011 -0.15538734
000330 a9 2a a3 3c 90 21 54 be 8d d2 45 be 2e 0e c5 3d
       0.019917803 -0.20715928 -0.193186 0.09621845
000340 86 af 90 bd ad bd 96 3d 30 de 9b 3d d6 77 07 be
       -0.070647284 0.073603965 0.07610738 -0.13229308
000350 90 e4 10 be 0b 14 0d be 25 52 2f 3e a1 38 79 bb
       -0.1414969 -0.13777177 0.1712118 -0.0038028138
000360 c6 32 21 3d 7f d3 f6 bd 1f 82 76 bd 8b e0 ff bd
       0.039355062 -0.120520584 -0.060182687 -0.12494
000370 1a b7 ab bd 16 f4 bb 3d 92 de 1d 3c 4d c3 d6 3c
       -0.08384533 0.09177415 0.009635584 0.026216174
000380 5e d8 5c 3e 92 de 79 be a4 92 bc bd 7f b8 84 be
       0.21566913 -0.2440131 -0.09207657 -0.2592201
000390 c0 bc 2a 3d 15 f1 c8 bc e2 a3 c0 bd 9f a0 9e 3d
       0.041683912 -0.02452902 -0.09406258 0.0774548
0003a0 bc 1d 12 bd ea fb e6 3d 22 37 4a bc f4 14 d7 3d
       -0.03567289 0.112785175 -0.012342246 0.10502043
0003b0 44 93 ba bc b2 de 16 be 4b c5 59 3d 92 9e 05 3e
       -0.0227753 -0.14733389 0.05316667 0.13048771
0003c0 cb 67 28 3d 64 86 2f bd de c6 5d bd 57 dc 7b be
       0.04111461 -0.042852774 -0.054144733 -0.24595772
0003d0 6a 9c 51 be f6 2b 88 bd 47 c5 04 3e 6e 0f b3 bb
       -0.20469823 -0.0664901 0.1296588 -0.005464486
0003e0 fe 81 d8 3d 2a 33 d9 3d 7c aa ae be 57 23 43 3e
       0.10571669 0.10605462 -0.34114444 0.1905645
0003f0 f8 69 8f 3d 0d b6 8f 3d 7f cd 34 3d 2d 31 38 be
       0.07002634 0.07017145 0.04414129 -0.17987509

shared2.bias f4 [200]
000000 74 66 be be e6 84 ca be c6 e9 13 bf da 0b 07 be
       -0.3718754 -0.39554518 -0.57778585 -0.13188115
000010 75 84 a3 be 45 64 cc be 3f 8f d1 be 62 a0 85 be
       -0.31936994 -0.3992025 -0.409296 -0.26098925
000020 34 eb c3 be 7f 09 49 be 66 b3 a4 be df 87 31 bc
       -0.38265383 -0.19632529 -0.3216812 -0.010835617
000030 51 5a ed be 81 f3 f8 be cc 38 ce be 0f 29 a8 bd
       -0.46357968 -0.4862328 -0.40277708 -0.08210956
000040 05 ce 8e be 42 d9 75 be 00 61 ac be f8 a4 da be
       -0.27891555 -0.24008659 -0.33667755 -0.42703986
000050 51 c5 48 be 95 5c c4 be cc ca d6 be 1a 08 9f bd
       -0.1960652 -0.38351884 -0.41951597 -0.07765217
000060 9a 45 08 bf fc 89 4d be 7a 5c 9a be 98 79 b8 3d
       -0.53231204 -0.20072168 -0.3014868 0.09007567
000070 c9 00 4b bd 4d f5 fe be e2 e3 85 be d0 57 a4 be
       -0.049561296 -0.49796525 -0.26150423 -0.32098246
000080 64 be 7f be 97 6c e8 be 08 8a 06 bf a6 b9 77 be
       -0.24974972 -0.45395347 -0.5255437 -0.24191913
000090 a3 d4 a2 be a1 5c e0 be 22 dc c6 bc a0 5a d4 be
       -0.31802854 -0.4382067 -0.02427489 -0.4147539
0000a0 c1 1e 81 be d4 ea 21 be 68 50 a3 be 2a 3d 8c be
       -0.25218776 -0.15812236 -0.31897283 -0.27390414
0000b0 d3 8f bd be af 38 b1 be 78 38 23 be 8a 1f ce be
       -0.37023792 -0.3461356 -0.1593951 -0.40258437
0000c0 db 99 ad be 42 80 ef bb ec 71 07 bf 17 da 97 be
       -0.33906445 -0.0073089907 -0.52908206 -0.29658577
0000d0 c8 63 a7 be 76 82 00 3c c3 90 1a be 83 92 c1 be
       -0.32693315 0.007843604 -0.15094285 -0.37807092
0000e0 f7 04 d8 be 09 2e 04 bf c2 41 05 bf b3 a8 e0 be
       -0.42191288 -0.51632744 -0.52053463 -0.43878707
0000f0 45 1e 98 be 6d ad db 3d 5f 58 6f be ae 2e 7f be
       -0.29710594 0.10726438 -0.23373555 -0.2492015
000100 b3 d5 b5 be b5 d1 13 bf 78 fd 61 be 0d a7 92 be
       -0.35514602 -0.5774186 -0.22069347 -0.28643075
000110 ae d3 0a bf 0f 93 7d be 8d 98 1a bd fa 28 f2 be
       -0.5422925 -0.2476313 -0.03774314 -0.47296888
000120 d1 e3 de be b7 c2 d8 be f9 4f cd be 45 24 f3 be
       -0.43533185 -0.42336056 -0.40100077 -0.4748861
000130 fd 9e 8b be e9 94 0d be 99 89 ea be f1 25 b9 be
       -0.27269736 -0.13826336 -0.45808104 -0.3616176
000140 e1 47 9c be 87 30 43 bd a7 bd c7 be 59 2e a6 be
       -0.3052359 -0.0476537 -0.3901188 -0.32457235
000150 fa 53 e1 be 29 1c e9 be a3 d3 24 be f1 a9 68 be
       -0.44009382 -0.45529297 -0.16096358 -0.22721078
000160 bb 5d a1 be 7a fc 09 bf bb 06 e2 be 36 42 b8 be
       -0.31516823 -0.53900874 -0.4414576 -0.35988015
000170 b2 16 af be bf e9 96 be 5a be 93 be e8 52 5e be
       -0.34197003 -0.2947521 -0.28856164 -0.21711314
000180 75 d2 26 bf b6 96 ed be 9f 72 17 bd c6 64 c5 be
       -0.6516488 -0.46404046 -0.036974546 -0.38553447
000190 da 2f 17 3b d8 80 eb be f8 c6 a1 be 8d d7 c9 be
       0.0023069293 -0.45996737 -0.31597114 -0.39422265
0001a0 47 85 0c bf 59 e8 ce be ae c8 5a bd 70 98 b5 be
       -0.54890865 -0.40411642 -0.05341404 -0.35467863
0001b0 59 02 b6 be b7 ae fb be 23 94 c1 be 93 7f 92 bc
       -0.35548666 -0.49156734 -0.37808332 -0.017883098
0001c0 8a fe 90 be 9c 2f 0f bf d8 57 9c 3d 0d 74 97 be
       -0.28319198 -0.5593202 0.07633942 -0.29580727
0001d0 6f 8f 97 be 0f e4 30 bd 81 83 84 be 2c 90 12 bd
       -0.2960162 -0.043186244 -0.2588158 -0.035782024
0001e0 38 0e 37 bd 9d 82 d3 be 3c 7f db be f8 d8 db be
       -0.044691294 -0.41310588 -0.4287051 -0.42938972
0001f0 bc a9 f6 be ca f4 e2 be 7f 68 a8 be e9 3b dc be
       -0.48176372 -0.44327384 -0.32892224 -0.43014458
000200 33 5e a9 3d 41 11 a3 be df a8 9c be a6 1b 78 3d
       0.0826992 -0.318491 -0.30597588 0.060573243
000210 77 ba 92 be 7b c5 0a 3d ff 8c d4 be 93 94 e9 be
       -0.28657886 0.03387974 -0.4151382 -0.45621166
000220 5c 6d ed be 3f 7c 8d be 63 55 50 be 12 3d 6c bd
       -0.46372497 -0.27633855 -0.20345072 -0.05767543
000230 66 43 4d be 3a b5 fb be a7 e5 db be 8f c6 70 be
       -0.20045242 -0.49161702 -0.42948648 -0.23513244
000240 19 ff ba be 17 f6 71 be 96 19 d6 3b 14 54 52 bd
       -0.3652275 -0.23629032 0.006533812 -0.051349714
000250 6f ee 6c be 49 22 d5 3c c1 cd 86 be de 50 b5 be
       -0.2313783 0.026017325 -0.26328853 -0.3541326
000260 9a 8a a7 bd e6 7e bf be ec be b6 be 0c 4b 96 be
       -0.08180733 -0.37401503 -0.35692537 -0.2935413
000270 81 d4 a2 bd 6c b6 b4 bd fb b5 6b bc 3b a5 36 be
       -0.07950688 -0.08823857 -0.014386649 -0.17836468
000280 ab aa c7 be ce 50 06 bf 22 da 37 bf 08 95 d6 be
       -0.38997397 -0.5246705 -0.7181722 -0.41910577
000290 70 d1 c5 be 95 b4 a1 be ba 17 9c be d9 f1 49 be
       -0.3863635 -0.31583086 -0.30486852 -0.19721164
0002a0 f2 2d d5 be d0 db c7 be e5 62 fe be 49 fa 98 be
       -0.41636616 -0.3903489 -0.49684826 -0.29878452
0002b0 ac 1b 47 be 21 bd 88 be 6e 58 65 be ec 51 2f be
       -0.1944415 -0.26706794 -0.22397014 -0.17121094
0002c0 51 49 e4 be 45 64 02 bf 66 87 f7 be b3 96 b3 be
       -0.44587186 -0.5093425 -0.48345488 -0.35075912
0002d0 9d 6f 8b be b9 c9 74 be 14 9c 0b bc 4a 48 03 be
       -0.27233592 -0.23905076 -0.008521099 -0.12820545
0002e0 e6 f8 d8 be bf f1 4e 3c 9c 94 57 be fc a9 b2 bd
       -0.42377394 0.012630879 -0.21052784 -0.08723828
0002f0 b0 f8 e4 be bd 8f a3 be 53 09 53 3d 3a 60 80 be
       -0.44720984 -0.319456 0.051522564 -0.25073415
000300 91 55 f8 be 18 9a 10 bf af c9 bd ba 8a 9c 0c bc
       -0.48502782 -0.5648513 -0.0014479662 -0.008582244
000310 7d 30 15 3d fa 3d 00 bf 5a e8 c4 be e0 85 e9 be
       0.036423195 -0.5009457 -0.3845852 -0.4560995

hidden1_Y1.weight f4 [200, 200]
000000 ba 8a f7 3d 94 55 bf bd 4c db c5 bd d2 35 fc bc
       0.12087007 -0.093424946 -0.09660968 -0.030787382
000010 6e 98 3f 3d b4 d9 55 bd d2 2b ef bd 2b 6f a2 bb
       0.046776228 -0.05220957 -0.1167828 -0.0049571
000020 0b 0c b2 39 c4 65 bc bc b3 2f 91 3d f7 8d 83 bd
       0.00033959778 -0.022997744 0.07089176 -0.06423562
000030 85 2e 02 bd 22 09 99 3d a6 43 85 3d a0 91 de 3d
       -0.031782646 0.07472445 0.065070435 0.108676195
000040 14 81 5f bc 4e 4b ed 3d a7 d2 b2 3d 32 3e 91 bd
       -0.0136416145 0.11586629 0.08731585 -0.07091941
000050 c4 6a 08 bd a3 11 6d be 15 41 8c bd 7c 00 0b be
       -0.033304945 -0.23151259 -0.06848351 -0.13574404
000060 5c c8 b4 ba ee fa 98 bc e3 8b 8b bc bd 33 0e be
       -0.0013792622 -0.01867434 -0.017034477 -0.13886924
000070 51 b1 b9 bd b9 89 03 be 2a 31 31 be 50 49 f0 3b
       -0.090670235 -0.12845506 -0.17303911 0.0073329583
000080 f4 76 cf 3d 64 b6 04 bd d8 0f b4 bd d6 fd b3 be
       0.101301104 -0.032400504 -0.087920845 -0.351546
000090 26 e7 e8 bd 37 7c bf bd e0 30 c5 3c 1a 9c 09 be
       -0.11372213 -0.09349864 0.024071157 -0.13438454
0000a0 75 a1 9f bd 56 d4 84 bb 3d aa 5c 3d 20 92 4e bd
       -0.07794467 -0.0040536327 0.05387329 -0.050432324
0000b0 40 3f f4 3d 67 fc c0 3d 1c 15 f6 bd ab 1e 1b 3d
       0.119261265 0.09423142 -0.12015745 0.037871044
0000c0 a3 32 d4 bd a3 3e 5c bd 6f 08 7a bd 31 c5 01 be
       -0.10361221 -0.053770673 -0.0610432 -0.12672879
0000d0 d9 c2 05 be 57 c5 d6 bc 79 81 df bc ee 67 af bd
       -0.1306261 -0.026217146 -0.027283417 -0.08564745
0000e0 7e c4 3a bd 29 f3 21 3c ac 9b 1d bd 3f 15 48 3c
       -0.045597546 0.009884634 -0.03847854 0.012212097
0000f0 b1 3c 5e 3c 28 d2 13 bd 38 34 01 3d 90 9b 2d be
       0.013564275 -0.036089092 0.03154394 -0.16953874
000100 16 dd b7 3d 32 df ba bc 6b e1 10 3d d1 cf aa bd
       0.08977716 -0.022811506 0.035371225 -0.08340419
000110 b0 cb b3 3c 9f f3 33 bd 22 45 d8 3d 3a f5 bb bd
       0.021947712 -0.043933507 0.10560061 -0.09177633
000120 3c 5b 2a bd fa 63 e6 bd 5b 89 e9 3c 9d 94 d1 3d
       -0.041590914 -0.11249538 0.028507879 0.10233424
000130 38 48 e2 bb 5e 15 31 bd ab ab 7a bc b1 81 a0 bc
       -0.006905582 -0.043233268 -0.015299718 -0.019593092
000140 6c 86 20 bc c0 03 3e bd 68 f5 a0 3d 27 b4 23 be
       -0.009797674 -0.046390295 0.078593075 -0.15986691
000150 1e 12 7f 3d 8b bc c9 bc ee 17 0c bd 40 10 9a 3d
       0.062273137 -0.024626037 -0.03420251 0.07522631
000160 93 bc 96 3d 5a f7 bf bd b2 c4 81 3d 67 c7 a4 bd
       0.073601864 -0.093733504 0.06336345 -0.080458455
000170 5c 3b 1a be 9b 8c a9 bd 38 31 6a 3d 5a 4c 52 3b
       -0.15061706 -0.082787715 0.057175845 0.0032088966
000180 fa 97 76 bd ec c9 16 be f2 c4 62 bc 73 34 cb bd
       -0.06020353 -0.14725465 -0.013840901 -0.09922113
000190 c5 8d ec bd 5a 2c 68 3d 33 69 57 bb c1 a9 f3 bd
       -0.11550478 0.056682922 -0.00328691 -0.11897612
0001a0 c9 58 b3 3c a2 94 5e 3c 07 04 23 3d df 20 54 bc
       0.021892922 0.0135852415 0.039798763 -0.01294729
0001b0 78 f8 da 3d 5e 60 80 bd a9 d7 a8 bd 43 b1 99 bd
       0.10691923 -0.062683806 -0.08244259 -0.07504513
0001c0 15 a4 3c bd bb 4f 70 3b 0d 58 bc bd 4d 34 c6 bd
       -0.04605492 0.0036668617 -0.09196482 -0.09677944
0001d0 b1 19 e6 bd b7 3c 4f be 60 03 1d 3e 55 dd 4f bd
       -0.11235369 -0.20238005 0.15333319 -0.050748188
0001e0 48 e4 ba bd 6a c4 65 bd 05 51 7e be 9f 32 e0 3d
       -0.091255724 -0.05609552 -0.24835594 0.10947155
0001f0 47 30 09 3b 4e 1f b2 3c 63 76 26 3e aa 23 56 3c
       0.0020933317 0.021743443 0.16256098 0.013070026
000200 29 7a eb bd b3 14 93 3d 2b 69 ea 3d 67 74 4b 3d
       -0.114979096 0.071816824 0.114458404 0.049671557
000210 76 6a d1 bd 13 26 a7 bd ff a4 00 be 6f 05 b8 bc
       -0.10225384 -0.08161559 -0.12562941 -0.022463528
000220 90 55 04 bd de 6f 5a bd 14 61 1d be 22 4c d1 bd
       -0.03230816 -0.05332934 -0.15369064 -0.10219599
000230 b9 f2 0e 3e 70 18 3a 3e 4a e8 09 3d d0 e4 a8 bd
       0.13959779 0.18173385 0.033668794 -0.082467675
000240 27 76 15 be 2e 4e 3c 3d e7 6d 4e bd e4 12 a8 bd
       -0.14595853 0.045972995 -0.05039778 -0.08206728
000250 59 04 65 3d 26 f6 d5 bd 19 46 8c bd 68 c7 0a bc
       0.05591235 -0.1044734 -0.068493076 -0.008470394
000260 d5 7d 10 3e 9f 4a a4 3d d2 1b cc bb f5 63 1b be
       0.14110501 0.08022045 -0.0062289024 -0.1517485
000270 1e 95 cf bd bf 43 6f be d5 a3 c4 bd c1 76 d0 bd
       -0.10135864 -0.23365687 -0.09601561 -0.101789005
000280 15 e7 db bd 1c d2 dd bd aa 25 1b be 93 e8 61 bc
       -0.10737435 -0.10831091 -0.15151086 -0.01378836
000290 25 27 af 3d 14 f3 0f 3d cd c7 a7 3d be 45 b8 bd
       0.08552388 0.035143927 0.08192406 -0.08997677
0002a0 23 cd 8b bd 0f f8 a2 3c a4 17 a3 3d 72 31 44 bc
       -0.06826236 0.019893674 0.079634935 -0.011974679
0002b0 64 d6 02 be 15 6e 7c be 2a 2d c9 3d 1c 1e b2 bd
       -0.12777096 -0.24651368 0.098230675 -0.08697149
0002c0 10 48 a7 3d 87 78 59 bd 54 26 59 3d 93 0d 73 bd
       0.08168042 -0.05309346 0.05301507 -0.059339117
0002d0 0e 6d a0 bc 56 58 d9 bd 6b c1 84 bd 97 da 3e 3d
       -0.019583251 -0.10612552 -0.06482204 0.046595182
0002e0 ff 1b 73 3d 7b 1b a3 bd b8 ce 39 be e6 f2 04 bd
       0.05935287 -0.07964226 -0.18145263 -0.03245821
0002f0 b2 c5 f6 3d d8 e5 9c bc 65 93 68 bd 4a 50 bb bd
       0.12049426 -0.019152567 -0.05678119 -0.09146173
000300 4d b3 1f 3e 80 15 00 3e f8 d2 ba 3d 8a 06 a4 bd
       0.15595742 0.12508202 0.0912227 -0.0800906
000310 b6 34 d3 3c 42 4c f0 bd f0 ed 71 bc 31 59 35 bd
       0.02578197 -0.11733295 -0.014766201 -0.044274513
000320 78 48 4c bd cc 2d 77 3e fc d1 84 be 1b 29 8d 3d
       -0.0498738 0.24138564 -0.25941455 0.06892606
000330 56 05 2b 3d 00 1c d0 3d 5e 78 35 be c2 b2 4e bd
       0.041753136 0.101615906 -0.17721698 -0.050463445
000340 63 72 90 be d6 1e 90 bc d2 a7 d5 3d 23 69 c4 3d
       -0.2821227 -0.017592829 0.104324 0.09590366
000350 c9 f6 f1 bc 38 e4 c2 bd 95 37 03 be 87 9e a3 bd
       -0.029536622 -0.095161855 -0.12814172 -0.07989221
000360 96 ba 5b be 4d b6 3a be 30 21 b6 bc 9f 7e 1f 3e
       -0.21457896 -0.18233605 -0.022232622 0.15575646
000370 d3 05 57 be e4 5a a6 bd 3e dc 7c bd 22 28 d5 3b
       -0.20998316 -0.08122805 -0.061733477 0.0065050283
000380 d1 58 1a bd 6c 1e 83 be 87 97 fc 3d d4 2e 05 be
       -0.03768236 -0.25609148 0.12333589 -0.13006145
000390 dc bd 06 3e fc ee 06 3e f5 f9 23 3d 7c 64 ac bd
       0.13158363 0.13177103 0.0400333 -0.084176034
0003a0 ae e8 28 3e 25 e9 82 3e 26 99 31 be d5 19 81 3d
       0.1649501 0.255685 -0.17343578 0.06303755
0003b0 0b e5 bf bc c7 a7 e7 3c 25 2b 38 bd 89 f7 c6 3d
       -0.023424646 0.028278245 -0.04496302 0.09715182
0003c0 f6 a6 30 bd 2e b1 39 bd 15 dd 4f 3b 42 90 1e 3e
       -0.043127976 -0.045334987 0.0031717469 0.15484717
0003d0 11 17 0f 3e b1 cc 80 bb 15 ce 52 bd e4 6d 5a bc
       0.13973643 -0.003930651 -0.051466066 -0.013331864
0003e0 de db d9 3d 45 10 75 3d 19 8b 73 bc 28 c0 97 bd
       0.106376395 0.05982997 -0.014864706 -0.07409698
0003f0 62 f9 72 3e 92 b2 ec bc 99 e2 e4 3d 6b 53 ce 3d
       0.23727944 -0.028893743 0.111760326 0.100745045

hidden1_Y1.bias f4 [200]
000000 6d 47 42 be 90 ed ab be 77 06 26 3d 49 bf 22 be
       -0.1897256 -0.33579683 0.04053351 -0.15893282
000010 92 d6 7a be de 70 c9 bc 76 ad d5 bd da a1 9b bb
       -0.24495915 -0.024589952 -0.10433476 -0.004749519
000020 1a 94 44 bb c8 94 0f be 80 45 27 be 39 86 fb bd
       -0.0029995502 -0.140216 -0.16335106 -0.1228146
000030 91 3d 23 3d 64 c0 b4 be 37 4e c2 be 46 ad 23 be
       0.039853636 -0.35303032 -0.37950298 -0.15984067
000040 ff 10 fc bd da 8c ff bd 68 1a 97 be 93 21 6a 3c
       -0.12307929 -0.12478037 -0.29512334 0.014290231
000050 26 2c 63 3d 88 b8 f4 3d 28 e9 9b be 7d ec a1 3c
       0.055462025 0.11949259 -0.30451322 0.019766087
000060 7b 44 72 be d2 e1 56 be f5 8f 90 bd 03 42 82 3c
       -0.23658936 -0.20984581 -0.070587076 0.015900617
000070 2e 42 7c be 41 07 83 bd 89 d8 86 be 26 18 7b be
       -0.2463462 -0.06397868 -0.26337078 -0.2452093
000080 de d7 ef bd e0 cb e5 bd 6f 09 72 3d 53 68 c2 3d
       -0.11711095 -0.11220527 0.059091028 0.094925545
000090 97 7e f2 3d 65 1c 49 be e6 72 71 be 5b 7f b1 be
       0.11840551 -0.19639738 -0.23578987 -0.34667477
0000a0 62 fa 71 be ca eb 2b be de 3c c9 be e3 c1 9a bc
       -0.2363067 -0.16789165 -0.3930425 -0.01889128
0000b0 0e a8 21 3d 56 fa 9e be 31 93 1e 3e 02 dd 0d be
       0.03946691 -0.31050366 0.15485837 -0.13853839
0000c0 82 52 9d bd 5d 88 a0 be db 91 cd 3d 55 24 5d be
       -0.07681753 -0.31354037 0.10037585 -0.21595891
0000d0 9d 41 5b be 26 d9 24 bd 78 e3 8a be 10 cc eb bd
       -0.21411748 -0.04024615 -0.2712667 -0.11513531
0000e0 8d e3 67 bd 0d 23 6c be 81 59 44 3d 24 17 e7 3b
       -0.056613494 -0.23060246 0.04793692 0.007052319
0000f0 b8 3f 6a bc 66 88 0e bd fc c9 37 be fb 5c 31 be
       -0.014297418 -0.03479805 -0.17948145 -0.17320625
000100 57 51 d2 3d 17 cd 6d be 87 6b 89 be 87 ae 95 3d
       0.102694206 -0.23222767 -0.2683985 0.07308679
000110 9a 5a 5a be 09 7d 9a 3d 6e d7 9f be d1 cf 45 be
       -0.21323624 0.0754338 -0.31219047 -0.19317557
000120 14 50 92 3c 30 5b a6 bd ad 36 5e be 7b c1 b2 be
       0.01786045 -0.081228614 -0.21700545 -0.3491324
000130 07 42 c2 be fa aa 09 be 53 aa b1 be a6 62 02 be
       -0.37941 -0.13444129 -0.3470026 -0.12732944
000140 44 8c d2 bc eb 26 3f be b8 2f a6 bd 6a 39 e8 bd
       -0.02570165 -0.1866719 -0.081145704 -0.11339076
000150 c4 33 0e 3e 65 ed b5 3d 90 96 d7 bd 3f 4e 83 be
       0.13886935 0.0888317 -0.105267644 -0.25645635
000160 dd 2d e5 3b 1e fe c8 3d 15 cb 18 bd ad 5d 20 bd
       0.0069939927 0.09814094 -0.03730305 -0.039151836
000170 b6 70 7c 3d 5b 2d 43 be 64 3c 02 be 08 21 2c be
       0.061630927 -0.1906027 -0.1271835 -0.16809475
000180 0c 73 ed be 6c 76 65 be 5f 13 9b be 32 c4 38 bd
       -0.46376836 -0.22408456 -0.30288216 -0.04510898
000190 3a f2 9b bd 18 f2 01 be 23 ea 19 be 14 55 85 bd
       -0.076145604 -0.12690008 -0.15030722 -0.06510368
0001a0 02 15 68 be 7b a7 98 3d 2b 9b b5 be 71 25 90 3d
       -0.22664264 0.07453819 -0.35469946 0.070383914
0001b0 94 f6 74 be 97 64 88 be bf 95 10 bd 24 be 40 3a
       -0.23922187 -0.26639244 -0.03529906 0.0007352552
0001c0 be eb 2d be 66 ba 9f 3c 28 80 b1 bd f4 7a a1 bc
       -0.1698446 0.019498061 -0.08667022 -0.019711949
0001d0 d3 f9 c8 bd 98 29 11 3d 11 4a 8d be 4d 0a 7e be
       -0.09813275 0.035440058 -0.2759557 -0.24808617
0001e0 07 07 83 3c 6f 83 74 3d 16 f2 6b be 0d 94 c3 3d
       0.015994562 0.059695657 -0.23041567 0.09549723
0001f0 4b 97 2f be 5e 05 53 be 52 ba 3f be 24 b2 55 be
       -0.17147557 -0.20607516 -0.1872342 -0.20868737
000200 6c 6e 96 be bd 34 ac ba a1 70 88 be 78 cf b5 be
       -0.2938112 -0.0013138276 -0.2664843 -0.3550985
000210 11 51 00 be 47 1d 0e 3d c2 23 10 be 59 24 e5 bd
       -0.12530924 0.03469589 -0.1407614 -0.111885734
000220 8f 59 f3 bb 13 7c 90 be a7 1e 2f bd 3b ee 4a be
       -0.0074264477 -0.2821966 -0.04275384 -0.1981744
000230 0f e0 e1 bd 87 8b 7d bc dc 9d de 3c a1 40 9a be
       -0.11029064 -0.01547516 0.027174883 -0.30127433
000240 f9 ac 6b 3d ac cb 13 3e aa 09 81 bd 91 1f aa be
       0.057538006 0.14433163 -0.063006714 -0.33227208
000250 2a 48 60 3d aa 6d 6d be e2 bb 0f 3c 75 51 62 be
       0.05475632 -0.23186365 0.008772822 -0.22101386
000260 d1 07 d4 bc 26 68 eb be eb 7a a1 3d f3 8c fa bd
       -0.025882633 -0.45977896 0.07884773 -0.12233915
000270 2d 1e 91 be a0 6b 82 be 13 fd 51 be 9d 08 65 be
       -0.28343335 -0.25472736 -0.20506696 -0.22366567
000280 b7 14 15 bd bf 04 a8 be b5 53 8a be 66 c5 67 be
       -0.03639671 -0.3281612 -0.27016988 -0.22633895
000290 11 ef 70 be 5a 25 33 be de a9 2c bd 96 5e ec 3a
       -0.23528697 -0.17494717 -0.042154185 0.001803356
0002a0 76 e4 ed 3b eb b7 7b be 00 5a 96 bd 3a a7 22 be
       0.0072599007 -0.24581878 -0.07341385 -0.15884104
0002b0 f6 08 95 be 84 46 44 be 73 00 87 3d 31 71 76 be
       -0.291084 -0.19167525 0.065918826 -0.24066617
0002c0 67 af 59 be 73 ce cb 3d 30 09 ae be c6 c1 94 bd
       -0.21258317 0.099514864 -0.33991385 -0.07263522
0002d0 c9 c6 93 be 08 da 97 bb 99 80 3a bd 7a ec ce bc
       -0.288626 -0.0046341456 -0.045532797 -0.025259245
0002e0 d1 a8 38 be 4f cb 9e be 9a a7 49 3c b5 0b 61 be
       -0.18033148 -0.31014487 0.012308026 -0.21977122
0002f0 f1 5f 33 3a b4 1a 71 be 8e c0 7f be 80 9d 82 3d
       0.00068426045 -0.23545343 -0.24975798 0.06377697
000300 45 b8 84 bd 8b 52 6d be 90 69 a3 bc 35 3b 32 be
       -0.06480459 -0.23176019 -0.019947797 -0.17405398
000310 a5 f5 87 be ce c5 54 be 9c 22 5f be f4 e2 9c be
       -0.265546 -0.20778582 -0.21790546 -0.30641901

hidden2_Y1.weight f4 [200, 200]
000000 96 98 63 bd c6 bb 68 3d d9 c8 8e 3c c2 4a 05 3e
       -0.05556544 0.0568197 0.017429756 0.13016799
000010 b4 e1 39 3d 8a 5e e2 3d 40 30 ca bd 1b 77 12 3e
       0.045381263 0.11053188 -0.09872484 0.14303248
000020 c7 41 64 bd c6 2a 33 be 00 31 a2 bd ea 4b fa 3d
       -0.055726793 -0.17496786 -0.07919502 0.12221511
000030 64 c8 d2 3d a4 62 b0 bd 2e 6a 9b bd 0c 48 b6 bd
       0.10292128 -0.08612564 -0.075886115 -0.089004606
000040 ff 29 3e bc 41 74 59 be 65 d6 55 be bc ee 41 bd
       -0.011606692 -0.21235754 -0.20882566 -0.047346815
000050 ff 3b 74 be bf 48 b6 3d 27 31 82 bd e0 c1 5b bd
       -0.23851012 0.08900594 -0.06357031 -0.05365169
000060 19 84 23 bd d3 96 bd 3d 57 2f ac 3c aa ab a5 3c
       -0.0399209 0.09257283 0.021018667 0.020223457
000070 1c 66 a7 3d bd 46 83 bd e7 97 b5 bd 66 28 34 be
       0.08173773 -0.06409977 -0.08866864 -0.17593536
000080 d0 b1 d4 be 7c 32 65 bd 57 77 bc be 23 b0 1e be
       -0.4154191 -0.05595635 -0.368098 -0.15496878
000090 fc 4f 64 be f0 9c 4c bc 15 98 a3 bd 65 f0 98 3d
       -0.22296137 -0.012488589 -0.07987992 0.074677266
0000a0 97 0d fb bd 47 04 23 3e c2 fe 3b 3d f9 50 e3 3c
       -0.122584514 0.159196 0.045897253 0.027748572
0000b0 b5 7d 8f bc 26 ab a8 3c 7e 7a 14 3e cc e7 8f bd
       -0.017515996 0.020589422 0.14499852 -0.070266336
0000c0 6d 7c 3c be c6 1c e1 bc 56 e2 5d 3d 1d 6a 0c be
       -0.1840684 -0.02747954 0.05417093 -0.13712354
0000d0 40 b3 55 bd 00 7c 27 3e 87 21 41 bd d0 c2 25 be
       -0.0521729 0.16355896 -0.047151115 -0.16187596
0000e0 ac 3d 9b bd 71 17 c2 bd 9b 8e c6 bd 48 6b 37 be
       -0.07580122 -0.09477127 -0.096951686 -0.17912018
0000f0 c2 e9 d5 bc 1c fa 27 bd e5 b6 ae bd 18 7d cb bd
       -0.026112441 -0.041010007 -0.08530978 -0.09935969
000100 48 24 3c bd f3 3b f3 bc 35 ff cb 3c 63 92 f2 bb
       -0.045933038 -0.029691672 0.024901966 -0.0074027046
000110 2e f0 1f bd e0 60 eb 3c 95 f1 ec 3b 77 d4 00 be
       -0.039047413 0.028732717 0.0072309473 -0.12581049
000120 4d ae 40 3d 4e 13 45 bd fd 08 d1 3c 08 53 0e be
       0.047041226 -0.048114114 0.025516981 -0.13898861
000130 14 92 cf bd 64 51 32 3e 0e bb dd bd 98 4f 53 3d
       -0.10135284 0.1741386 -0.108266935 0.05158958
000140 d9 a9 84 bc e6 42 fe bd 66 77 c8 3c 81 81 dd 3c
       -0.01619427 -0.124151036 0.024470996 0.027039291
000150 b8 5c 37 3a 49 7f 2d 3e f9 95 a8 bd d7 5c ce bc
       0.0006994712 0.16943087 -0.0823173 -0.025190754
000160 5e 8c f7 bd 0b c1 45 be cd d4 b7 3c f0 36 6d 3d
       -0.1208732 -0.19311921 0.022440339 0.05791372
000170 32 c0 79 3e b7 8b cb ba 57 dd 23 3e 86 57 23 bd
       0.24389723 -0.0015529309 0.16002403 -0.03987839
000180 45 c8 cf 3d bb a4 98 3d fd da c7 3d cf 5c 8f 3d
       0.1014562 0.07453295 0.097585656 0.07000124
000190 ae ef 42 bd c8 27 7d 3d dc 4b 37 3c 3b 3e a0 be
       -0.047591858 0.061805516 0.01118752 -0.31297478
0001a0 35 75 bd bd 38 64 12 bd 55 07 94 bd 95 78 c4 bd
       -0.09250871 -0.035740107 -0.07227961 -0.09593312
0001b0 9b ed fb bd 96 ae ed bc 3f 63 8a 3c 83 94 63 3d
       -0.12301179 -0.029013913 0.016893027 0.055561554
0001c0 02 eb af bd bd fb 86 bd 2e d8 28 bd 0f f0 1a be
       -0.08589746 -0.06590984 -0.04122179 -0.15130638
0001d0 da 43 1a bc 27 dd 26 be fa a7 93 3d cc 76 87 3c
       -0.009415591 -0.162953 0.07209773 0.016536139
0001e0 f4 87 15 bd ac 0d 25 be 67 ee 02 bc 79 1b 90 bd
       -0.036506608 -0.16118497 -0.00799141 -0.0703649
0001f0 f4 0f a9 bd 14 b7 a4 bd ee 1a db bd c6 79 ad 3d
       -0.08254996 -0.08042732 -0.10698496 0.08470492
000200 4a 3f 8b bd 4f f1 2f bd c0 24 0d be 8b 94 53 3d
       -0.06799181 -0.04295474 -0.1378355 0.051655333
000210 ed fd b8 3d 31 81 72 bd c2 78 bc bd fd fb 8a 3c
       0.090328075 -0.059205238 -0.0920272 0.01696586
000220 2d 5b e3 b9 e6 1a cc bc d3 f4 97 bd b1 fb 83 bd
       -0.00043364745 -0.02491517 -0.074197434 -0.06444491
000230 06 c1 2d 3d 76 b3 5a 3c b6 89 ad 3c 17 4e 12 3d
       0.04242041 0.013348451 0.02118383 0.035719004
000240 d2 be 45 bd a5 50 c7 bc c3 5a 5a be d7 52 41 be
       -0.048277684 -0.024330446 -0.21323685 -0.18879257
000250 eb e6 85 bd a1 e1 1c be 18 8d b5 3d 24 1f 05 3d
       -0.06538185 -0.15320446 0.08864802 0.0325004
000260 33 30 de ba 12 86 dc bd 4f b8 14 be 40 57 83 3d
       -0.001695162 -0.107677594 -0.14523433 0.06413126
000270 b6 42 88 3c cf dd 3d 3d e5 4a 9f bd 8f f1 32 bd
       0.016633373 0.04635411 -0.07777957 -0.0436874
000280 26 14 27 be 15 d3 b1 bd 96 b0 b6 bc af b5 e1 3d
       -0.1631628 -0.08682839 -0.022301 0.110209815
000290 4a ce 78 bc 0e f1 a9 bd 55 f6 8a bb 51 16 b7 bc
       -0.015185902 -0.08297931 -0.004240791 -0.022349508
0002a0 42 c6 7d 3d b3 ab 41 3c 8a ba fb bc 1d dc 4a bd
       0.06195665 0.011820721 -0.030728597 -0.049526323
0002b0 35 1c 2b bd 4b 5f 2c be ac 35 ef bc 78 27 e0 bd
       -0.041774947 -0.16833226 -0.029200397 -0.10945028
0002c0 ff 3b ef 3c 8e 1c 0b be 5b db 29 be f9 47 54 be
       0.029203413 -0.13585111 -0.16587584 -0.2073058
0002d0 cd 16 34 3d 5f 24 d3 bd 93 13 ac 3b e1 7d 18 be
       0.043967057 -0.103096716 0.005251357 -0.14891769
0002e0 c4 8a c9 3c 0e a3 a3 bd 35 17 8f bd 24 ac 4a bd
       0.024602301 -0.079900846 -0.06986848 -0.049480572
0002f0 fe 72 ec 3d 69 25 bb bd 3f 0f 1f 3c 85 18 83 bd
       0.115453705 -0.09137995 0.009708225 -0.06401161
000300 22 f7 40 3d 68 7d c4 bd fd d3 6a bd ca 69 df bd
       0.047110684 -0.09594232 -0.057331074 -0.109088495
000310 8e 6e 9a bc ea 26 c0 3a 79 02 23 bd a7 21 db 3d
       -0.018851545 0.0014660035 -0.03979728 0.10699778
000320 ee 4c 2e 3e e3 01 19 be 9f 10 6c bd e3 cc b8 bd
       0.17021534 -0.14942126 -0.05763304 -0.09023454
000330 be d8 5b bd 91 af 2d 3d 6e b6 87 bc 0d 0a 9a 3d
       -0.0536735 0.04240376 -0.016566481 0.07521448
000340 d7 3e 36 be 0d 00 c2 bd 74 94 fe bd b6 db ee bd
       -0.17797409 -0.09472666 -0.12430659 -0.11663
000350 60 5c ec bc 74 1d a1 bd 9c 8d f2 bd ff 32 4e 3d
       -0.028852642 -0.07866946 -0.11843416 0.050341602
000360 ac b1 c3 bd 19 a9 01 bc 9d fd f5 bd 4a 02 ad bd
       -0.095553726 -0.007913851 -0.120112635 -0.08447702
000370 dd e6 ef bd 33 c9 82 bc 8f 7c 06 bd 43 e6 e4 bd
       -0.117139556 -0.01596508 -0.032833632 -0.111767314
000380 d4 af 2c 3d 4b 79 94 bd f1 4b 15 3d 1f 00 2d 3d
       0.04215987 -0.07249697 0.036449376 0.042236444
000390 70 27 43 3d 82 c5 cf bd ca 4e 66 3d f0 b8 81 3c
       0.047645032 -0.101450935 0.056227483 0.015835255
0003a0 9d 21 39 be 85 9c d8 bd dc e7 d9 bd 77 02 2a be
       -0.18079229 -0.10576729 -0.10639927 -0.16602503
0003b0 ab 7f b1 3d ac 1e 86 3c 32 38 86 3d 17 dd 96 bd
       0.08666929 0.016372047 0.06553687 -0.07366388
0003c0 11 d8 a0 bc ca 78 f2 bd 4f 65 80 3b a2 f2 82 bc
       -0.019634278 -0.11839445 0.003918327 -0.015984837
0003d0 d1 29 44 bd bf a2 f6 bd 3c 3e a3 3d 0f 80 b6 bc
       -0.04789144 -0.1204276 0.07970855 -0.02227786
0003e0 28 40 11 be dc b3 0a 3d 75 cf 7c bd c8 38 8b bd
       -0.1418463 0.033862934 -0.061721284 -0.067979395
0003f0 ae 54 83 bd f1 8f 43 3c c0 af d5 bd 40 7f d4 bd
       -0.06412636 0.011936174 -0.10433912 -0.103758335

hidden2_Y1.bias f4 [200]
000000 96 3d 6d be cc 4c 58 be 47 69 67 be b4 78 2b 3e
       -0.23168024 -0.21123046 -0.22598754 0.16745263
000010 a6 97 3c be b0 ae 8b 3d ba 64 6d be 8a 2c a0 3e
       -0.18417224 0.06820428 -0.23182955 0.3128398
000020 be 92 45 be 9c 04 83 be fd f9 fe 3d 31 e1 c2 be
       -0.19294259 -0.25589454 0.12450025 -0.38062432
000030 5b a8 b7 3d 4c d2 46 be 18 b2 3a be 76 f8 12 3d
       0.08967658 -0.1941616 -0.18232 0.035881482
000040 19 66 8f be 5d a2 e5 3e 02 62 f1 be cc 0d 5c 3b
       -0.28007582 0.44850436 -0.47145087 0.003357756
000050 de 44 39 be 7c f6 3a be 31 dd 65 3c 4a 30 1c bb
       -0.18092677 -0.18258089 0.014029787 -0.0023832493
000060 5a ca 80 3e 91 57 f3 3c 2b 46 b6 3e e3 4b 74 be
       0.25154382 0.02970484 0.3560041 -0.23857073
000070 57 3a c3 bd da 1b 4e be 6f 6f 2b be cb 98 47 be
       -0.09532612 -0.20127812 -0.16741727 -0.1949188
000080 b8 e9 6f 3d 6c cc d2 bd ac 45 2e be 9e d7 eb bd
       0.0585725 -0.10292897 -0.17018765 -0.11515735
000090 c7 86 b0 bd 27 f3 c4 bd f8 90 5c be 6e b3 0c 3e
       -0.08619457 -0.0961669 -0.21539676 0.13740322
0000a0 98 52 d9 3e 70 9f f6 3e 12 22 12 3d ca 13 2b be
       0.42445827 0.48168516 0.035677023 -0.16706768
0000b0 f9 55 48 be 70 e1 17 3e a4 d9 91 be 89 e7 72 be
       -0.19564046 0.14832091 -0.2848636 -0.23721136
0000c0 9c 73 44 be ee 03 96 3e bd d0 16 be 5f 97 df 3c
       -0.19184726 0.29299873 -0.14728065 0.027293859
0000d0 b9 c8 35 be 4d ee f5 3d 5c 88 58 3e a9 de 80 3d
       -0.17752351 0.12008343 0.21145767 0.06292469
0000e0 2e 57 a2 be b6 da 99 be 9d da 8e be 01 9f 91 be
       -0.31707138 -0.30049676 -0.27901164 -0.28441623
0000f0 b2 18 88 be e6 05 13 3f fb 2e 41 3d df 77 9e 3e
       -0.2658134 0.57430875 0.047163945 0.3095083
000100 2d 5a 07 be c0 ba 67 be 47 ef 58 be 42 dd b3 be
       -0.13217993 -0.22629833 -0.21185027 -0.35129744
000110 d4 a3 48 be 25 07 22 be d3 1d 07 be 05 6b 05 be
       -0.19593745 -0.15823038 -0.13194971 -0.13029106
000120 dc 21 03 be eb 6b 83 3e 5f 31 70 bd 85 a6 3d be
       -0.12805885 0.25668272 -0.058640834 -0.18520553
000130 23 ea e5 bc a2 6f 7d be 14 99 1f be a9 b6 d5 bc
       -0.028065747 -0.24749616 -0.15585738 -0.026088076
000140 15 b2 97 bd 49 55 99 bd e0 b6 82 be cb 8b 0d 3e
       -0.07407013 -0.0748697 -0.25530148 0.13822858
000150 e5 9c c2 bd 95 c9 23 be 2b 2b 12 3c 5f 08 87 be
       -0.095025815 -0.15994866 0.008921425 -0.26373574
000160 1a 0b 1e be 33 45 05 be eb 59 5f be 92 13 7f be
       -0.15433922 -0.13014679 -0.21811645 -0.24909809
000170 79 08 7e 3e 1c 6a 9f be 1f 3a 1f be 43 7c 0a 3d
       0.2480792 -0.31135643 -0.15549515 0.03380991
000180 b8 72 bc bc e6 5a a7 3e a6 4c 89 be 3c 63 d3 3d
       -0.02300392 0.32686538 -0.2681629 0.10321662
000190 79 a7 03 3f 45 cb 2e be 39 eb 6d be 64 06 8a be
       0.5142742 -0.17069729 -0.23234262 -0.26958
0001a0 02 af 77 be 19 ba 82 be 5a 05 73 3c 20 8b 96 be
       -0.24187854 -0.25532606 0.014832819 -0.2940302
0001b0 94 91 4f be 3f 92 84 bd b1 92 e8 bd c4 cf 2a be
       -0.20270377 -0.06473207 -0.11356104 -0.16680819
0001c0 16 1d 58 be 19 d5 42 be 29 a4 4e be b6 b5 6a be
       -0.21104845 -0.19026603 -0.2017981 -0.2292088
0001d0 62 b6 00 3e e8 9a 87 be 47 09 57 3e a7 51 b3 be
       0.12569574 -0.26485372 0.20999633 -0.35023233
0001e0 b7 75 d4 be 2a 2f 2f 3f 71 9e 38 be d5 ad 59 3e
       -0.4149606 0.6843134 -0.1802919 0.21257718
0001f0 3a ca 61 be 97 5e 12 be 66 bf a3 bd ff e1 4f 3c
       -0.220498 -0.14293896 -0.07995491 0.012688159
000200 0e fa 17 be 1f 75 90 3e 11 61 89 bc b3 f4 e0 be
       -0.14841482 0.28214356 -0.016769918 -0.4393669
000210 da eb 57 be fd 1a b0 3d 4c ce a4 be db 67 83 be
       -0.21086064 0.085988976 -0.32188642 -0.25665173
000220 02 3f 59 be f7 48 5d bd f1 91 c9 be a0 2c 53 be
       -0.21215442 -0.054024663 -0.39369157 -0.20622492
000230 ee f4 af be 6a 16 10 be 98 fa 71 be 9d b7 dc 3d
       -0.34366554 -0.1407105 -0.2363075 0.10777209
000240 e1 0c 7e be f7 c0 1a be b1 a4 50 be 89 65 04 3d
       -0.248096 -0.15112673 -0.20375325 0.032323394
000250 5d 32 ab 3e 9e cb 93 be 8b 5c 7d be 3a 64 97 be
       0.33436862 -0.28866285 -0.24742334 -0.29568654
000260 11 ac 82 be a3 72 75 be 1b 19 f0 bd be d6 fd bd
       -0.255219 -0.23969512 -0.117235385 -0.123944744
000270 0f c3 99 bd 40 21 84 3d 29 c4 b3 be 31 6d 18 be
       -0.075079076 0.064516544 -0.35110596 -0.14885403
000280 74 e1 56 be b4 ff 1d 3e d4 74 2c be 22 58 d5 bc
       -0.20984441 0.15429574 -0.16841441 -0.026043002
000290 8f 66 0e be 59 ce a0 be cb 2f 44 be 1c 23 9d be
       -0.1390631 -0.3140743 -0.19158857 -0.3069085
0002a0 1f 27 15 3e 2b c7 bd 3d 20 b2 94 3e 10 d3 81 be
       0.14565705 0.09266504 0.2904215 -0.2535634
0002b0 1b bb fe be 3a c8 04 3e 70 10 e3 3e 89 5a a9 3c
       -0.49752125 0.12967005 0.44348478 0.020673053
0002c0 ea 0d cd bd 74 ec 13 be 9d d8 a1 be 4e 66 e7 3e
       -0.100124195 -0.14445668 -0.31610575 0.4519524
0002d0 78 90 9d bc a7 f0 77 be 7f 69 4b be 3e 85 fe bd
       -0.019233927 -0.24212895 -0.19864462 -0.12427758
0002e0 85 eb 27 3e ec 88 89 3e 39 6f 52 bd 9a 45 16 bc
       0.16398437 0.26862276 -0.0513756 -0.009171868
0002f0 ba fd 73 3d 63 ad bb be 10 21 bc be 13 41 10 be
       0.059568144 -0.3665572 -0.36743975 -0.14087324
000300 b8 ed 97 3e 42 8c 2b be 17 10 11 be 44 8d 31 bd
       0.29673553 -0.16752723 -0.14166294 -0.043347612
000310 88 71 12 bd 77 fb 5c be 11 6d 8f be 07 66 c9 be
       -0.035752803 -0.21580301 -0.280129 -0.39335653
