DCNModel/DCN_PD_NN_Models/NN_DCN_model_iter_id_63_epoch_100_lr_0.001.pth (torch_old, 828782 bytes, 14 tensors)

shared1.weight f4 [200, 25]
00000000: 2f7c 0b3e a9a9 b23d 5ab9 113e 0706 6a3d
00000010: d922 033c 2d7d 683e e04c 7dbe e88e b83d
00000020: faa3 07be dba9 babd f655 ae3d f343 43bd
00000030: 73ed c13d 0bb7 0abd a29a a13e ccf1 53be
00000040: b5be 0a3e 999e 9abe c307 96bb 7472 683e
00000050: 48d6 9a3d 5bb0 50be d4fb 01be eed7 593e
00000060: 0d97 d8be c0b8 133d d6cd 303d 6b32 353d
00000070: 9b54 7abd 94e8 0abd cd85 30bd 09bd f0bb
00000080: 12fd 933d d307 cebd 821a 13be 8f0a c2bc
00000090: 9efe 403e cc84 c23d 53fb 4cbe e5f0 3f3d
000000a0: 63b0 0bbe 8b4d 3cbe f3ba d1bb 2e95 c63c
000000b0: ca55 28be 46ed 91bd 3eff e1bd 6e30 e63d
000000c0: fb68 54bd 355d e43d 269d 893d 1c83 efbd
000000d0: 596e b63d 2af4 d73d ab02 debd e833 b03c
000000e0: bb88 113d b1d4 3f3e fbe5 813d 17c1 3d3d
000000f0: ed95 debe cf7a 0d3d 75d9 153e 5166 94bc
00000100: 065c aebc 6489 93be 5dd3 19be ddd6 42be
00000110: 3f93 473e 853c 9e3e 28e8 993d 9622 7bbd
00000120: 2026 39be 1998 a2be 3992 abbc ff79 53bd
00000130: 79c1 edbc c402 85bd 25eb 9dbd e574 003c
00000140: 7ebe 063d 5c92 873b 04de fdbd 6577 c5ba
00000150: 7151 66bd f49a 82bc e797 7b3c d795 42bd
00000160: 4998 37be 399e 89bd 53e2 0abe cb24 95bc
00000170: 5f7e b53c 223d 21be 8adf c73d a087 863c
00000180: f0c2 eb3d b197 ecbd dc0f 37bd 9d39 153d
00000190: 2f4b f9bc dadc 543e f25c f8bd ebe0 1c3e
000001a0: 4a34 363e b82b 84be 144c 9b39 c404 a0bd
000001b0: 435a e9bd 5ac9 c53d d170 e0bd 1d78 b1bd
000001c0: ac54 8cbd 8777 4bbe 9841 9e3d d5f7 98be
000001d0: 39b5 66be 02fd 413d 9b88 81be 9d3a 5d3e
000001e0: 0601 013e 13db 92be 7dec a73d 5136 afbe
000001f0: 916d 76be a2ae 6d3e 008d d2bd 0f53 55bd
00000200: 58a9 3bbe 25b5 3cbd 98e3 69bd 859c 0e3e
00000210: f444 82be 1135 6c3e 6e96 19bd 9079 a2bb
00000220: e5ef 813e 0a96 8fbd 72f0 38be cb02 403c
00000230: 1c94 4bba 30ce 72be 20ee 30bd 9fa6 b83d
00000240: 2e48 8fbe 354f 12be 55d4 b73e cf4b 263e
00000250: 5ecf dabd 1be3 823d 9708 f4bd c6c3 283d
00000260: 8cc7 9a3c 024a e03d 9847 cebd 7fed 55be
00000270: 71b3 26be 5783 933e fce4 3c3e b053 ccbd
00000280: 3036 69bc d579 2abe da77 433e de4e 17be
00000290: 934a 0cba 7733 5ebe 9474 0abe a19d 04be
000002a0: 7d1a fbbd 5a95 d2bc c6af c2ba 2192 073e
000002b0: ca0a 183d e2ad 4e3d 55a3 bbbd a9bf 17bc
000002c0: 1273 d23b d3c6 be3d a283 85bd af52 763d
000002d0: a4de a6bd c6b9 ab3d ffc6 a2bd 193c bcbc
000002e0: 332d acbd 6397 84bd b1f5 963d 4d4b 623b
000002f0: 9f40 48be b595 af3b 4980 f1bd 9dbe 88bd
00000300: 6379 273d 69c1 103d 3f0d bfbd 4552 13bd
00000310: b961 fabd 0799 873d 3845 fabb e270 4ebd
00000320: 3aac 90bd 4881 7c3e 0547 303c ff9c 82bc
00000330: df1d 64bd 63c3 0bbe 72ae 34bd 7274 7fbe
00000340: a10d f7be 71bd 033d 3cf1 3dbe 49ef 07bd
00000350: a7d1 ce3d 6af9 bebd 2661 f43d 0e7a 6a3d
00000360: 22df acbe 92a2 39be 88a5 bdbe f2c2 a0be
00000370: d240 efbc bdde 503e c61a 293e 7082 a4be
00000380: d76c a13e 38ef 273e 1949 84bd 00b5 a03d
00000390: f14e b73d b443 0a3d 6d1f c1bd 8295 4fbd
000003a0: caca 34bc c200 debc d717 f03d 6245 e53c
000003b0: 87a7 b13d e8e3 59be f3a8 bdbd 9108 963d
000003c0: 6441 0bbe aeda 61be 670c d9bd 5091 debd
000003d0: dfa2 afbd beb8 acbd d1d6 1dbc 366e 15bc
000003e0: a502 08bc f7da f53c d09a 56bd 697c 9b3d
000003f0: 7f6b 753d f27e a13d 0adb dabc 6d00 79bb
0.13621591 0.08723766 0.14230862 0.057134654 0.008003914 0.22704001 -0.24736357 0.09011632
-0.13246146 -0.091144286 0.085124895 -0.047672223 0.09469118 -0.03386597 0.31563288 -0.20697707
0.13549311 -0.30199125 -0.004578562 0.2269991 0.07560402 -0.20379774 -0.12693721 0.21273777
-0.42302743 0.036064863 0.04316505 0.044237535 -0.061115842 -0.03391321 -0.043096352 -0.0073467535
0.07226004 -0.10060086 -0.1436558 -0.023686675 0.18847129 0.09497985 -0.20017748 0.046860594
-0.13641505 -0.18388955 -0.00640046 0.024241056 -0.16438976 -0.071253344 -0.11035012 0.11239706
-0.05185793 0.1115059 0.06719427 -0.11694929 0.08907766 0.105446175 -0.108403526 0.021509126
0.035530787 0.18733479 0.063426934 0.046326723 -0.4347376 0.034540948 0.14633735 -0.018115195
-0.021284115 -0.28815758 -0.15022035 -0.19027276 0.19489764 0.30905548 0.075149834 -0.06131228
-0.1808095 -0.31756666 -0.020943748 -0.051630016 -0.029022919 -0.06494668 -0.07710866 0.00784037
0.03289651 0.0041373204 -0.12395862 -0.001506549 -0.056230012 -0.015943028 0.015356041 -0.04750618
-0.17929186 -0.06719632 -0.13562898 -0.01820602 0.022154985 -0.15745977 0.097594336 0.016422093
0.11511791 -0.1155237 -0.04469286 0.036431897 -0.030431358 0.20787373 -0.12127103 0.15320174
0.17793384 -0.25814605 0.00029620586 -0.07813409 -0.11394169 0.096575454 -0.10959018 -0.08665488
-0.068520874 -0.19869815 0.07727355 -0.2987658 -0.22530068 0.047360428 -0.25299534 0.2160439
0.12598047 -0.28682765 0.081994034 -0.34221128 -0.24065234 0.23211148 -0.102808 -0.052081164
-0.18326318 -0.04607119 -0.057101816 0.13926895 -0.25443232 0.23067118 -0.037496977 -0.004958339
0.25378338 -0.070110396 -0.18060473 0.011719416 -0.00077659055 -0.23711467 -0.043195844 0.090161555
-0.27984756 -0.14288028 0.35904184 0.16239856 -0.106840834 0.06390973 -0.11915701 0.04120233
0.01889398 0.10951616 -0.10072249 -0.20891379 -0.16279389 0.28811142 0.18446726 -0.099768996
-0.014234111 -0.16648038 0.19088688 -0.14776179 -0.00053516886 -0.2169932 -0.13521034 -0.12950756
-0.122609116 -0.025705982 -0.001485341 0.13239338 0.037119664 0.050458796 -0.091620125 -0.009262004
0.006422409 0.093152665 -0.065192476 0.060137447 -0.08147934 0.08385043 -0.07948112 -0.022977876
-0.084070586 -0.06474187 0.07371081 0.0034529746 -0.19555901 0.0053584226 -0.117920466 -0.066769816
0.040887248 0.0353407 -0.09328698 -0.03596713 -0.1222567 0.066209845 -0.007637646 -0.050400622
-0.070640996 0.24658692 0.01075912 -0.015944002 -0.05569255 -0.13648753 -0.044111677 -0.24946764
-0.48252586 0.032163087 -0.18549055 -0.033187184 0.10098582 -0.09324916 0.11932592 0.057245307
-0.33763987 -0.18128422 -0.37040353 -0.3139873 -0.029205713 0.20397468 0.1651412 -0.32130766
0.3152835 0.16399848 -0.06459255 0.07847023 0.08950604 0.033755973 -0.09429822 -0.05067969
-0.011034677 -0.02709997 0.11723297 0.027987186 0.086745314 -0.21278346 -0.0926074 0.07325853
-0.13599163 -0.22056076 -0.10598069 -0.1086756 -0.08575987 -0.08433674 -0.009633736 -0.009120515
-0.008301412 0.030011637 -0.052393734 0.07592089 0.05991697 0.07885541 -0.026715774 -0.0037994639

shared1.bias f4 [200]
00000000: 41f2 90bd 35d7 e0bd d813 25be d852 8ebd
00000010: 2cc1 e2bc 5ce0 ffbd dc29 72bd 9d78 b5bd
00000020: ddf3 cdbd 0d86 02be f17c b1bd 9b7e 44bd
00000030: 556a eabd 739e fdbd 56d7 b4bc 8aac 12be
00000040: 26c3 06be 9a18 a4bd a2d0 c4bd a8a5 0bbe
00000050: 8993 76bd d2cf c6bd 7025 e0bd 47ad 9dbd
00000060: f240 d4bd 0abf 1fbe 6ae3 aabd d9bc a4bd
00000070: 4d57 83bd 3f29 16be 485e e8bd 75f3 bcbd
00000080: 1901 9ebc 9f02 afbd 2852 19be 50c4 15be
00000090: 84e2 01be af02 06be 1438 84bd b7ec 14be
000000a0: 516d 0bbe 87a1 79be cb54 c9bd a345 8bbd
000000b0: b5ff 0fbe 3f71 adbb eb29 62bd 6c42 f9bd
000000c0: 5065 cabd e5b9 e1bd 992d eebd b15a 9ebd
000000d0: 9946 8fbd 679c 2bbe 3f15 24be 0950 adbd
000000e0: cd09 87bd 42da 3ebd b2e8 13be f5f7 d9bd
000000f0: d383 e4bd 9183 19be b9b8 e2bd 22db 00be
00000100: e997 a2bd 7d66 0dbe 8035 1abe b228 fdbd
00000110: 80c4 20be 35e4 e0bd d07f 58bd d133 23be
00000120: e8ed 8dbd c0a9 dbbd b486 f8bd 259f 0fbe
00000130: 7b91 b9bc 675e d2bd 4c20 bbbd 0d5f 49bd
00000140: 5769 a5bd bf3b 0dbd 6d66 f8bc c484 95bd
00000150: 8b59 cfbd 48d3 1cbe a641 f9bc 248e dabd
00000160: 92c3 aebd 5923 2dbe 2ca5 c7bd 525a 19be
00000170: 9af0 d8bd ee7e cbbd 7d73 e6bd ca02 23be
00000180: 1b72 abbc cfe6 03be 9796 f1bd 3df5 f1bd
00000190: 2a8c 1dbe cfa7 f1bd 3561 90bd 0239 24be
000001a0: 63a9 01be c58c b8bd 5d4a febd 00d7 bebd
000001b0: b0e6 34be bb06 a5bd bd01 c8bd 1290 12be
000001c0: a901 e6bd 186b 88bd d0f0 e8bd a12c 16be
000001d0: 2e9e 00be da8d 00be 1755 0dbe 8c3b d3bc
000001e0: 88d3 0ebe 872f 0cbe d457 02be 21c3 d2bd
000001f0: f324 f1bd 785b 0cbe 0cf1 cabd 5929 30be
00000200: f9d3 e8bd e8d8 09be ae9f 22be b6bb d6bd
00000210: 6119 e0bd d6d8 10be 40f4 b0bd a084 f4bd
00000220: e624 c7bd 59e6 d5bd 8353 f2bd 3c76 91bd
00000230: 20fc c6bd 05c0 b2bd a578 aabd b3f0 22be
00000240: 810e 0bbe 3f33 14be ceaf 05be e673 bbbd
00000250: 1afb 30be 34a1 babd 4481 1abe cef1 c4bd
00000260: 2742 04be b1a4 edbd d60a 66bd 6cde 23be
00000270: e249 1bbe 490a f4bd b01c 07be e9d3 fabd
00000280: 3541 a1bd 1d06 24be e37e f8bd 32ae 4cbd
00000290: 9c76 1cbe 2bde a2bd 7c5f 84bd 0911 f6bd
000002a0: 811f f6bd 7a37 c2bd 9537 2ebe ea84 c3bd
000002b0: 227a 07be 8fef f3bd 836c 2cbe 7c7b 0dbe
000002c0: 750c 8bbc 3b72 d1bd aff4 29bd a60b 82bd
000002d0: b8bd 20be c4c9 b5bd 9f26 4abd 5e5b 89bd
000002e0: 454c eebd 58c6 b0bd 855c a9bd c50f 31bc
000002f0: b5f0 0cbe 748d a4bd 7d3a b2bd 51aa 04be
00000300: 1e71 9fbd 7e40 5abd fa39 9fbd c500 bbbd
00000310: 3e41 b1bd e55e 52bd a5fa a7bd 6485 78bd
-0.07077456 -0.109785475 -0.16120851 -0.06949395 -0.027680002 -0.12493965 -0.05912195 -0.08860896
-0.10056279 -0.12746449 -0.08666409 -0.047972303 -0.114460625 -0.123837374 -0.022075336 -0.14323631
-0.1316038 -0.08012505 -0.09610106 -0.13637412 -0.060199294 -0.09707607 -0.10944641 -0.07699066
-0.1036395 -0.1560022 -0.08344157 -0.08043832 -0.06413136 -0.14664172 -0.11346108 -0.09226123
-0.019287633 -0.08545422 -0.14972746 -0.14625669 -0.12684065 -0.13086961 -0.064560086 -0.14543425
-0.1361592 -0.24378024 -0.09830626 -0.068003915 -0.14062388 -0.005293041 -0.055215757 -0.12170872
-0.09882605 -0.11021785 -0.11629791 -0.07732142 -0.06995887 -0.16758882 -0.1602373 -0.08462531
-0.06593666 -0.046594866 -0.14444235 -0.10642997 -0.11157956 -0.14991595 -0.11070389 -0.12583593
-0.07939131 -0.13808627 -0.15059471 -0.12361278 -0.15699959 -0.10981027 -0.052856266 -0.15937735
-0.06930143 -0.107257366 -0.121350676 -0.14025553 -0.022652378 -0.10271912 -0.091370195 -0.049162913
-0.080767326 -0.034480806 -0.030322278 -0.07300714 -0.10124501 -0.15314972 -0.030426811 -0.106716424
-0.08533396 -0.16908015 -0.09748301 -0.1497586 -0.10592766 -0.09936319 -0.112524964 -0.15919033
-0.020928433 -0.12881015 -0.11796301 -0.118143536 -0.153855 -0.11799585 -0.07049791 -0.16037372
-0.12662272 -0.09011225 -0.124165274 -0.09318352 -0.17666125 -0.08057924 -0.097659566 -0.14312771
-0.112307854 -0.066610515 -0.11374056 -0.14665462 -0.12560341 -0.12554112 -0.1380199 -0.02578523
-0.1394788 -0.13690005 -0.12728816 -0.10291124 -0.11774626 -0.13706768 -0.09909257 -0.17203273
-0.113685556 -0.1346165 -0.15881225 -0.10485022 -0.10942341 -0.14145216 -0.08640337 -0.11939359
-0.09723835 -0.10444326 -0.11832335 -0.071026295 -0.09716058 -0.08728031 -0.08323792 -0.15912132
-0.13579752 -0.14472674 -0.13055345 -0.09152965 -0.17283288 -0.09112778 -0.15088373 -0.09616433
-0.1291586 -0.11603678 -0.056162678 -0.16002816 -0.15164903 -0.11916024 -0.13194537 -0.1224745
-0.078737654 -0.16017957 -0.12133577 -0.049970813 -0.15279621 -0.079525314 -0.06463525 -0.12014968
-0.12017728 -0.094832376 -0.1701339 -0.09546836 -0.13230184 -0.119109266 -0.16838269 -0.13816637
-0.016973713 -0.10226866 -0.041493114 -0.06349878 -0.15697372 -0.08876374 -0.04935324 -0.0670688
-0.11635641 -0.08631581 -0.082696 -0.010806982 -0.13763697 -0.080347925 -0.08702562 -0.12955596
-0.07785247 -0.05328416 -0.0777473 -0.09131006 -0.08655022 -0.05136003 -0.082021035 -0.060674086

shared2.weight f4 [200, 200]
00000000: 995f 01be 94a6 943c 7088 ba3c 5897 fa3c
00000010: d506 503d 9507 36be b370 00bc b898 1fbc
00000020: 902c 8aba 755e 2fbe e3b1 6e3d 21d2 14be
00000030: 953d a03c 9059 823d ed47 53bd 6931 ea3c
00000040: f617 1d3c 8909 0fbe 966f 96bd 9239 b1bd
00000050: 0887 8e3d 86d4 25be 09ad 1c3d 56e4 7cbd
00000060: 677e d33d df9c 89bc c1ba 8cbd 2762 d3bd
00000070: 8175 a43c a3fa 70be 283d 29bd 6025 fabd
00000080: 3bb1 b93c b6f4 1b3d 4545 bc3b 4632 1bbe
00000090: b6dc 48bd 9eff 3dbd 2b07 43bd 79c7 2fbd
000000a0: 0ae0 08be 3086 853b 3872 b0bc b655 eb3c
000000b0: d5f0 c1bd 7397 98bd 43cb f83c afa8 0abe
000000c0: f846 9e3d 1b0c 543d eb90 003d d369 e03d
000000d0: 0cfa 52bd 3f52 b8bc bd8e 29be 51ac 66bd
000000e0: b4c4 763d afaf 04be d260 893d c97b 953d
000000f0: 13fb e63d 6e69 00be f48d fcbd 10eb 68b9
00000100: e701 4fbd 2e78 83bd 88f3 45bd ec48 edbd
00000110: 0f28 dcbd acec 61bc 72a8 963d 9c03 d3bd
00000120: bd8a b5bc 38fd 093c 8291 49bd 5550 b03d
00000130: 0232 4c3d 35da e1bd 4082 edbd bd4f de3c
00000140: c63d 02be b823 b23d e49a f5bd 7781 b9bb
00000150: 3e32 a2bc 6ce7 f33c 2219 98bc d27e b0bd
00000160: 2f97 0a3e 4df1 4f3d 1aff b2bd beb0 303d
00000170: 38e1 363d 79bf 923d e926 4b3d 1daf 11be
00000180: aa67 9d3d e815 d33d 355e 55bd 93ae 80bd
00000190: 4f57 b0bd ff1f 30be a461 9dbd 54f5 a9bd
000001a0: ae54 c63c 7036 d5bd 152e 1a3e c1b2 723d
000001b0: fdcf 78bd 8ed4 8ebd 5561 d9bc d6e4 473d
000001c0: 6a3c fb3d 128d a3bd 64ef f83d f5b9 6dbd
000001d0: 1a29 ddbb e9f1 b1bc 9054 af3d 08e3 dabc
000001e0: 9511 e5bd 1ae1 fa3c 5e10 4bbe 75b8 093c
000001f0: d95c 673d bdf9 3bbd 2658 88bd 2958 06bc
00000200: 1ce0 aebd 183f b6bc 91d5 673d 5baa 8ebd
00000210: 0811 2abe 5ffb 4fbd 0b1b 57be 8c9c 84bd
00000220: c822 d0bb 1672 abbd 7826 c5bd 5038 623d
00000230: 0156 0abe 32f5 8bbc f0c4 8d3a ce6f 123d
00000240: f2ee 84bd 5d7a e93d 1517 d9bd ba99 95bd
00000250: d9ad da3d 973a 013e 6128 da3d efce 10be
00000260: 8e9b 08bd b61c aabd c5e6 023c a45c 8ebd
00000270: aea3 3cbe 7d4e a4bd ebcc 2abc 2f67 83bd
00000280: 286e f2bc 6f28 6cba 0d69 bc3d d6fe 9b3b
00000290: e538 40be 191f 43bd 9760 8abd 0e81 2f3d
000002a0: 4d35 1a3d 2912 0c3d 663c 9ebd fd1c 1d3d
000002b0: ea32 5fbd 066b d9bb 9de7 5a3d 6604 783c
000002c0: 8a00 a63d 1763 a6bd 57c4 efbd 6de3 e3bc
000002d0: d6df 0a3e 91c0 de3d 2c4e 41bd fa0c eebd
000002e0: 5377 813d d2cb a93d 6a8a 07bd 0f42 adbd
000002f0: de2b c2bc 9171 573d fb60 c6bd 8ce4 7b3d
00000300: 8e63 643d 88df 1dbd e300 b5bb 1a06 a53d
00000310: 94a9 b23d 9265 23bd 9dca bb3d 766e e6bd
00000320: 755d 18be 9ca7 17bd 7c9c e63c a148 ffbd
00000330: 6eab 16be a3fa adbe 2360 97bc 0ac3 9b3d
00000340: b3c1 e2bd e2d7 66bc e3f7 dc3b 6b6b 0a3e
00000350: ee5e df3d c3b6 68be 7d01 24be 6515 143e
00000360: 1bf0 4ebe db4a 09be 8404 15bc 71f3 1dbe
00000370: d3cc 24be f41e 89bd 0c6c 77bd ab28 b33c
00000380: 82c2 0fbe 1a9b 143d 0c22 993d b8c2 41bd
00000390: 6df3 5dbd e5e3 a5bc 1c53 743d 0bab ae3d
000003a0: 6a23 a1bd ac9f 043d f55c 77bb 03a0 f5bd
000003b0: 8927 dbbc f312 4fbe 0451 1abd 7f13 b3bd
000003c0: 92fc 1d3e 8117 6b3d 82c9 ed3c 6037 c3bb
000003d0: 9612 45bc a61e 54bd 31d3 17be 1f0e e93d
000003e0: 191d 073d 5648 dc3c 1502 ccbd 1d49 543c
000003f0: b4b7 81be 9686 b6bd 9cf3 a6bd c624 8b3c
-0.12634124 0.018145837 0.022770137 0.030589744 0.050787766 -0.1777633 -0.00783937 -0.009741001
-0.0010541845 -0.17125876 0.058275115 -0.14533283 0.019560615 0.06364739 -0.051582266 0.028588014
0.009588232 -0.13968481 -0.07345502 -0.08653559 0.06959349 -0.16194353 0.038250957 -0.061741196
0.10326844 -0.016798435 -0.06871558 -0.103214554 0.020075561 -0.2353311 -0.04131809 -0.1221416
0.022667518 0.03807517 0.0057455623 -0.15155897 -0.04903861 -0.046386354 -0.047614258 -0.04291484
-0.13366714 0.0040748343 -0.021538839 0.028727394 -0.09469763 -0.07450762 0.03037036 -0.1354091
0.0772838 0.051769357 0.031388205 0.10957684 -0.051507995 -0.022500155 -0.16558357 -0.056316677
0.060246184 -0.12957643 0.0670792 0.07299001 0.11278357 -0.12540218 -0.12331763 -0.00022212812
-0.050538924 -0.06419407 -0.048327953 -0.11586174 -0.10749828 -0.013789337 0.07356347 -0.10303423
-0.022160882 0.008422188 -0.049211033 0.08609072 0.04985238 -0.11027948 -0.11597109 0.027137632
-0.12718877 0.08698219 -0.11992434 -0.0056611854 -0.019799348 0.029773436 -0.018566672 -0.08617939
0.13534234 0.05076723 -0.08740063 0.043137304 0.04464838 0.07165427 0.049597654 -0.14226957
0.07685788 0.10306913 -0.052091796 -0.062832974 -0.08610403 -0.17199706 -0.07684639 -0.08298746
0.0242103 -0.10410774 0.15056641 0.059252504 -0.060745228 -0.06974135 -0.02653567 0.04880222
0.122673824 -0.079858914 0.12155035 -0.05803867 -0.0067492845 -0.021721797 0.08561051 -0.026719585
-0.11184994 0.030624915 -0.19830462 0.008405794 0.05648503 -0.045892466 -0.06657438 -0.00819973
-0.08538839 -0.022246882 0.056600157 -0.069660865 -0.1660806 -0.050776836 -0.2100641 -0.064751714
-0.0063518025 -0.083713695 -0.09626478 0.055229485 -0.1350937 -0.017084692 0.0010816138 0.035751157
-0.06490888 0.11400292 -0.10600106 -0.07304712 0.1067769 0.12620007 0.10652233 -0.14141439
-0.033351474 -0.083062574 0.00798959 -0.069512635 -0.18421814 -0.08022783 -0.010424833 -0.06416165
-0.029593542 -0.00090087106 0.09199724 0.0047606034 -0.18771704 -0.04763708 -0.06756704 0.042847686
0.037648488 0.034197006 -0.07726364 0.038357724 -0.054491915 -0.0066350726 0.05344354 0.015137767
0.081055716 -0.08124369 -0.11707371 -0.027818406 0.13561949 0.10876573 -0.04719369 -0.11623569
0.063215874 0.08290829 -0.033090986 -0.08459865 -0.023702558 0.05259854 -0.09686466 0.061497256
0.055759005 -0.038543254 -0.0055237873 0.080578044 0.08723751 -0.039891787 0.09169505 -0.112515375
-0.14879401 -0.03702508 0.02815079 -0.12465025 -0.14713833 -0.33980283 -0.018478459 0.0760556
-0.110721014 -0.014089556 0.0067434176 0.13517539 0.10906778 -0.22725968 -0.16016193 0.14461286
-0.2020878 -0.13407461 -0.009095315 -0.15424897 -0.16093759 -0.06695357 -0.060405776 0.021869978
-0.14039043 0.03628073 0.07477197 -0.04730484 -0.054187227 -0.02025027 0.05964957 0.085287176
-0.07868083 0.032378837 -0.0037744616 -0.119934104 -0.02675225 -0.20222072 -0.03767492 -0.08743953
0.15428379 0.057395462 0.02902675 -0.005957529 -0.012028357 -0.05178704 -0.14826657 0.113796465
0.032986734 0.026889961 -0.099613346 0.012956885 -0.25335467 -0.08912389 -0.081519336 0.016985308

shared2.bias f4 [200]
00000000: 9d44 58be 0765 f1bc 4c0f 04bd 32e6 54bd
00000010: 0861 05be 19a8 0ebe 5bf5 68bd b05e 59be
00000020: f627 2fbe b0e4 f9bd 7ead 77be 243b 6fbe
00000030: a955 4bbe c529 30be a092 063d 3f7c 34be
00000040: 99ce e7bd 65ad e2bd c406 26be 4800 51be
00000050: 5876 67be f187 54bd 3f6a 7ebe 3e76 06be
00000060: 5bd2 38be 38ab 49be 256b 7dbe 07f9 0bbe
00000070: 78c2 ed3d 4e66 9b3d b75c 84bc b54e 35be
00000080: 41df 15be 7795 01be f64f 4dbe ef27 f5bd
00000090: 5e78 14be 1fef 68be e2c4 05be ea9b 11be
000000a0: dac6 1dbe 5019 75bd 5cd2 48bd 2dab aabd
000000b0: 556d 80be 6b6a 89bd 655c 83be 9573 72be
000000c0: a7fc 62be 6051 f1bd 6000 52be 6d88 2dbe
000000d0: 14cf 68bd 16d7 f3bd f031 29be b1d1 74be
000000e0: 7aae 70be 0346 b33c e7f9 73be b31e edbd
000000f0: b632 22be f745 22be a62c f4bd 0a11 35be
00000100: 1c71 e4bd e353 96bd a483 1ebc b18c 6cbe
00000110: 6dd0 553d 911e 85be 340d 5dbe 2569 31be
00000120: 641c 4abe 978e 37be 401a efbd 4f72 6f3d
00000130: 33bc 16be e74c 3cbe b36f 97bd 4d55 7dbe
00000140: 4818 e9bd 539c b1bb 014f 07be f6c7 183d
00000150: 0016 37be edac 66be 8fd2 49be f827 29be
00000160: 995c 2ebe c28a efbc 6a5a 89be 9f0a 21be
00000170: 7ac0 49be 19d8 983c c82a 05be b30e 55be
00000180: ff68 32bd 43bf 49bd 518b 49be ab4c 80be
00000190: baac cebd c01d 04bd c2e2 81bd 532f e3bd
000001a0: 4fba 03be 2fa0 e3bd 3ef6 043e 98d6 1ebe
000001b0: add6 f5bd f01f 3bbd ca84 02bd ba53 67bd
000001c0: b0e8 e5bd f09b c1bd 315e 62be 6547 a8bd
000001d0: e1c6 91bd 04f3 63be 9680 56be ba8a b7bd
000001e0: 5fe6 2dbd f921 913d 818a 65be 4dfe 63be
000001f0: 5954 3abe dfd3 54be e2e3 7cbd c175 3fbe
00000200: 6b9b 85bd 3824 1fbe e4e9 e6bd 6c7d e13c
00000210: 7302 02be bce0 6ebe c93d 5bbe 41e9 11be
00000220: 41f5 39be 5736 1bbe 3741 41be 1a49 7d38
00000230: a968 69bd 18cc 14be 4e9c 27be 534b 44be
00000240: 1ba7 85be aed9 18be 8728 20be c333 86bd
00000250: 9817 36be 577b 9dbd 0379 30be 7b8b 4abe
00000260: 2f69 32be d9cb 1ebe 4067 b2bd b971 8abd
00000270: b24f d4bd 63d3 79be 5e58 813b d490 51be
00000280: a3f7 60be 8423 14bd 1b56 1dbe a51b 5cbe
00000290: b98f 4bbe 8d5e 43be 3014 6ebe 5182 dfbd
000002a0: 8ad1 50be 2c44 8dbe 7ab8 35be ecb8 cbbd
000002b0: b3e7 833d ccb7 53be cc5b 5fbe 0a8b 2bbe
000002c0: f82e 64be d66d cbbd 8776 68be 30f3 0bbe
000002d0: da85 48be 7671 4cbd ef4b 4fbe 5a03 80be
000002e0: 53c4 1fbe 78fc 90bd 7ae5 16bc e773 3dbe
000002f0: 1478 35be ba48 8bbd 2727 03be 0c20 edbd
00000300: 2f59 f7bc 6f0c 9dbd 925c 2abe 6312 1bbe
00000310: a462 9bbd 625c 09be 5e02 af3d 83dd 73be
-0.21119924 -0.029467119 -0.03224115 -0.051977344 -0.13025296 -0.13931312 -0.056874614 -0.21227527
-0.17105088 -0.12201822 -0.24187276 -0.23362404 -0.19856896 -0.17203434 0.032854676 -0.17625521
-0.11318702 -0.11068229 -0.16213518 -0.20410264 -0.22603738 -0.051887456 -0.24845217 -0.13131043
-0.18048994 -0.19694221 -0.24747904 -0.13669215 0.116093576 0.075878724 -0.016157491 -0.17705806
-0.14635946 -0.12654673 -0.20050034 -0.11970507 -0.14499041 -0.22747467 -0.13063386 -0.14219633
-0.15407887 -0.059838593 -0.04902874 -0.083334304 -0.25083414 -0.06709751 -0.2565643 -0.23676904
-0.22166692 -0.11783099 -0.20507956 -0.16946574 -0.05683811 -0.11906259 -0.16522956 -0.23908116
-0.23504058 0.02188397 -0.23825799 -0.11578121 -0.15839657 -0.15847002 -0.119225785 -0.17682281
-0.111543864 -0.07340219 -0.00967494 -0.23100545 0.052200723 -0.25999883 -0.21587068 -0.17325266
-0.19737393 -0.17925487 -0.11674929 0.058458623 -0.1472023 -0.18388711 -0.07394352 -0.24739571
-0.113815844 -0.0054202466 -0.13213731 0.037300073 -0.17879486 -0.22526903 -0.19709228 -0.16519153
-0.1702751 -0.02924097 -0.26826793 -0.15726708 -0.1970233 0.01865773 -0.13004601 -0.20806389
-0.043557163 -0.049254667 -0.19682051 -0.25058493 -0.10091539 -0.032254934 -0.06342079 -0.11093011
-0.1286404 -0.11114537 0.12984559 -0.15511549 -0.12003837 -0.045684755 -0.03186492 -0.056476332
-0.11226022 -0.09453571 -0.22106244 -0.082167424 -0.07118011 -0.22260672 -0.20947489 -0.08962007
-0.042456027 0.07086558 -0.22416116 -0.22264977 -0.18196239 -0.20783947 -0.061740763 -0.18697263
-0.06523784 -0.1554116 -0.1127508 0.027525626 -0.12696247 -0.23327917 -0.21410288 -0.14249136
-0.18159963 -0.15157448 -0.18872534 6.038798e-05 -0.056984577 -0.1453098 -0.1636822 -0.19169359
-0.26104054 -0.14926788 -0.1564046 -0.065528415 -0.17782438 -0.07689541 -0.17233662 -0.1977977
-0.17422937 -0.15507449 -0.087110996 -0.06759972 -0.10366763 -0.24397044 0.003947302 -0.20465404
-0.21969466 -0.036166683 -0.15364878 -0.2149492 -0.19879045 -0.19079037 -0.23249888 -0.10913528
-0.20392433 -0.27591074 -0.17746153 -0.099473804 0.064406775 -0.20675582 -0.21812361 -0.16752258
-0.22283542 -0.09933059 -0.22701465 -0.13666987 -0.1958231 -0.049912892 -0.2024381 -0.25002557
-0.15602235 -0.070794046 -0.009209985 -0.18501244 -0.17721587 -0.06800981 -0.12807904 -0.11578378
-0.030193893 -0.07668387 -0.16636875 -0.15143733 -0.075871736 -0.13414147 0.085453734 -0.23814969

hidden1_Y1.weight f4 [200, 200]
00000000: 9987 653c e43a 3d3c 31b0 8abd 35c6 a63d
00000010: 1236 11bd 30a3 80bc 8761 1dbe 880e ee3d
00000020: 4c36 b2bd a021 d0bd 0e86 483d ec15 b63c
00000030: fcb7 c3bd a414 1bbe 1a00 a1bd 9046 693d
00000040: 5683 0fbe a17a 03bd 5755 5c3d edbd db3d
00000050: 0148 4e3d 4e74 d3bc 8eb3 1b3d 9ce8 9dbc
00000060: 1790 8f3d 1fbe 06be 2c1f 19bd 5b94 3a3b
00000070: 514c 943d 8999 98bd 05e3 b6bd f099 fcbd
00000080: bf0b d03b 0c91 1a3c 2ad3 be3d d5c4 00bd
00000090: f277 07be d0db 33bd d14d afbc b912 ce3d
000000a0: 2d94 e73b a4b4 023e 63e1 c03b 91b1 9abd
000000b0: 427b 9b3d 6bd4 a6bd fdd9 50bc b2c8 e33d
000000c0: a8cd 52bd c11f a73d 16e5 2a3d ee95 3ebd
000000d0: 8fbe 28be 6a53 14be 6076 a6bd 53e4 d0bd
000000e0: 5bf9 0bbe 6a6e cfbc 5e0c a23d 94f5 55bc
000000f0: 204f a63d abb8 d9bd 9deb ad3a f313 97bd
00000100: db86 773d 1fe5 48bd 41fb f73c b751 17be
00000110: f2b9 993d 1f46 28bd ff1d 723b b2ae cd3c
00000120: 24a0 733d d1fe b4bd 40eb e53c 7a35 2a3d
00000130: 086d 84bc f642 19be ae55 963d d2b5 b4bc
00000140: 648b d3bd 9f24 c63b 088b 10be 45fc ad3d
00000150: e529 ba3c a0ab 4abd 80f9 133d bfc6 eebd
00000160: 3b65 12be 4f83 09be d810 b3ba a5de 9b3d
00000170: 7dae 46bc 7929 73bd 9cd3 d23d 8a2f 7d3c
00000180: 66bd a3bd 9f5a 2dbd cec2 adbc abf2 aabd
00000190: ed00 acbb 3f15 b7bd d81f 1abd 6751 b93d
000001a0: 8e75 f83d ed96 8a3d ed5e 1c3c 5d94 413d
000001b0: e970 32be b605 7cbd 7234 813d 4490 c2bd
000001c0: 7255 94bd 31ad d7bd c399 c73d 18a2 67bd
000001d0: 478f 973d 8e7d 283d 183e 4dbd 0678 97bd
000001e0: 9067 cbbd 074f c1bd 03db 573c 8150 91bc
000001f0: 77d6 053e ad08 6abd 8e19 063e b5da 9b3d
00000200: a75b b23d 2940 edbd fefd f5bd d205 e63b
00000210: 8792 1bbe 0752 e5bb 050b ab3c a27d 7d3c
00000220: 9afd 993d 9ff4 e1bd cb20 4abd 42a2 f5bd
00000230: 1aca 2cbe 3e53 1d3d f26a 6e3c cc5d 363d
00000240: 9f7c 2d3d 6fac e6bd 9a6f ab3d 99c1 1dbc
00000250: 2a76 43bd 6299 4c3d e7e5 0cbe e67f da3c
00000260: cdc9 d53a 5a65 a93d a0fc 09be 6800 c1bd
00000270: dd81 f2bd 7e7e cd3b 5a54 793d a1d2 e4bc
00000280: d941 f6bd ba08 53bc 2097 993c b04a d5bd
00000290: 8da8 e8bd ae00 bdbd 0d47 26ba 46cb 05be
000002a0: 7aaf c83d f99c ac3c 7695 053e a4e9 86bd
000002b0: 9806 ab3d 96c4 dc3c ed18 68bd d76d cf3d
000002c0: e121 e4bd 5e97 8bbd f755 783d 4de4 c03c
000002d0: 7f7c 6d3d 7a21 ee3d 550c b63c bbdc 7cbc
000002e0: f477 6cbc 729a 9abc 9b63 ca3d 2784 9e3c
000002f0: 8ea3 403d 774e a2bb 1865 353c 3e48 d0bd
00000300: 1c7c 423d 8557 8cbd 2a7e e63d 48e0 03be
00000310: b842 a6bd 4344 a93c 7d90 a73d 2b83 c83d
00000320: c846 07be a580 04be f53d e5bd c541 9fbd
00000330: c743 353e e083 803e d5fd 6bbc 067d 073d
00000340: 89ff 1f3c 7538 c3bd e315 f5bd 4539 8cbd
00000350: 7877 ad3d 28ad 8abd 1643 313e 9911 edbd
00000360: 6f66 0c3e 5984 923d b4bf b23d 8692 ab3c
00000370: b7e6 a0bd 1ff9 2abe e37f 3fbd e17d 183d
00000380: c22e f53d c598 f33b 8eb7 593e 041f aa3d
00000390: fb8e d7bd 64b0 073e e70a 073e d889 c73e
000003a0: 1f04 4c3c a483 853c c489 3cbe e611 dfbd
000003b0: 46ac a43d 5d5b 543c 8dc3 7c3d cdc8 74bb
000003c0: 93bc 2dbd 6472 d73d eab2 d0bd 7439 93bd
000003d0: 3a59 9abd 7aac 7d3b 79a8 90bb d799 13bd
000003e0: b740 81bd 46f7 45bd cd7e d73c 9000 b1bd
000003f0: 5607 dd3d f783 f8bd 42d5 d53d 9721 793e
0.01400938 0.011549685 -0.06771887 0.08143274 -0.035451956 -0.015702814 -0.15369235 0.11623865
-0.087017626 -0.101626635 0.04895597 0.02222725 -0.095565766 -0.15144593 -0.078613475 0.05695206
-0.14014944 -0.03209937 0.053792324 0.10729585 0.050361637 -0.025812294 0.038013034 -0.019275956
0.07009905 -0.13158463 -0.037383243 0.0028469774 0.07241119 -0.074511595 -0.08930019 -0.12334049
0.0063490565 0.009433996 0.0931762 -0.031437714 -0.1322935 -0.0439108 -0.02139941 0.10062165
0.0070672245 0.12764221 0.005886243 -0.07553399 0.07591869 -0.08145984 -0.012747285 0.11122264
-0.05146566 0.081603535 0.04172238 -0.046529703 -0.16478942 -0.14484945 -0.08128047 -0.101997994
-0.1366934 -0.025321204 0.07912515 -0.013059039 0.08120561 -0.10630926 0.0013269071 -0.07376852
0.060431343 -0.049046632 0.030271174 -0.14777265 0.075061694 -0.041082498 0.0036944149 0.025107715
0.059478894 -0.08837665 0.028066278 0.041554905 -0.016165271 -0.1496695 0.07340561 -0.022059355
-0.10329321 0.006046846 -0.14115536 0.08495382 0.022725055 -0.04948008 0.036126614 -0.116590016
-0.14296429 -0.13428997 -0.0013661636 0.076108254 -0.012126562 -0.059365723 0.102942675 0.015453229
-0.07995109 -0.04232275 -0.021211054 -0.083470665 -0.005249134 -0.08939599 -0.037628025 0.090487294
0.12131797 0.06767068 0.009544116 0.04726063 -0.17425884 -0.061528884 0.06308831 -0.09500173
-0.0724286 -0.105310805 0.097461246 -0.05655107 0.07400375 0.041135363 -0.050108045 -0.073959395
-0.09931862 -0.094389014 0.013174775 -0.017738583 0.13070093 -0.05713718 0.13095686 0.076100744
0.087088875 -0.11584503 -0.12011336 0.007019737 -0.15192614 -0.006998304 0.020879278 0.015471848
0.07519074 -0.11032986 -0.04934768 -0.11993839 -0.1687397 0.038409464 0.014551865 0.044523045
0.042355176 -0.11263358 0.08370896 -0.009628677 -0.047720112 0.049950965 -0.13759576 0.026672315
0.0016310752 0.082712844 -0.13475275 -0.094239056 -0.11841176 0.0062711826 0.06087146 -0.027932467
-0.12024278 -0.012880499 0.01874882 -0.10414636 -0.113602735 -0.09228645 -0.0006342985 -0.13065824
0.097990945 0.021070944 0.13045296 -0.06587532 0.08350867 0.026949208 -0.056664396 0.10128372
-0.111392744 -0.068159804 0.060628857 0.023546362 0.057980057 0.11627479 0.022222677 -0.015433486
-0.014432896 -0.018872473 0.098822795 0.019350125 0.047030978 -0.0049532014 0.011071466 -0.10170029
0.04748164 -0.068526305 0.11254533 -0.12878525 -0.08118194 0.020662433 0.08181856 0.09790643
-0.13210595 -0.12939699 -0.11193458 -0.077762164 0.17701636 0.25100613 -0.01440378 0.033078216
0.009765514 -0.09532253 -0.11967065 -0.06846861 0.084700525 -0.06771308 0.17310748 -0.11575622
0.1371095 0.071541496 0.08727971 0.020943891 -0.07856505 -0.16696595 -0.04675282 0.037229422
0.11971809 0.007433983 0.21261427 0.08306697 -0.10525318 0.13250881 0.13187753 0.38972354
0.012452154 0.016298123 -0.18411928 -0.10892086 0.08040671 0.012961236 0.06170993 -0.0037351132
-0.042416167 0.10519865 -0.10190375 -0.07188693 -0.0753655 0.003870754 -0.0044146148 -0.036035385
-0.063111715 -0.04833152 0.02630558 -0.086426854 0.10792415 -0.12134545 0.10441066 0.2432922

hidden1_Y1.bias f4 [200]
00000000: 34a4 f0bd bd8f f73d f230 183d 5d63 b6bd
00000010: cdc3 19be 5bd2 97bd 64c3 12be d496 60bd
00000020: 70ce 24bb 4271 f53b 9ce7 53bd 5a6f e4bd
00000030: 7b8e be3d 37dc 7b3d e658 f0bd 7188 153e
00000040: c740 473c 2c94 883d eb5e 0b3d d8f3 05be
00000050: 9504 953d 7906 4e3d f62b 923a 7435 f5bd
00000060: 3191 5a3c fc65 babd e44a 903c 6dbc 80bd
00000070: 64fc 4fbd 3d87 18be c363 903d 25fb 003e
00000080: 4032 91bd 5c46 373d 8400 b6bd 2251 23be
00000090: cb01 e9bd cb82 debd 6019 1dbe fa25 babd
000000a0: 1975 e3bd 1e66 aa3c 2840 aebd f6a2 b2bd
000000b0: 8af5 9bbd 9f37 ebbd 49b8 c03d 6546 4abe
000000c0: a55e 08be e80d 3b3e f6d8 96bd 002d c9bd
000000d0: 4b9e b2bc 0cff cabd 4c34 e43b a172 e4bd
000000e0: fde6 fbbd 1f7d 36bd cc96 09be c212 0dbe
000000f0: e314 dabd 183b d6bc 317c 04be 9af6 f7bd
00000100: 0ecc 2c3d 863d f93d 8718 52be 46a3 8cbc
00000110: b9f7 87bd 8bcc b6bc 85dd e6bd 4193 01be
00000120: dea7 1abe 282b a13c 893e 533b fb5b c33c
00000130: eb69 673d 345d acbd ab1e d63d 5f7a 673d
00000140: fd26 14be 24d6 9c3d 8bad bebd 9f14 df3d
00000150: 9538 9fbd 2bbd a4bd 06bb 11be 14be 993b
00000160: 2281 19be 0144 57bd 6ce7 073e 2bcc 01bc
00000170: 4f9f d1bd 87bf b1bd 8655 ba3c 5477 0bbc
00000180: 5918 b43d 89e5 e83c 1317 adbd 79ba 9c3d
00000190: afb5 04be 4686 e63b b2fa 9dbd 27b6 dbbc
000001a0: da88 b1bd ceec a83d decc cf3c 7302 b23b
000001b0: a8be 3e3d 2853 d9bd 5f02 00be 951e 253d
000001c0: 428e a53d 51d6 93bd cdfd 303a 1878 f6bd
000001d0: 09a6 093d bd22 e2bd f732 f9bd 711a 753d
000001e0: 2ffc e4bd 4b1b a63d 4648 0cbe 078e 4e3d
000001f0: 2627 d83d 65f5 51bd 4289 3cbc f9f2 143c
00000200: f907 dabc fd9d 17be 90ca 11bd 3f2a 003c
00000210: 0c95 0d3e bb6c 443d 75dc 05be 84b2 fb3d
00000220: a13a 85bd d05b f03b 1d1f 583d d0a0 213c
00000230: 7d88 eebd 3a80 6fbd 4ae8 e4bd f4ed edbd
00000240: fd84 56bc 5999 d8bd f92c 273d 004c 2a3e
00000250: c93e 733d dc91 a0bd 5404 e7bd 283e e03c
00000260: 35c3 cebd e04e d8bd 7a75 cdbd ce9a c23d
00000270: fec9 bdbd 0954 d3bd 9ee5 b3bd 2567 80bd
00000280: 1183 f6bd 3376 14be 3eef 09be b2db d53d
00000290: 41b4 8f3d 82f8 be3d fea5 16bd 2a3e a2bd
000002a0: 69be e0bd ea90 bbbc b25a 8cbd d995 cabd
000002b0: a591 81bd 6fe9 9dbc c668 1a3b 9f85 df3d
000002c0: 74b8 d0bd 15e0 02be 0d40 46bc ff0b d23d
000002d0: 0527 0dbe 29a4 e2bd f159 593d e7d7 833d
000002e0: 9e83 ae3d 84fb 0cbe 4046 45bc 2a88 4ebd
000002f0: bd14 06bd 917a f6bd 225c 5d3d c94b 71bd
00000300: 03d1 82bd 8419 cabd 0b2f 3fbb 2993 fa3d
00000310: 88de 64bd f1e9 a4bd 54a8 933c dc05 fabd
-0.11750069 0.12087963 0.037156053 -0.08905671 -0.15016098 -0.07413169 -0.14332348 -0.05483134
-0.002514746 0.007490308 -0.05173455 -0.11154051 0.0930452 0.06148931 -0.11735706 0.1460283
0.01216144 0.066688865 0.034026068 -0.130813 0.072762646 0.05029914 0.0011152017 -0.11973086
0.01334028 -0.09101483 0.017613836 -0.06285939 -0.050777808 -0.1489534 0.07050278 0.12595804
-0.070896626 0.044744834 -0.08886817 -0.15948918 -0.11377295 -0.108647905 -0.15341711 -0.09089275
-0.11106319 0.020800646 -0.085083306 -0.087224886 -0.07615192 -0.11485218 0.094101496 -0.19753416
-0.13317354 0.18267024 -0.07365601 -0.09823036 -0.021803996 -0.099119276 0.006964242 -0.11154676
-0.12299917 -0.04455292 -0.1343643 -0.13776687 -0.10648515 -0.026151225 -0.12938 -0.121075824
0.04218679 0.12169938 -0.20517169 -0.017167699 -0.06639046 -0.02231433 -0.1127272 -0.12653829
-0.15103099 0.019673899 0.0032233319 0.02384757 0.056497496 -0.084162146 0.10455068 0.056513187
-0.14467998 0.076580316 -0.093104444 0.10892605 -0.07774464 -0.080438934 -0.142315 0.0046918485
-0.14990667 -0.052555088 0.13271874 -0.007922213 -0.10235464 -0.08679109 0.022745859 -0.008512337
0.087937064 0.028429763 -0.08451667 0.07652754 -0.12959932 0.0070350496 -0.07713832 -0.026820255
-0.086686805 0.08248292 0.025366243 0.005432421 0.046568543 -0.10611564 -0.12500905 0.04031237
0.08083774 -0.07218612 0.00067516865 -0.12034625 0.03360561 -0.11041782 -0.12167924 0.05983967
-0.11180913 0.081106745 -0.13699445 0.050428417 0.10554342 -0.051259417 -0.011507334 0.009091132
-0.02661513 -0.14806361 -0.03559357 0.007822572 0.13826388 0.047955256 -0.13072379 0.122899085
-0.06505323 0.0073351637 0.052764047 0.009865001 -0.11647127 -0.058471896 -0.11177118 -0.116176516
-0.01309323 -0.10576124 0.040814374 0.16630554 0.05938605 -0.078403205 -0.112801224 0.027373388
-0.100958265 -0.10561919 -0.100321725 0.09502183 -0.092670426 -0.10318763 -0.087840304 -0.06269673
-0.12036718 -0.14498214 -0.1347017 0.10442294 0.070168026 0.09324743 -0.036779396 -0.07922013
-0.10973818 -0.022896249 -0.06853236 -0.098918624 -0.063266076 -0.019276349 0.0023560985 0.10914158
-0.10191432 -0.12780793 -0.012100232 0.10256194 -0.13784416 -0.11066467 0.05306429 0.064376645
0.08521198 -0.1376782 -0.012040675 -0.050422825 -0.03273462 -0.120350964 0.054042943 -0.058910165
-0.06387522 -0.09868148 -0.0029172327 0.122351 -0.055876285 -0.08052433 0.018024601 -0.12208149

hidden2_Y1.weight f4 [200, 200]
00000000: b392 b3bd 26dc fcbd 10e2 b93c cea8 bc3d
00000010: 24ee b83d 005e 49bd a754 e7bd a8ec 17be
00000020: aaaa a2bd 9aa7 8bbb 6992 11be 9a49 96bd
00000030: f6db 4cbe d4a3 0a3e 1f39 013e 2d5d 20be
00000040: 90e6 89bd 2920 693d f7a7 f6bd 3d36 febc
00000050: 8633 6cbe 77a4 41be 66bd 893c 1ef8 9ebc
00000060: 2616 963d 11c9 cbbd 7ec1 cc3c 9219 19bc
00000070: e1b3 d9bd 4838 d6bc 028d 5cbe 5865 393d
00000080: 5246 283d 57d1 e03d 5afd 96bd 0178 5f3d
00000090: 99c2 433c 975e 9b3c 0797 3fbd ed7b 22be
000000a0: 7014 cb3d ffa5 933d 1832 64bd 6ee4 7cbe
000000b0: 9044 29bd cd7c 8d3d 509d 8ebd ce29 43bd
000000c0: a765 7a3b 54e0 663d 7bcf cebd 77a8 213d
000000d0: 5757 91bd 177f a03c d35f f5bd 5ad0 c2bd
000000e0: 4a11 9abd e785 0ebe fda7 aabd ffc5 95bd
000000f0: d5cb 7fbd 6a42 813d 251c d9bd 2fe3 afbd
00000100: 07c9 053e 954e 133d a5b9 48bc 5e87 7cbd
00000110: c075 523d ba60 d73c 0820 083a a713 a33d
00000120: 51ba adbd 818b 013e 6982 27bd 9164 bd3c
00000130: b60c bebd b20a 94bc 2b3a dabd 5217 70bd
00000140: e398 8a3d 92b4 09be ffeb b73d e068 0dbe
00000150: 6190 a8bd 0b77 cabb b53f 253d fac0 e4bc
00000160: 806b 293d 684e bcbd c809 dfbd 3c22 923d
00000170: b943 ce3d b58f c83d aa4a e2bd a742 8c3c
00000180: 7179 04be 4415 5d3d 09da 68bd 6647 82be
00000190: bb8c 113e 5cd1 443e 4085 c93c 1ea6 82bd
000001a0: fb52 ca3d fddf 20bd 0a20 5cbd b0d1 7c3d
000001b0: 6b92 06be 6a2b 0cbe 641a a03d b420 673d
000001c0: 693f 7a3d 4274 883d b3cd 853d 5240 1dbe
000001d0: 709a 23be 37ad 2cbe b369 a23c 7074 2fbd
000001e0: 0713 76bc 53fb 8bbc 2844 16ba a850 7f3d
000001f0: 1214 48be 4417 d53c 6c39 91bd 557b 3b3d
00000200: 7dce 4c3d c0f2 463c b5ce b7bd bcc9 fa3c
00000210: d5a0 cb3b b7b4 4dbe f71e ebbc bf62 383d
00000220: 87e7 35be cf22 283e ce05 77bc 6cfb 313d
00000230: 0080 aabd 917d e83d 8fef 633d edc9 73bb
00000240: 853f d73d 75bf 763c b5ba a5bd ef01 35be
00000250: 4335 54bc 3cb3 453d 0844 59bd 159f 8d3d
00000260: d06f a4bb 70b3 b6bd 847e a43d 3dce 42bd
00000270: f8ed ea3c 8dd4 a33d 703a 96bc 0a4b 223d
00000280: 088e a0bd 11df afbd 8e36 913d 20cd 91bd
00000290: 4c00 84bd e722 6d3d 1ff0 02bb 7e29 813c
000002a0: ac79 49bd 85f1 0d3e c794 27bd 54ef bebc
000002b0: c4a5 b73d 2fd4 fc3c e343 8e3d b3e6 453e
000002c0: 6977 c7bd 85f7 ec3c 615d ec3b 5e0b c5bd
000002d0: 70dc 503d bfe6 25bd 8bd5 74bd 67c3 9a3c
000002e0: 5fa4 113d 2a03 ecbd 4172 f83c f0ef 073c
000002f0: 8f42 363c c50d b93d be7e 203e f07d 63bd
00000300: e5a4 e4bb 4ea6 e2bc 295e c4bd 8253 2fbe
00000310: 9f5f c83d 3c88 9dbd 3e1e 4a3d 6c60 453d
00000320: 808d 6d3c c74e 87bd d75e 73be dabc 88bb
00000330: 6347 cd3d 50c6 48be ec3b 95bc 665c 05bd
00000340: 5761 9d3b 0bf1 8fbd e3d9 483d ed1d 913d
00000350: 8223 b5bd c5eb 2bbe 6b27 2e3e ae90 863d
00000360: 549c 0fbd ab26 1e3e 2319 15be 3c6b c0bd
00000370: b31a 36be 2cb2 10bd 032d 3d3b 0976 55be
00000380: e372 a0be 14dd 89bc 9006 2cbe e54c 6aba
00000390: 0485 9e3d 2bc1 183e e7b6 32be 8199 cdbc
000003a0: cadb 02bc 68ec 48be 8213 96bd 2828 b1bc
000003b0: 6c62 4abd 6491 83bd c722 ff38 9673 22be
000003c0: 6176 0ebe e7c7 36bd c48f c23d 0929 02be
000003d0: f10c 2a3d d08c efbd 69ef 533c 17ae 57be
000003e0: 6e22 853d 67d3 2d3c d48d 89bd fb24 8abd
000003f0: aeea abbd 89ba 513e 1e55 63bd 7e14 8b3d
-0.08768215 -0.123466775 0.022690803 0.092118844 0.09029797 -0.04916191 -0.11295443 -0.14836371
-0.07942708 -0.004261923 -0.14216007 -0.07338257 -0.20005783 0.13539058 0.12619446 -0.15660544
-0.067334294 0.056915436 -0.120437555 -0.031031722 -0.2306653 -0.18910395 0.016813945 -0.01940542
0.07328443 -0.0995046 0.024994608 -0.009344475 -0.10630012 -0.026149884 -0.21538165 0.045262665
0.041082688 0.109774284 -0.07372542 0.054557804 0.011948251 0.018966002 -0.04677489 -0.15867586
0.099160075 0.072093956 -0.055711836 -0.24696514 -0.041325152 0.069085695 -0.06963599 -0.04764729
0.0038207562 0.05636628 -0.100981675 0.0394673 -0.07096737 0.019591851 -0.11981168 -0.09512396
-0.07522829 -0.13918267 -0.083328225 -0.073131554 -0.06245025 0.063114956 -0.10601071 -0.08588254
0.13064967 0.035963614 -0.012251292 -0.061652534 0.051381826 0.02629124 0.00051927613 0.07962733
-0.08482803 0.12650873 -0.040895853 0.023119243 -0.09279768 -0.018071506 -0.10655626 -0.05861599
0.06767442 -0.13447788 0.089805596 -0.13809538 -0.08230663 -0.006178742 0.04034396 -0.02792405
0.041362286 -0.09194642 -0.108905375 0.07135436 0.10071511 0.09793035 -0.11049397 0.017121626
-0.12936951 0.05397536 -0.05684856 -0.25445098 0.1421384 0.1922049 0.024599671 -0.063793406
0.098791085 -0.039276112 -0.053741492 0.06172341 -0.13141792 -0.13688436 0.078175336 0.056427673
0.06109563 0.066627994 0.06533375 -0.15356568 -0.15976882 -0.16862951 0.019825792 -0.042835653
-0.015019185 -0.017087614 -0.0005732202 0.06233278 -0.19538906 0.02601207 -0.070910305 0.045771915
0.05000161 0.012142837 -0.08974973 0.030613773 0.006214241 -0.20088468 -0.028701289 0.045016047
-0.17764102 0.16419528 -0.015077068 0.043452665 -0.08325195 0.11352075 0.055648383 -0.0037199215
0.10510162 0.015060295 -0.08092252 -0.17676519 -0.012952152 0.048266634 -0.053043395 0.06915108
-0.005018212 -0.08920944 0.080319434 -0.047559965 0.028677925 0.07999525 -0.018338412 0.039622344
-0.0783959 -0.085874684 0.070904836 -0.071192026 -0.06445369 0.057894614 -0.001997955 0.015766855
-0.0491883 0.13861664 -0.04091337 -0.02330748 0.08967164 0.030862896 0.06946542 0.19326286
-0.097395726 0.02892662 0.00721328 -0.09621309 0.050991476 -0.04050326 -0.059773963 0.018892003
0.035557147 -0.11524041 0.030327918 0.008296952 0.011124267 0.090358295 0.15673348 -0.055540025
-0.006977665 -0.02766719 -0.09588272 -0.171217 0.09783863 -0.07692 0.049345247 0.04818766
0.014499068 -0.066068225 -0.23766647 -0.0041729035 0.100233816 -0.196069 -0.01821705 -0.03255882
0.0048028636 -0.07028397 0.049035918 0.07085786 -0.08844663 -0.16789158 0.17007224 0.06570564
-0.035061195 0.15444438 -0.1456037 -0.09395453 -0.17783622 -0.035326168 0.002886594 -0.20845808
-0.31337652 -0.016829051 -0.16799378 -0.000893785 0.077402145 0.14917438 -0.17452584 -0.02509761
-0.007986972 -0.19621432 -0.073279396 -0.021625593 -0.04941027 -0.064242154 0.00012165825 -0.15864405
-0.13912345 -0.044624235 0.09500077 -0.12710966 0.041516248 -0.1169678 0.012935498 -0.21062504
0.065007076 0.010609484 -0.06716505 -0.06745335 -0.08394371 0.20481314 -0.055501096 0.06791018

hidden2_Y1.bias f4 [200]
00000000: 6f18 62bd db44 353e cfc2 8bbd a578 6cbd
00000010: 64e5 b2bd 9a0c 943e f479 803e b4ad 9a38
00000020: ef99 bdbc 9111 5c3e 1482 9bbd 73f0 f1bd
00000030: 748b 7a3e d388 803d 9904 dabd fdaa 94bd
00000040: 6b3e 99bd 7f5c 92bd 4983 fb3d e7ee 7a3e
00000050: 3b31 96bd 91fa 6b3e 7892 60bd 552f 06bc
00000060: 1021 503e abd8 973e f2a6 82bd e921 803e
00000070: 1094 d13d fa0c 963d 31da 1fbd 285b 57bd
00000080: 9897 913e d703 533e 2ed4 20bb 1025 e3bc
00000090: d44d 503e 4fd0 4d3e 1918 c6bd 1502 933e
000000a0: d9e5 ecbb 9b0e 96bd b142 473e 748e 0bbd
000000b0: 3545 043d ee5e 9fbd 5a06 10be 105f 1c3d
000000c0: 1aee cfbd 11fc 78bd 8ff1 843e 19dd 3b3d
000000d0: 21d8 793e 9e67 05be be67 073c d701 b43d
000000e0: 9350 403e 5ace 933e 6307 b83c a346 c0bd
000000f0: d1eb 303e 89f7 853e be8d 01be 164b 2e3d
00000100: 983e 0cbd 36a2 b1bd 83d5 89bc 043f 673d
00000110: ff57 593e f434 4cbc 99a0 55bd fc14 94bc
00000120: 80c6 0ebe c075 84bd 3ea1 d13d 37ae 8b3e
00000130: cb7f 623d c9d4 353e 8218 ec3d b3dd fa3c
00000140: 9700 b0bd dc66 13bc 9c37 c5bd 4a82 d8bd
00000150: 37e7 913e 9f7e 16bd ae28 69bd c74a 063d
00000160: ba79 a8bd bdff 99bd ab2f 843e 7e06 f83b
00000170: ba16 91bd 7595 8fbd 871b 95bd 3a46 d6bd
00000180: 4ea7 a4bd e6cb 45bd 50e4 8cbd fc54 27be
00000190: f8ab d7bd ac47 0ebe e87e ab3e 50b7 01bc
000001a0: 50bf 66bb 8346 593d cacd 323e 97fa f93d
000001b0: 93af 823e 2e3a ac3e ee53 74bd 692c ac3e
000001c0: 7886 4ebd e2e1 203e 6ce3 893e 8ab1 40bd
000001d0: 064a 81bc f9bb 433e 9716 7abd 0c94 953d
000001e0: 70d0 a13e eaa3 a53e 2c6d bdbd d80c a1bd
000001f0: a2ba 1b3c 22b6 fbbd ffbb 553e 95e1 cdbd
00000200: b99e 6fbd 7f80 e3bd c336 b5bc 4617 9ebd
00000210: 0329 803d e88d a1bc b87f aa3a a12b aebd
00000220: a810 8a3e 1ba0 50bc e468 833e 36ee bcbd
00000230: 3390 bcbd 8af6 fe3c 6075 3f3d 9301 793e
00000240: 472c 4dbd 1cb9 843b 5798 473e 2790 aabd
00000250: 1af8 4a3e 1eee 883d 1768 3abd 7d6f 343e
00000260: 93cf d6bd f7ee 153e 5932 cbbc a384 b7bd
00000270: a8c9 8fbd 6589 03bd 195f 26bd e129 a3bc
00000280: 39d0 89bd 7e13 243e 645f 453d be6d 033d
00000290: 3383 8d3e 8ce1 4b3e c8b1 633e aa75 863e
000002a0: 834a f13d 2385 953e b478 203e 1540 a2bd
000002b0: ba2a afbd 1a84 f03d a85c 10be b70b 94bd
000002c0: 6d43 acbd 9a1f a8bd 121e 693d 4a71 bebd
000002d0: 4e40 a8bd a072 52bd 4ca4 1fbd 25f2 67bd
000002e0: 3f03 d0bc 32fc 223e 9095 8e3e ad77 0fbd
000002f0: d306 9ebd a857 623d 396c b1bd d910 dfbd
00000300: 6d35 0b3d 2fd1 2fbe 6523 953d 10f7 14bd
00000310: a2fe 89bd 39a6 893e baaf 75bd 0831 a4bc
-0.055199083 0.17702048 -0.06824266 -0.057732243 -0.08735159 0.28915864 0.25093043 7.375647e-05
-0.02314469 0.21491076 -0.0759317 -0.1181344 0.2446726 0.06276097 -0.10645408 -0.07259176
-0.074826084 -0.071465485 0.122809 0.24505197 -0.07333609 0.23044802 -0.054827183 -0.008189996
0.20325112 0.29657492 -0.063794985 0.2502587 0.10233319 0.07326694 -0.039026443 -0.052577168
0.2843597 0.20606934 -0.0024540531 -0.027727634 0.20342189 0.20098995 -0.09672565 0.28712526
-0.0072295484 -0.073270045 0.19459035 -0.0340714 0.032292563 -0.07781778 -0.14064923 0.038176596
-0.10152836 -0.060787264 0.25965545 0.045865152 0.24398853 -0.13027808 0.00826448 0.087894134
0.18780737 0.2886837 0.02246446 -0.09388473 0.17277457 0.26165417 -0.12651727 0.042552076
-0.03423938 -0.086735174 -0.016825443 0.05645658 0.21224974 -0.012463797 -0.05215511 -0.018076412
-0.13942909 -0.064677715 0.10235833 0.27281353 0.055297654 0.17756952 0.11528112 0.030623293
-0.085938625 -0.008996692 -0.09629747 -0.10571726 0.28496715 -0.03674185 -0.05692356 0.032786157
-0.082263425 -0.07519481 0.25817618 0.0075691333 -0.07084413 -0.070109285 -0.07280641 -0.104626134
-0.08039723 -0.048290156 -0.06879485 -0.16341013 -0.10530847 -0.13894528 0.3349526 -0.00791724
-0.0035209246 0.05304576 0.17461315 0.12205999 0.25524577 0.33638138 -0.059650354 0.33627632
-0.05042121 0.15711167 0.26931322 -0.047044314 -0.015782367 0.19114675 -0.0610567 0.07303628
0.31604338 0.3235162 -0.092493385 -0.07863778 0.009504946 -0.122905985 0.20872496 -0.10052792
-0.05850098 -0.11108493 -0.022120839 -0.07719283 0.06257822 -0.019720986 0.0013008034 -0.08504415
0.26965833 -0.012733485 0.25665963 -0.09225123 -0.09207191 0.031123418 0.046742797 0.24317007
-0.050091054 0.004050387 0.19491707 -0.08328276 0.19821206 0.06686042 -0.045509424 0.17620654
-0.104888104 0.14641939 -0.024804281 -0.08960845 -0.07020885 -0.03211345 -0.040618036 -0.01991743
-0.067291684 0.1602306 0.048186675 0.03208708 0.2763916 0.19910258 0.22235787 0.26261646
0.1178179 0.29203138 0.15671045 -0.07922379 -0.08553071 0.117439464 -0.14097846 -0.07228797
-0.08411298 -0.082091525 0.056913443 -0.09298952 -0.0821539 -0.051378846 -0.038975045 -0.05662741
-0.025392173 0.15916517 0.27848482 -0.03502624 -0.07716145 0.055259377 -0.0866322 -0.10891885
0.033986498 -0.17169641 0.072821416 -0.03636843 -0.067380205 0.2688463 -0.05998204 -0.020042911

out_Y1.weight f4 [1, 200]
00000000: 3859 81bc 3601 5c3c 9282 4dbc 56c5 d1bc
00000010: 5918 50be c0f9 f73d 711e ce3d 1e44 cfbd
00000020: 0842 e3bd 0037 af3d 98a7 043c c1c4 cc3c
00000030: 60b8 b53d 24bd 87be 7e0e ef3c 6dc2 12be
00000040: 83e6 23be 6edc 31b9 bea9 ad3c 783e a23d
00000050: 13f6 a4bd 0ca7 983d 8b40 69bd 0fa0 10bc
00000060: 5201 013e c219 2e3e fdd7 7dbc 6ffa e33d
00000070: 916c ed3d d011 a6bd f626 dabb 1303 05be
00000080: e4f8 eb3d ebc0 983d 5e0b a23c 9925 a2bc
00000090: 2626 553d 2927 d33c b087 c7bb 1298 973d
000000a0: f750 aabd 2c09 b5bd 36a7 343c 364c 8f3c
000000b0: b927 26be 04c1 d63c bf25 81bd 64f9 ab3c
000000c0: c9c6 4cbb 0502 3aba b114 a63d 5667 aa3d
000000d0: 6a71 9f3d 7c7e ea3c 2121 19bd e649 78bb
000000e0: 2132 9a3c 86a9 db3d 00d3 2abe 8594 813c
000000f0: d323 133e e46b ad3d eca3 b13b 8d17 8d3a
00000100: 5d9b c4bd f78f c9bb c038 0ebe 2090 65b9
00000110: d212 cd3d b83c bdbd c884 fcbd 1fde eabd
00000120: ebc5 a0bc c507 9abd 7966 c73a d47f c53d
00000130: 3035 2ebe cbd7 a53d d467 80bd 9e5e 0abe
00000140: f6a6 28bd b01b aebd 59eb 07bd c2e8 18bd
00000150: 26fc a93d 73e0 0ebe f761 83bc c298 6f3d
00000160: f8f9 003e 3a13 16bd bfdf d73d 1904 473c
00000170: ae0a 01bd 6a25 83bd eb0f c6bd 128f 67bc
00000180: 3359 3c3b 2c9d 09be 638b a2bd 3bcc cebc
00000190: 8608 643b 7161 ec3b 3021 0a3e 56cf 593d
000001a0: 53a9 05be d2f9 03be 2b50 7f3c bd26 4abe
000001b0: f850 173e e1d9 f93d d12d f33c 0c7d 493e
000001c0: eb21 ad3b 5a65 293d d72e c13d ecdc 80bc
000001d0: cf12 adbd 9d85 2c3d 35c0 efbc 1e58 adbd
000001e0: 931e 083e da30 153e e368 19bd 32b3 323c
000001f0: 14e4 953c 78c2 d53b ef97 4a3d b0a5 dd3c
00000200: 50d3 e73a bb22 07bd 15a4 dc3c bb16 ae3c
00000210: 4b3f 93bd e840 8ebd 4f1a 1abe 5708 e3bc
00000220: ea53 a43d 40a9 d73d cdd6 b13d d29a bfbd
00000230: cd01 503d fb94 72bd 7ea5 cf3c 769f f33d
00000240: a97f eabb 8d95 26be 6bad dd3d 4076 4bbc
00000250: 0b29 823d 1987 63ba 64da 9ebc 98e2 2e3d
00000260: 54fd 533d 003d 5a3d 5ccf cc3c 451b 11bd
00000270: ab85 4cbd e660 41be e397 21bc c8f0 a23d
00000280: 1d97 8cbd 9f13 273d 8858 d8bc 1f7a 8fbe
00000290: 3ac4 d63d 102f a23d 6d2f 9a3d 1751 bb3d
000002a0: 26f0 d43b e322 0a3e 789f 3c3d dfd3 013d
000002b0: a1e8 213b 4d63 33be fa47 3fbd 0f5c d5bb
000002c0: bbcb 8fbc bcfd 2ebb b07a 683d c73f 6cbd
000002d0: 9a90 d8bd 3498 afbd 0ef4 08be b659 51be
000002e0: a6e5 90bd 30d2 d43d 5254 873d 29f5 0bbe
000002f0: a838 e9bd a4cb 9cbe 486a 343d c2f8 d9bc
00000300: a953 9fbd 1a9a 75bd 88a3 a7bb 4d9d a9bd
00000310: b79d 193e 46e8 b03d ef28 c03d 3dc8 ef3c
-0.015789613 0.013428023 -0.012543337 -0.025606792 -0.20321788 0.12108183 0.100644 -0.10120414
-0.11096579 0.08555412 0.008096598 0.024996163 0.08873057 -0.2651149 0.029181715 -0.1433198
-0.16005902 -0.00016962152 0.021199103 0.07922071 -0.080547474 0.07453737 -0.05694632 -0.008827223
0.1259816 0.17002013 -0.01549339 0.11131751 0.11592973 -0.08108866 -0.0066574765 -0.12989454
0.115220815 0.07458671 0.01978081 -0.019793319 0.052038334 0.025775509 -0.0060891733 0.07402052
-0.08316224 -0.0883964 0.011026194 0.017492395 -0.1622609 0.026215084 -0.063060276 0.020992942
-0.0031246415 -0.0007095638 0.08109415 0.08320491 0.07785304 0.028624766 -0.03738511 -0.0037885844
0.018822731 0.107256934 -0.16682053 0.01581789 0.14369135 0.08467844 0.0054211523 0.0010764465
-0.09599946 -0.006151195 -0.13888836 -0.00021892833 0.10013355 -0.09240097 -0.123300135 -0.114681475
-0.019625625 -0.07521013 0.0015213034 0.09643522 -0.17012477 0.080978 -0.06269804 -0.13512656
-0.04117485 -0.08501375 -0.03318343 -0.03733135 0.083000466 -0.13952808 -0.016037924 0.05849529
0.12595356 -0.03663943 0.10540723 0.012146973 -0.031504326 -0.064036205 -0.09671005 -0.014133232
0.002873969 -0.13438863 -0.07936742 -0.025243869 0.003479512 0.0072137644 0.13489223 0.053176247
-0.13052873 -0.12888268 0.015583078 -0.1974134 0.14776981 0.1219976 0.029684933 0.19676608
0.0052835844 0.041356422 0.09432762 -0.015730344 -0.08450853 0.04211961 -0.029266456 -0.08464073
0.13292913 0.14569417 -0.037453543 0.010906981 0.018297233 0.0065234266 0.0494613 0.027056545
0.0017686877 -0.032992106 0.02693371 0.021251073 -0.071898066 -0.06945974 -0.15049098 -0.027713938
0.08023818 0.10530329 0.08683548 -0.093557015 0.050782967 -0.05922411 0.025347468 0.11895649
-0.0071563316 -0.16267987 0.108240925 -0.01241833 0.063554846 -0.0008679494 -0.019391246 0.042696565
0.051755264 0.05328083 0.02500122 -0.035426397 -0.049932163 -0.1888462 -0.009862873 0.07956082
-0.0686476 0.040790197 -0.026409402 -0.28022859 0.10486646 0.07919133 0.07528577 0.09146326
0.0064983545 0.1348987 0.04605052 0.031696197 0.0024705308 -0.17518349 -0.0466995 -0.0065112184
-0.017553201 -0.002670153 0.05675763 -0.05767801 -0.105744556 -0.08573952 -0.1337435 -0.20444378
-0.07075052 0.103916526 0.0660788 -0.1366774 -0.113877594 -0.30624115 0.04404667 -0.026607875
-0.07779629 -0.059961416 -0.00511593 -0.08281956 0.1500157 0.08638053 0.093828075 0.029270286
