Propensity_Model/DCN_PD_NN_Models/NN_PS_model_iter_id_9_epoch_250_lr_0.001.pth (torch_old, 6437 bytes, 6 tensors)

fc1.weight f4 [25, 25]
0	0xbe98bb4c	-0.29830396
1	0x3e219212	0.15778378
2	0xbe53b4a2	-0.20674375
3	0xbdba1011	-0.09085096
4	0xbec43bb7	-0.3832681
5	0x3db070d9	0.08615274
6	0x3d91bc6d	0.071160175
7	0xbeb3f9ee	-0.3515162
8	0x3e331811	0.1748965
9	0x3dea562b	0.114422165
10	0x3d09eab6	0.033671103
11	0xbe8b8d6f	-0.27256343
12	0xbbf46e74	-0.007459456
13	0x3e5f474c	0.21804541
14	0x3e23dfdb	0.16003363
15	0xbde3cdde	-0.111232504
16	0x3d663b7a	0.056209065
17	0x3d54a0d2	0.051911183
18	0x3dac24f4	0.08405486
19	0x3dae7eb1	0.08520258
20	0x3e8edd67	0.27903292
21	0xbbda792b	-0.0066672764
22	0x39d21c00	0.00040075183
23	0x3e0714d1	0.13191535
24	0x3e665c00	0.22496033
25	0x3d95dcff	0.07317542
26	0xbcd1c1fe	-0.025605198
27	0x3ed9e38e	0.42556423
28	0x3a098e7d	0.00052473677
29	0xbf06e97d	-0.52700025
30	0x3e60eb4d	0.2196476
31	0x3e634910	0.2219584
32	0xbe29ec31	-0.16594006
33	0x3d417b33	0.047236633
34	0x3e2ffef5	0.17187102
35	0x3d042e44	0.032270685
36	0xbe6e58c4	-0.23276049
37	0x3d434a00	0.047677994
38	0xbd17652c	-0.03696172
39	0x3e14d002	0.14532474
40	0x3c0885e1	0.0083327005
41	0xbe3c1693	-0.18367986
42	0x3c9289b2	0.017887924
43	0x3e663193	0.22479849
44	0x3f31a20f	0.69387907
45	0x3e1febe7	0.15617333
46	0x3d770d39	0.060315344
47	0x3ee32731	0.44365838
48	0x3eb20a02	0.3477326
49	0xbeb27d40	-0.34861183
50	0xbdcc57ef	-0.099777095
51	0x3e2cf8fa	0.16891852
52	0x3e13006a	0.14355627
53	0x3c6fb802	0.014631273
54	0xbe871b26	-0.263879
55	0x3e152571	0.14565064
56	0xbd3bdf80	-0.045867443
57	0xbe3aff0e	-0.18261358
58	0x3b9fb73c	0.004874138
59	0x3e733013	0.23748808
60	0x3eb1a714	0.34697783
61	0x3de06bab	0.10958036
62	0xbeb32208	-0.349869
63	0xbdf37be3	-0.11888864
64	0xbde0caf1	-0.10976208
65	0x3ea41667	0.32048342
66	0xbea29031	-0.31750634
67	0x3cab389d	0.020901019
68	0xbde0b9ff	-0.10972976
69	0x3e8b733f	0.27236363
70	0xbd213cae	-0.03936451
71	0x3dc158b7	0.09440749
72	0xbcd1b8f8	-0.025600895
73	0xbce1e03f	-0.02757275
74	0x3ec61331	0.38686517
75	0xbe21f869	-0.15817417
76	0xbdc06319	-0.093939014
77	0xbd1f3264	-0.038866416
78	0x3c0f2f71	0.008739338
79	0x3e5aef94	0.21380454
80	0x3c8a6399	0.016893195
81	0xbe8cd796	-0.2750823
82	0xbe6e56fc	-0.2327537
83	0x3e30717a	0.17230788
84	0xbe57a029	-0.2105719
85	0x3ea0c00b	0.31396517
86	0xbe371d31	-0.1788223
87	0xbd842c93	-0.06453814
88	0xbe2430c5	-0.16034229
89	0x3f0ad1e6	0.5422653
90	0x3dffb942	0.12486507
91	0xbca7d734	-0.020488359
92	0xbcb7c339	-0.022431957
93	0xbd911a41	-0.07085086
94	0xbb0675b3	-0.0020516932
95	0xbede52bb	-0.43422493
96	0x3dbea5b8	0.09308952
97	0x3f34cabb	0.7062184
98	0xbe326784	-0.174223
99	0xbd3bac10	-0.04581839
100	0xbedc62dc	-0.43044174
101	0xbddc53fe	-0.10758208
102	0x3ec42329	0.38308075
103	0x3e4fcc72	0.20292833
104	0x3b96d528	0.004603047
105	0xbe29fde0	-0.16600752
106	0x3da1f112	0.07907309
107	0xbe84b1f7	-0.25917026
108	0x3d185092	0.037186213
109	0x3e898afb	0.26863846
110	0x3e193123	0.1496015
111	0x3c39ab60	0.011332363
112	0xbdd89fd5	-0.105773605
113	0x3e7b91bd	0.24567313
114	0x3e95c159	0.29249075
115	0x3e39ba95	0.18137582
116	0xbea2f1f4	-0.3182522
117	0x3e761401	0.24031068
118	0x3e2fce35	0.17168505
119	0x3ecf0c97	0.40439293
120	0x3e551dca	0.20812145
121	0x3cd3cc40	0.02585423
122	0x3e877b58	0.2646129
123	0x3e1b5cfc	0.1517219
124	0x3df1cfe6	0.118072316
125	0x3e1487cc	0.14504927
126	0x3d078ac3	0.033091318
127	0x3eb37dab	0.35056815
128	0x3e004537	0.12526403
129	0x3cc14130	0.023590654
130	0xbea81762	-0.3283034
131	0xbeef92fa	-0.46791822
132	0x3e10e322	0.14149144
133	0x3e685db9	0.22692002
134	0xbe681f6d	-0.22668238
135	0x3df9f842	0.122055545
136	0xbde99400	-0.11405182
137	0xbc9610f7	-0.018318636
138	0x3e13782e	0.14401314
139	0xbcbec525	-0.023287365
140	0x3e13a1bc	0.14417166
141	0xbd682d2b	-0.0566837
142	0xbd65e5fd	-0.056127537
143	0xbe156621	-0.1458974
144	0x3e0eb812	0.13937405
145	0x3d883872	0.06651391
146	0xbdcf9d97	-0.1013748
147	0x3d3c6bb3	0.046001147
148	0x3e7e2fe2	0.24822953
149	0xbea8a2b2	-0.32936627
150	0xbe556aa2	-0.20841458
151	0xbe0697c9	-0.13143839
152	0xbd5cf25d	-0.053942073
153	0x3ddfd6e5	0.1092966
154	0x3dbf2cd8	0.09334725
155	0xbe152732	-0.14565733
156	0x3e8953f2	0.26821858
157	0xbdf7c061	-0.1209724
158	0xbea03ad2	-0.31294876
159	0x3d578ed7	0.052626457
160	0xbe5ce770	-0.21572661
161	0xbb8151f1	-0.0039465358
162	0xbeafcc52	-0.34335572
163	0xbddb82f5	-0.107183374
164	0x3ed988f2	0.42487293
165	0xbd92f726	-0.07176046
166	0x3e175a8d	0.14780636
167	0xbd256b73	-0.040385675
168	0x3e6f3bf0	0.23362708
169	0x3e1a6bed	0.15080233
170	0xbd6286c7	-0.055304315
171	0xbe0e905a	-0.13922253
172	0x3f5031e0	0.81326103
173	0xbc837e0e	-0.016051318
174	0xbf355327	-0.70830005
175	0xbdebb742	-0.11509563
176	0xbe176d5d	-0.14787813
177	0xbe3d6409	-0.18495192
178	0x3da83c5e	0.08214639
179	0xbe95197f	-0.29121014
180	0xbe60c412	-0.21949795
181	0x3ee59a71	0.44844392
182	0x3f05750e	0.52131736
183	0xbe1fe4d3	-0.15614633
184	0xbc12d6c2	-0.008962335
185	0x3e6be8f2	0.2303808
186	0xbea753d4	-0.32681143
187	0x3e8443e4	0.25833046
188	0xbdee98ec	-0.11650261
189	0x3d82c725	0.0638564
190	0xbe01b178	-0.12665355
191	0xbf122a3a	-0.5709568
192	0x3d89b579	0.06724066
193	0xbd997189	-0.07492358
194	0x3e88f444	0.2674886
195	0xbefc0e2a	-0.49229556
196	0x3ead9eed	0.33910313
197	0xbee9218e	-0.45533413
198	0xbef45363	-0.4771987
199	0xbd299acc	-0.04140739
200	0x3e718edf	0.23589657
201	0xbe2cea84	-0.16886336
202	0xbe7c4645	-0.2463618
203	0x3e8facbe	0.2806148
204	0x3ec074d6	0.3758914
205	0x3eb97618	0.3622291
206	0x3d7b8d9b	0.061414342
207	0xbd3965e2	-0.04526318
208	0xbde8481b	-0.11341878
209	0x3eb5383a	0.3539446
210	0x3ea8a695	0.32939592
211	0x3cefd480	0.029276133
212	0xbf2fd210	-0.68679905
213	0x3df31dbb	0.11870905
214	0xbf3ae8e2	-0.730116
215	0x3dca11cb	0.09866675
216	0xbe01f9a1	-0.12692882
217	0xbdeb4715	-0.11488167
218	0xbd580a6a	-0.052744307
219	0x3ec07836	0.37591714
220	0x3ea2ccec	0.31796968
221	0x3e826af9	0.2547224
222	0xbe23add4	-0.15984279
223	0x3e420acc	0.18949431
224	0x3eb25bc1	0.34835628
225	0xbcdcf964	-0.026974387
226	0x3eb57357	0.3543956
227	0xbe2ec024	-0.17065483
228	0xbe411cd2	-0.1885865
229	0x3c5387ac	0.012910765
230	0xbc42723a	-0.011868054
231	0xbe9f46d8	-0.31108737
232	0x3cd48fd6	0.025947493
233	0xbea414e7	-0.32047197
234	0xbe61f6ba	-0.22066775
235	0x3e1a2006	0.15051278
236	0x3cabe936	0.020985227
237	0xbda171c4	-0.07883027
238	0x3df28726	0.11842184
239	0xbe87ae38	-0.26500106
240	0xbe3e97e8	-0.18612635
241	0x3e553087	0.20819293
242	0xbe84bd75	-0.25925794
243	0x3ec0ebca	0.37679893
244	0xbebd0ac4	-0.36922276
245	0xbe12cdd7	-0.14336334
246	0xbe70c7b7	-0.23513685
247	0x3e747504	0.23872763
248	0x3ea678cc	0.32514036
249	0xbe57e433	-0.21083145
250	0xbe369c67	-0.178331
251	0x3dc8ab36	0.09798281
252	0x3e66ead5	0.22550519
253	0x3de56729	0.11201317
254	0x3e9479ce	0.2899918
255	0xbe88a6d1	-0.2668977

fc1.bias f4 [25]
0	0xbe455aeb	-0.19272964
1	0x3da32d04	0.079675704
2	0xbe1c596c	-0.15268487
3	0xbd0fefb5	-0.03514071
4	0x3d1ab371	0.037768785
5	0x3e01354c	0.12617987
6	0xbc2354d5	-0.009968956
7	0xbdc64aa9	-0.09682209
8	0x3e1aa525	0.1510206
9	0x3dd32266	0.10309295
10	0xbe5c62c9	-0.21522059
11	0xbdd7200e	-0.10504161
12	0xbda76bd5	-0.08174864
13	0xbdac7920	-0.0842154
14	0xbdcd3e80	-0.100216866
15	0x3c0d4ce0	0.008624285
16	0xbe33f399	-0.17573394
17	0xbe6f308c	-0.23358363
18	0x3c23d40a	0.0099992845
19	0xbcfdcdd7	-0.030981941
20	0x3e07d8fa	0.13266364
21	0xbe165943	-0.14682488
22	0xbddd70ee	-0.10812555
23	0x3d4ee70b	0.05051331
24	0xbb228b9b	-0.002480245

fc2.weight f4 [25, 25]
0	0x3e0dd608	0.13851178
1	0xbe9190e8	-0.28430867
2	0x3ecc63b2	0.3991981
3	0x3f8ee892	1.1164725
4	0xbe9295b3	-0.28629836
5	0x3ef97acd	0.48726502
6	0x3f9e0387	1.2344826
7	0x3f5e8f90	0.8693781
8	0x3df6d099	0.120515056
9	0x3f041789	0.5159841
10	0x3e4cbc1a	0.1999363
11	0x3eb168ff	0.34650418
12	0x3d3af954	0.045647934
13	0x3f0e761c	0.5564897
14	0x3eda71d6	0.42664975
15	0x3ef80f5f	0.48449227
16	0x3eea3b98	0.4574859
17	0x3f522d41	0.821003
18	0x3ea2c8f1	0.3179393
19	0x3e595049	0.21222033
20	0x3e9a1ba1	0.30099204
21	0x3ecb9576	0.39762467
22	0x3e1dc3cc	0.15406722
23	0xbe820013	-0.25390682
24	0x3f825e37	1.0185002
25	0x3d25bec0	0.040465117
26	0xbeca8478	-0.3955419
27	0x3eff5140	0.49866676
28	0x3fa1d43a	1.2642891
29	0xbe324695	-0.17409737
30	0x3e765968	0.24057543
31	0x3f8d50e6	1.1040313
32	0x3f83c1e2	1.0293543
33	0x3e0a2ea9	0.13494362
34	0x3dd199d3	0.10234418
35	0x3ecf8c0e	0.4053654
36	0x3efaca02	0.48982245
37	0x3e225a9c	0.15854877
38	0x3e293da2	0.16527417
39	0x3f0218c7	0.5081906
40	0x3f3af233	0.73025817
41	0x3e0f6b58	0.14005792
42	0x3ef1f07e	0.47253793
43	0x3f16a38b	0.58843297
44	0x3d8ccc7b	0.06874939
45	0x3e96514d	0.29358903
46	0x3f1282f5	0.57231075
47	0xbdaf4985	-0.085589446
48	0xbc9f3d65	-0.019438455
49	0x3f9d9343	1.2310566
50	0x3d85f592	0.065409794
51	0xbda9ef3c	-0.082975835
52	0x3e529a78	0.20566738
53	0x3f78eaa8	0.9723306
54	0xbc0036d4	-0.007825572
55	0x3ec3363e	0.3812732
56	0x3f12a5ad	0.5728405
57	0x3f3bd4b3	0.7337143
58	0x3e452640	0.19252872
59	0x3eb8a248	0.3606131
60	0x3d76e168	0.060273558
61	0x3eeb1bfa	0.45919782
62	0xbd8b5c32	-0.06804694
63	0x3e78db31	0.24302365
64	0x3e8410cf	0.25794074
65	0x3f014aed	0.5050495
66	0x3de6791c	0.112535685
67	0x3f0a417a	0.5400616
68	0x3e1e3bae	0.15452453
69	0x3e46d840	0.1941843
70	0x3e2bea6b	0.16788642
71	0x3ef4cb87	0.4781153
72	0x3e443318	0.19160116
73	0x3d0e716d	0.03477614
74	0x3f2e31f6	0.68044984
75	0x3e6c6c45	0.23088177
76	0xbd80911d	-0.06277678
77	0x3ef250be	0.47327226
78	0x3f8b5781	1.0886079
79	0x3dd68bbe	0.104758725
80	0x3ecb518f	0.39710662
81	0x3f508899	0.8145843
82	0x3f33c799	0.70226437
83	0x3e825710	0.25457048
84	0x3ee91137	0.45520946
85	0x3e0041b2	0.12525061
86	0xbcc02348	-0.023454323
87	0xbc20fd81	-0.009826065
88	0x3f0adc4c	0.54242396
89	0x3ea9498e	0.3306393
90	0x3e95478f	0.29156157
91	0x3e95b418	0.29238963
92	0x3f2e8a5d	0.68179876
93	0x3eaedf3c	0.3415469
94	0x3e0d4467	0.13795625
95	0x3e894d93	0.26816997
96	0x3ee9f397	0.45693657
97	0xbe4384f7	-0.19093691
98	0xbe939c56	-0.28830212
99	0x3f362bd7	0.71160644
100	0xbe018552	-0.12648514
101	0xbe036456	-0.12831244
102	0xbe34b863	-0.17648463
103	0xbded8690	-0.115979314
104	0x3d5af966	0.0534605
105	0x3cf53ec1	0.02993715
106	0x3c2197e0	0.00986287
107	0xbe011e66	-0.12609252
108	0xbdf701cd	-0.1206089
109	0x3d111a1b	0.035425287
110	0xbda4e91d	-0.08052275
111	0x3dcc5ec5	0.09979013
112	0xbe0d0e9b	-0.13775103
113	0xbdbc17d0	-0.091842294
114	0x3da41d4a	0.08013399
115	0xbcdf8d4e	-0.027289059
116	0x3e07b0e1	0.13251068
117	0xbd62608c	-0.055267856
118	0x3e0323ce	0.12806627
119	0x3d2f4864	0.042793646
120	0xbe043d2e	-0.12913963
121	0x3d95c261	0.073124655
122	0xbdd62624	-0.104564935
123	0xbdbcb7e1	-0.092147596
124	0xbde7ea87	-0.113240294
125	0x3e44ca64	0.19217831
126	0xbe99c4c1	-0.30032924
127	0x3ed703e0	0.41995144
128	0x3fa17ee2	1.2616847
129	0xbeca8870	-0.3955722
130	0x3f167c40	0.5878334
131	0x3f85959c	1.0436282
132	0x3f649307	0.89286846
133	0x3d67894d	0.056527425
134	0x3f33e653	0.7027332
135	0x3e3458d7	0.17612015
136	0x3e6c26b5	0.2306164
137	0x3d904045	0.070435084
138	0x3f275835	0.6536897
139	0x3ef7b044	0.48376667
140	0x3f10ea60	0.5660763
141	0x3f1ac710	0.60459995
142	0x3f6634d2	0.8992435
143	0x3e31b83e	0.17355439
144	0x3e4d4bdf	0.20048474
145	0x3e981b50	0.29708338
146	0x3f0216db	0.50816125
147	0x3e944e8e	0.28966182
148	0xbe87d5a8	-0.26530194
149	0x3f9c8536	1.2228153
150	0x3e973a87	0.2953684
151	0xbe803a3f	-0.25044438
152	0x3eaca405	0.33718887
153	0x3f79e093	0.976083
154	0x3d8ad74f	0.06779348
155	0x3e9223c8	0.28542924
156	0x3f427eac	0.75974536
157	0x3f0b0604	0.54306054
158	0x3e3a3f13	0.18188123
159	0x3ee11e03	0.4396821
160	0x3e880cd7	0.26572296
161	0x3e98078f	0.29693267
162	0xbbc1f1c3	-0.005918713
163	0x3f032178	0.51222944
164	0x3f0ab767	0.541861
165	0x3e764d6b	0.2405297
166	0x3ece18e2	0.4025336
167	0x3f19e797	0.60119003
168	0x3e5c6a7b	0.21524994
169	0x3bde5637	0.00678518
170	0x3e58bf67	0.21166764
171	0x3ef160d6	0.47144192
172	0x3e098eb5	0.13433345
173	0xbe45ace5	-0.19304235
174	0x3f3d8d2a	0.74043524
175	0xbde6fc2c	-0.11278567
176	0x3ea9ef80	0.33190536
177	0x3e87132b	0.26381811
178	0x3ceedce5	0.029158065
179	0xbd1dfa78	-0.038568944
180	0x3ed64b18	0.41854167
181	0xbe1c19f2	-0.15244272
182	0xbfc7ee78	-1.561965
183	0xbf32e56d	-0.69881326
184	0xbf83a567	-1.0284852
185	0x3e404b19	0.18778647
186	0xbf66e07b	-0.9018628
187	0xbf615fa2	-0.8803655
188	0xbe3a0b00	-0.18168259
189	0xbf6648c4	-0.8995478
190	0xbf4d4d84	-0.80196404
191	0x3efa883b	0.4893206
192	0xbd71f94a	-0.05907563
193	0x3ecf46c5	0.4048368
194	0xbec8a139	-0.39185503
195	0x3f226272	0.63431466
196	0x3e1e8ae9	0.15482678
197	0x3c8db707	0.017299188
198	0x3f41dc23	0.75726527
199	0xbf1fdf60	-0.6245022
200	0x3e3bf01b	0.18353312
201	0xbdb48fe1	-0.08816505
202	0x3eee6f09	0.46569088
203	0x3f8117b9	1.0085365
204	0xbef81126	-0.48450583
205	0x3f079cb0	0.5297346
206	0x3fac595e	1.3464773
207	0x3f5ea0f1	0.8696433
208	0x3dc64539	0.09681172
209	0x3f11018b	0.5664298
210	0x3e955d56	0.29172772
211	0x3e241120	0.16022158
212	0x3d4c61f0	0.049898088
213	0x3f20d447	0.6282391
214	0x3f3b0e06	0.73068273
215	0x3efb1312	0.49037987
216	0x3f148424	0.5801413
217	0x3f729682	0.94760907
218	0x3d300b0d	0.04297929
219	0x3df4f2b4	0.119603544
220	0x3ea12270	0.31471586
221	0x3ec53157	0.38514206
222	0x3e8e27d4	0.2776476
223	0xbe29167e	-0.16512486
224	0x3fa583d8	1.293086
225	0xbe2240d3	-0.15845041
226	0x3cc724ae	0.024309482
227	0xbf0c2256	-0.5473989
228	0xbec4eb14	-0.384606
229	0x3e0aad73	0.13542728
230	0x3e89740a	0.26846343
231	0xbf5d2802	-0.8638917
232	0xbf0bbaa2	-0.54581654
233	0xbef453a9	-0.47720078
234	0xbee56209	-0.44801357
235	0x3c798fb5	0.015232016
236	0xbf16f867	-0.5897278
237	0xbec36a66	-0.38167113
238	0x3d8339f9	0.06407542
239	0xbeb68b59	-0.3565319
240	0xbf929c8d	-1.1454026
241	0xbea45cd5	-0.32102075
242	0xbef939ad	-0.48676816
243	0x3e988802	0.29791266
244	0x3ea35378	0.3189962
245	0xbcfae3ee	-0.030626263
246	0xbf067cb8	-0.52534056
247	0x3e6bbdb2	0.23021582
248	0x3f4458d1	0.76698023
249	0xbf4aaff3	-0.7917473
250	0x3db49c93	0.08818927
251	0xbd5cef3e	-0.053939097
252	0x3d6266be	0.055273764
253	0x3f34f694	0.7068875
254	0x3e552600	0.20815277
255	0x3dd2e708	0.10297972

fc2.bias f4 [25]
0	0xbe8d96cf	-0.2765412
1	0xbe678925	-0.2261091
2	0x3dd421d9	0.103580184
3	0xbdd49f1b	-0.103819095
4	0xbe3cd8c0	-0.18442059
5	0xbe6e838d	-0.2329237
6	0xbdb3a268	-0.08771211
7	0x3e836591	0.25663427
8	0xbe5ab2c7	-0.2135726
9	0x3e31a291	0.1734717
10	0xbc930161	-0.017944993
11	0x3e56fe87	0.20995532
12	0x3ebae67b	0.36503968
13	0x3e96f85b	0.29486355
14	0x3d855eab	0.06512197
15	0x3e998e9e	0.2999162
16	0x3cea2da6	0.02858622
17	0x3e332d41	0.17497732
18	0xbe5dc286	-0.21656236
19	0xbdef006c	-0.11670002
20	0xbc345888	-0.011007436
21	0x3dc39a9a	0.09550972
22	0xbde622f6	-0.11237137
23	0xbd85fcdb	-0.06542369
24	0xbd978f06	-0.074003264

ps_out.weight f4 [2, 25]
0	0x3f736a16	0.9508375
1	0x3fbd007f	1.4765776
2	0x3db9479f	0.09046864
3	0x3e0fadc6	0.14031133
4	0xbc7835ed	-0.015149576
5	0x3fb4d44e	1.412729
6	0x3ef1f504	0.47257245
7	0xbfc87850	-1.5661716
8	0x3f7e24b5	0.9927476
9	0xbf9cffee	-1.2265604
10	0x3e701309	0.23444761
11	0xbfb05b0d	-1.3777786
12	0xbf95c730	-1.1701412
13	0xbfccd0c8	-1.6001215
14	0x3f0b8505	0.54499847
15	0xbfa52a01	-1.2903444
16	0x3e612078	0.21985042
17	0xbf8b3503	-1.0875553
18	0x3f452be5	0.770201
19	0x3ea02e85	0.31285492
20	0x3ec4fb5d	0.38473025
21	0xbfe1dcb7	-1.7645482
22	0x3fb8a1f4	1.4424424
23	0x3f08fceb	0.5351092
24	0xbfc6296b	-1.548139
25	0xbf616d62	-0.8805753
26	0xbfc05ef3	-1.5028976
27	0xbe9a11ad	-0.3009161
28	0xbf040eef	-0.51585287
29	0xbdcf9f05	-0.101377524
30	0xbfbbed61	-1.4681817
31	0xbede60e6	-0.43433303
32	0x3fcd52f2	1.6040938
33	0xbfae9034	-1.3637757
34	0x3f8f9661	1.1217767
35	0xbea84514	-0.32865202
36	0x3fa7dd80	1.3114471
37	0x3f64e016	0.8940443
38	0x3fd34b4c	1.6507354
39	0xbe8c6850	-0.27423334
40	0x3fa80882	1.3127596
41	0xbedad47c	-0.42740238
42	0x3f7c7329	0.9861322
43	0xbf8b5cca	-1.0887692
44	0xbf165f72	-0.5873939
45	0xbf06d6ab	-0.5267131
46	0x3fee7faa	1.863271
47	0xbfa9f165	-1.3276793
48	0xbe60deae	-0.21959946
49	0x3fc228a2	1.516865

ps_out.bias f4 [2]
0	0xbd88ddf7	-0.066829614
1	0x3e65a66f	0.2242677
