Propensity_Model/DCN_PD_NN_Models/NN_PS_model_iter_id_29_epoch_100_lr_0.001.pth (torch_old, 6441 bytes, 6 tensors)

fc1.weight f4 [25, 25]
0.028588457 0.10761695 -0.07413924 0.11455673 -0.20195632 -0.12393541 -0.27943 0.39599675
-0.13660984 0.1817982 0.07408107 -0.23059106 -0.29738125 -0.17951278 -0.21818082 0.08450101
-0.08530989 -0.3052633 -0.21057129 0.37630117 -0.117313646 0.21090247 -0.27765045 0.37553427
-0.14342214 -0.11263752 -0.13332345 0.25740394 -0.18862413 0.02353766 0.21215795 0.17095362
0.066027515 0.019873595 0.002054457 -0.15002857 0.15144895 -0.051160894 0.0028208273 0.219645
0.17310116 0.129668 -0.109446205 0.14600208 0.11448751 -0.028225927 0.28012896 0.30733493
-0.06900486 -0.36068785 -0.05355875 0.012209107 -0.054401223 -0.27609447 0.0204292 0.3335097
0.1372089 -0.067820914 0.12921719 -0.24192572 0.05508536 0.21993855 0.059854507 0.20200194
-0.017993843 0.022751411 -0.17307691 -0.013722097 -0.018254206 0.002859629 0.12739192 -0.026589384
-0.2921265 -0.25226527 0.3174584 -0.25537354 0.34467176 0.07119873 0.1257385 -0.012125166
-0.07397374 0.0023815846 0.36153907 -0.11757348 -0.042010896 0.2354651 0.033796694 0.3094826
0.15116706 -0.09003273 -0.015260783 -0.18977393 -0.27595416 -0.15732597 0.2345178 -0.31819025
-0.36835167 -0.08710216 -0.34552455 -0.19728506 0.046199545 -0.15554774 0.18495163 -0.24435195
-0.08870017 0.20533426 -0.60254645 0.31070647 0.065941684 -0.16710508 0.10549991 0.19645023
0.10267585 0.10942439 0.1573223 -0.07664042 -0.47476265 -0.105160594 0.029897882 0.15095639
0.16587418 -0.2753625 0.074641444 -0.25924227 -0.35644448 0.1907854 -0.002029228 0.07340698
-0.31648466 0.08076437 0.13714871 0.009981494 -0.31004077 -0.27500466 0.08633344 0.099970564
-0.045716025 -0.39340335 0.22095622 0.4397509 -0.21507497 -0.27250624 0.050634246 -0.20014407
0.27213034 -0.16548748 -0.097410254 0.026634222 0.19825144 -0.07711861 0.06321882 -0.20204303
-0.047327247 0.05480957 0.018388042 0.08127064 -0.21120304 0.025143495 -0.35382357 0.10016056
0.17802487 -0.007169943 -0.0971365 -0.05834039 0.06904047 0.21735184 -0.06539625 0.14172792
0.24904177 0.05509298 -0.18118802 -0.013777569 0.2149566 0.090872824 -0.26198667 -0.07011699
0.26256192 0.32635117 -0.21217668 -0.15458898 -0.20026526 -0.17262067 0.051950745 0.19425084
-0.11550534 -0.3247326 0.17884125 -0.17142849 0.040626977 0.06860217 0.0479301 0.092172846
-0.14968981 0.22091922 0.24356142 -0.1178966 -0.024760991 -0.20938542 0.367015 -0.42755955
-0.02419239 0.34385112 -0.17849778 -0.00071117503 0.048637923 -0.17239946 -0.053267587 -0.1187602
-0.118081294 -0.26508883 0.15558253 0.20336121 0.011470385 0.05282544 -0.49818584 -0.014889003
0.08523187 -0.09654583 -0.060907017 0.43552634 -0.09971872 -0.25040424 -0.1767116 0.16091262
-0.119259164 0.32273936 -0.34167412 0.08931988 0.24555644 0.18085252 -0.042519182 -0.1655529
0.23689026 -0.18370359 0.21599005 0.012264504 -0.010624376 -0.14173983 -0.026075903 0.029698905
0.13587664 -0.097656675 0.05586833 0.17383364 0.3111297 -0.30148834 -0.45665413 0.47034904
-0.038072456 0.020148596 0.18855238 0.08268258 -0.07716529 0.13966288 0.07456716 -0.12705366
00000000: 5732 ea3c 4766 dc3d 50d6 97bd b89c ea3d
00000010: a3cd 4ebe d9d1 fdbd 7311 8fbe 16c0 ca3e
00000020: 73e3 0bbe 4f29 3a3e d1b7 973d 1020 6cbe
00000030: 5b42 98be 33d2 37be cb6a 5fbe de0e ad3d
00000040: f4b6 aebd 794b 9cbe 00a0 57be 8caa c03e
00000050: 2342 f0bd d1f6 573e 3328 8ebe 0746 c03e
00000060: 41dd 12be 80ae e6bd f185 08be 73ca 833e
00000070: af26 41be 0dd2 c03c ef3f 593e 770e 2f3e
00000080: 6f39 873d f3cd a23c 12a4 063b 17a1 19be
00000090: 6f15 1b3e 168e 51bd a1dd 383b 9eea 603e
000000a0: 6e41 313e b0c7 043e 5525 e0bd 9281 153e
000000b0: 6d78 ea3d 0f3a e7bc 106d 8f3e 015b 9d3e
000000c0: 6c52 8dbd 14ac b8be 6b60 5bbd b508 483c
000000d0: d1d3 5ebd 415c 8dbe 235b a73c c9c1 aa3e
000000e0: 7d80 0c3e b1e5 8abd 8351 043e 60bb 77be
000000f0: 30a1 613d 9237 613e 002a 753d 99d9 4e3e
00000100: d367 93bc 2b61 ba3c 133b 31be a5d2 60bc
00000110: d889 95bc 9d68 3b3b 0773 023e fbd1 d9bc
00000120: 9b91 95be ea28 81be e889 a23e 52c0 82be
00000130: d178 b03e a4d0 913d 98c1 003e a2a8 46bc
00000140: 8b7f 97bd 5c14 1c3b a61b b93e 5dca f0bd
00000150: 9e13 2cbd c31d 713e 676e 0a3d 8174 9e3e
00000160: 8acb 1a3e 1463 b8bd 5d08 7abc 1954 42be
00000170: dd49 8dbe 0f1a 21be 6f25 703e d5e9 a2be
00000180: 9798 bcbe 9e62 b2bd 98e8 b0be 1805 4abe
00000190: bc3b 3d3d e847 1fbe f663 3d3e 6637 7abe
000001a0: 6fa8 b5bd 2543 523e 7c40 1abf eb14 9f3e
000001b0: 6f0c 873d 981d 2bbe 5610 d83d 402a 493e
000001c0: b747 d23d e519 e03d 1919 213e a7f5 9cbd
000001d0: 1714 f3be 705e d7bd 67ec f43c 5094 1a3e
000001e0: ecda 293e 50fc 8cbe 9ddd 983d 67bb 84be
000001f0: e47f b6be 3f5d 433e ccfc 04bb 6656 963d
00000200: 470a a2be ca67 a53d b670 0c3e 6c89 233c
00000210: aabd 9ebe 69cd 8cbe 96cf b03d 5ebd cc3d
00000220: ba40 3bbd 2a6c c9be 5942 623e 0827 e13e
00000230: 9d3c 5cbe f085 8bbe db65 4f3d 91f2 4cbe
00000240: ab54 8b3e 8d75 29be 077f c7bd 0330 da3c
00000250: 6d02 4b3e 5df0 9dbd de78 813d 5ee4 4ebe
00000260: 37da 41bd 0080 603d 85a2 963c 3971 a63d
00000270: 9c45 58be bbf9 cd3c 5d28 b5be fb20 cd3d
00000280: 274c 363e d7f1 eabb 80ef c6bd 55f6 6ebd
00000290: 1765 8d3d 7b91 5e3e 78ee 85bd 2021 113e
000002a0: ce04 7f3e 2da9 613d 5a89 39be 50bb 61bc
000002b0: 951d 5c3e 881b ba3d 1e23 86be 7f99 8fbd
000002c0: 846e 863e 8017 a73e d844 59be 934c 1ebe
000002d0: 5612 4dbe 79c3 30be 4eca 543d b1e9 463e
000002e0: 108e ecbd 5a43 a6be 2922 373e f38a 2fbe
000002f0: 7968 263d 4b7f 8c3d 5a52 443d 1ec5 bc3d
00000300: 4948 19be a638 623e 2a68 793e c673 f1bd
00000310: 90d7 cabc 2269 56be 64e9 bb3e 16e9 dabe
00000320: 1e2f c6bc 410d b03e 1fc8 36be 266e 3aba
00000330: 8f38 473d 7c89 30be 1d2f 5abd 8c38 f3bd
00000340: 9bd4 f1bd b9b9 87be 0751 1f3e ec3d 503e
00000350: 48ee 3b3c 7d5f 583d 3712 ffbe 01f1 73bc
00000360: 0c8e ae3d d2b9 c5bd a379 79bd 4ffd de3e
00000370: 5439 ccbd fc34 80be e3f3 34be 47c6 243e
00000380: 263e f4bd 183e a53e e9ef aebe 57ed b63d
00000390: 2673 7b3e 6731 393e 9828 2ebd b386 29be
000003a0: 5c93 723e cb1c 3cbe 7f2c 5d3e 0ff1 483c
000003b0: dd11 2ebc 3f24 11be 229d d5bc 1e4b f33c
000003c0: 3f23 0b3e 3900 c8bd 31d6 643d 7201 323e
000003d0: 644c 9f3e ae5c 9abe 92ce e9be 97d1 f03e
000003e0: ddf1 1bbd ab0e a53c e013 413e 7c55 a93d
000003f0: d608 9ebd c903 0f3e abb6 983d 5b1a 02be

fc1.bias f4 [25]
0.09827562 0.06729072 0.14158672 -0.05783322 0.01726082 -0.14095055 0.18319853 -0.25586712
-0.19759817 0.13667478 -0.0067666015 -0.12912647 0.04725085 -0.1424285 -0.031267174 0.08938854
0.08750328 -0.26526845 -0.0074391374 -0.1663741 -0.020796115 -0.22160481 0.1979766 -0.037353925
-0.21292563
00000000: ba44 c93d b8cf 893d 1cfc 103e 87e2 6cbd
00000010: 9066 8d3c 5755 10be 6598 3b3e 0401 83be
00000020: 2d57 4abe 79f4 0b3e 5eba ddbb bb39 04be
00000030: 1b8a 413d c7d8 11be 0212 00bd 5711 b73d
00000040: eb34 b33d 44d1 87be 02c4 f3bb f95d 2abe
00000050: 9d5c aabc 5fec 62be 61ba 4a3e 6e00 19bd
00000060: 2d09 5abe

fc2.weight f4 [25, 25]
-0.5411598 0.17199326 -0.047920533 -0.6292655 -0.57413554 0.19676265 0.29654264 -0.36755452
-0.33999807 0.019996975 -0.44810224 0.43121746 -0.21646464 -0.2889128 -0.26651022 0.19645867
0.41810566 -0.19891776 0.3527679 0.6195527 0.022125982 -0.44640303 0.0844476 -1.1252748
0.4790198 0.64603114 0.2299631 0.0065159146 0.6719444 0.3041789 -0.41077068 0.13279973
0.5994536 0.23144811 0.421166 0.37443745 -0.14200668 0.18291163 0.3157179 0.28872615
0.23123968 -0.07882224 0.08535706 -0.038782306 -0.46371862 0.103979565 0.7928213 0.32119623
0.97749186 -0.40767655 1.0721943 -0.14341733 0.24561338 0.7066809 0.5511956 -0.43951184
0.14823027 0.50785565 0.25494072 0.48788247 0.37732303 -0.3066504 0.2544354 0.33189142
0.273208 -0.064814486 -0.17551857 0.5118476 -0.120353885 -0.35116348 0.09911385 0.76069355
0.11603045 1.2372643 -0.21088651 -0.043385353 -0.04559372 -0.17486614 0.09746686 0.04106634
-0.16620025 -0.0032693392 0.044987634 -0.06316346 0.1091465 0.112295054 0.023738235 -0.16685483
0.036630776 -0.0814172 0.1522569 -0.12463413 -0.13528094 0.08660652 -0.022964276 -0.09668497
0.0069522653 -0.18484798 -0.19450846 0.08298634 0.96150315 0.29284605 0.13969812 0.5092684
0.48836824 -0.57320815 0.1464818 0.76651615 0.44312683 0.26583606 0.57584566 -0.3279523
0.21021509 0.12904108 0.27905232 0.27897996 -0.15851746 0.013351175 0.098591104 -0.22569236
-0.050625943 0.4895294 0.097802885 0.9225949 -0.26938784 1.2003242 0.15906772 0.18266486
0.6624327 0.21769036 -0.4701423 0.09585391 0.67471457 0.33691385 0.43887737 0.51495796
-0.40478468 0.20200138 0.32341525 0.3379611 0.030024175 -0.07565305 0.12430362 0.07254419
-0.36085945 0.020416096 0.25966346 0.31955197 1.1681557 -0.26735964 -0.121562876 0.012418849
0.25239295 -0.4339001 -0.48693156 0.7114894 -0.18132105 -0.17150493 -0.3742304 -0.12290239
-0.37567204 0.4655104 -0.249064 -1.0468813 0.14165282 0.030518848 0.020293195 -0.06454475
0.43734834 0.42632627 0.13665439 -0.30912384 -0.36812595 -0.34431767 0.5015057 -0.14402306
-0.16161047 0.08612888 0.032389987 -0.09688904 0.21462548 -0.16539672 0.22356506 -0.08709379
0.17853107 -0.0105625605 0.47773623 -0.23425472 -0.22333923 -0.034510758 0.14062168 -0.27135864
0.083152846 0.09897598 0.26001662 0.14226897 -0.30823866 -0.30674174 -0.32673737 -0.27904016
0.6921122 0.22037528 0.119392835 0.63052607 0.40565237 -0.53499585 0.07786142 0.5986473
0.3834266 0.45377305 0.38295665 -0.28722426 0.14585233 0.343799 0.14766112 0.25247103
-0.09916236 0.041237146 0.09933207 -0.35104847 0.17955597 0.50217503 0.23757623 0.8253284
-0.42292055 -0.55784696 -0.09837732 -0.47177407 -0.21685015 0.16434044 -0.19098562 0.520102
-0.38488063 -0.70824015 0.21201369 -0.3936273 0.32804918 -0.25529957 0.05213276 -0.7124033
0.29194006 0.35667095 -0.2063902 -0.0073627303 0.34162062 -0.5925807 0.00032320136 0.2025818
-1.0260816 -0.39646333 0.901212 0.092384495 0.21559599 0.37970293 0.30751577 -0.48055816
00000000: 7389 0abf 001f 303e 5248 44bd 8b17 21bf
00000010: 8cfa 12bf 267c 493e 70d4 973e 1b30 bcbe
00000020: 3a14 aebe b2d0 a33c a86d e5be 89c8 dc3e
00000030: e8a8 5dbe 61ec 93be 0774 88be 762c 493e
00000040: f211 d63e 19b1 4bbe ff9d b43e 019b 1e3f
00000050: 8c41 b53c f08e e4be ddf2 ac3d 0109 90bf
00000060: 1542 f53e 4c62 253f 727b 6b3e 7483 d53b
00000070: 8c04 2c3f 56bd 9b3e 8950 d2be a7fc 073e
00000080: cb75 193f bc00 6d3e 12a3 d73e 44b6 bf3e
00000090: 336a 11be 304d 3b3e c7a5 a13e ead3 933e
000000a0: 18ca 6c3e 8e6d a1bd afcf ae3d 32da 1ebd
000000b0: 876c edbe 3df3 d43d 56f6 4a3f d573 a43e
000000c0: e83c 7a3f fbba d0be aa3d 893f fedb 12be
000000d0: 1382 7b3e 0ae9 343f 281b 0d3f b207 e1be
000000e0: adc9 173e d402 023f 9787 823e bbcb f93e
000000f0: 7c30 c13e 4801 9dbe 5b45 823e aced a93e
00000100: ebe1 8b3e 75bd 84bd 24bb 33be 7208 033f
00000110: 197c f6bd b3cb b3be 34fc ca3d d0bc 423f
00000120: 5fa1 ed3d ad5e 9e3f a2f2 57be d7b4 31bd
00000130: 7bc0 3abd 1c10 33be b59c c73d 2e35 283d
00000140: 6630 2abe 6942 56bb f444 383d d85b 81bd
00000150: 3388 df3d f3fa e53d b076 c23c fedb 2abe
00000160: 270a 163d 10be a6bd 3ce9 1b3e 2e40 ffbd
00000170: 1687 0abe c25e b13d 941f bcbc c502 c6bd
00000180: d4cf e33b ca48 3dbe 3a2d 47be bef4 a93d
00000190: 1225 763f ebef 953e 060d 0f3e 6a5f 023f
000001a0: 670b fa3e c5bd 12bf 53ff 153e 673a 443f
000001b0: 85e1 e23e aa1b 883e 9f6a 133f 5de9 a7be
000001c0: a042 573e 5823 043e f2df 8e3e 76d6 8e3e
000001d0: 6752 22be e3be 5a3c 22ea c93d e61b 67be
000001e0: 265d 4fbd 99a3 fa3e e14c c83d 2e2f 6c3f
000001f0: 34ed 89be 39a4 993f a6e2 223e 7f0c 3b3e
00000200: 3095 293f 39ea 5e3e 7eb6 f0be 0e4f c43d
00000210: 18ba 2c3f f97f ac3e 89b4 e03e 49d4 033f
00000220: f03f cfbe 73d9 4e3e af96 a53e 3d09 ad3e
00000230: 42f5 f53c fcef 9abd e592 fe3d 0c92 943d
00000240: 92c2 b8be a83f a73c 9cf2 843e 519c a33e
00000250: 2086 953f 5de3 88be f5f5 f8bd 6e78 4b3c
00000260: a639 813e 2728 debe 184f f9be 2b24 363f
00000270: 3aac 39be fd9e 2fbe 219b bfbe 40b4 fbbd
00000280: 1658 c0be 6157 ee3e a20a 7fbe 3500 86bf
00000290: 700d 113e aa02 fa3c ea3d a63c 0a30 84bd
000002a0: 1fec df3e 7047 da3e 21ef 0b3e 7b45 9ebe
000002b0: 017b bcbe 684a b0be ad62 003f c87a 13be
000002c0: 377d 25be 5764 b03d 5dab 043d c36d c6bd
000002d0: c8c6 5b3e c25d 29be 3dee 643e 3b5e b2bd
000002e0: d9d0 363e 970e 2dbc d899 f43e 78e0 6fbe
000002f0: 0ab3 64be 275b 0dbd 21ff 0f3e 85ef 8abe
00000300: 0a4c aa3d ebb3 ca3d e620 853e f5ae 113e
00000310: 75d1 9dbe 410d 9dbe 1f4a a7be 5ade 8ebe
00000320: 442e 313f 0faa 613e 3b84 f43d 286a 213f
00000330: abb1 cf3e 7df5 08bf cf75 9f3d f340 193f
00000340: 7e50 c43e f154 e83e e512 c43e 0f0f 93be
00000350: 505a 153e 6c06 b03e 7a34 173e e243 813e
00000360: a315 cbbd 48e8 283d 9d6e cb3d a0bc b3be
00000370: 85dd 373e 8b8e 003f 2f47 733e b948 533f
00000380: 0b89 d8be 0fcf 0ebf 0c7a c9bd 5f8c f1be
00000390: f70d 5ebe dc48 283e bc91 43be 6825 053f
000003a0: 130f c5be 3a4f 35bf 1e1a 593e 8489 c9be
000003b0: 10f6 a73e a0b6 82be 2989 553d 1060 36bf
000003c0: 2b79 953e 939d b63e f457 53be 0f43 f1bb
000003d0: e6e8 ae3e 5eb3 17bf 5a73 a939 9a71 4f3e
000003e0: a456 83bf 3efd cabe d4b5 663f 1534 bd3d
000003f0: 32c5 5c3e 6c68 c23e b572 9d3e b80b f6be

fc2.bias f4 [25]
0.13869914 -0.104552 0.11881504 -0.15844578 -0.13313201 -0.22734216 0.11171914 0.102420546
-0.23416288 0.21434167 0.0054546315 -0.09159318 0.11210071 -0.09841348 -0.08444961 0.12084321
0.05880424 -0.008253173 -0.06604498 -0.12550932 -0.13600108 -0.027792426 0.09169446 -0.039882135
0.16289525
00000000: 2607 0e3e 5c1f d6bd 4d55 f33d 9c3f 22be
00000010: c253 08be 62cc 68be 01cd e43d ddc1 d13d
00000020: 65c8 6fbe 627c 5b3e c4bc b23b 3595 bbbd
00000030: 0f95 e53d 028d c9bd ebf3 acbd a57c f73d
00000040: b7dc 703d 5138 07bc 9742 87bd 8485 00be
00000050: de43 0bbe f1ac e3bc 4eca bb3d 735b 23bd
00000060: 03ce 263e

ps_out.weight f4 [2, 25]
-0.67546785 0.65973437 0.35348147 -0.010257689 0.8580868 0.9830339 -0.70143545 -0.37336656
0.53749037 -0.8986198 0.23368156 0.4110033 -0.42377836 0.8615924 0.8828375 0.38191766
0.41196024 -0.71676046 0.65557235 -0.07967138 0.72745943 0.3803104 0.45813277 0.33120427
-0.59479296 0.75564885 -0.526234 -0.38411564 0.06038301 -0.7919879 -1.1601393 0.7134098
0.42114186 -0.28320715 0.9662244 -0.4236079 -0.40839425 0.3656505 -0.95328116 -0.80201125
-0.39996582 -0.07388237 0.76231176 -0.6167174 0.0335007 -0.7499368 -0.38607126 -0.1253385
-0.28189176 0.8759554
00000000: 76eb 2cbf 5ae4 283f 86fb b43e de0f 28bc
00000010: 94ab 5b3f 1ca8 7b3f 4691 33bf e729 bfbe
00000020: f898 093f f20b 66bf 384a 6f3e 066f d23e
00000030: 7af9 d8be 5291 5c3f a301 623f b68a c33e
00000040: 74ec d23e 9d7d 37bf 97d3 273f c02a a3bd
00000050: c83a 3a3f 0bb8 c23e 6190 ea3e 9b93 a93e
00000060: 5a44 18bf 3472 413f 45b7 06bf ceaa c4be
00000070: 2d54 773d b8bf 4abf 727f 94bf 06a2 363f
00000080: e89f d73e 8700 91be 7b5a 773f 22e3 d8be
00000090: 0d19 d1be 8b36 bb3e 3c0a 74bf 9c50 4dbf
000000a0: 52c8 ccbe a44f 97bd dd26 433f 31e1 1dbf
000000b0: 0838 093d dcfb 3fbf 22ab c5be bc58 00be
000000c0: 1e54 90be 9d3e 603f

ps_out.bias f4 [2]
0.079984725 0.21137592
00000000: 08cf a33d ee72 583e
