Propensity_Model/DCN_PD_NN_Models/NN_PS_model_iter_id_77_epoch_100_lr_0.001.pth (torch_old, 6441 bytes, 6 tensors)

fc1.weight f4 [25, 25]
-0.0054780534 -0.13614643 -0.18420842 -0.042269897 0.21538396 -0.012291526 0.0025631306 0.12797143
0.15114081 0.20991385 0.15138842 0.1626583 -0.083512954 0.13864179 -0.036359496 -0.14106858
-0.09531481 0.21512482 0.21133469 0.22328313 -0.100228034 -0.19565827 0.12053975 0.06730884
0.2494013 -0.25392604 -0.0023151608 0.17347421 -0.027110182 0.04900367 -0.11991649 -0.17071727
0.24045585 0.07749601 0.11233974 -0.076729454 -0.341408 0.06178884 0.04474865 -0.46054688
-0.121095955 0.34681696 0.03973534 0.00077465066 -0.24459533 0.13985327 0.26679644 0.049804956
-0.28453127 0.374833 -0.011722654 0.10860224 0.3925271 -0.013191643 0.102978766 0.03687828
-0.30304083 0.07053535 0.23166785 0.17443052 0.06532524 0.018849272 -0.19166778 0.01749533
0.26911527 0.114472575 -0.0275821 0.03968658 0.039298862 0.019720456 -0.084898435 -0.0034036948
0.34496605 -0.155332 -0.44779825 0.2074065 -0.32105967 0.09101611 -0.2804247 0.17627662
0.26495606 0.07018041 -0.08059942 0.07746568 -0.12089792 0.16447526 -0.10864215 -0.0817362
0.121966094 0.36548424 0.2870321 -0.20460956 0.027780237 0.1937022 0.37816787 -0.06964879
0.2730766 0.25953794 -0.39092532 0.063540325 0.210377 0.22106563 -0.14119597 0.07251703
0.21228789 -0.08844268 0.11148981 0.08740906 -0.36930823 -0.10560981 0.30922633 0.07351237
-0.14770472 0.17190062 -0.27562517 0.17941184 0.031552564 -0.019517772 -0.16632508 0.35040462
-0.24420647 0.14207919 -0.30040917 -0.08235173 -0.19308022 -0.26054397 0.33726582 -0.09269058
-0.03607755 -0.09191872 -0.0068224263 -0.2247091 0.19216336 0.15183757 -0.0628609 -0.10047576
0.08726947 0.018269746 -0.040137243 0.3032292 0.21720524 0.113073714 -0.07411378 0.09335844
-0.005521763 0.36836752 0.14724071 -0.016744807 -0.1734744 0.1611872 -0.09674739 0.28706288
-0.2944475 -0.09506294 0.15223956 -0.07505168 0.027623747 -0.3168779 -0.21046147 0.0629089
-0.22109988 -0.012696926 0.015119265 0.19076265 -0.6622277 -0.18268572 0.040635202 0.025315957
-0.31994063 -0.047121502 0.26100636 0.00085265323 0.3669321 0.6117871 -0.41197303 -0.09336464
-0.19750784 0.18510452 0.01893484 0.08915921 0.17872936 0.17148915 -0.24391113 0.0051982594
-0.21613134 -0.10569021 -0.18984595 -0.27603036 0.15039541 -0.09681558 0.16514443 0.1668247
0.08825144 0.077074066 0.3598643 -0.42974913 0.15526885 0.2651902 -0.026477944 -0.39909673
0.14644712 -0.14012802 0.024530094 0.20337088 0.5734579 0.23114559 0.1121503 -0.018589867
-0.09534924 0.25961173 -0.3446035 -0.106222644 -0.15370667 -0.26523703 -0.49123377 -0.07583955
-0.357551 0.027364297 0.0749957 0.05606947 -0.0327773 -0.7694343 -0.38641495 -0.4762392
-0.17685805 0.03801839 0.0971988 0.069964 -0.007832105 0.033151355 -0.14440879 -0.1010064
-0.12647364 -0.05779587 -0.16223992 -0.20259692 0.2022284 -0.25425717 0.06094646 -0.34532744
0.22986266 0.20741357 0.02542299 0.16439925 0.14414479 0.13338542 0.03807083 0.15278924
0.14640144 -0.08323546 0.105450906 -0.19944134 -0.28262335 0.023037966 0.21965338 -0.1279462
00000000: 3e81 b3bb f869 0bbe 22a1 3cbe 3323 2dbd
00000010: 9d8d 5c3e 6662 49bc 32fa 273b f10a 033e
00000020: a8c4 1a3e a8f3 563e 9105 1b3e e68f 263e
00000030: d708 abbd 1df8 0d3e b2ed 14bd 4874 10be
00000040: 6934 c3bd ae49 5c3e 1f68 583e 55a4 643e
00000050: 5b44 cdbd a45a 48be 8bdd f63d 38d9 893d
00000060: 0e63 7f3e 9802 82be f4b9 17bb 39a3 313e
00000070: 2c16 debc 13b8 483d c796 f5bd 82d0 2ebe
00000080: 0f3a 763e 3ab6 9e3d 6112 e63d 5524 9dbd
00000090: 08cd aebe 4b16 7d3d 5c4a 373d cdcc ebbe
000000a0: 2801 f8bd fe91 b13e 86c1 223d ed11 4b3a
000000b0: 3377 7abe b235 0f3e 8b99 883e 4800 4c3d
000000c0: 15ae 91be 1cea bf3e 6010 40bc da6a de3d
000000d0: 50f9 c83e c321 58bc 88e6 d23d ae0d 173d
000000e0: 2b28 9bbe d674 903d 563a 6d3e ea9d 323e
000000f0: 3dc9 853d ca69 9a3c 8f44 44be 5e52 8f3c
00000100: 7ac9 893e 9970 ea3d dbf3 e1bc 658e 223d
00000110: d8f7 203d cb8c a13c 3bdf adbd 8610 5fbb
00000120: 649f b03e 5a0f 1fbe d045 e5be 5f62 543e
00000130: ef61 a4be a766 ba3d d493 8fbe dc81 343e
00000140: 52a8 873e bfba 8f3d 4f11 a5bd 54a6 9e3d
00000150: 5499 f7bd 346c 283e c77f debd 4f65 a7bd
00000160: 5cc9 f93d c020 bb3e dff5 923e 2b85 51be
00000170: 6193 e33c df59 463e 389f c13e 06a4 8ebd
00000180: b2d0 8b3e 28e2 843e 5d27 c8be 6e21 823d
00000190: 116d 573e 075f 623e ad95 10be cf83 943d
000001a0: ff61 593e 7021 b5bd c554 e43d 8503 b33d
000001b0: f815 bdbe f549 d8bd ea52 9e3e a78d 963d
000001c0: e83f 17be b706 303e be1e 8dbe bdb7 373e
000001d0: 433d 013d bce3 9fbc 1f51 2abe 3c68 b33e
000001e0: 4311 7abe 357d 113e 3bcf 99be 06a8 a8bd
000001f0: d2b6 45be 0566 85be 1bae ac3e 8fd4 bdbd
00000200: 0ec6 13bd e23f bcbd a98e dfbb 241a 66be
00000210: 79c6 443e 4f7b 1b3e 37bd 80bd 3cc6 cdbd
00000220: 56ba b23d 6faa 953c f366 24bd dc40 9b3e
00000230: 0d6b 5e3e 3193 e73d f7c8 97bd b632 bf3d
00000240: e8ef b4bb ab9a bc3e 45c6 163e 682c 89bc
00000250: 46a3 31be 420e 253e 7f23 c6bd e8f9 923e
00000260: d3c1 96be 5cb0 c2bd b0e4 1b3e b2b4 99bd
00000270: 324b e23c d23d a2be 3683 57be 62d6 803d
00000280: 0268 62be c406 50bc cbb6 773c 4957 433e
00000290: c187 29bf f711 3bbe 1971 263d 6963 cf3c
000002a0: 42cf a3be 7a02 41bd a0a2 853e 9784 5f3a
000002b0: 86de bb3e 149e 1c3f 21ee d2be f635 bfbd
000002c0: 7f3f 4abe 0a8c 3d3e 3d1d 9b3c 1b99 b63d
000002d0: d404 373e da9a 2f3e d7c3 79be 2956 aa3b
000002e0: 8951 5dbe 1c74 d8bd fa66 42be da53 8dbe
000002f0: 4101 1a3e 3f47 c6bd 9f1b 293e 18d4 2a3e
00000300: 2cbd b43d 02d9 9d3d 2240 b83e 1408 dcbe
00000310: ccfe 1e3e 03c7 873e 46e8 d8bc 6856 ccbe
00000320: 3cf6 153e b87d 0fbe 56f3 c83c 7540 503e
00000330: 23ce 123f 6eb1 6c3e 0eaf e53d c749 98bc
00000340: 7646 c3bd d4eb 843e df6f b0be 428b d9bd
00000350: 4865 1dbe 26cd 87be fe82 fbbe c451 9bbd
00000360: ed10 b7be 172b e03c 5897 993d 1aa9 653d
00000370: 7d41 06bd a5f9 44bf 2ed8 c5be a0d5 f3be
00000380: 471a 35be 2cb9 1b3d 2a10 c73d 4949 8f3d
00000390: 3b52 00bc b7c9 073d e6df 13be 72dc cebd
000003a0: 4e82 01be 5dbb 6cbd 3922 26be 9175 4fbe
000003b0: f614 4f3e ff2d 82be ffa2 793d c2ce b0be
000003c0: 1e61 6b3e 3964 543e e043 d03c 4758 283e
000003d0: b19a 133e 3096 083e 29f0 1b3d c874 1c3e
000003e0: 42ea 153e 5a77 aabd a5f6 d73d 5a3a 4cbe
000003f0: 02b4 90be 1eba bc3c d1ec 603e 5404 03be

fc1.bias f4 [25]
0.1386914 0.030662717 -0.16404524 0.10864922 0.16476953 0.016536029 0.012185025 0.03777875
-0.1852759 -0.1611763 0.17999555 -0.13840505 -0.06609612 -0.04762186 -0.1697038 -0.05227344
0.0205728 0.25387582 0.1116772 -0.09894301 0.16823614 -0.21489912 -0.05480372 0.06397062
0.16422419
00000000: 1e05 0e3e 6130 fb3c 7afb 27be 7b83 de3d
00000010: 58b9 283e 9176 873c b3a3 473c e4bd 1a3d
00000020: f7b8 3dbe 660b 25be c150 383e 0eba 0dbe
00000030: 675d 87bd 240f 43bd d5c6 2dbe ad1c 56bd
00000040: 4a88 a83c 03fc 813e 04b7 e43d a2a2 cabd
00000050: 1846 2c3e 840e 5cbe de79 60bd 0703 833d
00000060: 632a 283e

fc2.weight f4 [25, 25]
-0.0012809455 0.084345885 -0.029820098 -0.19406417 0.028775454 0.0122489985 0.17514285 -0.17329815
-0.16457596 0.015446468 -0.01704352 0.12959547 -0.20921895 -0.032701712 -0.048718132 -0.03133626
-0.023879291 -0.19056627 -0.028319722 -0.12480102 0.15564139 -0.021012073 0.044746395 -0.12308662
0.026427452 0.1661167 -0.1494531 0.44274595 0.054635096 0.22278877 0.043630455 -0.120189145
-0.04345564 -0.41544428 -0.026769532 0.03737438 0.8735331 0.053081896 0.3179014 -0.15037726
0.68555087 0.15995781 -0.045373205 0.6950438 0.21629982 -0.07001373 0.27783746 0.53284454
0.22593898 -0.40033814 0.20474559 -0.08099698 0.1868246 0.16329074 -0.08629728 -0.11523497
0.24746385 -0.021780243 -0.41049504 0.14763205 0.3287083 0.48200607 0.21780306 0.47557226
0.14258683 0.22419779 0.11771377 -0.038823184 0.5551895 0.20387779 -0.070868686 0.06783936
0.21448392 0.09572718 -0.2823233 -0.03738465 -0.2547908 0.55126446 -0.09223113 0.19476989
0.102006 0.2832023 0.121524215 -0.3034014 0.06785971 0.5804948 0.8189038 0.19470222
0.51795465 0.32282093 0.26741675 0.07600635 0.15352724 0.60680383 -0.015629463 -0.019910406
0.330658 0.44978723 -0.014881947 -0.2778861 -0.12397747 -0.34664083 0.20022522 0.13355052
0.19235341 0.16942795 0.15888494 0.10358087 -0.3733621 0.18601224 0.20702018 0.3529386
0.2753337 0.28826168 -0.09322294 0.26137945 0.08705549 0.10787346 0.30791625 0.13953535
-0.22440627 0.36080706 0.44619036 0.3044543 -0.29780066 0.110773236 -0.060581 -0.15126301
0.16902797 -0.16889855 -0.38375917 -0.40663466 0.29147997 -0.2729977 -0.296705 -0.33938754
0.07639299 -0.13619886 -0.53376305 -0.014039724 -0.6336489 -0.96736336 -0.12132288 -0.5143779
0.32484928 0.15013373 0.09097806 0.21165705 -0.044718377 -0.058631998 0.10148773 -0.26837718
0.2743774 -0.06683672 0.21264315 -0.0332509 0.13769995 0.18904847 -0.27257833 0.3276936
0.3404572 0.74636275 0.2627429 0.31286404 0.29097974 0.49960482 0.3704835 0.06238526
0.57464665 -0.04140541 0.020879615 0.29139054 0.26505902 -0.05875135 -0.27028754 0.11520738
-0.20631276 0.45738435 0.25002655 0.06272527 0.22802085 0.19724642 0.06957597 -0.35571966
0.18169251 0.21507762 0.5800501 0.06728958 0.19074678 -0.016344976 0.14089562 0.11784345
0.122153886 0.62189823 0.31047332 0.09158853 0.14657503 0.38686845 0.045008924 -0.32418025
0.06655662 -0.32150817 0.48363015 0.13848242 0.031024696 0.024373664 0.064148866 -0.115318686
-0.4942643 0.25695613 0.38243133 0.7968589 0.25543943 0.47546163 0.15051866 0.3473187
0.36358973 0.011256237 0.49125004 0.028469179 -0.19775324 0.3557735 0.56877327 0.29954612
-0.2037046 0.17323531 -0.17961872 0.20712483 0.10552905 0.09149843 0.0981705 0.2938266
-0.22060178 -0.53543645 0.18711972 0.19690555 0.47184792 0.16118744 0.2731873 -0.01898267
0.47821242 0.38091558 0.14388934 0.4489005 0.27259785 -0.13503484 0.027155718 0.27963242
0.16685115 -0.34709817 0.10768236 0.37309143 -0.43346298 -0.46951 -0.1245786 0.36827052
00000000: 66e5 a7ba 89bd ac3d 4749 f4bc c2b8 46be
00000010: 80ba eb3c 06b0 483c a658 333e 1275 31be
00000020: 9a86 28be 2f13 7d3c da9e 8bbc adb4 043e
00000030: 7e3d 56be 3bf2 05bd aa8c 47bd 735a 00bd
00000040: 819e c3bc ce23 43be c3fe e7bc ad97 ffbd
00000050: 7560 1f3e 8321 acbc ff47 373d d614 fcbd
00000060: 627e d83c 7f1a 2a3e 3c0a 19be 99af e23e
00000070: 0dc9 5f3d bd22 643e d9b5 323d ba25 f6bd
00000080: 8bfe 31bd 1db5 d4be c74b dbbc e115 193d
00000090: de9f 5f3f 676c 593d f9c3 a23e 7ffc 19be
000000a0: 4380 2f3f fbcb 233e 41d9 39bd 64ee 313f
000000b0: b37d 5d3e 5c63 8fbd b640 8e3e 8068 083f
000000c0: 8c5c 673e 1ff9 ccbe d4a8 513e bfe1 a5bd
000000d0: f34e 3f3e b035 273e a1bc b0bd 5000 ecbd
000000e0: 2a67 7d3e 7b6c b2bc 682c d2be db2c 173e
000000f0: 744c a83e 80c9 f63e c407 5f3e 357e f33e
00000100: 4802 123e 1b94 653e eb13 f13d 0f05 1fbd
00000110: e620 0e3f 57c5 503e 9a23 91bd 5def 8a3d
00000120: aca1 5b3e 9d0c c43d ae8c 90be a620 19bd
00000130: f173 82be ab1f 0d3f ade3 bcbd c271 473e
00000140: 86e8 d03d e4ff 903e b0e1 f83d 6e57 9bbe
00000150: 08fa 8a3d 4f9b 143f aea3 513f 0560 473e
00000160: ad98 043f c948 a53e d9ea 883e 38a9 9b3d
00000170: 3f36 1d3e 7f57 1b3f 5c09 80bc 261b a3bc
00000180: 014c a93e 834a e63e 69d3 73bc 1647 8ebe
00000190: e6e7 fdbd e87a b1be d707 4d3e 78c1 083e
000001a0: 4bf8 443e 857e 2d3e bcb2 223e 3522 d43d
000001b0: 5129 bfbe fe79 3e3e 19fd 533e 5eb4 b43e
000001c0: 8af8 8c3e 0997 933e abeb bebd 87d3 853e
000001d0: 264a b23d c3ec dc3d 33a7 9d3e 5be2 0e3e
000001e0: c2ca 65be b4bb b83e 1073 e43e 6fe1 9b3e
000001f0: 5479 98be 14dd e23d c823 78bd b1e4 1abe
00000200: ab15 2d3e bef3 2cbe 157c c4be 6b32 d0be
00000210: dd3c 953e 5bc6 8bbe b8e9 97be 34c4 adbe
00000220: ee73 9c3d b777 0bbe b2a4 08bf df06 66bc
00000230: d036 22bf 20a5 77bf 2178 f8bd 45ae 03bf
00000240: a552 a63e a8bc 193e b552 ba3d a0bc 583e
00000250: 9e2a 37bd 1b28 70bd cdd8 cf3d bc68 89be
00000260: 327b 8c3e b1e1 88bd 20bf 593e 1932 08bd
00000270: 3701 0d3e ec95 413e 638f 8bbe 75c7 a73e
00000280: 6850 ae3e a111 3f3f 3d86 863e b72f a03e
00000290: 4cfb 943e 34cc ff3e 03b0 bd3e b087 7f3d
000002a0: 0b1c 133f b898 29bd ba0b ab3c 2431 953e
000002b0: d1b5 873e 41a5 70bd 2163 8abe d9f1 eb3d
000002c0: a743 53be 482e ea3e 7b03 803e 1b76 803d
000002d0: 4c7e 693e f7fa 493e d97d 8e3d e320 b6be
000002e0: 9a0d 3a3e 4f3d 5c3e 2a7e 143f 1fcf 893d
000002f0: 2053 433e e6e5 85bc f146 103e e857 f13d
00000300: d12b fa3d b934 1f3f 5cf6 9e3e c492 bb3d
00000310: c417 163e 9f13 c63e 475b 383d f4fa a5be
00000320: d64e 883d b89c a4be 5f9e f73e 56ce 0d3e
00000330: 8127 fe3c 47ab c73c 7b60 833d 342c ecbd
00000340: 3610 fdbe c18f 833e 0ace c33e f2fe 4b3f
00000350: f5c8 823e b56f f33e 9021 1a3e c2d3 b13e
00000360: 6f28 ba3e 146c 383c 2085 fb3e 3238 e93c
00000370: d37f 4abe f227 b63e 209b 113f 1c5e 993e
00000380: f097 50be 9964 313e f8ed 37be 8818 543e
00000390: 9d1f d83d 8763 bb3d 9d0d c93d 7170 963e
000003a0: 6fe5 61be 5d12 09bf 509c 3f3e 9ca1 493e
000003b0: 0d96 f13e 520e 253e 35df 8b3e 8b81 9bbc
000003c0: 42d8 f43e 5e07 c33e ba57 133e 49d6 e53e
000003d0: f291 8b3e 9346 0abe ab75 de3c fb2b 8f3e
000003e0: 07db 2a3e dab6 b1be 9288 dc3d d705 bf3e
000003f0: dcee ddbe 9d63 f0be 1123 ffbd f48d bc3e

fc2.bias f4 [25]
-0.19377883 0.12255416 0.1767758 -0.025754757 0.06921805 -0.14132063 -0.14463197 0.055785205
0.027798532 0.099079795 0.0700019 -0.013523545 0.15001068 0.18539761 -0.12974061 0.005329854
0.12781343 -0.087234356 0.046735864 -0.07573253 -0.04890779 0.041982394 0.072627634 0.04777849
-0.042608943
00000000: f56d 46be adfd fa3d b704 353e a4fb d2bc
00000010: 31c2 8d3d 5bb6 10be 671a 14be 077f 643d
00000020: bfb9 e33c 59ea ca3d 285d 8f3d dc91 5dbc
00000030: 669c 193e dfd8 3d3e b9da 04be 0ea6 ae3b
00000040: 86e1 023e eda7 b2bd 1b6e 3f3d a819 9bbd
00000050: 8953 48bd bbf5 2b3d ccbd 943d 61b3 433d
00000060: b786 2ebd

ps_out.weight f4 [2, 25]
-0.11792881 0.31714758 0.12430254 0.4470348 0.28998357 -0.32374337 0.34286782 0.18092881
0.6696134 0.1323494 -0.8554188 0.53736854 -0.35601792 -0.26977977 -0.4052308 -0.120101236
-0.6432988 1.0109779 0.64084613 0.38846493 0.4610757 0.06146104 -0.49973276 -0.5538109
0.24833228 0.0907349 -0.18753737 -0.33843043 -0.12932064 -0.20797312 0.5050167 -0.41893113
-0.24182305 -0.5307227 -0.41662434 0.9767602 -0.5722201 0.39604816 0.41154653 0.5742717
0.020644542 0.68812096 -0.8051785 -0.9546915 -0.36052746 -0.38188294 0.116033696 0.8037803
0.60267687 -0.39308694
00000000: a984 f1bd 2b61 a23e 5592 fe3d bfe1 e43e
00000010: ba78 943e b1c1 a5be 5f8c af3e 6745 393e
00000020: c96b 2b3f 9a86 073e bafc 5abf fc90 093f
00000030: fb47 b6be 9320 8abe 697a cfbe a3f7 f5bd
00000040: 3baf 24bf b967 813f 7e0e 243f e0e4 c63e
00000050: 1d12 ec3e 92be 7b3d f9dc ffbe 8dc6 0dbf
00000060: d14a 7e3e 38d3 b93d cc09 40be c146 adbe
00000070: a16c 04be e8f6 54be c648 013f 247e d6be
00000080: 76a0 77be 71dd 07bf c94f d5be f50c 7a3f
00000090: 047d 12bf d3c6 ca3e 3ab6 d23e 7803 133f
000000a0: be1e a93c b228 303f 2e20 4ebf aa66 74bf
000000b0: 0e97 b8be 2986 c3be 13a3 ed3d 8cc4 4d3f
000000c0: 0849 1a3f b142 c9be

ps_out.bias f4 [2]
-0.105593264 0.19160634
00000000: 4841 d8bd 7434 443e
