Propensity_Model/DCN_PD_NN_Models/NN_PS_model_iter_id_15_epoch_100_lr_0.001.pth (torch_old, 6449 bytes, 6 tensors)

fc1.weight f4 [25, 25]
00000000: 12b5 543e aaeb 11be 978a 953e 5d24 3a3e
00000010: 0981 4d3e 9dac 76be 6140 91be 2299 dabd
00000020: f20c 683e d64e e73d 3989 0bbc 4c28 83bd
00000030: a373 0cbf 2096 a33c 0a47 87bd a251 183e
00000040: 0c24 963d 21cd 39be ffab 8dbd f4ac a13e
00000050: d9d1 2dbe 0007 b3be 8498 c43e 38a3 4f3e
00000060: 689f 82be ea26 483d ac94 38be 4588 bc3b
00000070: 4602 97be 1967 043d 8d67 643d 57f7 33be
00000080: 1b62 e03c a5cb f0bc f645 ae3d ab3f 963d
00000090: 3fb6 d93d 08cd 4b3e b257 36be 43f0 b73e
000000a0: 0f18 633e eae9 b2be b2a9 7b3d deb1 46be
000000b0: 0f78 90be 912f 923e 8860 4cbe 11a9 ed3e
000000c0: 8f54 9fbe e8f2 f13d 1a25 8a3e ba9a 5d3d
000000d0: 09a8 19be e93c 6dbc 6290 11bd 842a 813d
000000e0: 8ef6 11bd 2364 19bf d649 e43c fe5c acbd
000000f0: 2b1f 4f3b 3404 0abe 5022 81be c740 243e
00000100: 06a2 04be c15e 163e 3e16 b43c b785 58be
00000110: 395b 2e3e 2cda bbbd 6e07 ff3d c430 46be
00000120: 1df4 91bd ac05 753e ac2c d23e 819d f9bc
00000130: 69b5 23be de99 8e3e ea48 21bd e9bd 063e
00000140: 59d1 0ebe daf3 c9bd 162c 5bbd 6704 203e
00000150: 7db9 123e 1212 d7bd 86b2 6e3e 78be 583e
00000160: 807a afbd de2f b93e 9f9b 243e 6c0e 133e
00000170: 5157 21be f89f b9bd 81be 0c3f e71d c83d
00000180: 66ef a93e 4ea0 e33e 61da fcbd cc86 8fbe
00000190: 277f 6abd 123e 4b3e db53 fb3c 791f 5f3e
000001a0: 3ff8 96bd 4925 1e3e 55a1 2d3e 19d9 4dbe
000001b0: 73a4 40be 4e75 02be 00c7 763e 84d8 49be
000001c0: 679b dabe 0784 703d 8938 0a3d 7ab8 9d3d
000001d0: f4fa 923d 009c a2bd 68fc 0b3e 27bd d0be
000001e0: 7bd6 bc3e 1f5b 20be 9c9c 1fbe 69dd 313e
000001f0: f85a 643e eea6 80bd f83a 9a3c c749 6fbe
00000200: 425d 7abc 1efc 64bd 5cb7 423e 9bda f43d
00000210: 3eaf 943d 9ba5 b9bd 9166 11bb f281 28be
00000220: 246e 623e 4402 71bb 62be b0bd 1191 aabc
00000230: 8993 30be 7d57 e63d db1b 39be ecb8 ab3e
00000240: d3b4 063e 8b67 4b3e 7166 303e 5ba9 f1bd
00000250: 919e fcbd 94e1 b73e fd88 2bbe e4be 8e3d
00000260: 39dd f63d bcbd 633e 8695 553d 2bd2 003c
00000270: d765 17bf c31f 36be 0eac 5dbe f872 94be
00000280: e9a0 7abd 103d c2be 8215 7fbe d338 18be
00000290: 49fb 0a3d 69b6 88be 7887 863e 7b3e 493e
000002a0: edc3 d4be eed7 1abf f46b 993e 14c0 573e
000002b0: 1c2a 66bd 2c02 91be 0698 4dbe c0d8 4bbd
000002c0: 3191 a83e bbb9 803e aa52 3abe 4e33 15bd
000002d0: 7c46 0dbd 1167 3abe 6e91 f2bd 00ec cfbc
000002e0: 2393 4cbe 6612 c2be 3242 353e b5f6 ebbd
000002f0: 7356 9dbc b505 16b9 12c2 98bd 707f 733e
00000300: 74ca 043e f178 103e bda0 963d bb79 bd3e
00000310: 8f07 72bd 4fff b93e 2ad9 d33e a6b8 0cbf
00000320: fddb 05bd 21d1 2dbe 44c0 7b3e ca13 3cbd
00000330: 178e 163d a148 82be c0a3 b2bd bfc2 91bd
00000340: 41da f0bc 4812 763e 1e5b a43c 14b3 8f3a
00000350: afbb 03be 753d 303e a69e 0ebe 2513 293e
00000360: 7d73 1abe 26fb 2a3e 0327 9a3d 1104 5c3b
00000370: 0978 903e 1a5a 63bd c11e e53e 167d 3f3d
00000380: ef30 05be d43f 7bbd f0fc 013e a64d 503e
00000390: f283 44bd 933d d5bd 137a 12be 862a 953d
000003a0: eeb3 b83c b8ab 7abe b079 b53e 4e44 92be
000003b0: ad6a 62be f6d5 9f3c a3a2 b8bc c6cb bebd
000003c0: f240 823e e655 7abe 87d1 20bc 1111 913d
000003d0: 3933 c53c 4d49 553e 1ba1 773e e0e5 ab3e
000003e0: 5d9d 7f3e ef1a d6bd e986 0b3e 484a f73d
000003f0: 1965 31be 205b d83c 0f9b f13d 4aaa 6ebe
0.20772198 -0.14250055 0.29207298 0.18177934 0.20068754 -0.24089284 -0.2836943 -0.10673739
0.22661188 0.11294334 -0.008516603 -0.064041704 -0.5486395 0.019969046 -0.066053465 0.1487489
0.07331094 -0.18144657 -0.06917571 0.31577265 -0.16974582 -0.34966278 0.3839761 0.20277107
-0.25512242 0.048865236 -0.18025464 0.0057535493 -0.29493922 0.032324884 0.055762816 -0.17574821
0.02739053 -0.02939398 0.08509438 0.073363625 0.10630464 0.19902432 -0.1780689 0.35925493
0.22177146 -0.34944087 0.06144113 -0.19403788 -0.28216597 0.28551915 -0.19958699 0.4641805
-0.311192 0.11813909 0.2698143 0.054102637 -0.15005507 -0.014479854 -0.035538085 0.06306937
-0.035635523 -0.5991842 0.027867239 -0.08416174 0.003160427 -0.13478166 -0.2522149 0.16040336
-0.12952432 0.14684583 0.021983262 -0.21144758 0.17026986 -0.09172472 0.12452589 -0.1935454
-0.07126639 0.23927945 0.41049707 -0.030470612 -0.15987171 0.27851766 -0.039376177 0.13158382
-0.13947047 -0.09860964 -0.05350884 0.1562668 0.1432857 -0.105014935 0.23310289 0.21166408
-0.08568287 0.36169332 0.1607499 0.1436097 -0.15755965 -0.09063715 0.54978186 0.097713284
0.3319046 0.4445824 -0.1234634 -0.2803253 -0.05725017 0.19847897 0.030679634 0.2178935
-0.07371568 0.1544391 0.16956075 -0.20102347 -0.18812732 -0.1274006 0.2409935 -0.197115
-0.42696688 0.05871966 0.033745322 0.07701202 0.07176772 -0.07939911 0.13670504 -0.40769312
0.36882386 -0.1565976 -0.15587085 0.17369618 0.22300327 -0.06281839 0.018826947 -0.23367988
-0.015281023 -0.0559045 0.19015259 0.11955758 0.07259987 -0.0906479 -0.0022186378 -0.1645582
0.22112328 -0.0036775032 -0.08630063 -0.020821126 -0.1724378 0.11247156 -0.18077032 0.33539522
0.13154916 0.19863717 0.17226578 -0.1179988 -0.12334932 0.3591429 -0.16751476 0.06970003
0.120539136 0.22240347 0.05214455 0.007862608 -0.5913977 -0.17785554 -0.21647665 -0.28993964
-0.061188612 -0.37937212 -0.24910548 -0.14865427 0.03393105 -0.26701668 0.2627523 0.1965274
-0.4155573 -0.6048573 0.29965174 0.21069366 -0.056192502 -0.2832197 -0.20077524 -0.049767256
0.32923272 0.251417 -0.18195596 -0.03642588 -0.034491047 -0.18203379 -0.11844145 -0.025381088
-0.19978003 -0.37904662 0.17701033 -0.11521665 -0.019206261 -0.00014307241 -0.07458891 0.23779082
0.12967855 0.14108635 0.07354877 0.37006935 -0.05908924 0.36327597 0.4137662 -0.5496925
-0.0326805 -0.16974308 0.24585062 -0.04591731 0.0367566 -0.25446036 -0.08722639 -0.07117223
-0.029400947 0.24030411 0.02006298 0.0010963404 -0.12864564 0.17210944 -0.13927707 0.1651121
-0.15083118 0.16697368 0.07526972 0.003357176 0.2821658 -0.05550585 0.44750026 0.04675015
-0.13006948 -0.061340168 0.12694144 0.2034212 -0.047977395 -0.10412135 -0.1430438 0.07283501
0.022546735 -0.24479568 0.35444403 -0.28567737 -0.22111006 0.019511204 -0.022538489 -0.093162104
0.25440174 -0.2444683 -0.00981558 0.07083333 0.024072276 0.20828743 0.2418255 0.33573818
0.24962373 -0.10454356 0.13625683 0.12074715 -0.17323722 0.02641064 0.11797153 -0.23307148

fc1.bias f4 [25]
00000000: 2697 d63d e689 8a3d 0b93 54be 71fd 41be
00000010: f14b 80be 9880 8dbd 88d7 3b3e bbb4 a33c
00000020: bf23 6d3e d328 6c3d 6061 22be a8d8 dabd
00000030: c64b 313e cf0d e33d 594b 1e3d c647 34be
00000040: 105f a33c dc84 5e3e 3591 26bd b617 7a3e
00000050: 58f1 c13d 2c51 8cbd 86c5 ee3b 9384 373e
00000060: 20e1 a3bd
0.10478048 0.06764583 -0.20759217 -0.18944336 -0.2505794 -0.06909293 0.18343937 0.01998364
0.23158167 0.05765612 -0.15857458 -0.10685855 0.17314062 0.11086618 0.038646076 -0.17605504
0.01994279 0.2173037 -0.040665824 0.24423108 0.09469861 -0.0685142 0.00728673 0.17921667
-0.080019236

fc2.weight f4 [25, 25]
00000000: 5e8e ecbe 37ff 043e bc59 8cbe 277b 46bf
00000010: 450a 8cbe c720 51bf 1bda 3b3f 198e 473e
00000020: 2254 03be b1df 57bf f1a3 5bbd bcd4 273e
00000030: 7f6d e5bd 1b2f 60bf 27b5 053d 3c4d ecbe
00000040: 3d63 833e 9102 0e3f 4f1c 193e dfec 3d3e
00000050: 8d18 21be ec9f edbe 0704 f93d 91a9 1fbe
00000060: 2085 233d 01c2 483e 91f3 c73e dae2 263d
00000070: 6463 2ebc 08a7 b93e eb1f 743e 721e d4be
00000080: a560 4e3e 61c8 063e cc05 843e e5fe 553e
00000090: 276e 7bbe 6dda 593e 5a05 da3e 2030 943e
000000a0: 796b 2e3e 486a 66be 239d a4bd be1f 6a3e
000000b0: 4c40 7b3c 7d43 463d 4f6e 0d3f 1ca2 8c3e
000000c0: bae2 b4bd c2e7 91be 6d9a dc3d e165 1d3e
000000d0: 2be5 92bd bb41 113e 0c4c 273f a7b5 9d3e
000000e0: ff61 82be 1680 673e 4037 573d 0cc1 a33e
000000f0: af61 663e 716c 00bf 2548 6b3e 43a7 573f
00000100: 9997 6b3e c684 fb3e 3e48 cebe 0c7e 893c
00000110: a8a8 ad3e 2873 30bd 6f08 093f a4f1 523f
00000120: 7cf1 933e cb47 87bd b97b 2ebd 0d9c cd3e
00000130: d8cf 0c3e a567 a63e 4af2 aa3d 2bcb f63e
00000140: e0c2 913d 1174 73be 52d9 753e 671b 47ba
00000150: 892d 633e 324e ca3e 5045 cbbe d945 a33e
00000160: 1c75 4a3f e60a 8a3d 2685 9d3e dd8a 26be
00000170: c652 0c3e 7b1b 4d3d d94f 19bb fc04 b13e
00000180: 6a13 e43e ad5d 993e e47c dcbc 48f8 6ebe
00000190: 6278 bcbe 768b 39be c130 2cbf ab61 70bf
000001a0: d03a 96bd 1450 d7be 2f7a 203f bd52 d23d
000001b0: 5ed1 e53d 1d5d 94be c294 1fbd 54f9 753e
000001c0: e0b5 3cbe 9262 32bf 8576 babd 24ea 58be
000001d0: e68f 693e 0db8 dd3e b79d 393e 2958 1dbc
000001e0: 13e6 e33c 64b1 c4be 5ef3 303e 0c1e 30be
000001f0: fc84 6dbd 63b7 abbd 1686 8abd cc69 8cbd
00000200: 1856 433d 8d67 45be fa55 91bd a845 d9bc
00000210: 75d4 21be 5d15 dbbd 802a d13a 7a2b 21be
00000220: 303d dabc 6cc7 0c3d bd1a f5bd a097 333d
00000230: 3b5c 48be a8c3 2cbe e8a9 2abe b0e9 dc3c
00000240: 032f dfbd 33a8 273e cfd6 383e 9786 afbd
00000250: da23 9bbd d448 063d 918c 643e c6e4 c33e
00000260: 139c b03d 65fb 373e 6ef9 bb3e 517f a23e
00000270: 40c5 69be 2610 cb3e 3f25 df3d df41 0e3e
00000280: 0009 6c3e 1c6f 16bf cd17 be3e ec69 e53e
00000290: 4b4d 823e 6c3a c73e b6e1 7fbe 60fe cd3d
000002a0: 8fef 133e f620 b7bd b240 d93e 0cd1 fa3e
000002b0: 4de2 963e 68e0 82bd 307d 1abe 0db7 593e
000002c0: c216 b13d 0b66 bd3d 4704 563e 4aaf 933d
000002d0: 34ec b53e 66d6 50be b731 893e c7bc 163e
000002e0: 083a a43e 5a38 133f 3e34 b7be 06c3 5b3d
000002f0: f794 f23e a610 3e3d aea0 f23e 1521 70be
00000300: a34a 0c3e 6d4b 633e eb2e 4e3e 5513 393e
00000310: cbb5 d53e 19a3 f23e 11f0 033d f208 04be
00000320: 3c7f 0a3e 6db9 163e 3f7d 023e 1ab1 ef3c
00000330: 1e94 d83e f49b 543e ef0c e4be 539b 853e
00000340: 2478 64bd c790 d93e ca51 dc3e 7a75 dcbe
00000350: 6d8c 8a3e bb7e f33e 2c6a 3c3e fa86 af3e
00000360: 13b0 e6be 2e0d 303e 1f3d 223e 7a26 4fbd
00000370: ee12 c33e faa4 1c3f e185 c83e 9e4f 2cbc
00000380: 83a3 82be 102c 5ebe bd4f ab3d ad32 81be
00000390: 3932 003f 1912 c0be 514f adbd 14e0 383e
000003a0: 8321 adbe ef18 1d3e 8b6b 96be a7cd 74bd
000003b0: 4c3e ef3d db20 95bd e1e9 0bbe ed33 a2be
000003c0: bdcd e63d 38e9 c1bc 5af5 abbe 4bdf bcbe
000003d0: 9e3c 7fbe e53f 05bf a2b3 15bf 1611 16bd
000003e0: 981d 873e 3b67 d6be 789a 0b3f f8d4 9a3e
000003f0: d814 683e 4856 083d c95c c03e 209a ab3e
-0.46202368 0.12987982 -0.27412212 -0.77531666 -0.27351585 -0.8169064 0.7337968 0.194878
-0.12825063 -0.843257 -0.053623144 0.16389745 -0.11202525 -0.8757188 0.032643463 -0.46152675
0.2566165 0.55472666 0.14952205 0.1854739 -0.15732022 -0.46411073 0.12158971 -0.15592028
0.03992188 0.19605257 0.39053014 0.040743686 -0.010643814 0.36260247 0.238403 -0.41429478
0.20154054 0.13162376 0.25785673 0.20898016 -0.24553739 0.21274729 0.42582208 0.28942966
0.17033185 -0.2250148 -0.08037784 0.22863671 0.015335154 0.048404206 0.5524644 0.2746743
-0.08832307 -0.2849713 0.10771642 0.15370895 -0.071726166 0.1418523 0.65350413 0.30802652
-0.2546539 0.22607455 0.052542925 0.3198322 0.22498201 -0.5016547 0.2297674 0.84239596
0.23007049 0.49124736 -0.4028949 0.016783737 0.33917737 -0.04307857 0.53528494 0.82399964
0.28895175 -0.0660549 -0.04259846 0.4015812 0.13751161 0.3250095 0.08346994 0.4820188
0.071172476 -0.23774745 0.24008682 -0.0007595331 0.22185339 0.39512783 -0.3970132 0.31889227
0.79084945 0.0674036 0.30765647 -0.1626391 0.1370345 0.050075036 -0.002339354 0.34574115
0.44546062 0.2995428 -0.026915021 -0.233369 -0.36810595 -0.18119606 -0.6726189 -0.9389903
-0.07335436 -0.42053282 0.6268644 0.10269687 0.11221574 -0.2897729 -0.038960226 0.24020892
-0.18428755 -0.69681656 -0.09104637 -0.21183068 0.22808799 0.43304482 0.1812657 -0.009603539
0.027819669 -0.38416588 0.17280337 -0.17198962 -0.057988152 -0.083845876 -0.06763856 -0.06856117
0.047689527 -0.19277783 -0.07096477 -0.026522473 -0.15803702 -0.10697434 0.00159581 -0.15739241
-0.026640505 0.03436987 -0.119679905 0.043845773 -0.19566433 -0.16871512 -0.16666377 0.0269669
-0.10897639 0.16372757 0.18050693 -0.08570593 -0.075751975 0.032784298 0.22319247 0.38260478
0.08623519 0.17966993 0.36713737 0.3173776 -0.22829151 0.39660758 0.10895776 0.13892315
0.23050308 -0.5876329 0.37127534 0.44807374 0.25449595 0.3891176 -0.24988446 0.10058284
0.14446853 -0.08941834 0.4243217 0.48987615 0.2946953 -0.06390458 -0.15086818 0.21261235
0.08646919 0.09247979 0.20900069 0.07211168 0.3553177 -0.20394287 0.26795742 0.1472045
0.32075524 0.5750786 -0.35782045 0.053652786 0.47379276 0.046402596 0.47388214 -0.2345012
0.13700347 0.22196741 0.20135085 0.18073781 0.4174026 0.4739006 0.032211367 -0.12894037
0.13525099 0.14719172 0.1274309 0.029259253 0.42300504 0.20762616 -0.44541118 0.26095065
-0.055778638 0.4249327 0.4303115 -0.43058378 0.2706026 0.47557625 0.18399876 0.34282666
-0.4505621 0.17192528 0.15843628 -0.050573803 0.3810038 0.61189234 0.39164641 -0.010517029
-0.25515375 -0.21696496 0.08364818 -0.25233975 0.50076634 -0.37513807 -0.08462394 0.18054229
-0.3381463 0.15341543 -0.29378924 -0.059766438 0.11681804 -0.07281657 -0.13663436 -0.3168024
0.1126971 -0.023670778 -0.33585626 -0.3688911 -0.24925467 -0.5205062 -0.5847722 -0.03663739
0.26389766 -0.41875634 0.54532576 0.30240607 0.22664201 0.03328541 0.3757079 0.33516026

fc2.bias f4 [25]
00000000: 0086 583d fb12 993d d8a6 cbbd 1433 b1bd
00000010: d5a4 9c3e 92d3 17be 30aa a9bd 3992 93be
00000020: 5000 c43b db4a 96bd 216e f6bd 4682 29bc
00000030: 2a5f 8c3d 3ddb 6cbc 42ee c43e 779c 8e3d
00000040: e6ea 30be c7e0 613e 4c1e fcbd 9451 49be
00000050: d1ae e0bc 07ac b33d aefa f8bd e9c3 39be
00000060: 2b1b 04be
0.052862167 0.07474323 -0.09943932 -0.086523205 0.30594507 -0.14826801 -0.08284414 -0.28822497
0.0059814826 -0.07338496 -0.12032724 -0.010346001 0.068540886 -0.014456567 0.38463026 0.06963437
-0.17277107 0.22058402 -0.12310466 -0.19660026 -0.027427109 0.08773046 -0.12157188 -0.1814114
-0.12900989

ps_out.weight f4 [2, 25]
00000000: 6cab 81bf c8b2 bd3e 7d3d 8d3f 6976 fa3e
00000010: 1127 2dbf 5431 56bd f1d7 d13e 2307 a33e
00000020: b900 3b3f 4b0c 4cbf b06c 313f 76a5 983e
00000030: 6600 7e3e 52bf 1f3f 1ab0 2dbf 2eb5 403e
00000040: c8ae 093f c1ef 5cbf 875a 82bd 7f5b f03d
00000050: bff1 0b3f 28c5 483d e880 fe3e 818b 8b3f
00000060: aa66 873f 105b 733f a1bc 58be 1048 81bf
00000070: f550 64be 3d5d 5d3f 6249 e93d 913b 8cbe
00000080: 8997 60bd d18f 43bf b335 513f 9d00 50bf
00000090: 4948 dbbe 8c9a c0be e4e2 24bf 7629 563f
000000a0: b6a9 9dbd d024 b1be 506c 1b3f 19c8 2d3e
000000b0: 94f5 f53d 82e1 2cbf a740 97be 00e4 a0be
000000c0: 6235 8fbf 9869 68bf
-1.0130439 0.37050462 1.103439 0.48918465 -0.67637736 -0.052293137 0.40985063 0.31841382
0.7304798 -0.7970626 0.6930647 0.29813737 0.2480484 0.62401307 -0.67846835 0.18819115
0.5378232 -0.86303335 -0.06364923 0.117362015 0.5466575 0.049016148 0.49707723 1.0901948
1.0578206 0.95060825 -0.21165706 -1.0100117 -0.22296508 0.86470395 0.1139095 -0.27389196
-0.054832015 -0.7639132 0.81722564 -0.81250936 -0.42828587 -0.3761791 -0.6440871 0.83657014
-0.076983854 -0.34598398 0.60712147 0.16970862 0.12009731 -0.675316 -0.29541513 -0.3142395
-1.1188166 -0.90786123

ps_out.bias f4 [2]
00000000: 41f5 a8bd 6cc0 543d
-0.082499035 0.05194132
