Propensity_Model/DCN_PD_NN_Models/NN_PS_model_iter_id_21_epoch_250_lr_0.001.pth (torch_old, 6453 bytes, 6 tensors)

fc1.weight f4 [25, 25]
000000 aa d6 a5 bd b4 a7 50 3d 2e d8 04 3f 94 61 b2 3e
       -0.080975845 0.050941184 0.51892364 0.3484007
000010 38 08 58 3e d9 1b 46 bd 53 61 8e bd 13 5d 04 be
       0.21096885 -0.0483664 -0.06952157 -0.1292613
000020 36 c4 97 3d 93 9a 8c 3e 8c bd a4 3e ba c5 82 3e
       0.07410471 0.2746168 0.32175863 0.25541478
000030 5e 1b 10 bf 31 a5 a0 3d f2 8c 99 3e 3f ef 47 3e
       -0.5629176 0.07844008 0.29990345 0.19524859
000040 1e 56 55 be 68 09 64 bd 5e 9d 9d 3d d4 6b e1 3e
       -0.20833632 -0.055673033 0.07696031 0.4402758
000050 bc 1d 6c 3e f5 33 18 bd f0 84 af 3e a3 f8 18 3d
       0.23058218 -0.037158925 0.3428111 0.037346493
000060 c7 11 38 be 67 4b d6 bd 04 e6 4f 3e 53 7a ba be
       -0.17975532 -0.104636006 0.20302588 -0.3642145
000070 b1 6a e6 bd 68 04 20 bc f0 9b 92 3d a6 e2 80 3d
       -0.112508185 -0.0097666755 0.07158649 0.0629323
000080 f4 de b3 be 54 ef 86 be d3 53 8c 3e ce 6e 1a be
       -0.35131037 -0.26354468 0.27407703 -0.15081331
000090 1b 47 43 3d e8 3b ba 3e ec 86 14 be aa ae cc be
       0.047675233 0.3637383 -0.14504594 -0.39977008
0000a0 64 ed 88 be 47 84 c6 3e a2 ea b3 bc f2 5c 11 be
       -0.26743615 0.38772795 -0.021962468 -0.14195612
0000b0 f7 41 97 3e 15 e4 a2 3e d3 dd 23 3e 96 20 51 bc
       0.29542515 0.31814638 0.16002588 -0.012764117
0000c0 e7 6d 87 be 37 14 3e be a0 20 d3 3e 79 39 c2 3d
       -0.26451036 -0.18562399 0.41235828 0.09483618
0000d0 74 22 ac be e2 41 09 3f 54 a4 ce bd d3 3c ae be
       -0.33620036 0.53616154 -0.10089937 -0.3403078
0000e0 36 38 d1 3e f8 e1 9e 3e 98 12 43 be ba 5e 81 3d
       0.40863198 0.31031775 -0.19050062 0.06316896
0000f0 e7 c8 43 3e 48 f7 06 be 83 26 c7 be a6 75 09 be
       0.19119607 -0.13180268 -0.3889657 -0.13423786
000100 0e 09 6c 3e c3 bc 12 3e 94 52 b6 3d d2 91 27 3e
       0.23050329 0.1432982 0.08902469 0.1636422
000110 11 68 d6 be 5a 11 b9 bd 0a 14 96 3d 6b 3e 32 bd
       -0.4187627 -0.09036513 0.07328041 -0.043516558
000120 13 1c 66 3e 80 fe 3d 3e 66 a4 98 be 6a a1 3d 3c
       0.22471647 0.18554115 -0.29812926 0.011574129
000130 c6 be 11 be cf 4b c1 be 45 ef 67 bd 1e c1 07 bd
       -0.1423293 -0.3775315 -0.05662467 -0.033143155
000140 87 bb 02 be 13 7e fe 3d f6 6b 86 3d 98 b9 b0 be
       -0.12766849 0.124263905 0.06563561 -0.34516597
000150 3c a9 8b 3d 8f d4 08 be 10 a7 81 3e 6a 5b e0 bc
       0.06819388 -0.13362335 0.2532277 -0.02738734
000160 ce 7f cd 3c 3f 88 f3 be 3d db 2e bd 5c 71 0d be
       0.025085356 -0.47564885 -0.04268955 -0.13812774
000170 3d 9e 3f bb c4 18 0b be 52 a8 25 3e f3 bd cb 3c
       -0.0029238604 -0.13583666 0.1617749 0.024870848
000180 3a ce 11 3e f1 b0 b9 3e 54 9a bf 3e a4 ae 86 bd
       0.14238825 0.36267808 0.3742243 -0.06576279
000190 d6 2a 33 bd 1b fc 0a bf bc 5a cd bc f7 e7 43 3e
       -0.043742023 -0.5429093 -0.02506768 0.19131456
0001a0 a3 82 9a be ab cb 0c 3e b9 6a d9 bd dc fc 08 3f
       -0.30177793 0.13749568 -0.10616059 0.5351083
0001b0 66 ef 9c 3e 9d a7 4a be 08 37 bc 3e 8b 9c 72 be
       0.30651397 -0.19790502 0.36760736 -0.23692529
0001c0 12 8f 48 be 4b e2 d2 bc 49 b6 f9 3e 09 b2 9f bb
       -0.19585827 -0.02574267 0.48771885 -0.0048735184
0001d0 0e fc 20 3e b1 50 87 3c 7d 19 12 3f 2e d5 23 bf
       0.15721151 0.016517969 0.5707014 -0.6399716
0001e0 f3 1e c1 3e 29 1f 59 3e db 33 0a bf a1 24 d1 bd
       0.37718925 0.21203293 -0.53985375 -0.102120645
0001f0 cd e1 19 3f 85 ee 5c 3d 06 7d 7d be d2 74 b7 3e
       0.6011017 0.053938407 -0.24754724 0.35831314
000200 c6 68 02 bd 4e 2b 2a 3e 52 1c 31 be 6c ed 3b 3d
       -0.0318382 0.16618082 -0.1729596 0.04588072
000210 16 54 c8 be fb ee cd 3e b2 2b 5e 3e d0 2a 1d be
       -0.39126652 0.4022139 0.21696356 -0.15348363
000220 bb 05 a1 be bc 05 79 be 55 fc e4 bd 7a 0d 83 3e
       -0.31449685 -0.24318594 -0.11180941 0.2559622
000230 48 b7 16 bd 22 c4 34 be c7 32 2b bc cf d1 ba bd
       -0.036795884 -0.17652944 -0.010449118 -0.09122049
000240 9e be 66 3e d5 76 de 3e 61 35 c3 3d 80 6d 0a 3f
       0.22533652 0.43450037 0.095316656 0.54073334
000250 be 2d 83 3e 06 e2 84 be 48 c3 9b 3e 73 b3 e4 3d
       0.25620836 -0.25953692 0.30422425 0.1116704
000260 bc 64 65 3e 0b b0 0f be 9d c7 25 bf bc ea 7e be
       0.22401708 -0.14031999 -0.6475771 -0.24894232
000270 e0 85 63 3d 48 a7 a6 bd b3 f4 d3 bd 07 05 da be
       0.055547595 -0.08137375 -0.10349407 -0.4258196
000280 07 eb 0e bf 22 c1 42 3e 32 69 5b 3e c7 46 06 3e
       -0.55827373 0.19018987 0.21426848 0.13112937
000290 8d 8b 12 3f cc 90 aa 3c 50 14 50 3e 56 d1 35 3e
       0.5724419 0.020820998 0.20320249 0.17755637
0002a0 39 2e 7d be fc 0d 71 be 25 b7 bd bd 2b d7 82 3e
       -0.24724664 -0.23540491 -0.09263448 0.25554785
0002b0 84 dc be 3e f7 5d a1 3e dc ce a8 be 62 b7 c4 bd
       0.37277615 0.31517002 -0.3297032 -0.0960529
0002c0 ad a8 06 3e 18 d0 b5 3e 4c 54 2c bd 07 bd a2 3e
       0.13150282 0.35510325 -0.04207258 0.3178484
0002d0 89 cc cf bd ec d4 a7 be 6a 79 02 be ca 8e 7d 3e
       -0.10146434 -0.32779634 -0.12741628 0.24761501
0002e0 da c1 7e 3d 0f 36 44 3e 4b 48 eb 3c fd b7 bc 3e
       0.06219659 0.19161247 0.028720995 0.36859122
0002f0 0e a6 05 be dc e9 36 3e f0 9d c1 3d e4 1d e7 bd
       -0.13051626 0.17862648 0.09453952 -0.11284998
000300 1c 0c 10 be fa c3 c6 be 28 f0 cc bc b6 69 5a bd
       -0.1406712 -0.38821393 -0.02501686 -0.05332347
000310 d0 c0 12 3d c8 ba 89 3f 1e 2f 82 3d cc 86 98 be
       0.03582841 1.0760126 0.06356643 -0.29790342
000320 b2 bd bd be d4 12 f0 be c0 93 4c 3e 67 fb e8 3e
       -0.3705879 -0.46889365 0.19978237 0.45504305
000330 1e 6c 35 bd 2c 35 a4 3d 50 6d 34 be 56 71 3d 3f
       -0.04429256 0.08017954 -0.17619824 0.7400106
000340 f0 a2 62 3d a4 dc 8a 3e da af 53 3e b0 b5 1d be
       0.05533117 0.2712146 0.20672551 -0.1540134
000350 0c df 01 3f 8c a9 ed bd 3d 8a af be f3 1f 93 3d
       0.5073097 -0.11604604 -0.34285155 0.07183828
000360 8e 80 30 3e ba b1 7d be 0c 6b 95 3d db d6 20 3e
       0.1723654 -0.24774829 0.07295808 0.15706961
000370 cb 6f 22 3e 61 f8 13 3f c4 5d 2d 3e 66 40 6c 3e
       0.15862958 0.5780087 0.169303 0.23071441
000380 83 ac 65 be 91 e4 10 be 53 a6 cc 3e 2d 5e 2a 3e
       -0.22429089 -0.14149691 0.39970645 0.16637488
000390 16 fd 18 be f2 03 bb bd 31 15 63 3e ae ae 9f 3c
       -0.14940295 -0.09131612 0.22176053 0.019492473
0003a0 a0 c4 a0 3d 02 ad 90 bd 94 01 20 3d ad 25 47 3e
       0.07850003 -0.070642486 0.039064005 0.19447966
0003b0 55 50 77 3e 5e 53 84 3e bd b4 f6 3d b6 f8 c4 3e
       0.24151738 0.25844854 0.12046192 0.38471
0003c0 73 a4 b2 3e 18 69 ca be 3f 45 4d be dd 74 b4 be
       0.3489109 -0.39533305 -0.20045947 -0.3524541
0003d0 fc 26 aa be b3 06 43 3d a4 18 f1 bc b1 8d 04 3f
       -0.33232868 0.04761381 -0.029430695 0.51778704
0003e0 bc 39 b6 be 9d f9 b1 bd a5 17 8a 3e 20 0e 8f be
       -0.35590923 -0.08690188 0.26971164 -0.27940464
0003f0 f4 c6 b7 3d fa 4e 35 3e 7e 8d 9e be fd 28 82 be
       0.08973494 0.17705908 -0.30967325 -0.25421897

fc1.bias f4 [25]
000000 55 71 6a 3e 52 07 14 be 3b 1a 97 3e 53 6f 69 3e
       0.22894795 -0.14455917 0.295122 0.22796373
000010 da d8 2d be 0a cb 6d 3d 97 32 00 3e 7d 2f d2 bc
       -0.16977254 0.05805496 0.12519298 -0.02565741
000020 0c 38 27 bb 31 86 b8 bd 16 2d a2 bb ce 76 e1 bd
       -0.0025515584 -0.0900997 -0.0049492223 -0.11008988
000030 52 47 9a 3b 78 9c 08 be 1a 44 4a be 15 da 0a 3e
       0.004708209 -0.13340938 -0.19752541 0.13559754
000040 c7 9d 1d 3e ad db ba bc bb 6a c5 bd 02 7d 01 be
       0.15392219 -0.022809828 -0.09639498 -0.12645343
000050 98 f5 aa bd a3 f8 c4 3c 32 4c d7 bc b1 2d e0 bb
       -0.083476245 0.02404434 -0.02628145 -0.0068413843
000060 b8 78 d8 3c
       0.02642475

fc2.weight f4 [25, 25]
000000 46 9c a2 bd 1d ab 36 3f bf 0d eb bd 98 64 c6 3d
       -0.07939963 0.7135485 -0.11477231 0.096871555
000010 b6 d5 9f bb 4e 72 84 3e 05 73 c2 3d 85 c7 24 3f
       -0.0048777713 0.25868458 0.094945945 0.6436694
000020 99 0b 57 be 9a 40 7f 3e 71 ce 23 3f d3 f1 4d 3e
       -0.21000518 0.24926987 0.6398688 0.2011178
000030 53 07 50 bd 50 86 52 3e fa c8 04 3f f8 a2 3e be
       -0.050788235 0.20559049 0.51869166 -0.18616855
000040 25 67 41 3d 71 98 0e 3f d7 2d f7 3d e1 fd b7 3e
       0.047217507 0.5570136 0.1206929 0.35935882
000050 72 f8 65 3e 71 a9 9b 3e a5 da cb 3e 58 e1 24 bf
       0.22458056 0.3040271 0.3981525 -0.6440635
000060 66 4d 73 3e 5c 79 3f 3e 29 6b 39 3f ad 5f ca be
       0.23759994 0.18698639 0.7242914 -0.3952612
000070 f4 f5 c4 3e 6f 80 1b be f7 18 f3 3e 4b 98 8b bd
       0.38468897 -0.15185712 0.47479984 -0.06816157
000080 78 19 80 3f f1 f3 6d be 29 45 0e 3f af ff 39 3f
       1.0007772 -0.23237588 0.5557428 0.7265577
000090 cd d0 d5 3e ad a3 7c bc e2 0c 15 3f 64 8a 2d 3e
       0.41760865 -0.015419883 0.5822278 0.16947323
0000a0 2e 04 ab be 12 37 42 bc 89 df 1d 3f 89 dd 36 3c
       -0.33401626 -0.01185395 0.6166921 0.011161217
0000b0 27 2c 33 3f ed 66 e6 3e 54 8a d0 3e 93 ee 50 3f
       0.69989246 0.450004 0.40730536 0.81614035
0000c0 c7 35 f5 be bf 6e c3 3e 98 51 98 3e 33 35 9e be
       -0.4789259 0.3817043 0.2974975 -0.30899963
0000d0 88 85 6f 3e 63 02 a7 3d 9f 10 03 3f d8 aa b7 3e
       0.23390782 0.08154752 0.51197237 0.3587253
0000e0 25 17 e9 be eb c6 21 3e 64 8c 12 3f ee 0b 19 bf
       -0.4552547 0.15798537 0.5724547 -0.5978383
0000f0 46 3a 6e bf d8 cf 6e 3f f9 fb 68 bf 11 61 27 3d
       -0.9305767 0.93285894 -0.9100948 0.040864054
000100 f5 56 a5 be 57 23 85 be 58 7d f6 3e 4c 15 40 bf
       -0.32292905 -0.26003525 0.48142505 -0.75032496
000110 38 b1 6c bf 9d fb f3 be 3c c0 87 bf 31 d1 43 3e
       -0.92457914 -0.47652903 -1.060554 0.19122769
000120 72 ef 50 3e e2 ce b9 bf 8e 1c 70 3d 20 85 1e bd
       0.20403841 -1.4516261 0.058620982 -0.038701177
000130 4a ff 0c 3f 23 0c af bd bb bb 77 3e 2d f8 4a be
       0.5507704 -0.08547237 0.24192707 -0.19821234
000140 0f bd c0 3e 74 46 34 3d 06 21 18 3f e2 64 1f be
       0.3764424 0.0440125 0.5942539 -0.15565827
000150 89 f5 34 3e a0 99 11 3f 35 73 a9 3e b4 09 23 be
       0.17671789 0.5687504 0.33095708 -0.1592167
000160 2e c2 cd 3e a8 20 c3 3e bd 49 28 be 55 be 1c be
       0.4018721 0.38110852 -0.16434379 -0.15306981
000170 3f 2d b5 3e 8b be d3 bd c5 bc 0f 3f a9 fe 86 3e
       0.35386083 -0.103390776 0.56147414 0.26366165
000180 f2 b2 73 3e 95 83 91 3e 68 1c 19 bf f7 e2 d3 3e
       0.23798731 0.28420702 -0.5980897 0.41384098
000190 d8 49 84 3c 6d 95 4b 3f 81 81 f8 be c0 6a 71 3e
       0.016148493 0.7952488 -0.48536304 0.23575878
0001a0 d1 8e 23 be f1 59 0b 3f 32 92 05 3d 59 13 4c 3f
       -0.15972449 0.54434115 0.032610126 0.7971702
0001b0 94 d2 59 be 71 07 b5 3e 26 05 00 3f ec e3 3b 3e
       -0.21271735 0.3535724 0.50007856 0.18348664
0001c0 23 56 53 3c 05 06 03 3f 33 f9 09 3f a9 b3 86 be
       0.012898955 0.5118106 0.5389587 -0.26308945
0001d0 cd 5e 05 3d c1 1d 15 3f 40 9f ba 3d b3 b9 0c 3f
       0.032561112 0.58248526 0.09112406 0.54970855
0001e0 9f 59 af 3e ee 2d 99 3e 74 88 ef 3e 47 57 1c bf
       0.34248063 0.29917854 0.46783793 -0.61070675
0001f0 40 5d ee 3e 8e a0 b8 bd f8 eb 25 3f fd 38 04 bf
       0.4655552 -0.090149984 0.64813185 -0.5164946
000200 87 d1 af 3d 20 29 3f bd 30 66 90 3e d0 75 ba 3d
       0.08584886 -0.04667008 0.28202963 0.09104502
000210 cd 12 3a 3f 87 3d 43 be 20 82 fa 3e 96 99 d7 3e
       0.7268494 -0.1906644 0.48927402 0.42109364
000220 a3 8a b5 3e 2b 3d 45 3e 08 b9 b4 3e cd 82 92 3e
       0.35457334 0.19261615 0.35297418 0.28615418
000230 25 6f 97 be 56 f3 df 3d 6f 0a 41 3f 93 82 22 3e
       -0.29576984 0.109350845 0.75406545 0.15870123
000240 55 29 46 3f d6 77 86 3e 09 ac b1 3e c8 d3 f2 3e
       0.7740682 0.26263303 0.34701565 0.474272
000250 03 b7 0a bf 89 b9 d3 3e ba ab 89 be 70 16 94 bc
       -0.54185504 0.4135249 -0.2688883 -0.018077105
000260 5c 8e 10 bf 12 83 10 bf 23 d6 58 3e c7 49 0b bf
       -0.56467223 -0.5645 0.21175437 -0.5440945
000270 77 4c 7a bf de 8e 1a bf c7 bf 5f be 00 bc 81 bf
       -0.97772926 -0.6037425 -0.21850501 -1.0135498
000280 60 49 f3 3e 95 aa ae bd fb f8 1f bf 5e 1a bb be
       0.47516918 -0.0852863 -0.6248929 -0.36543554
000290 e9 97 4b bf 18 55 84 3e 6f ef c4 be 33 ab 98 bf
       -0.7952867 0.2584617 -0.38463923 -1.1927246
0002a0 ee 0d 67 bf f3 6a 11 be b0 22 0f bf bb 17 87 3d
       -0.9025563 -0.14200954 -0.55912304 0.06596323
0002b0 83 8c 6c 3f 56 dd e1 bd dc a7 0b 3f ea 2d 23 bd
       0.92401904 -0.110285446 0.5455301 -0.03983871
0002c0 3e 0c 22 3f 4f 5d 8d be 4d 1d 15 3e 1d 56 fa bc
       0.6329993 -0.2761025 0.14561959 -0.03055864
0002d0 08 d6 ca 3e a1 8a c3 3d 9d a0 67 3f 76 2b 73 be
       0.39616418 0.09547926 0.9047945 -0.23747048
0002e0 36 93 e2 3e 7d 3e 44 3f 43 3e d2 3e 09 e6 42 3e
       0.44252938 0.7665785 0.41063127 0.19033064
0002f0 2a 4c ac 3e 10 db c0 3e 76 b4 a2 be c3 fc 1d bd
       0.3365186 0.3766713 -0.31778306 -0.03857113
000300 14 5a 4b 3f 0d 47 5d bd 01 d6 37 3f 5b 9a 8a 3e
       0.79434323 -0.054022837 0.7181092 0.2707089
000310 ca ea d4 3e f6 e4 2f 3f 24 35 2c bf b0 e4 c9 3e
       0.4158538 0.6870874 -0.67268586 0.39432287
000320 e7 f1 bd 3e f9 8b 02 bf c0 98 86 3e 2e 24 35 bf
       0.3709862 -0.5099483 0.26288414 -0.7075833
000330 2b f7 86 bf 33 e3 16 bf c8 ad e1 3e 40 63 8d bf
       -1.054418 -0.5894043 0.44077897 -1.1045914
000340 08 2a bb 3e e3 97 44 be c1 0e 15 bd 42 45 67 bf
       0.36555505 -0.19198565 -0.036391024 -0.90340054
000350 a1 df e4 3e d5 57 36 bf 86 25 3f be d9 ea 84 3e
       0.44701865 -0.7122777 -0.18666658 0.25960425
000360 df 9a ae be 22 e9 33 3e bf 1d 3e bf 88 d1 c8 bd
       -0.34102532 0.17569402 -0.7426414 -0.0980559
000370 12 c1 f9 bd a7 1b 04 be bc 1a 80 bf e6 0f 97 3f
       -0.12195028 -0.12901174 -1.0008159 1.1801727
000380 fa fe cc 3e f7 77 e9 3e d6 e7 10 bf 5c e0 d9 3e
       0.40038282 0.45599338 -0.56603754 0.42553985
000390 7e d0 6f be 40 5b 56 3e 7f 09 88 be 1b ce 50 3e
       -0.23419377 0.20933247 -0.26569745 0.20391123
0003a0 75 d9 ce be fe 36 ad 3e 9a 38 09 bd a9 71 3b bf
       -0.40400282 0.33831018 -0.033501245 -0.73220307
0003b0 1c bc e4 bd 83 ad 38 be d0 f2 94 be 0b bf 3c bf
       -0.111686915 -0.1803494 -0.290915 -0.7372901
0003c0 21 f3 f9 3d 64 d0 ce 3e 3d bb 54 bf e4 61 6b 3e
       0.12204576 0.40393364 -0.830982 0.22986561
0003d0 94 7c fc be 64 50 0f be dc ac 87 be b6 de a7 be
       -0.49313796 -0.1399551 -0.2649907 -0.32787102
0003e0 48 e9 57 3f 32 23 cd bd fe ee 12 be bc b9 2a 3f
       0.84340334 -0.100164786 -0.14348981 0.6668966
0003f0 08 85 44 be 78 b3 ca 3e 87 ab 1f 3e 26 b8 a9 3e
       -0.19191372 0.3959005 0.15592776 0.33148307

fc2.bias f4 [25]
000000 17 3c 73 bd f3 94 cb bd 24 51 0d bd b4 b3 9e 3d
       -0.059383478 -0.09940519 -0.03450121 0.077491194
000010 8f 1f 94 bc f7 5c 85 bd 47 06 02 3c 61 c8 8c bd
       -0.018081455 -0.06511872 0.007936067 -0.06874157
000020 f8 39 13 3e 1c 6e c2 3e 05 e9 d5 bd 98 22 3b bd
       0.14377582 0.37974632 -0.104448356 -0.045687288
000030 c0 41 77 be ec 8f ff 3c df 88 5f 3d 7b 79 e8 bc
       -0.24146175 0.031196557 0.05457389 -0.028378239
000040 3b 66 24 be ec 7b 07 be 6d a7 d9 3d d8 a2 a7 3e
       -0.16054623 -0.13230866 0.10627637 0.32741427
000050 1f b3 6c 3e 24 f3 ae bd 6f 84 a2 3d a3 6b 8a be
       0.23115204 -0.08542469 0.07935416 -0.27035245
000060 35 cb 54 be
       -0.20780642

ps_out.weight f4 [2, 25]
000000 db 23 84 3e d8 81 83 3f ca ef ab bf 9a 5f b6 3e
       0.25808606 1.0274 -1.3432553 0.35619813
000010 75 2b 14 3f e5 9b 3c 3f 60 0e ad bf 8d ae 6a 3f
       0.5787881 0.73675376 -1.3520012 0.91672593
000020 6a be c4 bf 6c df 61 bf f0 89 c5 3e 69 78 1d 3f
       -1.537061 -0.8823154 0.385818 0.61511856
000030 d4 a7 89 3f ce 0e 2e 3e c3 f2 02 3f d4 ef be 3e
       1.0754342 0.16997835 0.51151675 0.3729235
000040 2a fb 92 3f 45 58 22 be 82 ed bc bf 86 39 b1 bf
       1.1482899 -0.15853985 -1.4759982 -1.384568
000050 ae 35 df bf a0 fc 29 3f 5f 8f e5 3e 7a 06 e3 3f
       -1.7438257 0.664011 0.44835946 1.7736351
000060 b0 d7 ca 3f 7b 23 f4 be bb 02 9d bf c7 0f a1 3f
       1.5847073 -0.4768332 -1.2266458 1.258294
000070 be 0f 9a be 9b 33 1c bf d7 13 68 bf 71 10 ac 3f
       -0.30090135 -0.61016244 -0.90655273 1.3442518
000080 96 a5 15 bf 51 aa a6 3f 6f f5 53 3f 50 c1 81 be
       -0.5845579 1.3020726 0.82796377 -0.25342798
000090 a9 c4 38 bf b4 a0 57 bf fe 63 a1 be 5e ea 27 bf
       -0.7217508 -0.8422959 -0.315216 -0.6559199
0000a0 69 9f 19 bf 51 44 af bf 03 e0 33 be d5 c7 c1 3f
       -0.60008866 -1.3692724 -0.17565922 1.5139109
0000b0 d3 3a ae 3f 10 84 e8 3f 65 1e 31 bf ce a9 38 bf
       1.3611702 1.8165302 -0.69187003 -0.721341
0000c0 e5 25 b7 bf 0d 30 bf bf
       -1.430844 -1.4936539

ps_out.bias f4 [2]
000000 67 35 ab bd 64 5a 90 bd
       -0.08359795 -0.07048491
