Propensity_Model/DCN_PD_NN_Models/NN_PS_model_iter_id_40_epoch_100_lr_0.001.pth (torch_old, 6445 bytes, 6 tensors)

fc1.weight f4 [25, 25]
-0.21313241 -0.20608766 -0.0019047895 0.17881466 0.073357634 -0.283316 -0.17210925 0.07442243
0.07900895 0.29463863 0.0036633546 -0.3128771 0.4319323 0.007767272 -0.11073543 -0.16838758
0.09952326 0.03647773 0.3708422 -0.25334314 0.22081952 0.08443459 -0.3874761 -0.04373882
0.21661241 -0.039638456 0.54481786 -0.27773774 -0.11691317 0.14350618 -0.08753634 -0.26575738
-0.34460643 0.0653866 -0.14114761 0.2421379 0.15121411 0.0669454 -0.05166366 -0.593257
-0.16769765 0.117838375 -0.0688235 -0.13359466 0.27994302 0.04728888 -0.10904817 0.04768589
0.2724555 -0.007855587 -0.1997839 0.2867926 0.07410791 -0.085830815 -0.33033365 -0.18639113
0.13418113 0.2701459 -0.115536265 0.093090266 -0.010217844 0.07144821 0.06711379 -0.16079335
0.07400104 0.008679938 -0.1548319 -0.20853905 -0.10944415 0.42134914 -0.18396255 0.3913458
-0.20624697 0.15989462 -0.34554517 0.24275312 0.08163502 -0.120592244 0.089640565 0.45610243
0.21731633 0.12936875 -0.41517508 -0.15685068 0.15190259 0.47570738 0.017614765 -0.048024505
-0.14741856 -0.40451238 -0.09820346 -0.27132034 0.17430314 -0.46079677 0.11207171 -0.33520094
-0.16870274 -0.5006782 -0.60161877 0.0018518326 0.050481465 0.24647717 0.40972373 -0.097068965
-0.25391653 -0.10259683 -0.0020886185 0.22421823 -0.04347323 0.31872237 0.13147518 0.0614811
0.1908935 -0.074164025 0.02703297 0.23682252 -0.25960532 0.04484808 -0.104673274 0.21892563
-0.07735552 -0.2560337 -0.020600662 0.13710395 -0.00888879 -0.161323 -0.009316297 -0.18725392
0.14145173 -0.13501395 -0.34257075 0.07549486 0.39298505 0.12971911 -0.14509077 0.17228027
0.088168405 -0.32098135 -0.10683954 -0.078366674 0.15701118 0.3161608 0.22273673 -0.08118358
0.49823603 0.20409003 -0.03533289 0.20920165 0.32408038 -0.29254302 -0.19164069 -0.16407149
0.29278332 0.41177812 0.014842987 0.12077776 0.3647524 -0.057582702 -0.0882001 0.1870167
0.020572787 -0.33866993 0.0134685235 -0.14317282 0.22548324 0.07166576 0.013244307 -0.18996157
0.0016881223 0.42445102 -0.1747188 -0.14739904 0.24383035 -0.24047679 0.0663057 -0.0417137
0.10198875 -0.1784168 0.29553196 -0.37969503 -0.11962457 0.22651802 0.103409864 0.03837792
-0.05965602 -0.0915363 0.18366283 -0.124109015 0.0062501887 0.06482882 -0.20451775 0.054473687
-0.05640747 0.03692903 0.33458218 0.44487557 0.26702666 0.3186806 0.070453465 0.017804975
-0.0055560404 -0.10595097 -0.06687505 -0.13346605 0.29820558 -0.3202028 0.16541037 0.2163482
-0.18681993 0.3355051 -0.14309956 0.029324245 -0.03538368 -0.0668668 -0.02546822 0.043634854
0.1268752 -0.018435894 0.003825099 0.20050466 -0.36257234 -0.008061614 0.94007385 0.17894897
-0.21980864 -0.05744506 -0.09702542 -0.37532493 -0.122333355 0.23351431 -0.07743211 -0.078122124
-0.22994716 0.24922997 0.27462006 -0.32110026 0.460079 0.10422611 0.23446718 0.07920671
0.19513978 0.14595118 -0.13493323 -0.089117765 -0.122356914 0.0054155574 0.2662639 0.064461105
-0.111426584 0.3582391 -0.26361364 0.13183868 -0.105781555 -0.29769018 0.09772914 -0.052820947
00000000: 623f 5abe a508 53be 21aa f9ba 311b 373e
00000010: 873c 963d cb0e 91be 683d 30be c96a 983d
00000020: 72cf a13d e0da 963e e414 703b 6d31 a0be
00000030: 3b26 dd3e 9a84 fe3b 42c9 e2bd cb6d 2cbe
00000040: dad2 cb3d ac69 153d 07df bd3e 31b6 81be
00000050: 831e 623e 0bec ac3d 4463 c6be 7a27 33bd
00000060: a5cf 5d3e ef5b 22bd 2f79 0b3f a433 8ebe
00000070: 2c70 efbd 49f3 123e 4146 b3bd 5a11 88be
00000080: 4170 b0be 69e9 853d 0089 10be fff2 773e
00000090: dfd7 1a3e ab1a 893d 469d 53bd b1df 17bf
000000a0: efb8 2bbe 3f55 f13d 56f3 8cbd 0acd 08be
000000b0: b154 8f3e fcb1 413d a654 dfbd 4852 433d
000000c0: 4a7f 8b3e b8b4 00bc 2794 4cbe 7bd6 923e
000000d0: e3c5 973d 11c8 afbd 7e21 a9be 51dd 3ebe
000000e0: c766 093e 9050 8a3e 479e ecbd 1ca6 be3d
000000f0: be68 27bc 7053 923d f472 893d 03a7 24be
00000100: db8d 973d 4c36 0e3c 418c 1ebe 438b 55be
00000110: 4124 e0bd 13bb d73e ae60 3cbe 7a5e c83e
00000120: 6832 53be 6abb 233e 4ceb b0be 4694 783e
00000130: 4330 a73d 11f9 f6bd 7995 b73d 4286 e93e
00000140: 2c88 5e3e 3e79 043e d491 d4be 779d 20be
00000150: 5a8c 1b3e eb8f f33e d74c 903c 58b5 44bd
00000160: e4f4 16be 3f1c cfbe e51e c9bd 80ea 8abe
00000170: 867c 323e 8eed ebbe da85 e53d 759f abbe
00000180: 69c0 2cbe 722c 00bf b003 1abf 31b9 f23a
00000190: a7c5 4e3d 8364 7c3e 4fc7 d13e 18cc c6bd
000001a0: 5901 82be 491e d2bd 34e1 08bb 7799 653e
000001b0: fc10 32bd 942f a33e 6ea1 063e 9bd3 7b3d
000001c0: 9679 433e 4fe3 97bd 3f74 dd3c 9a81 723e
000001d0: fdea 84be 9fb2 373d f15e d6bd 0a2e 603e
000001e0: 926c 9ebd d916 83be b8c2 a8bc fa64 0c3e
000001f0: 4aa2 11bc db31 25be 62a3 18bc 7ebf 3fbe
00000200: b9d8 103e 1941 0abe 6f65 afbe 0d9d 9a3d
00000210: 5635 c93e 16d5 043e ad92 14be 3d6a 303e
00000220: a391 b43d ab57 a4be b0ce dabd b57e a0bd
00000230: 8ac7 203e d4df a13e 1915 643e 9443 a6bd
00000240: cb18 ff3e fafc 503e 38b9 10bd f538 563e
00000250: dded a53e 33c8 95be 753d 44be 5b02 28be
00000260: b2e7 953e 95d4 d23e 0030 733c 555a f73d
00000270: d4c0 ba3e d7db 6bbd 41a2 b4bd 4e81 3f3e
00000280: 4388 a83c 2566 adbe 15ab 5c3c e59b 12be
00000290: 14e5 663e 7fc5 923d a6fe 583c 4985 42be
000002a0: fc43 dd3a a551 d93e 7ce9 32be c6ef 16be
000002b0: aaae 793e 8c3f 76be 48cb 873d fcdb 2abd
000002c0: 7adf d03d e5b2 36be f74f 973e 6367 c2be
000002d0: bafd f4bd 57f4 673e 8dc8 d33d 2a32 1d3d
000002e0: df59 74bd 6277 bbbd 1c12 3c3e de2c febd
000002f0: 62ce cc3b f9c4 843d 1a6d 51be cd1f 5f3d
00000300: 850b 67bd e542 173d 5b4e ab3e bbc6 e33e
00000310: b8b7 883e 1b2a a33e e849 903d bddb 913c
00000320: 720f b6bb d2fc d8bd c9f5 88bd 53ab 08be
00000330: 67ae 983e 9ff1 a3be 5661 293e 628a 5d3e
00000340: b94d 3fbe 53c7 ab3e b188 12be 6639 f03c
00000350: 7aee 10bd 76f1 88bd baa2 d0bc 76ba 323d
00000360: 93eb 013e df06 97bc 83ae 7a3b 1851 4d3e
00000370: 15a3 b9be dc14 04bc aea8 703f 663e 373e
00000380: 8415 61be 834b 6bbd 43b5 c6bd 972a c0be
00000390: e989 fabd 601e 6f3e ba94 9ebd 7efe 9fbd
000003a0: 4577 6bbe 2436 7f3e 009b 8c3e 4167 a4be
000003b0: 7a8f eb3e 8074 d53d 2a18 703e 2137 a23d
000003c0: b9d2 473e 3a74 153e f02b 0abe 6083 b6bd
000003d0: 4396 fabd fd74 b13b be53 883e 2f04 843d
000003e0: 9f33 e4bd 1e6b b73e 5ef8 86be b800 073e
000003f0: 00a4 d8bd d96a 98be 3726 c83d c75a 58bd

fc1.bias f4 [25]
0.01871375 -0.08268052 -0.07681139 0.16634478 -0.0031377147 0.055389985 0.063166484 0.15764216
0.052252512 -0.087036684 -0.05748921 0.07908595 0.14240272 -0.040079366 0.014301323 0.13230829
0.09475614 0.20757054 -0.08659753 -0.0041221245 0.16959013 -0.010850727 0.09368162 0.07930885
-0.053111594
00000000: 944d 993c 6854 a9bd 4a4f 9dbd 4956 2a3e
00000010: 1ea2 4dbb 9ce0 623d 6e5d 813d f26c 213e
00000020: bb06 563d 4a40 b2bd ce79 6bbd d1f7 a13d
00000030: 05d2 113e 432a 24bd 1950 6a3c d37b 073e
00000040: 820f c23d 5f8d 543e 0c5a b1bd e312 87bb
00000050: 09a9 2d3e 3fc7 31bc 26dc bf3d ae6c a23d
00000060: 8b8b 59bd

fc2.weight f4 [25, 25]
-0.22263494 0.07108435 0.7250599 -0.4015433 0.28330946 0.076301195 0.034084544 0.00736084
0.30559376 -0.086388335 -0.4155223 0.19874537 0.29959854 0.1315241 0.37758988 0.07866342
0.12382902 0.020192506 0.36559352 0.11564447 0.12514003 0.24183863 -0.14392951 -0.32637808
0.12023501 -0.180124 -0.1854265 -0.8267494 0.5217377 0.032019597 0.2854986 0.19567421
0.113006234 -0.09411607 0.14714041 0.30645642 0.01896077 0.07854671 0.091515586 0.16048647
-0.22563177 -0.079367824 0.16298284 -0.73332906 -0.6642275 -0.34552735 -0.4596629 0.1162294
0.19800933 -0.007786825 0.039575357 0.121248215 0.0115663055 0.06989375 0.045143623 -0.0845697
-0.10351012 0.1396257 -0.16630273 0.059392136 -0.042513005 -0.114697464 0.053520937 0.14468056
-0.1213618 -0.19226721 0.12540826 -0.032243103 -0.045541286 -0.1234138 -0.12990278 0.096724965
-0.082030825 -0.026752084 -0.22289692 -0.18510836 -0.073353805 1.1786709 -0.25463477 0.1047267
-0.055446904 -0.28983095 0.17387001 0.31286895 0.0839865 -0.4323187 0.012426688 0.3177408
0.18573588 0.23382942 0.15811503 0.2338308 -0.13547449 0.52924246 0.34316757 0.35290897
0.35451487 -0.15443756 -0.4459661 -0.028603198 -0.09729514 -0.013997015 -0.80019206 0.50240314
0.114920884 0.31545267 -0.13156037 -0.07721862 -0.2840338 -0.06282798 0.4658299 -0.06483592
-0.19709168 -0.013709922 -0.18406555 -0.46039507 -0.35586873 0.2767358 -0.01676463 -0.42309138
0.13101545 -0.26852956 0.29218516 -0.08631069 0.28231138 -0.21273805 0.39344895 1.1249886
-0.3403583 0.45370114 -0.07549491 -0.19386832 0.18179801 0.44859952 -0.069811866 -0.29995608
0.056904607 -0.03968378 0.20935278 0.24604113 0.2769166 0.31166798 0.015624637 -0.026041409
0.4548031 0.07421652 0.30525905 -0.22958331 -0.18074465 0.16590956 0.27505872 -0.60804784
-1.1301246 -0.56611377 -0.03843975 0.32949686 -0.3728485 0.30016652 -0.026745034 -0.573825
0.16664773 -0.29328313 -0.0028045322 -0.1983318 -0.7646806 0.0267636 -0.24513704 0.30882227
-0.050908074 0.22274995 0.18721905 -0.28548217 0.26075312 0.23055162 -0.03875244 0.26277733
-0.78827524 -1.0062798 -0.16813298 0.15083775 0.04177291 -0.9440245 -0.101942815 -0.32811657
-0.48060068 -0.18203637 -0.017312517 -0.82561964 -0.15001997 -0.52834255 0.10796859 0.1094808
0.44643047 -0.49738544 0.2791352 0.30186254 0.09331222 -0.0348046 0.2796129 -0.07772585
-0.30443928 0.44986486 0.8429527 -0.42613545 0.26008862 0.008356191 -0.09540821 0.055204835
0.38448277 0.16120481 -0.2046964 0.13160759 0.1888534 0.34660995 0.052423768 0.18432517
0.4300959 0.051130325 0.16923365 0.41738844 0.38641134 0.22943068 -0.035161782 -0.057952795
0.09360667 0.67712283 -0.69628185 -0.9190004 0.19637795 -0.20211819 0.15291226 -0.034745038
0.23406552 -0.66864324 -0.35159472 -0.056196544 -0.08384723 0.12254013 -0.0930007 -0.36383417
0.111654125 -0.3090254 -0.035614997 -0.36956164 0.27996853 0.15382616 0.28244513 0.06424576
0.45218298 -0.30381802 -0.21368343 0.2919659 0.7526824 -0.20126694 0.20342024 -0.0020756489
00000000: 6afa 63be ac94 913d 879d 393f 1597 cdbe
00000010: f00d 913e cd43 9c3d 3c9c 0b3d 3433 f13b
00000020: c976 9c3e 5eec b0bd 57bf d4be e883 4b3e
00000030: fb64 993e 41ae 063e 7653 c13e 4a1a a13d
00000040: 129a fd3d c16a a53c 132f bb3e 02d7 ec3d
00000050: b524 003e 8ca4 773e 4262 13be 071b a7be
00000060: c63d f63d 6d72 38be 72e0 3dbe d9a5 53bf
00000070: 9a90 053f fb26 033d df2c 923e d25e 483e
00000080: d06f e73d edbf c0bd faab 163e dbe7 9c3e
00000090: 9e53 9b3c 19dd a03d 866c bb3d 9156 243e
000000a0: 040c 67be 998b a2bd f9e4 263e 74bb 3bbf
000000b0: d00a 2abf f6e8 b0be f058 ebbe ae09 ee3d
000000c0: f5c2 4a3e 9f28 ffbb c519 223d fc50 f83d
000000d0: 9a80 3d3c 7424 8f3d 85e8 383d e132 adbd
000000e0: 1dfd d3bd 0afa 0e3e 434b 2abe 2b45 733d
000000f0: 1e22 2ebd 81e6 eabd c538 5b3d 2427 143e
00000100: 898c f8bd b2e1 44be 066b 003e 5811 04bd
00000110: 8089 3abd 60c0 fcbd 3c05 05be bd17 c63d
00000120: c7ff a7bd 3027 dbbc 173f 64be 0c8d 3dbe
00000130: 853a 96bd b0de 963f 7d5f 82be f47a d63d
00000140: 4b1c 63bd b964 94be fb0a 323e 5c30 a03e
00000150: 1d01 ac3d e058 ddbe 4f99 4b3c ecae a23e
00000160: 8c31 3e3e fb70 6f3e e8e8 213e 5771 6f3e
00000170: d3b9 0abe 6f7c 073f a9b3 af3e 7cb0 b43e
00000180: f982 b53e e124 1ebe ab55 e4be 4151 eabc
00000190: ad42 c7bd bc53 65bc 63d9 4cbf 7e9d 003f
000001a0: a45b eb3d 0383 a13e c3b7 06be cc24 9ebd
000001b0: e16c 91be f5ab 80bd 4281 ee3e b2c8 84bd
000001c0: 67d2 49be 959f 60bc ae7b 3cbe e7b8 ebbe
000001d0: 6d34 b6be 51b0 8d3e fa55 89bc 6f9f d8be
000001e0: ea28 063e b57c 89be 4b99 953e a9c3 b0bd
000001f0: 1e8b 903e 01d8 59be 2472 c93e a0ff 8f3f
00000200: 7143 aebe 844b e83e 139d 9abd 6b85 46be
00000210: 4229 3a3e d6ae e53e 86f9 8ebd d893 99be
00000220: ce14 693d 768b 22bd 9360 563e 35f2 7b3e
00000230: 03c8 8d3e f292 9f3e 7afe 7f3c cb54 d5bc
00000240: f4db e83e d5fe 973d ea4a 9c3e e317 6bbe
00000250: 2015 39be 32e4 293e 7fd4 8c3e 06a9 1bbf
00000260: eca7 90bf d5ec 10bf 0073 1dbd d0b3 a83e
00000270: 00e6 bebe 6daf 993e 6718 dbbc 32e6 12bf
00000280: b4a5 2a3e 3529 96be 3ecc 37bb 7e17 4bbe
00000290: 1cc2 43bf 563f db3c 3405 7bbe f41d 9e3e
000002a0: fc84 50bd 9018 643e 5ab6 3f3e b82a 92be
000002b0: 6f81 853e b915 6c3e e1ba 1ebd c08a 863e
000002c0: 68cc 49bf c7cd 80bf 0d2b 2cbe 3675 1a3e
000002d0: 121a 2b3d 97ab 71bf 65c7 d0bd e5fe a7be
000002e0: 4b11 f6be be67 3abe fbd2 8dbc cf5b 53bf
000002f0: d69e 19be 7541 07bf a31e dd3d 7837 e03d
00000300: 8992 e43e 4ea9 febe cfea 8e3e ba8d 9a3e
00000310: 7a1a bf3d 458f 0ebd 6c29 8f3e bb2e 9fbd
00000320: 77df 9bbe b054 e63e c0cb 573f 6d2e dabe
00000330: 562a 853e 68e8 083c 6165 c3bd 771e 623d
00000340: edda c43e e012 253e ef9b 51be 24c4 063e
00000350: c962 413e dc76 b13e 4eba 563d bdbf 3c3e
00000360: 8835 dc3e 086e 513d 964b 2d3e f0b3 d53e
00000370: b5d7 c53e e0ef 6a3e cd05 10bd e95f 6dbd
00000380: dbb4 bf3d ec57 2d3f 873f 32bf 9c43 6bbf
00000390: 4d17 493e 12f8 4ebe 0895 1c3e d050 0ebd
000003a0: dfae 6f3e 342c 2bbf 3904 b4be 592e 66bd
000003b0: 19b8 abbd 52f6 fa3d 2777 bebd 7948 babe
000003c0: ebaa e43d 9438 9ebe 08e1 11bd 2f37 bdbe
000003d0: 0958 8f3e 9b84 1d3e a69c 903e 4893 833d
000003e0: 8784 e73e 098e 9bbe d4cf 5abe 8e7c 953e
000003f0: cbaf 403f ec18 4ebe 654d 503e 9c07 08bb

fc2.bias f4 [25]
0.19780698 0.20482342 -0.18649204 0.15885527 0.19967228 0.16736002 -0.17420416 0.106805764
-0.059209008 -0.14365734 0.15755872 -0.0995544 0.17380966 -0.062780865 0.05809277 0.066532545
0.19562747 0.16576466 -0.13104872 -0.107032135 -0.17454219 -0.22759333 -0.10104953 -0.101867266
0.14295566
00000000: ea8d 4a3e 3bbd 513e c5f7 3ebe f5aa 223e
00000010: e476 4c3e 6d60 2b3e 9362 32be fbbc da3d
00000020: 2585 72bd e91a 13be 1357 213e 2de3 cbbd
00000030: 29fb 313e 4193 80bd aff2 6d3d 3742 883d
00000040: 9152 483e 36be 293e a331 06be aa33 dbbd
00000050: 30bb 32be 3a0e 69be 0ef3 cebd c99f d0bd
00000060: f862 123e

ps_out.weight f4 [2, 25]
0.41976386 -0.53083646 0.05030459 0.6547018 -0.62052953 0.40551144 -0.9820522 -0.87001735
0.2479355 -0.9002215 0.0547523 -0.7776716 -0.9260951 -0.6522148 0.5781038 0.19025089
-0.67976195 0.31859142 0.6541179 -0.0865203 -0.13045445 0.7340382 -0.83844495 0.19738105
0.16975416 -0.32508084 0.641537 0.073028445 -0.64738965 0.7587263 -0.37658545 0.8627015
0.9605705 -0.42065066 0.7853661 -0.31384578 0.6654199 0.79400426 0.7065777 -0.5638946
-0.36073613 0.5933482 -0.29195145 -0.72316873 0.16467418 0.072309025 -1.0287302 0.86013323
-0.55834126 -0.16142324
00000000: 4aeb d63e e6e4 07bf 300c 4e3d 8a9a 273f
00000010: 06db 1ebf 329f cf3e c667 7bbf 75b9 5ebf
00000020: cee2 7d3e eb74 66bf f343 603d 7c15 47bf
00000030: 9214 6dbf 8df7 26bf 9cfe 133f 21d1 423e
00000040: e104 2ebf 6a1e a33e 4574 273f 8e31 b1bd
00000050: da95 05be ede9 3b3f 54a4 56bf 421e 4a3e
00000060: 09d4 2d3e ff70 a6be c53b 243f f08f 953d
00000070: 54bb 25bf e33b 423f cfcf c0be 01da 5c3f
00000080: f3e7 753f 865f d7be c10d 493f 65b0 a0be
00000090: f558 2a3f dd43 4b3f 47e2 343f 665b 10bf
000000a0: 68b2 b8be abe5 173f a97a 95be 9621 39bf
000000b0: 59a0 283e c116 943d 6ead 83bf b131 5c3f
000000c0: 74ef 0ebf 224c 25be

ps_out.bias f4 [2]
-0.12066807 -0.14209487
00000000: d220 f7bd 5181 11be
