Propensity_Model/DCN_PD_NN_Models/NN_PS_model_iter_id_83_epoch_100_lr_0.001.pth (torch_old, 6445 bytes, 6 tensors)

fc1.weight f4 [25, 25]
-0.15434131 0.05725287 0.03172274 -0.101361744 -0.038850192 -0.15766984 0.09473935 0.20909044
-0.03328139 0.14493673 -0.35333154 0.15618151 0.33162388 -0.1017657 -0.06170544 0.12729956
-0.047892697 0.04456159 -0.45423055 0.28657982 -0.28509527 0.13579209 0.082702205 -0.1793975
-0.3946777 0.12780228 0.18666486 0.26882517 0.27090505 0.07982388 -0.13848178 -0.043867696
0.005646112 -0.035324764 -0.16603087 0.25715587 0.27481642 -0.15957397 0.011602526 -0.16067111
0.08284319 0.13736367 -0.09503035 0.040096495 0.03790404 -0.3634354 0.1696374 0.21028894
-0.20428003 -0.13574305 0.09959902 0.10068345 -0.12776224 0.11975135 0.0117443055 -0.15682611
-0.2738941 0.126027 -0.083247975 0.09898529 0.19928026 0.014143182 0.11898532 -0.20354183
-0.3736499 0.14245428 -0.04944534 -0.23076898 -0.39933118 0.50930345 0.1748586 0.0074676974
0.16661593 0.14377625 -0.24066769 0.009699926 -0.13282706 0.26888844 0.2080326 0.18107006
0.025938684 -0.38282353 -0.14280841 0.08267255 -0.17318794 0.32318157 -0.0993652 -0.17393875
-0.123568356 0.4885285 0.13249443 0.004783121 0.08319367 -0.039394435 0.07794329 -0.35903776
-0.16978598 0.20292498 -0.23041266 0.11819365 -0.22251892 0.28313777 0.29443684 -0.064784616
-0.10209674 0.052765522 -0.11285342 0.15934043 0.13160522 0.17997329 0.13733207 0.035940845
-0.15154432 0.058374725 0.021843212 0.053647824 -0.23494914 -0.23039322 0.07039612 -0.20102656
-0.06977735 0.13507445 -0.21772921 -0.2578871 -0.33614448 -0.07952078 -0.041581262 -0.03287856
0.24529436 0.27191824 0.012009511 0.3134063 0.40155762 -0.03282485 0.3107837 0.15076095
-0.12731567 -0.0715175 -0.08670832 0.3255888 -0.046747174 -0.11627542 0.17411105 -0.1046084
0.030925717 0.13735136 -0.07310464 0.21578716 0.07629676 -0.060642716 -0.1571994 0.12941855
-0.037196964 0.16974188 0.15578078 0.011337201 0.08478818 -0.41476473 -0.04039127 -0.093544066
-0.10973537 -0.3321677 -0.1506844 0.25540534 -0.073625945 -0.061963763 0.24728215 -0.2424146
-0.30666772 -0.24581924 0.044055395 0.025504708 0.4182602 0.4370598 0.0020585123 -0.22685423
0.24071749 0.18145624 0.15611093 -0.27279857 0.00530961 -0.13072279 0.15216765 -0.19758534
-0.039808568 -0.24217467 0.19077915 -0.23240541 0.061620012 -0.30688727 0.13031909 0.09190473
-0.0058146585 0.065628015 0.21312821 -0.32080424 0.04053765 -0.30570194 0.2827609 0.17604063
-0.015540365 -0.27729964 -0.27114752 -0.0026049425 -0.21214703 -0.1945505 0.2203118 -0.03770691
-0.09754637 -0.13654278 0.25279006 -0.22711739 -0.0791207 -0.10549602 -0.11303965 -0.123741634
-0.31782332 0.044594266 0.101747446 0.094027005 -0.18137236 0.09664479 -0.04424585 -0.16096704
0.22201353 0.1945539 0.12299493 -0.24715725 0.056954138 0.16972235 -0.3221327 -0.12245164
0.28287598 -0.3379205 -0.08096351 0.16352725 0.09709291 -0.06272674 -0.11996387 -0.4949568
-0.2428218 0.3505889 -0.2468049 0.09496205 0.14288376 0.22835296 -0.31937784 0.26684892
0.24299723 0.03595119 -0.09784072 -0.19627865 0.08339837 0.30218962 -0.21363145 -0.06032374
00000000: a60b 1ebe fc81 6a3d b4ef 013d bf96 cfbd
00000010: 6121 1fbd 3474 21be b406 c23d ce1b 563e
00000020: 1152 08bd 4b6a 143e dfe7 b4be 0cee 1f3e
00000030: 9bca a93e 896a d0bd d8be 7cbd d15a 023e
00000040: 222b 44bd 3786 363d e890 e8be 97ba 923e
00000050: 02f8 91be 150d 0b3e c65f a93d fab3 37be
00000060: 3213 cabe 9ade 023e 1325 3f3e 74a3 893e
00000070: 11b4 8a3e b47a a33d 2bce 0dbe 9dae 33bd
00000080: 0503 b93b b3b0 10bd ff03 2abe efa9 833e
00000090: bdb4 8c3e 5c67 23be 8518 3e3c f886 24be
000000a0: b1a9 a93d 10a9 0c3e 469f c2bd 393c 243d
000000b0: 4441 1b3d 3414 babe 6db5 2d3e fc55 573e
000000c0: c92e 51be 3a00 0bbe 92fa cb3d 2033 ce3d
000000d0: 1bd4 02be 3240 f53d 306b 403c 0697 20be
000000e0: d93b 8cbe 390d 013e ea7d aabd cdb8 ca3d
000000f0: 2010 4c3e ceb8 673c 93ae f33d 456d 50be
00000100: 0a4f bfbe 89df 113e 3287 4abd b44e 6cbe
00000110: 2375 ccbe b661 023f 220e 333e 96b3 f43b
00000120: 5e9d 2a3e 153a 133e 9771 76be 70ec 1e3c
00000130: d103 08be bfab 893e 7f06 553e 6e6a 393e
00000140: 5d7d d43c 7201 c4be 5e3c 12be 3a50 a93d
00000150: 2e58 31be 0e78 a53e fb7f cbbd 001d 32be
00000160: 6811 fdbd 6820 fa3e 9fac 073e babb 9c3b
00000170: 7161 aa3d 0f5c 21bd bba0 9f3d ccd3 b7be
00000180: 60dc 2dbe 91cb 4f3e 4cf1 6bbe 830f f23d
00000190: 00dc 63be 6ff7 903e 6dc0 963e ccad 84bd
000001a0: 1818 d1bd a920 583d b21f e7bd 232a 233e
000001b0: 85c3 063e eb4a 383e c7a0 0c3e b536 133d
000001c0: 6f2e 1bbe 561a 6f3d 89f0 b23c d2bd 5b3d
000001d0: 8296 70be 33ec 6bbe d72b 903d e8d9 4dbe
000001e0: 6de7 8ebd f550 0a3e 68f4 5ebe c709 84be
000001f0: 211b acbe cadb a2bd 1d51 2abd abab 06bd
00000200: 722e 7b3e de38 8b3e 8ac3 443c ca76 a03e
00000210: f698 cd3e 5a73 06bd 0b1f 9f3e 1461 1a3e
00000220: 0a5f 02be c477 92bd 2294 b1bd 93b3 a63e
00000230: f779 3fbd cf21 eebd 2b4a 323e ee3c d6bd
00000240: ee57 fd3c d6a5 0c3e e3b7 95bd 4ff7 5c3e
00000250: 7a41 9c3d 7f64 78bd e1f8 20be 4c86 043e
00000260: d85b 18bd d1d0 2d3e ff84 1f3e abbf 393c
00000270: 6da5 ad3d 0b5c d4be 5171 25bd 0894 bfbd
00000280: f0bc e0bd e311 aabe 034d 1abe 7dc4 823e
00000290: 33c9 96bd b7cd 7dbd 8837 7d3e 883b 78be
000002a0: 8d03 9dbe 0ab8 7bbe 6e73 343d 40ef d03c
000002b0: 3326 d63e 4dc6 df3e 1be8 063b 7a4c 68be
000002c0: a57e 763e aacf 393e 8bdb 1f3e 41ac 8bbe
000002d0: 3dfc ad3b 32dc 05be d6d1 1b3e d053 4abe
000002e0: 4f0e 23bd a3fc 77be 9c5b 433e affb 6dbe
000002f0: 4465 7c3d 5420 9dbe 5e72 053e 8c38 bc3d
00000300: e488 bebb fb67 863d 483e 5a3e 7440 a4be
00000310: cf0a 263d f784 9cbe 09c6 903e ff43 343e
00000320: 049d 7ebc 38fa 8dbe d9d3 8abe afb7 2abb
00000330: 123d 59be 3f38 47be 6b99 613e 9072 1abd
00000340: 64c6 c7bd dfd1 0bbe b36d 813e 7691 68be
00000350: 090a a2bd 4c0e d8bd 5581 e7bd 416c fdbd
00000360: bdb9 a2be 7aa8 363d f760 d03d 3b91 c03d
00000370: adb9 39be b4ed c53d 233b 35bd 8bd4 24be
00000380: 8457 633e 2339 473e c4e4 fb3d ca16 7dbe
00000390: be48 693d b2cb 2d3e 94ee a4be edc7 fabd
000003a0: 1fd5 903e ea03 adbe 32d0 a5bd b073 273e
000003b0: a6d8 c63d e176 80bd 9eaf f5bd fa6a fdbe
000003c0: 47a6 78be 6380 b33e 6cba 7cbe 777b c23d
000003d0: 1f50 123e 5cd5 693e 7e85 a3be 6ca0 883e
000003e0: 44d4 783e 8e41 133d b760 c8bd 45fd 48be
000003f0: c4cc aa3d 99b8 9a3e 34c2 5abe 0716 77bd

fc1.bias f4 [25]
0.11365623 -0.11437145 0.05688596 -0.16187859 0.11088791 0.014680107 -0.2386791 -0.050427947
0.11322135 0.0316428 -0.057528872 -0.048187546 0.042888977 -0.09084497 -0.21318682 -0.180975
-0.15566349 -0.057058062 -0.21980453 0.13361868 -0.024501475 0.14937763 -0.036616806 0.21758829
-0.06811806
00000000: 99c4 e83d 943b eabd 4101 693d 80c3 25be
00000010: 3319 e33d d584 703c 4b68 74be 898d 4ebd
00000020: 98e0 e73d e19b 013d 65a3 6bbd 4e60 45bd
00000030: 5aac 2f3d ed0c babd a54d 5abe 8351 39be
00000040: 4066 1fbe b7b5 69bd 7014 61be 56d3 083e
00000050: 51b7 c8bc 73f6 183e 81fb 15bd 77cf 5e3e
00000060: 7b81 8bbd

fc2.weight f4 [25, 25]
0.18799214 0.1281596 0.7444837 0.5979945 0.3829596 0.09296765 0.74471414 0.39280826
0.34347075 1.2094054 -0.05949534 1.2295327 0.059273954 -0.32599598 -0.39934263 0.21558894
1.290441 0.25972432 0.7189367 -0.015572182 0.3626097 0.4057453 1.1697526 0.032623444
0.0828108 -0.27502447 -0.11069826 -0.36585876 -0.5495062 -0.2891441 0.19824606 -0.37589166
0.014519526 -0.4624749 -0.8959319 0.1550291 -0.77682906 0.3233081 0.0057076765 0.41683602
0.13497022 -0.61246693 0.44092777 -0.25863394 0.24505182 -0.37141752 0.08946643 -0.9738743
0.36343297 -0.013694097 0.09435581 -0.66265637 -0.28912553 0.14002158 -0.2831904 0.18418941
-0.30645654 0.26976028 -0.25291234 -0.0888991 0.100605644 -0.53473926 -0.1737858 0.14078328
-0.09097502 -0.010478181 -0.022407813 0.17559004 -0.31553188 0.11936928 -0.2137405 0.027476504
-0.33804074 -0.05181835 -0.19023393 0.15353577 0.19576463 0.4059332 0.3054974 0.56280035
0.24673952 0.166529 -0.12037195 0.059976425 0.48097923 0.12523916 0.57602906 -0.12078677
-0.0016136264 -0.22835444 0.1531657 0.63070256 0.039521918 0.47890118 0.06199718 -0.04262219
0.2219721 0.45768595 -0.08848167 -0.20730978 -0.38738194 -0.8663135 0.34791413 0.2506013
-0.4354411 0.34496757 -0.6499728 -0.7042324 -0.32858783 -0.5532992 0.4583128 -0.70827574
0.2187729 0.2067077 -0.3086606 -0.13908347 -0.8664935 0.0022127836 -0.24229306 0.1227491
-0.56070954 -0.08778193 -0.8298898 0.4373174 0.16750097 0.2501605 0.37564307 0.16694318
-0.07627692 0.107199624 -0.23287575 0.4241257 -0.54148775 0.59957814 0.42002767 -0.42552018
0.6601879 -0.51122063 0.3334183 0.0002173336 0.047941525 0.25215742 0.070233956 -0.6867518
-0.33805534 0.20105621 0.20877576 0.46723425 -0.44815722 0.10040429 -0.30365822 0.104565084
-0.28137723 -0.20561661 -0.17142266 0.049430374 -0.4545103 0.27964902 -0.41563103 -1.0846058
0.058688074 -0.99731225 0.1302639 0.42061087 0.39033192 0.007426585 -0.90554374 0.10483609
-0.5915025 0.5316943 -0.025214015 -0.007025029 -0.6948732 0.5818078 0.097272724 0.23821917
0.03103285 0.54704237 0.51188314 0.49535516 -0.012540182 0.76130325 0.32868257 0.11674521
0.9520927 -0.11383636 1.2422141 -0.11642148 -0.29708534 -0.44843715 0.19895627 1.2349457
0.30914736 1.0021607 0.012728342 0.32686818 0.38165238 1.03857 -0.12292995 0.08160835
0.38115975 0.19348139 0.67934966 0.41045615 0.41517627 0.31415728 0.629355 0.1406914
0.32790053 1.0054332 0.0512037 0.9640521 0.14465377 -0.30182856 -0.34877026 0.02082165
1.0022613 0.14105937 1.004031 0.016269265 0.20385252 0.42933336 1.2221065 0.16320926
-0.02665137 0.38589606 0.07278252 0.5225768 0.47978136 0.42020723 0.22355594 0.70107275
0.2859975 0.21011747 0.8228024 -0.050941054 0.881197 0.14741696 -0.3202832 -0.42124328
0.05360468 1.216156 0.31541756 0.9652745 -0.014056291 0.18567295 0.41789135 0.9264928
0.14566529 -0.07003959 0.16148217 0.14753994 0.55841357 0.5944984 0.5544337 -0.0117492555
00000000: 0381 403e 453c 033e 7c96 3e3f 2b16 193f
00000010: 4813 c43e d365 be3d 96a5 3e3f 2a1e c93e
00000020: 66db af3e cccd 9a3f 63b1 73bd 5461 9d3f
00000030: 3fc9 723d f2e8 a6be a376 ccbe 59c3 5c3e
00000040: 2c2d a53f 96fa 843e 3c0c 383f 7722 7fbc
00000050: fba7 b93e d9bd cf3e 74ba 953f 29a0 053d
00000060: b598 a93d 02d0 8cbe c5b5 e2bd d751 bbbe
00000070: 70ac 0cbf b20a 94be 0401 4b3e df74 c0be
00000080: 4ee3 6d3c 83c9 ecbe cb5b 65bf f3bf 1e3e
00000090: 45de 46bf a488 a53e 7607 bb3b 886b d53e
000000a0: a235 0a3e a2ca 1cbf 49c1 e13e ab6b 84be
000000b0: ddee 7a3e 702a bebe 2d3a b73d d34f 79bf
000000c0: e313 ba3e 355d 60bc 9e3d c13d d9a3 29bf
000000d0: 4308 94be d161 0f3e 55fe 90be 269c 3c3e
000000e0: dfe7 9cbe 051e 8a3e ba7d 81be bb10 b6bd
000000f0: 550a ce3d ace4 08bf e8f4 31be 7e29 103e
00000100: 1c51 babd adac 2bbc 9790 b7bc e0cd 333e
00000110: 658d a1be e277 f43d cade 5abe 6816 e13c
00000120: ad13 adbe 7a3f 54bd afcc 42be 7b38 1d3e
00000130: 8676 483e 7ad6 cf3e 286a 9c3e af13 103f
00000140: 49a9 7c3e 9486 2a3e 9285 f6bd d7a9 753d
00000150: e942 f63e b23e 003e a476 133f 0e5f f7bd
00000160: 5180 d3ba bfd5 69be 78d7 1c3e b975 213f
00000170: bce1 213d 8932 f53e c1f0 7d3d 9b94 2ebd
00000180: a74c 633e d055 ea3e e135 b5bd 0449 54be
00000190: ed56 c6be b9c6 5dbf cd21 b23e d04e 803e
000001a0: 23f2 debe 979f b03e 9e64 26bf 9348 34bf
000001b0: aa3c a8be 04a5 0dbf faa7 ea3e 8f51 35bf
000001c0: 0106 603e 2fab 533e c308 9ebe e66b 0ebe
000001d0: 85d2 5dbf 5904 113b ac1b 78be e163 fb3d
000001e0: a98a 0fbf 03c7 b3bd a873 54bf 11e8 df3e
000001f0: 6085 2b3e 0915 803e 4a54 c03e 27f3 2a3e
00000200: 1337 9cbd 7a8b db3d fb76 6ebe 0127 d93e
00000210: f19e 0abf f47d 193f de0d d73e c8dd d9be
00000220: 1302 293f 5bdf 02bf ceb5 aa3e 0be4 6339
00000230: 555e 443d c71a 813e d2d6 8f3d f7ce 2fbf
00000240: 9715 adbe aee1 4d3e 50c9 553e 5439 ef3e
00000250: dd74 e5be c4a0 cd3d 1779 9bbe 3826 d63d
00000260: ad10 90be 298d 52be 6c89 2fbe 8177 4a3d
00000270: 93b5 e8be 282e 8f3e 97cd d4be 5dd4 8abf
00000280: e862 703d db4f 7fbf e663 053e 4f5a d73e
00000290: 96d9 c73e b65a f33b b7d1 67bf 4eb4 d63d
000002a0: b56c 17bf 1e1d 083f 9f8d cebc 3732 e6bb
000002b0: 36e3 31bf 5bf1 143f ec36 c73d baef 733e
000002c0: 9a38 fe3c f80a 0c3f c60a 033f 319f fd3e
000002d0: 5675 4dbc c5e4 423f 1549 a83e 1d18 ef3d
000002e0: 59bc 733f 0a23 e9bd df00 9f3f 636e eebd
000002f0: 921b 98be 8e99 e5be 31bb 4b3e b312 9e3f
00000300: 9048 9e3e cd46 803f 898a 503c 445b a73e
00000310: f167 c33e ddef 843f b3c2 fbbd 4722 a73d
00000320: 5f27 c33e fc1f 463e dce9 2d3f 4f27 d23e
00000330: fc91 d43e 39d9 a03e 691d 213f 6811 103e
00000340: 94e2 a73e 09b2 803f f9ba 513d 1ecc 763f
00000350: 1e20 143e 4689 9abe 0492 b2be 2a92 aa3c
00000360: 194a 803f de71 103e 1684 803f 1f47 853c
00000370: b7be 503e 95d1 db3e fc6d 9c3f 5420 273e
00000380: f953 dabc 2b94 c53e 000f 953d 98c7 053f
00000390: e7a5 f53e 6725 d73e d9eb 643e 8179 333f
000003a0: 446e 923e 0929 573e 2ea3 523f 91a7 50bd
000003b0: 2096 613f 79f4 163e 29fc a3be 33ad d7be
000003c0: 9590 5b3d 00ab 9b3f 697e a13e 3b1c 773f
000003d0: 5c4c 66bc 0d21 3e3e dbf5 d53e a22e 6d3f
000003e0: 4829 153e eb70 8fbd 955b 253e b614 173e
000003f0: 31f4 0e3f 0c31 183f 5eef 0d3f f37f 40bc

fc2.bias f4 [25]
-0.23691055 0.43025637 0.06637606 -0.005933626 -0.003391525 0.07411369 0.4640986 -0.11056718
-0.24136446 -0.16914968 -0.045354407 0.020926341 0.028164564 -0.22897606 -0.12914537 -0.029198725
0.11126241 -0.13580284 0.1044003 -0.23759267 -0.1080537 -0.21942219 0.20154826 0.14075191
0.1521669
00000000: ae98 72be 904a dc3e 2cf0 873d dd6e c2bb
00000010: 5944 5ebb ebc8 973d 559e ed3e 0c71 e2bd
00000020: 3f28 77be 9335 2dbe 8bc5 39bd b86d ab3c
00000030: 5fb9 e63c b378 6abe af3e 04be 2a32 efbc
00000040: 8cdd e33d e60f 0bbe d3cf d53d 7e4b 73be
00000050: 424b ddbd 36b0 60be ab62 4e3e 4521 103e
00000060: a4d1 1b3e

ps_out.weight f4 [2, 25]
0.879285 -0.8995639 -0.3653794 0.3845758 -0.92448306 0.9038566 -0.3598283 1.4797761
0.51673836 0.67806923 0.8498022 0.21894705 0.24016042 -0.022402981 0.51581764 0.10620386
1.2463914 0.53365207 0.5932882 -0.13737972 0.43988496 0.5038362 1.1715181 -0.59668577
-0.45754611 -1.1037782 0.6933845 0.1968807 -0.29561666 1.1038107 -0.8881059 0.6530384
-1.446228 -0.53812075 -0.71160465 -0.5073664 -0.49675062 -0.24588767 0.10605305 -0.36976492
-0.17097546 -1.0289202 -0.5080467 -0.6138509 0.037551194 -0.21129672 -0.37111506 -1.0300599
0.4547516 0.48547825
00000000: d218 613f d249 66bf 0213 bbbe 1fe7 c43e
00000010: ecaa 6cbf 2563 673f 6a3b b8be 4e69 bd3f
00000020: f748 043f f295 2d3f a38c 593f a833 603e
00000030: 9dec 753e 7586 b7bc a00c 043f 6981 d93d
00000040: c189 9f3f 6c9d 083f bce1 173f 45ad 0cbe
00000050: 9a38 e13e 69fb 003f 4ef4 953f 66c0 18bf
00000060: 7c43 eabe 9b48 8dbf a681 313f 189b 493e
00000070: 115b 97be ab49 8d3f e95a 63bf 862d 273f
00000080: 001e b9bf 48c2 09bf b92b 36bf c4e2 01bf
00000090: 1956 febe fac9 7bbe 5732 d93d d451 bdbe
000000a0: 3114 2fbe a8b3 83bf 590f 02bf 5525 1dbf
000000b0: 48cf 193d 2b5e 58be cb02 bebe 01d9 83bf
000000c0: 34d5 e83e 9b90 f83e

ps_out.bias f4 [2]
-0.05022846 -0.053205337
00000000: 5cbc 4dbd d7ed 59bd
