Propensity_Model/DCN_PD_NN_Models/NN_PS_model_iter_id_43_epoch_100_lr_0.001.pth (torch_old, 6449 bytes, 6 tensors)

fc1.weight f4 [25, 25]
00000000: f176 18be 4531 9bbe 409e e4bb 2d9c 3c3e
00000010: 4b8e 8ebd 9efd a93e e934 2e3e 084a 98bd
00000020: ed5c b13e 7c31 95be b6e2 a13d bd55 1fbe
00000030: 4508 57be 3ad2 5cbd 2bcc 10be 70a7 843c
00000040: 7c0b 9c3e 981e c43d 5fa3 00bf 871a 9e3e
00000050: bc0d 6b3e 240d a23e ad52 5b3e e149 8b3d
00000060: 2778 853e 84c0 6fbe f32a c33d 739b 243e
00000070: bd86 92bd 918c 9cbe b132 35be 1634 26bc
00000080: 8d55 b73e b289 4d3e eb5d e13d c791 97bd
00000090: da9c fbbe 3000 fd3c 95b5 fbbd f185 febd
000000a0: 26ad 9e3d 2bca e23e 0450 393e 674f 723d
000000b0: 2df1 fd3d 93d8 6f3e e698 80be b63a e53e
000000c0: 6ca9 173d 7d38 a8be 4659 febc 5ff2 033e
000000d0: 45d2 b2be b4c1 e0bd d8cb f6bd 688b 6cbd
000000e0: ab6d 7f3e c38e 783e d460 98be 4a2d 93bd
000000f0: f232 1fbe b2ac bd3d 6ebd b83c 1e6a 81bd
00000100: 9775 34bf 46f0 26be de99 253e fff6 083e
00000110: 48f2 3a3e 26f0 a73e 7286 423b 7ccb 9e3e
00000120: 42f2 243e 1238 3d3e ca93 b23d b9cf 503e
00000130: 9b19 c5bd 0dc9 a73e 63d5 aa3d f2ab 323e
00000140: 0d0f 65bd 5f98 35be 850f 7abe e726 7b3e
00000150: b1d9 c2bd 7637 3bbe d8c7 57be 0803 c1be
00000160: 4731 343e 73db 02be 1367 e9bc 4ae1 a3bd
00000170: e37c 1abe 2b07 913d 7769 69be 220d 4d3e
00000180: 1b1b 4dbe d9a2 903d a00a eb3e bec9 94bd
00000190: 447b c2bd 0089 b83d 4020 7a3e 37db 2f3e
000001a0: 26fc 203e e31f f7bd aecb 8bbe 8f72 4ebc
000001b0: d7a4 a23d 6d64 55be f522 d13e 438a 7b3e
000001c0: 9692 ecbd 6c7f 0dbe 00e1 843e 9886 743e
000001d0: 8bf6 acbd 301b 03be 9c56 933d 8c24 823e
000001e0: 2e1d 72be 12b8 a0be 81ae 213f 14eb f8be
000001f0: 4ef1 28be 22d2 8dbd 05e1 bc3e 2847 8e3e
00000200: 7bc5 06be 908d 50bd 6017 11be 66fc 90be
00000210: 4ea9 af3b 393b 943e 91af 6f3d 2712 60bd
00000220: 4b37 953e b911 debd fca6 cbbd 0221 063e
00000230: febb 82bd 4ca4 993d 40fd a4bd e4e1 393e
00000240: 72d8 b63e 9f62 23be d85e 23be 63e2 033e
00000250: 517f dbbd f327 83be bc24 58be 9119 5c3e
00000260: 6633 e23d 08d1 8e3e 6d1e 2a3e 531a 1b3d
00000270: 4baf 783e 74fb 92bd f04c 81be 924e 9a3e
00000280: d37d b33d 3e56 82be ef8c 91bd 4b20 d83d
00000290: acfe ab3d 5db5 18bd 6b26 5dbe dac2 083e
000002a0: cdc6 89bd 3128 4a3d bbf2 84bb aba1 f3bd
000002b0: 2454 f23e 05c5 693d 966f 73be 21b7 353e
000002c0: a449 7c3d 0053 88be c9e9 8c3e dd1d d6bd
000002d0: 29f5 01be 03ce d5bc 6d78 1a3b 22af d6be
000002e0: 2095 af3d 9c64 513e df27 bdbc cc03 8cbe
000002f0: a130 04be eb3c e0be 4fcc a3bc 335e a9bd
00000300: 286b 5abd be7d 33be b0b2 513d b33e d0bb
00000310: 6054 fabd 4cdd d9be cba9 0e3e faab 9c3d
00000320: ff25 0d3e 5435 413e ccec 9d3d 3c07 263d
00000330: ea72 673e 46c2 32bd f476 1abe 9d4a 45be
00000340: a7cf debe 6fbb b23e b8d6 77bd 079f c73d
00000350: 787e 383e 6d78 813e aa9c 143e e70a 3f3a
00000360: 5d4c 83be bfdd ad3e 9e22 09bd ae06 10be
00000370: e57c 25be 1aa0 4cbe 687b 9f3e 562b ff3e
00000380: 9a85 d2bd 6265 75be 3b76 f13d ba68 31be
00000390: 6cba 16be 3fca 9abe caf7 153e c84a d1bc
000003a0: 2348 dabd cdd4 383e 10d1 36bd 4b17 843c
000003b0: 41fc a43e ef6e c93d 1d3e 963d 4529 babc
000003c0: 5192 c23d 33a5 62be 1fb3 843d 6f43 ce3d
000003d0: 3efc abbd 6019 173b a1b7 973e 0cf3 abbe
000003e0: 6e00 e0bc 619e 193f e871 84be b8c1 1cbe
000003f0: 60e6 a03e 04c7 703d cc1c 893d 03ba 11be
-0.14889123 -0.30311027 -0.0069768727 0.18418951 -0.06960734 0.33201307 0.17012371 -0.07435995
0.3464121 -0.29139316 0.0790457 -0.1556005 -0.20999248 -0.053911425 -0.14140384 0.016193122
0.30477512 0.09576148 -0.50249285 0.30879614 0.22954458 0.3165065 0.21418257 0.06801201
0.2606823 -0.23413283 0.09529676 0.16074924 -0.071546055 -0.30575994 -0.17695118 -0.010144254
0.35807458 0.20072058 0.110042416 -0.07400852 -0.49143106 0.030883878 -0.122904934 -0.12427891
0.07747869 0.44294867 0.1809693 0.059157755 0.12399516 0.2342246 -0.25116652 0.44771355
0.037026808 -0.32855597 -0.031048428 0.12885426 -0.34926048 -0.10974446 -0.12050599 -0.057750136
0.24944179 0.2427321 -0.29761374 -0.071863726 -0.15546778 0.09261455 0.022551265 -0.06319068
-0.7049193 -0.16302595 0.16171977 0.13375472 0.18256485 0.32800406 0.0029682186 0.3101462
0.16108039 0.1847842 0.08719595 0.2039174 -0.096240245 0.32770577 0.083414815 0.17448404
-0.055922557 -0.17733906 -0.24419983 0.24526559 -0.095141776 -0.18282875 -0.21072328 -0.37697625
0.17596923 -0.12779026 -0.028491532 -0.08001955 -0.15086703 0.07081445 -0.22794138 0.20024541
-0.20029871 0.07062311 0.45906544 -0.07265042 -0.09496167 0.09010506 0.24426365 0.17173468
0.15721187 -0.12066629 -0.27303833 -0.012600555 0.07941597 -0.2083909 0.40846983 0.24564461
-0.115513965 -0.13818139 0.2595291 0.23879468 -0.08445462 -0.1280334 0.07194254 0.25418508
-0.23643944 -0.31390435 0.63156897 -0.4861685 -0.164983 -0.06924845 0.36890426 0.27788663
-0.1316127 -0.050916255 -0.14169073 -0.28317565 0.005360759 0.28951433 0.058517043 -0.05470481
0.29143748 -0.10843224 -0.09943959 0.13098529 -0.06383513 0.0750204 -0.08056116 0.18152577
0.3571201 -0.1595559 -0.15954149 0.12879328 -0.10717643 -0.25616416 -0.21107763 0.21494128
0.1104496 0.27893853 0.16613169 0.0378669 0.24285619 -0.07176867 -0.2525401 0.3013807
0.087642334 -0.25456423 -0.07106959 0.105530344 0.08398184 -0.037282337 -0.21596687 0.1335558
-0.06727371 0.049354736 -0.004057256 -0.1189607 0.4732982 0.057072658 -0.23773035 0.1774564
0.061593667 -0.26625824 0.27522114 -0.10454915 -0.12691177 -0.02609921 0.0023570315 -0.4193049
0.08573365 0.20448536 -0.023090301 -0.27346647 -0.12909175 -0.43796477 -0.019994883 -0.0826992
-0.05332485 -0.17528436 0.0511958 -0.0063551306 -0.122231245 -0.4255165 0.13931958 0.076499894
0.13784026 0.18868 0.07711181 0.040534243 0.2260243 -0.043642305 -0.1508444 -0.19266744
-0.435178 0.34908625 -0.060507506 0.09747129 0.18016994 0.2528719 0.14512888 0.00072876964
-0.25644198 0.3395824 -0.03348028 -0.14065048 -0.16160925 -0.19982949 0.3114884 0.4983775
-0.10279389 -0.23964456 0.11790129 -0.17325106 -0.14719552 -0.30232427 0.14645305 -0.025548354
-0.1065829 0.18049927 -0.04463297 0.016124388 0.32223704 0.09835612 0.07336066 -0.022724757
0.09500564 -0.22133331 0.06479477 0.10071456 -0.08397721 0.0023055896 0.29632285 -0.33583868
-0.027343955 0.6000729 -0.25868154 -0.15308273 0.31425762 0.058783546 0.06694946 -0.14231114

fc1.bias f4 [25]
00000000: ddf1 273e e315 0cbd 025d 213e dd85 0e3e
00000010: 6991 473d 5d77 1abd e20f f5bd 8636 3c3e
00000020: 5d2c 403e 3623 cebd 1e15 52bd d4ab 443e
00000030: ca36 513e 1f4b 2d3d 27f2 32be 5fa6 b6bd
00000040: 2a23 68bd 2701 493e 3446 3b3d 3108 3cbd
00000050: 781f 3dbe b842 52be a20d 64bd c390 0c3d
00000060: 4b38 38bd
0.16400857 -0.03420056 0.15758136 0.13918252 0.04872266 -0.03771149 -0.1196592 0.18380174
0.18766923 -0.1006531 -0.05128967 0.19206172 0.20431057 0.04230797 -0.17475186 -0.089184515
-0.05667416 0.19629346 0.045721248 -0.04590625 -0.18469036 -0.20533264 -0.055677064 0.034317743
-0.04497556

fc2.weight f4 [25, 25]
00000000: 1a0b 09bd c9e7 8cbc 57df 13be 00c8 fc3d
00000010: 3ffe 88be 0042 bcbd e1b0 cebc 1220 86bf
00000020: 39da 013f abdf e2bc 11a5 1abf 929a 453e
00000030: d6a9 453d c1d6 95bb 5160 023f ecbd 81bd
00000040: 2a3c 2fbd b1bb a83e d46d c73e 3995 d0be
00000050: a3cd 0ebf 9db9 2cbf 29e4 0abe 6e15 0fbf
00000060: e8e6 c6bd 704b d8bd b62e e53d fe6f f13d
00000070: c48b 233f d7a8 443f 98d8 183f 9e76 1a3e
00000080: 004e f03e 30d8 1ebe 151c 2b3d 6900 753d
00000090: 8c4f 48be af24 123e 8bc2 d03e 23e6 c5be
000000a0: b043 1ebe 2fa6 eb3e 6d4b 563e 7baf 4f3e
000000b0: 8a89 cc3e 9047 5d3f b03f 9f3e 3d7d ce3e
000000c0: 67f1 ed3e 740a 8bbd 7cc3 723e 2792 34be
000000d0: 48f4 9a3e 3d39 c83d 295d d43e 351a a83e
000000e0: c1a0 823d febc fb3e af98 17bc 7eb5 9d3e
000000f0: 7a89 5a3e 44e7 dcbd c027 14be d3e9 f63d
00000100: 8b53 bfbe f549 12bd a0f0 3f3e 83af 58bd
00000110: f72c 1ebe d64b d73e e87a f43e 4d90 b83e
00000120: 4cde 823e 1fe3 fc3d 4648 283e 287e 563d
00000130: f7a5 5d3d e9e5 423e a7e9 983d bf7e 713e
00000140: 4ae9 b13e ebcb 903c 07ad e13e e900 afbe
00000150: 91f2 893e 29ff 9b3e 7e2d 873d 789d a63d
00000160: ad50 c83e c8c8 debe fb92 e23d dfe4 753e
00000170: 6c2c 183e 97de 2abe 1532 4a3e 2191 063f
00000180: 9513 9b3e d1b8 2abd 5171 d43e fb2d 3c3e
00000190: 67e7 773e f95a fc3e 9baa 933d afb1 8ebd
000001a0: 115c 87be c721 d4be 92b3 39bf 0e85 d63c
000001b0: 4388 443e 3731 02be c397 953d e49a 683e
000001c0: baf1 8e3e e1e1 43be 1bae f83e 5a08 9e3c
000001d0: 3f07 17bf fc3c d1bd 2d20 96be a9ec 5dbe
000001e0: 4305 73be a9b5 c23c b3cf 4fbf ed4d 19be
000001f0: 814e 8ebe 957a 5e3e 3ade 203f 2bf1 883e
00000200: 521a c6bd 575c 72be 163a 0abf 482d 73bf
00000210: 1b60 b43a 7552 bc3e 09e8 62be 3277 90bd
00000220: c75c 7b3d c977 ba3e db9f 8cbd 6b49 f73e
00000230: 79b7 5fbd 1d8e 24bf 61b0 88be c9d3 d8be
00000240: 8f82 95be c506 e9be dafd 2b3e d4c0 8dbf
00000250: a5a4 2cbe 11a8 63be 27c9 89bd 101f 2dbe
00000260: 89da 09be f7c6 8c3c 7257 66bd 3ddd a6bd
00000270: 1012 43bd c0f0 253b a074 053d 2ff6 c63c
00000280: f169 c73d b2ba 73bd 0597 693c b5d8 29be
00000290: f0f7 743d 4c5f f13d 8518 02be 9ccd 3fbd
000002a0: 81c3 3d3d 9561 03be f2ed 1bbe 1e69 c83d
000002b0: 319e 48be f32a 4cbd 1141 adbd f054 93bd
000002c0: 6d0f 6dbd 4c88 b8be 614e 4abe c995 abbe
000002d0: d907 eabe 1973 023e ac4e 7bbe f905 cc3e
000002e0: c6e6 3a3d 1efa d8bd 275d 863e 8412 4f3e
000002f0: e935 343e 53fe 0a3f 2305 00be 3985 83be
00000300: 4585 aabd 71c3 873c 167e 70be 7d5f 05bf
00000310: 8886 bdbd 17a2 1e3e f300 f1be d374 9ebe
00000320: 6600 18bc 9966 18be fe96 2e3e e39f 083e
00000330: 27db 79bb 830c 31bd 132e dcbe f464 46bd
00000340: 6427 cfbd e38c 5f3c f446 98bd 2e2a 593d
00000350: 415c 8ebb 3c6a 58be 30f8 0e3e e2ea 91bd
00000360: 0dd8 c2be c122 86bd 14c7 d53d f2c5 063d
00000370: 139f 1bbf 8745 5a3e cf32 863e 908d edbe
00000380: eb0d 67be 1c98 9cbe 9b39 263e ffac 993e
00000390: 076c 8d3e 1c40 1b3f a7fe c43e 1d72 9d3e
000003a0: 6691 ed3e e94f 05be a09f e43d 193d 073e
000003b0: 64ff 39be 3f98 5b3e c75c 313e 0c11 27be
000003c0: 3afa 85bc ba90 3c3e 2614 113e 13bc 333e
000003d0: 6879 b03e 71b3 793f 3d3c ae3e ea3e d73d
000003e0: a7f3 833e ae93 a9bd b85a d6bd cfc5 e9bd
000003f0: e482 8cbd c3e3 56be 99df ef3d 0145 1a3e
-0.033457853 -0.017200368 -0.14440666 0.123428345 -0.26756474 -0.09192276 -0.025230827 -1.0478537
0.50723606 -0.027694544 -0.6040812 0.19297245 0.04825767 -0.00457272 0.5092822 -0.06335053
-0.042781986 0.32955697 0.3895098 -0.40738848 -0.55782527 -0.67470723 -0.13563599 -0.55892074
-0.097120106 -0.105612636 0.1119055 0.11788939 0.6388514 0.7682013 0.59705496 0.15084311
0.4693451 -0.15512156 0.041774828 0.059814844 -0.19561595 0.14271806 0.40773425 -0.38652143
-0.15455508 0.46025226 0.2092721 0.20281784 0.39948684 0.8643732 0.31103277 0.40329924
0.46473238 -0.06789103 0.23707384 -0.17633878 0.30264497 0.09776542 0.41477326 0.32832494
0.063783176 0.49167627 -0.009252711 0.3080253 0.21341506 -0.10786298 -0.14468288 0.12056317
-0.37368426 -0.035715062 0.18744135 -0.052901756 -0.1544684 0.42050046 0.4775002 0.36047593
0.25560224 0.123480074 0.1643382 0.052366406 0.054113355 0.19033016 0.07466441 0.23583506
0.34748298 0.01767536 0.44077322 -0.34180382 0.26942876 0.3046811 0.06600474 0.081355035
0.3912405 -0.4351256 0.110631905 0.24013089 0.14860696 -0.16686474 0.19745667 0.525652
0.30288377 -0.04168016 0.41492704 0.18376915 0.24209367 0.49288157 0.07210275 -0.06967484
-0.2643743 -0.4143202 -0.7253963 0.026186492 0.19192605 -0.12714086 0.07304337 0.22715336
0.27918798 -0.19129135 0.48570332 0.019291092 -0.5899543 -0.1021671 -0.29321423 -0.2167231
-0.23732476 0.023768263 -0.811763 -0.14971133 -0.2779427 0.21726449 0.6283909 0.26746497
-0.09672989 -0.23668037 -0.5399488 -0.9499097 0.0013761552 0.3678166 -0.22158827 -0.07053985
0.061367776 0.36419514 -0.068664275 0.482982 -0.054618333 -0.6427935 -0.26697066 -0.4234908
-0.2920117 -0.45512977 0.16796055 -1.1074471 -0.16859682 -0.22232081 -0.0672782 -0.1690638
-0.13462271 0.017184718 -0.056235738 -0.081476666 -0.047624648 0.00253205 0.032581925 0.024287311
0.097370036 -0.05950422 0.014257197 -0.16586573 0.059806764 0.117857546 -0.12704666 -0.046826944
0.046329025 -0.12830193 -0.15227488 0.097856745 -0.19591595 -0.049845647 -0.08459676 -0.07193935
-0.05787604 -0.36041486 -0.19756462 -0.33512715 -0.45709112 0.12739219 -0.2454173 0.39848307
0.04563024 -0.10594581 0.26242945 0.20221907 0.1759869 0.5429432 -0.1250196 -0.25687578
-0.083262004 0.016572686 -0.23485598 -0.5209883 -0.092541754 0.1549152 -0.47071037 -0.30948505
-0.009277439 -0.14882888 0.17049786 0.13342242 -0.003812501 -0.043224823 -0.43003902 -0.04843612
-0.10114935 0.01364443 -0.07435408 0.05301874 -0.0043444936 -0.21134275 0.13961864 -0.071248785
-0.3805546 -0.065495975 0.10438362 0.03290362 -0.60789603 0.21315585 0.2621064 -0.46397066
-0.22563903 -0.305848 0.16232912 0.30014798 0.2762148 0.606447 0.38475534 0.30751124
0.46399993 -0.13018765 0.111632586 0.132069 -0.1816383 0.21444796 0.17320548 -0.16315097
-0.016354669 0.18414584 0.14167842 0.17552213 0.34467626 0.9753943 0.34030333 0.10510047
0.2577183 -0.08280121 -0.10466522 -0.11414682 -0.06860903 -0.20985322 0.1171257 0.15065385

fc2.bias f4 [25]
00000000: b7cf de3d 8d6a 96bd 84c6 b43d 3d38 093e
00000010: 6eec ae3d f23c 8d3e 8177 b5bd fef4 9e3e
00000020: b20d 1a3e c876 8bbd d7ba dc3d 147a e3bc
00000030: 336c e5bc a690 a43d de1a e63c d59d c63d
00000040: d168 913e 7ca1 cebd 9189 1fbe f211 213d
00000050: 1b49 cd3c 03c9 cbbd c1e9 f2bb 39b0 61be
00000060: 2aa6 94bd
0.10879462 -0.07344542 0.08826926 0.1340036 0.08541189 0.2758556 -0.08860684 0.3104629
0.15044287 -0.06809765 0.10777824 -0.027768172 -0.028005695 0.08035402 0.028088983 0.09698073
0.2840028 -0.100893945 -0.15579821 0.039323755 0.025059273 -0.09950449 -0.0074131195 -0.2203988
-0.07258256

ps_out.weight f4 [2, 25]
00000000: 91c3 65bf 3475 223f 1ac7 6b3e 976b 2e3e
00000010: 98c3 39bf 86c6 75bf ef2a e3bd f153 18bf
00000020: 9255 19be 3624 cb3e 1361 28be 3d00 1f3f
00000030: 63ab 333f e77c 933e a17d 713f 1822 b93e
00000040: d6cf 6dbe 2ee5 fdbd 60f1 4cbf d9f6 213f
00000050: d25b 4bbf dbd6 aa3e dad7 15bf 1d3e 0d3f
00000060: 6ff5 d93e b0da 5f3f 8be2 19bf 327c bbbe
00000070: dd43 bdbe 1bf4 833f 4de1 9f3f 1bb5 c4bd
00000080: 794d 243f 28f4 953e d96c abbe 23d6 a43d
00000090: 4439 17bf 91d4 5cbf bd15 31be 1a41 37bf
000000a0: d939 03be 02cd ae3e 0bc9 f5bc 78da 173f
000000b0: e504 08bf 29d9 303f 612f 43be 3cbd f83e
000000c0: 6b0d 2dbf 5295 18bf
-0.89751536 0.6346009 0.2302517 0.1703323 -0.7256408 -0.9600605 -0.11092173 -0.59503084
-0.14974049 0.39676064 -0.16443281 0.6210974 0.7018339 0.2880623 0.9433232 0.36158824
-0.23223814 -0.12397228 -0.8005581 0.63267285 -0.7943698 0.33367047 -0.5853249 0.551729
0.42570063 0.87443066 -0.601113 -0.3661819 -0.36965838 1.030887 1.2490631 -0.096048556
0.64180714 0.2928784 -0.33481482 0.08048656 -0.59071755 -0.8626185 -0.17293449 -0.7158371
-0.12815036 0.34140784 -0.030003091 0.5931773 -0.5313247 0.6908136 -0.19061042 0.48581874
-0.675986 -0.59602845

ps_out.bias f4 [2]
00000000: e649 aabd 297c 40bd
-0.08314876 -0.04699341
