Propensity_Model/DCN_PD_NN_Models/NN_PS_model_iter_id_87_epoch_100_lr_0.001.pth (torch_old, 6445 bytes, 6 tensors)

fc1.weight f4 [25, 25]
0	0x3d1eacda	0.038739063
1	0x3eb53ea7	0.35399362
2	0x3eeb7d96	0.45994252
3	0x3e4d7a0a	0.20066085
4	0xbe7bed24	-0.2460218
5	0xbe7ebcce	-0.24876711
6	0xbe500baa	-0.2031695
7	0xbdb6d4f6	-0.08927338
8	0x3e6d2c58	0.23161447
9	0x3d105625	0.035238404
10	0x3c950fb5	0.018195966
11	0x3df7d0c8	0.12100369
12	0x3bac0713	0.0052498668
13	0x3e34f161	0.17670204
14	0x3d530dfa	0.051527
15	0xbd73a340	-0.05948186
16	0xbe42ddda	-0.19029942
17	0xbde7672c	-0.11298975
18	0xbd16e7a5	-0.036842007
19	0x3e78f95f	0.24313878
20	0xbd49c7b4	-0.049262717
21	0xbe5c3c56	-0.21507391
22	0xbe49c4f9	-0.19704045
23	0x3df8ca52	0.121479645
24	0x3ca5ac1f	0.020223675
25	0x3d6609df	0.056161758
26	0xbde3c7ee	-0.11122118
27	0x3e80d1cb	0.2516006
28	0x3d0c6edf	0.034285422
29	0x3e99ff75	0.3007771
30	0xbe0ee491	-0.13954379
31	0xbe10e0e5	-0.1414829
32	0x3e2f202b	0.17102115
33	0x3e1c2fb7	0.15252577
34	0x3d80a603	0.06281664
35	0x3d7f8e88	0.062391788
36	0xbe906aa0	-0.28206348
37	0xbe20327c	-0.15644258
38	0x3ce939b6	0.028469902
39	0x3eb3d1d3	0.3512102
40	0x3db2ab1a	0.08724041
41	0x3c32c431	0.0109110335
42	0x3d9d4799	0.07679672
43	0x3c6883eb	0.014191608
44	0x3e04ca09	0.12967695
45	0xbe82cde9	-0.25547722
46	0xbdf5f5bc	-0.12009761
47	0x3f63d22b	0.88992566
48	0x3e8b6f73	0.27233467
49	0xbe8dd08f	-0.2769818
50	0xbd4a260c	-0.04935269
51	0xbe224314	-0.15845901
52	0x3e066c22	0.13127187
53	0xbdbeeece	-0.09322892
54	0xbdc3a482	-0.09552862
55	0x3df5eaaa	0.12007649
56	0x3e304242	0.17212775
57	0x3ec0a5d8	0.3762653
58	0x3ca4f96c	0.020138465
59	0x3d9250df	0.07144331
60	0xbc715ea9	-0.014732041
61	0xbe989ada	-0.29805642
62	0x3e38d41a	0.1804966
63	0xbda00eda	-0.07815333
64	0x3ec005f4	0.37504542
65	0xba01b990	-0.00049486104
66	0xbef0ef13	-0.470574
67	0xbce90a47	-0.028447283
68	0xbed11b93	-0.4084135
69	0xbe065b16	-0.13120684
70	0xbd57ab80	-0.05265379
71	0xbe08986d	-0.13339396
72	0x3e9500c4	0.29102147
73	0xbe1fd77e	-0.15609547
74	0x3e3c8acf	0.18412326
75	0x3d3e5563	0.04646815
76	0xbdf82ccf	-0.121179216
77	0x3ea02ce1	0.3128424
78	0x3de4c84c	0.11171016
79	0xbe5957f3	-0.21224956
80	0x3c9e13b9	0.019296514
81	0xbd3a1641	-0.04543138
82	0xbe5daf88	-0.21648991
83	0xbdfdff6d	-0.12402234
84	0xbbc30584	-0.0059515852
85	0xbf2b05f7	-0.66805977
86	0xbe9e2c45	-0.3089315
87	0x3e643a29	0.22287811
88	0xbe0ffca4	-0.14061219
89	0x3e2f1d2e	0.17100975
90	0xbe85a986	-0.261059
91	0xbde59633	-0.11210289
92	0xbe319da6	-0.17345294
93	0xbe8a3528	-0.2699368
94	0xbefb62fa	-0.4909895
95	0xbe70efd1	-0.23528983
96	0xbeab71c3	-0.3348523
97	0x3e70e207	0.23523723
98	0xbee0595b	-0.43818173
99	0x3e0c5596	0.13704523
100	0xbd6fb92f	-0.058526214
101	0x3e23bb13	0.15989332
102	0xbe6a6d47	-0.22893248
103	0xbe27e462	-0.16395715
104	0xbe17fad3	-0.14841776
105	0x3e44f0bb	0.19232456
106	0x3ec876c5	0.39153114
107	0x3cdeb842	0.02718747
108	0xbe1dcc07	-0.15409862
109	0x3e2fda8c	0.17173213
110	0xbdfb8beb	-0.122825466
111	0x3e31fa60	0.17380667
112	0x3d9fac25	0.07796506
113	0xb9d5b51e	-0.0004076147
114	0xbec46522	-0.38358408
115	0xbe830262	-0.25587755
116	0x3e37189c	0.17880481
117	0xbe06b4c5	-0.13154896
118	0x3e031fb4	0.12805063
119	0xbd5d52a6	-0.054033898
120	0x3ed25a75	0.41084638
121	0x3ed840ac	0.4223684
122	0xbedc1864	-0.4298736
123	0xbe024f09	-0.12725462
124	0x3e28dd74	0.16490728
125	0x3e8043e7	0.25051805
126	0x3e7d6c7c	0.24748415
127	0x3e661349	0.22468294
128	0xbc54e239	-0.012993389
129	0xbe062367	-0.13099442
130	0xbbbc301d	-0.0057430402
131	0xbcc325d4	-0.023821749
132	0xbed9fbb0	-0.42574835
133	0xbe1f27a0	-0.1554246
134	0x3dc45ada	0.09587641
135	0xbd656db4	-0.056012824
136	0xbeb6ddb9	-0.35716036
137	0x3eb2dd3c	0.34934413
138	0xbe202735	-0.15639956
139	0x3dadf73f	0.08494424
140	0xbe314f71	-0.1731546
141	0xbe969459	-0.29410055
142	0x3e585904	0.21127707
143	0x3e84096f	0.25788447
144	0xbf1317e2	-0.5745832
145	0xbe1acf24	-0.1511808
146	0xbf261b0c	-0.6488502
147	0xbe0a6f06	-0.13518915
148	0x3e98118c	0.29700887
149	0x3d2e2d40	0.042523623
150	0xbe33acd2	-0.17546394
151	0x3d947a17	0.07249849
152	0x3d5fba07	0.05462077
153	0x3d800ebe	0.06252812
154	0x3b28f74b	0.0025782164
155	0xbeac9530	-0.3370757
156	0xbeab7c7c	-0.33493412
157	0x3ef54ea1	0.47911552
158	0xbe0490de	-0.12945887
159	0x3e3b967c	0.18319124
160	0xbe1fbaa6	-0.15598544
161	0xbec9bc5a	-0.39401513
162	0x3e587ac3	0.2114058
163	0xbe18589b	-0.1487755
164	0xbd9d268f	-0.0767337
165	0xbd5f5049	-0.054519925
166	0x3e3305cf	0.17482685
167	0x3e82441b	0.25442585
168	0x3ddd4494	0.10804096
169	0xbf0ed1d5	-0.5578893
170	0x3e46a7bd	0.19399925
171	0xbdd9e188	-0.1063872
172	0xbef4aa8b	-0.47786364
173	0x3e0610a1	0.13092281
174	0x3e69454b	0.2278034
175	0xbd385ccd	-0.045010377
176	0x3e69f6f8	0.22848117
177	0x3e0e247e	0.13881108
178	0x3e34e3ea	0.17665067
179	0xbe02ae0a	-0.12761703
180	0x3e36bd35	0.17845614
181	0x3e8bde93	0.27318248
182	0x3e224d40	0.15849781
183	0xbe118761	-0.14211799
184	0xbe2ce472	-0.1688402
185	0x3da4b0d4	0.0804154
186	0xbd18dd0f	-0.037320193
187	0x3e2e9d78	0.17052257
188	0x3dad129b	0.08450814
189	0xbde0c37e	-0.10974787
190	0x3e2d5703	0.16927724
191	0x3dcee80e	0.10102855
192	0x3e0c5d5f	0.13707493
193	0x3cecadbb	0.028891435
194	0x3e676617	0.22597538
195	0x3d4f483f	0.05060601
196	0xbe429d43	-0.19005303
197	0x3ee0b240	0.43885994
198	0x3ee6ce52	0.45079285
199	0x3d4cb4f2	0.04997725
200	0x3e1b42c3	0.15162186
201	0xbde1083d	-0.109878995
202	0x3e455dc5	0.19274051
203	0xbe8dc20a	-0.27687103
204	0x3da76d61	0.08175159
205	0x3e7727c8	0.24136269
206	0x3e610d64	0.21977764
207	0xbf074756	-0.52843225
208	0x3e65e6c0	0.22451305
209	0xbe604d37	-0.21904455
210	0x3d8b4e29	0.06802017
211	0xbdf0e0a9	-0.117616005
212	0x3e89a776	0.26885575
213	0xbe049a6f	-0.12949537
214	0xbe296a6f	-0.16544507
215	0xbe4053ff	-0.18782042
216	0xbe0f0321	-0.13966037
217	0x3d951f70	0.07281387
218	0x3dbfc667	0.09364014
219	0x3d846850	0.064652085
220	0xbeb63e0b	-0.3559421
221	0x3c89b1ad	0.016808355
222	0xbd4c6300	-0.0498991
223	0xbf203664	-0.62582994
224	0xbe846732	-0.25859982
225	0x3cf5e1f3	0.030014968
226	0x3dd7ab8b	0.10530766
227	0x3dd9e040	0.106384754
228	0xbe54b929	-0.20773758
229	0x3d94e3ff	0.07270049
230	0xbe0c414d	-0.13696785
231	0x3d773600	0.060354233
232	0xbbf1843d	-0.0073705004
233	0xbe567945	-0.20944698
234	0x3ec360ab	0.3815969
235	0xbe8d474d	-0.2759346
236	0x3e31e95c	0.17374176
237	0x3e4e1d82	0.20128444
238	0xbe39c428	-0.18141234
239	0xbeaf5c0f	-0.34249923
240	0x3e3d3c52	0.18480042
241	0x3dd9eece	0.106412515
242	0xbd252504	-0.040318504
243	0xbe6c0949	-0.23050417
244	0x3e1659f2	0.14682749
245	0x3cd9fa64	0.026608653
246	0x3de49082	0.11160375
247	0x3f2ef154	0.6833699
248	0x3e9677e8	0.29388356
249	0xbeac1c29	-0.33615234
250	0x3d687f61	0.056762103
251	0x3c9da2ca	0.019242663
252	0x3c9e24ad	0.019304598
253	0x3e9db091	0.30798772
254	0x3e9f6784	0.31133664
255	0x3e2f989b	0.17148058

fc1.bias f4 [25]
0	0x3d9da00b	0.076965414
1	0x3cd2982e	0.02570733
2	0xbd68f639	-0.05687544
3	0xbdf58da6	-0.11989908
4	0xbe61a120	-0.2203412
5	0xbdae8bff	-0.08522796
6	0x3e318e5a	0.17339459
7	0x3e69a9a3	0.22818618
8	0xbd149023	-0.036270272
9	0xbc92cdc9	-0.017920392
10	0x3da10b75	0.078635134
11	0x3a9b7e93	0.0011863284
12	0xbd900292	-0.0703174
13	0x3d85df94	0.06536785
14	0xbce41cf4	-0.027845837
15	0x3e417361	0.1889167
16	0xbd6a52b4	-0.057207778
17	0xbe2dbc03	-0.16966252
18	0xbe1842a2	-0.14869168
19	0x3d77c5fc	0.060491547
20	0x3e24fe91	0.16112734
21	0xbd50dce4	-0.050991908
22	0xbc85e41e	-0.016344126
23	0xbb7366f2	-0.0037140218
24	0xbd98f91e	-0.0746939

fc2.weight f4 [25, 25]
0	0x3f09dfbc	0.53857017
1	0x3e16b997	0.14719234
2	0x3dfe134a	0.12406023
3	0xbf023c94	-0.50873685
4	0x3f155997	0.5833983
5	0xbed148a2	-0.40875727
6	0xbd511448	-0.051044732
7	0x3e272b38	0.1632508
8	0xbda5e6bc	-0.0810065
9	0x3ddcc9f3	0.10780706
10	0x3e1461b4	0.14490396
11	0x3d6995f3	0.05702777
12	0x3e91142f	0.2833571
13	0xbd55ab2a	-0.052165188
14	0x3e82d0a7	0.25549814
15	0x3e39a83d	0.18130584
16	0xbea1087c	-0.31451786
17	0x3d5e6e1a	0.05430422
18	0x3eddb74d	0.4330391
19	0x3e1736d0	0.14767003
20	0x3c8fa170	0.017533034
21	0x3deaf9aa	0.11473401
22	0xbe5a3a10	-0.21311212
23	0xbdb25e3d	-0.08709381
24	0xbe85adcb	-0.26109156
25	0xbd21df27	-0.039519455
26	0xbee8d6f1	-0.45476487
27	0xbef3d94d	-0.47626725
28	0x3ef900dd	0.4863347
29	0xbf22c4d5	-0.6358159
30	0x3f38ac31	0.72137743
31	0x3e97662e	0.29570144
32	0x3da84bcb	0.08217581
33	0x3f0d0650	0.5508776
34	0xbf40b791	-0.752801
35	0x3e013ab7	0.12620054
36	0x3a857aa2	0.0010183642
37	0x3d100a95	0.03516634
38	0xbcf4c85b	-0.029880693
39	0xbf1c42de	-0.6103953
40	0xbcc277cf	-0.02373877
41	0x3f103548	0.563313
42	0x3d67217b	0.056428414
43	0xbeca9c5c	-0.39572418
44	0x3b10f88e	0.0022120806
45	0x3e54ab29	0.20768417
46	0xbf220eff	-0.6330413
47	0x3d86280c	0.06550607
48	0x3f44cd4b	0.7687575
49	0x3eac6dc7	0.33677503
50	0x3f0a1a9e	0.53946865
51	0x3ecbacf4	0.3978039
52	0x3ea1f9af	0.31635806
53	0xbf02e3e0	-0.5112896
54	0x3ed182d5	0.4092013
55	0xbed48a1b	-0.41511616
56	0xbe6f602c	-0.2337653
57	0x3d4cd9e6	0.05001249
58	0xbe04d81e	-0.12973067
59	0x3ec5bcd8	0.3862064
60	0x3e9649ae	0.29353088
61	0x3c02a566	0.007974004
62	0x3ea01723	0.31267652
63	0x3e1f4697	0.15554272
64	0x3e595f89	0.2122785
65	0x3e84c02c	0.25927866
66	0xbec0bdef	-0.37644908
67	0x3e42610f	0.18982337
68	0x3f1695d9	0.588224
69	0x3e440ed9	0.19146289
70	0x3e49effc	0.19720453
71	0x3e2a249b	0.16615526
72	0xbe300c23	-0.1719213
73	0xbeed33b5	-0.46328512
74	0xbdd58b5b	-0.104269706
75	0xbf11160c	-0.56674266
76	0xbeb374d3	-0.35050067
77	0xbeda1617	-0.42594978
78	0x3f4794ba	0.77961314
79	0xbf360ef6	-0.7111658
80	0x3f13d233	0.57742614
81	0x3eddaf3b	0.43297753
82	0x3e6144f6	0.21998963
83	0x3f09c86d	0.5382145
84	0xbe5b1f1f	-0.2139859
85	0xbe75e6bf	-0.24013804
86	0x3e5e2e74	0.21697408
87	0xbda6dd58	-0.08147687
88	0xbe60eaed	-0.21964617
89	0x3da59850	0.08085692
90	0xbf6db717	-0.928575
91	0x3f0bd8a0	0.5462742
92	0xbea0171c	-0.3126763
93	0xbeaaf6bc	-0.33391368
94	0xbde8b80c	-0.11363229
95	0x3e023df6	0.12718949
96	0xbdfc26d4	-0.123120934
97	0x3e127e3d	0.14305969
98	0x3e9ed013	0.31018123
99	0x3ed6e268	0.4196961
100	0x3c0cb1d0	0.008587316
101	0xbda5e0cd	-0.08099518
102	0x3e25cf11	0.16192271
103	0xbc475f80	-0.012168765
104	0xbd844be2	-0.06459786
105	0xbe1bada6	-0.1520296
106	0xbddc43cd	-0.107551195
107	0xbdad77ea	-0.084701374
108	0x3e1951d1	0.14972617
109	0x3e04e603	0.12978368
110	0xbe344bf8	-0.17607105
111	0x3d026428	0.031833798
112	0x3e30026f	0.17188428
113	0xbd2864cc	-0.041111752
114	0xbdb27bae	-0.08714996
115	0xbe108ee7	-0.14117013
116	0xbd71a5d4	-0.058996037
117	0xbdf234cd	-0.11826477
118	0xbd88d508	-0.066812575
119	0xbd896fac	-0.06710753
120	0xbd9ed677	-0.0775575
121	0x3a81a257	0.00098903
122	0xbe634171	-0.22192933
123	0xbe0ab393	-0.13545065
124	0xbe0f5a73	-0.13999347
125	0xbf0841fa	-0.5322567
126	0xbe9820e1	-0.29712585
127	0xbed1f71c	-0.41008842
128	0x3f46bcf6	0.7763208
129	0xbf047455	-0.5174001
130	0x3f07f786	0.53112066
131	0x3eef8d9d	0.4678773
132	0x3e5938eb	0.21213119
133	0x3e3a2dba	0.18181506
134	0xbeeca0eb	-0.4621652
135	0x3d31e7f2	0.04343409
136	0xb88dbe3b	-6.758837e-05
137	0xbd9873ce	-0.07443963
138	0xbe910908	-0.28327203
139	0x3cf9a210	0.030472785
140	0xbee145aa	-0.43998462
141	0x3f2178f8	0.6307521
142	0xbece999e	-0.40351576
143	0xbea77ea5	-0.3271381
144	0x3df2ed0c	0.11861619
145	0x3e33ee88	0.17571461
146	0xbeee58c2	-0.46552092
147	0xbd261b4c	-0.040553376
148	0x3f0117f4	0.50427175
149	0x3da4292a	0.08015664
150	0x3ed1938f	0.4093289
151	0x3e599114	0.21246749
152	0x3eca1c14	0.39474547
153	0xbecd3c52	-0.40085083
154	0x3f0880c0	0.53321457
155	0xbe7e4f97	-0.24835049
156	0xbee6355a	-0.4496258
157	0x3e3fa368	0.18714678
158	0xbede1aa9	-0.43379715
159	0x3ed69152	0.41907746
160	0x3ea00f68	0.31261754
161	0x3e5cb031	0.21551587
162	0x3e4486c1	0.1919203
163	0x3e974cc2	0.2955075
164	0x3d5c7590	0.053823054
165	0x3edd1b7a	0.43185025
166	0xbf0a6c15	-0.5407117
167	0x3e7d1a60	0.24717093
168	0x3f32d488	0.69855547
169	0x3e6c914e	0.23102304
170	0x3ca33fbd	0.019927854
171	0x3eb8ea9d	0.36116496
172	0x3ce44e59	0.02786939
173	0xbe87b1b3	-0.2650276
174	0xbda839ed	-0.082141735
175	0x3f0fcf8a	0.56176054
176	0x3ea8cb20	0.32967472
177	0x3eba684e	0.36407703
178	0xbf13252f	-0.5747861
179	0x3f024245	0.5088237
180	0xbe6a52b3	-0.2288311
181	0xbec60435	-0.38675085
182	0xbbeab2ce	-0.0071624285
183	0xbe59c91a	-0.2126812
184	0x3eb75024	0.3580333
185	0x3da94019	0.08264179
186	0x3e3c2fbe	0.18377587
187	0x3e82378f	0.25433013
188	0x3e30520c	0.17218798
189	0x3d956ca6	0.07296114
190	0x3ebede05	0.37278762
191	0xbe809aec	-0.25118196
192	0x3e02eda3	0.12785964
193	0x3eab566f	0.3346438
194	0x3e3eb492	0.1862357
195	0x3a835fef	0.0010023097
196	0x3e867289	0.26259258
197	0xbe86ff8a	-0.26366836
198	0xbedf0015	-0.4355475
199	0xbd945d08	-0.07244307
200	0xbec0501f	-0.37561128
201	0xbe705bc9	-0.23472513
202	0xbf4a1f17	-0.7895369
203	0x3c119a7c	0.00888693
204	0xbe66a13f	-0.22522448
205	0x3e66d51d	0.22542234
206	0x3ed3ba1d	0.4135293
207	0x3d9415e5	0.072307386
208	0x3ef4e9c6	0.47834605
209	0x3d5b7bc6	0.053584836
210	0xbeea40bc	-0.45752513
211	0x3e07c427	0.1325842
212	0xbd99be5b	-0.075070105
213	0xbe0b87a6	-0.13625965
214	0x3e9d4135	0.30713812
215	0xbf646d28	-0.8922906
216	0x3f2eb1f2	0.68240273
217	0xbe880177	-0.26563618
218	0xbebc35d9	-0.36759833
219	0xbd571c25	-0.052517075
220	0x3db368f4	0.087602526
221	0x3d7ba7b1	0.06143922
222	0x3da89c0e	0.0823289
223	0x3e02d46c	0.12776345
224	0x3eaaac2b	0.3333448
225	0xbebc264c	-0.36747968
226	0xbdd5218c	-0.10406789
227	0xbe1623ac	-0.14662045
228	0xbdc583a1	-0.09644247
229	0x3ecf4140	0.4047947
230	0xbe8f6c91	-0.28012517
231	0x3e5c7a1b	0.21530955
232	0x3e663cd0	0.22484136
233	0xbe59b244	-0.21259409
234	0x3cee9245	0.029122481
235	0xbe26d686	-0.16292772
236	0xbd92eaff	-0.07173728
237	0x3e35f08c	0.17767543
238	0xbf20656a	-0.62654746
239	0x3e6a5feb	0.22888152
240	0x3d21e27f	0.039522644
241	0x3f359763	0.7093412
242	0xbe6d5f3a	-0.23180857
243	0xbe625544	-0.22102839
244	0xbee96d56	-0.4559123
245	0x3d91e9b2	0.07124652
246	0xbe21585d	-0.15756364
247	0xbedcf5b6	-0.43156213
248	0x3ea3a750	0.31963587
249	0xbeda9e64	-0.42698967
250	0x3dcaa4ec	0.098947376
251	0x3d5737e5	0.05254354
252	0xbd6f6b0a	-0.05845169
253	0xbcb8aea5	-0.022544215
254	0x3cd4d4a2	0.025980297
255	0x3ec4021f	0.38282868

fc2.bias f4 [25]
0	0x3e359cc5	0.17735584
1	0xbc2ae305	-0.010430102
2	0xbdf81fae	-0.121154174
3	0x3cbeb73d	0.023280734
4	0x3d9e447e	0.077279076
5	0x3e357dd3	0.1772378
6	0x3d41b58e	0.047292285
7	0xbc5cb1fd	-0.01347017
8	0x3dff3149	0.12460572
9	0xbdec594f	-0.11540472
10	0x3d207324	0.039172307
11	0x3d14eb40	0.036357164
12	0x3e0d45ce	0.1379616
13	0xbdb8ab9d	-0.09017108
14	0xbe0a6d6a	-0.135183
15	0x3dae5277	0.08511823
16	0x3e566386	0.20936403
17	0xbe2212f3	-0.15827541
18	0xbe60676b	-0.21914451
19	0x3cdcdaef	0.026959864
20	0x3e0b7efd	0.13622661
21	0xbe388c7d	-0.18022342
22	0x3e5eb5e6	0.21749076
23	0x3e650e19	0.22368659
24	0xbdfa278e	-0.12214576

ps_out.weight f4 [2, 25]
0	0x3ec56163	0.38550863
1	0xbf3debe0	-0.7418804
2	0x3ed8bc38	0.423311
3	0xbf4cfcff	-0.8007354
4	0xbdc44d58	-0.09585065
5	0xbf3d7cac	-0.7401836
6	0x3e52dd58	0.20592248
7	0x3f4cb9ea	0.7997118
8	0xbeceea8b	-0.40413317
9	0xbf057fca	-0.52148116
10	0xbe3535f1	-0.17696358
11	0x3edea89a	0.43488008
12	0xbf20d5f5	-0.6282647
13	0x3cf71e13	0.030165708
14	0x3f01cfed	0.50707895
15	0xbeb47b86	-0.3525049
16	0x3e9e72bc	0.3094691
17	0xbdadcf14	-0.08486763
18	0x3c9c6af7	0.019093974
19	0x3eaf2155	0.34205118
20	0x3e7e4eda	0.24834767
21	0x3e476c73	0.19474964
22	0x3ea0972a	0.3136533
23	0xbf75484e	-0.95813453
24	0x3ecefedd	0.4042882
25	0xbecbf275	-0.39833418
26	0x3f376d07	0.7165074
27	0xbef64f0d	-0.48107186
28	0x3f14093e	0.578266
29	0xbdbb63c5	-0.09149889
30	0x3f31fba6	0.6952461
31	0xbeac91aa	-0.33704883
32	0xbf1043a3	-0.56353205
33	0x3f24c43b	0.64361924
34	0x3f0b5fe3	0.54443187
35	0x3eada37d	0.33913794
36	0xbe3d23a8	-0.18470633
37	0x3f19e242	0.6011087
38	0x3e24026b	0.16016547
39	0xbf166d5f	-0.5876064
40	0x3f1c9a04	0.6117251
41	0xbe57e50a	-0.21083465
42	0xbbe11a2f	-0.0068695764
43	0x3e03237b	0.12806503
44	0xbec37822	-0.38177592
45	0xbe676a08	-0.22599041
46	0x3d56ab5c	0.052409515
47	0xbe2fc3ac	-0.17164487
48	0x3f7ac1c5	0.9795192
49	0xbebdfba9	-0.37106064

ps_out.bias f4 [2]
0	0x3d1f087a	0.038826443
1	0x3da1f531	0.07908095
