Propensity_Model/DCN_PD_NN_Models/NN_PS_model_iter_id_11_epoch_100_lr_0.001.pth (torch_old, 6437 bytes, 6 tensors)

fc1.weight f4 [25, 25]
00000000: ed35 aabd e909 f6bd cb4d 08bf bca4 0c3d
00000010: cecc adbe 6894 2e3e 3321 f23c f082 81be
00000020: 6521 203d c24c 6dbd bf57 703e aeb7 5abe
00000030: 7356 34be 47f8 403d 0835 3ebd 0df0 f33d
00000040: 91b4 c73c f0d0 853d 0b67 86bd b5b6 04bc
00000050: 794e 49bd a06f 6f3e 8b91 1dbe 712f f3bd
00000060: e7e9 ef3d 85ce 563e 81cb 09be c0be cb3d
00000070: 563b b33e 8424 053e 8a13 083d cfbb 7bbd
00000080: 5448 993d 5884 fcbd 2b3b 953e 963f 253d
00000090: d6ef 40be 27f2 e5bd 6177 14bd 1f90 6ebe
000000a0: 32c5 873d 5297 b5bc cd30 b73c 2f1d 01bd
000000b0: 3c5d d03e b154 42be 29df 19be a6c0 683d
000000c0: 24b6 383d c8ec 723e 95aa 10be 4a3e 78be
000000d0: 6683 4ebe f554 d73d 26bc e23d d0b2 123e
000000e0: 6c8f 9d3e 1a0e d83e 5c1f 823d 607a 0dbd
000000f0: 1f9d b03d 0de5 86bd e7a1 d6bd d6ba 9abd
00000100: dda8 bc3e 4a61 53bd 449a 723e 5263 a8bd
00000110: b90e ae3e 83e5 08bd 746e 303e bbf4 343e
00000120: 6953 8a3e 04cc bb3e 914f e03c 369e d0be
00000130: 2ca7 0bbe 734f 92be ef37 013e fe9b bf3e
00000140: 41e6 6b3d 2eff 15be 6e87 5abc cb51 d2bc
00000150: 26ad 8a3e bdae 48be c139 c63d 537c 24bd
00000160: cbab af3b df12 b7be 7df6 3c3e ba02 793e
00000170: d49f 6bbd d0e1 debd 61d6 23bd ab6f f73d
00000180: 4b3f 8f3d 1962 6ebe 6b6d 453e ed34 973e
00000190: 9f95 c43d 25e0 a0be 4589 09be dac9 883d
000001a0: b0b5 04be 06af 303e f086 853e 5efe 81bd
000001b0: 8616 9b3e 5550 1cbd 18bc 8d3d ecbc 16be
000001c0: 46fa cc3e 0754 ecbd 6f37 84be cb03 a63d
000001d0: 061f 6c3c 67ce 853c c244 003e 3a88 853d
000001e0: c5c8 95bd 016b 8bbe d48b cabd 047a 663e
000001f0: c638 d6bb 9900 66be afaf 3d3e 819b f3bd
00000200: b807 a53e 140b 613e 2ec3 563e cb9c 8e3d
00000210: 01b8 4cba 909c 26be 5ed1 04be feab bf3e
00000220: 6044 53be a88e 2f3c 7a16 99bc 5e18 9abd
00000230: b06d c13e b050 9c3c 7449 93bd ecb0 92bc
00000240: a4ce 95be cab6 203e 360e 5abe 9fe9 dfbd
00000250: 13e5 b2bd 52ce 03bc 11e6 4f3e 8852 5e3e
00000260: 29c4 453d 7784 463e 906e 75be 68ae 3abd
00000270: 9088 be3c 3ffb edbd de59 c5bc 4e4b 8d3e
00000280: c1df 2b3e 835a 583d b209 ab3e 7b63 e43d
00000290: e784 ba3e 4eee b1bb f956 a33b 96f4 b03e
000002a0: c381 b53c 9dcb d0be 93d5 47bd cbb8 d53d
000002b0: c583 38bd 7218 f73d 1c2f acbd 693c 6cbe
000002c0: 1618 11be 36de 483e d5fa 2439 89eb dd3d
000002d0: d3a1 9e3d cd91 00bf 4f1e 703d 3fb5 063d
000002e0: 1f56 8b3e b965 af3d dbcb 5d3e 175e a5be
000002f0: 12dc dbbd 194a 9b3e 448e a43d de96 c5be
00000300: 27f4 ebbc c608 b53e e015 b03e 11c3 023e
00000310: c2d5 b8be 5085 033f 8b48 833e 3a19 83be
00000320: 804b 1bbe 6d7f 193e 94f5 a73e 7c62 043c
00000330: 299a c3bd 430c 20be 85ea 893d c8b0 713e
00000340: bfd9 213e 6eca c43e fb17 183e b9df 83be
00000350: 4432 b6be 84a8 6bbd 5dd3 293e 23f3 743e
00000360: de6e 71be ade0 e8bd d19d d93c b9fb ae3e
00000370: a055 cfbd e1f4 02be 62c9 963e 6032 d93d
00000380: 67fb 5ebe 15ef 1cbe 2d6a 5bbe 9911 3d3e
00000390: c120 373d 8bda 043e 544a 01bd 780b 7c3e
000003a0: 3094 95be 7d84 85be db62 643e 53e9 ac3d
000003b0: 5ba6 8cbe a5e3 ffbd 3e8f 453e a7e7 6ebe
000003c0: 854c 0d3e 64de acbe 62ff a4bd 1a1f a53e
000003d0: b0af 353f d408 ffbe a7aa 78bd 61d9 36be
000003e0: 86e1 b93e 99b9 123e 4524 00be 54ac 433e
000003f0: 4bd3 353e 9880 e03d d791 33be 995d 953d
-0.08311067 -0.12013609 -0.532437 0.03433679 -0.33945316 0.170488 0.029556846 -0.2529521
0.039094348 -0.05793453 0.23470972 -0.2135913 -0.17611103 0.047111776 -0.046437293 0.119110204
0.024378093 0.06533992 -0.06562623 -0.008100201 -0.049147103 0.23382425 -0.15387551 -0.11874283
0.11714535 0.20977218 -0.13456537 0.09948492 0.35006207 0.13002211 0.03322176 -0.061458405
0.074844986 -0.1232993 0.29146704 0.040343843 -0.1884149 -0.112278275 -0.03624666 -0.23297165
0.06629409 -0.022166882 0.022362137 -0.031521972 0.40696132 -0.1897762 -0.15026535 0.05682435
0.045095578 0.23723137 -0.14127572 -0.24242511 -0.20167312 0.10514251 0.11071043 0.14326024
0.30773485 0.4219826 0.063536376 -0.034540534 0.086237185 -0.06586657 -0.10480099 -0.075551674
0.36847582 -0.051606454 0.2369166 -0.08222069 0.33995607 -0.033422004 0.17229635 0.17671482
0.27016762 0.3667909 0.02738169 -0.40745705 -0.1363799 -0.2857624 0.12618993 0.374237
0.057592634 -0.14648125 -0.013337953 -0.025673768 0.27085227 -0.19597907 0.096789844 -0.040157627
0.0053610555 -0.35756585 0.18453403 0.24317446 -0.05752547 -0.10882914 -0.03999937 0.12081846
0.06994494 -0.23279609 0.19280021 0.29532567 0.095988505 -0.3142101 -0.1343127 0.06679125
-0.12959933 0.17254266 0.26079512 -0.06347345 0.30290622 -0.038162548 0.06920642 -0.14720505
0.40034693 -0.115394644 -0.25823542 0.08106192 0.014411693 0.016333772 0.12526229 0.06520124
-0.073136844 -0.27230075 -0.09889951 0.22507483 -0.0065375296 -0.22461165 0.18524049 -0.118948944
0.3223245 0.21976882 0.20972893 0.069635 -0.0007809401 -0.16270661 -0.12970492 0.37435907
-0.20631552 0.010715164 -0.018687475 -0.07524179 0.37778997 0.019081444 -0.071917444 -0.017906629
-0.29259217 0.15694728 -0.21294484 -0.109332316 -0.08735099 -0.008044796 0.20302607 0.2171117
0.048282776 0.19386469 -0.23967957 -0.045576483 0.023258477 -0.11620187 -0.024090704 0.27596515
0.16784574 0.052820694 0.33405834 0.11151787 0.3642952 -0.0054300195 0.004984733 0.34561604
0.022156602 -0.40780345 -0.048787665 0.10435637 -0.04504754 0.120652094 -0.08407423 -0.2306992
-0.14169344 0.19616017 0.00015733701 0.108359404 0.07745709 -0.50222474 0.058622655 0.032887693
0.27214143 0.08564324 0.21659796 -0.32298347 -0.107353345 0.3032997 0.080349475 -0.38591665
-0.028802944 0.35358256 0.3439169 0.12769724 -0.36100584 0.51375294 0.25641283 -0.25605184
-0.1516552 0.14990015 0.3280455 0.008080121 -0.09550888 -0.15629677 0.06734184 0.23602593
0.1580572 0.38435692 0.14852898 -0.25756624 -0.35585225 -0.057533756 0.16584535 0.23920874
-0.23577449 -0.113709785 0.02656451 0.34176424 -0.101237535 -0.12788726 0.29450518 0.106053114
-0.2177559 -0.15325578 -0.21427222 0.18463744 0.04470897 0.12973993 -0.031565025 0.2461375
-0.2921462 -0.26077643 0.22303335 0.084429406 -0.2747067 -0.124945916 0.19292924 -0.23330556
0.13798721 -0.3376342 -0.08056523 0.3225029 0.709712 -0.49811423 -0.06070962 -0.17856361
0.36304873 0.14328612 -0.12513836 0.19108707 0.17756383 0.10962027 -0.17536102 0.07293243

fc1.bias f4 [25]
00000000: 0ea2 8bbd b52c a53d 3a02 52be b9c1 1fbe
00000010: 35e9 263e a323 5fbd cf6a 8d3e 76c1 9f3c
00000020: 2b0e 95bd a5b7 21be a0a5 233e 6bbb 123e
00000030: 10c8 3fbd 68f7 02be 2f87 043e e7eb a7bc
00000040: f524 df3d 4b38 07be a1dc 9c3c b201 babc
00000050: 75c1 b53d 8882 003e 2af5 1fbd 4710 143e
00000060: a072 683e
-0.06818019 0.08065168 -0.20508662 -0.15601243 0.16299899 -0.054477345 0.2762055 0.019501429
-0.07278093 -0.15792711 0.1598115 0.14329307 -0.046821654 -0.1278969 0.12942193 -0.02049823
0.10895721 -0.13205068 0.019148173 -0.022705887 0.088747896 0.12549794 -0.039052166 0.14459334
0.22699976

fc2.weight f4 [25, 25]
00000000: 9eec 933e d4ed 253e 5d3f 5f3d 0f21 e4be
00000010: fc25 76be bac0 913e 3fa7 8c3c e9db 0c3f
00000020: 988b fa3e fdee eebe 38d4 473e 7a6e 60be
00000030: 36ab c53e dc96 533f beed 6c3e b102 bd3e
00000040: c597 ddbd 9571 503e 4b58 1abf 51d7 563e
00000050: 83fd b83c f36e 933e 79be 6ebd 262c 853e
00000060: b793 e23e 9b24 b23e fc76 ab3e c948 d73b
00000070: 7853 63bd 29f5 21be 1c91 a1bd baa7 15bc
00000080: e390 0f3f 431a fc3e ac3f fdbe 44ca 773d
00000090: 16f2 bfbe f93c bf3e 6f77 f03e 23cb 003d
000000a0: 8e7b 473e 9f72 3cbd 3681 a03e 91f1 bdbe
000000b0: cdc1 dd3e 770a 833e 42f9 c53e 6f50 f3be
000000c0: a9db 643d 05d0 b13e d497 2d3e 363f 983e
000000d0: a067 303d 689d 81bd 1929 05be b56e 52be
000000e0: cee4 fabd fa28 ca3e a1f6 003f 7562 cebe
000000f0: 75d0 d23d 970b 01bf 9657 1b3e 6c2d f63e
00000100: cd77 ee3d dfdf b53e 42de 4f3e 3eed d73d
00000110: cc73 01bf 82ac d73e 494e df3d bc7f 603e
00000120: 26f1 03bf b585 0b3e 2399 5e3e 787a 9a3e
00000130: ea91 0fbd 477d a73e ca35 4c3c 106a 8e3e
00000140: 9b9e 9abd 5877 393e 0860 83be dc5f abbe
00000150: 4459 033e 6450 f3be 493a d43c 0664 20be
00000160: e0b7 b73d 8301 33be b851 533e 0625 99be
00000170: 8834 fa3e c4f7 fabc b4b7 e0bd c2a2 c13e
00000180: d696 42be ce8b e1be 2e2b 47be 0c88 a73c
00000190: 140c 0b3e 0e19 e5be 0487 593e 932c 343e
000001a0: 65e8 3e3e 12cf 2ebd a0cb 0abd 3f58 16bf
000001b0: 1e4c fabd 6e25 b33e 0681 b63e a660 70bf
000001c0: 4d4b 19bd d764 5bbf f534 a9be 2e5d fabd
000001d0: 3711 c0bd 13d8 1abe c133 833e 65cf 80be
000001e0: 8d28 b93d adbb 0dbd 1f12 ee3e e149 a03e
000001f0: 7368 98be 956f 11be dfd2 8c3d 5f1b ec3d
00000200: 4249 39be 3f8a d4bd 266c 4a3d 1147 e6bd
00000210: 1ab0 2bbe 3867 a43d ee01 03be 8b77 ff3d
00000220: 1d30 40be de4c dabd 80ce 333b ce6d 44be
00000230: bd77 e43d 1706 52be b5bd 17be 1066 043e
00000240: 2867 473d 2329 37bd cd1b 80bd 986b 0cbd
00000250: 417c 69be e3c5 9fbd ddf3 fcbd 9297 613c
00000260: 7f69 26be b209 8d3d f6cf 42bd 2512 e8bb
00000270: 31d3 14be 281c 59bd 30ca 5e3c 484a 30be
00000280: 68c1 90bd df15 123e 69dc 103a 464d 0e3e
00000290: edaf fc3d da54 38be da6f 9ebd ffae 0fbe
000002a0: f33d 243e b960 8d3d c6cf c4bd 450d da3c
000002b0: 8adb 24be 7d7d 10be cdaa 9dbd ef20 92bd
000002c0: 3e66 27bf 9e6c 013f af29 afbd c0ce 733e
000002d0: 625c 30be fc63 20be 5d16 87be 6630 02bd
000002e0: 03bd 3e3e 8f54 c83e c798 18bf 9f2c fe3d
000002f0: 71ae 22bf a7b9 65be 8f41 ecbe ef54 2fbe
00000300: 8403 d3bd 06ac 023f 5dfc debe e13d 103e
00000310: 2208 df3d 8e8d 11bf fd50 833e 03bb 41be
00000320: d2ea 90be 3b27 663e 4a2e e2bd 227a 003f
00000330: 9849 23bd f687 31be a53c 153e d1c6 d8be
00000340: 10cc 663d f123 1a3e 02be 0cbe f170 0a3e
00000350: 7989 d03d a809 19bf 63d4 85be 6a18 ddbe
00000360: 9b82 243e 5dbb 193e 2027 3fbe 66aa 09bf
00000370: 340c 8ebe 85a5 0cbf 9fab 8e3e fae2 5c3e
00000380: 30c3 08bf 564a c63d a809 553e 6faa 59bc
00000390: d358 91be 03c5 83be e6ad 77bd 97bf 28ba
000003a0: 3f27 3f3f 59e1 cb3e 7944 a6bd 71cf ac3e
000003b0: f7ae b0be 76c3 a53e cebc 093f cd23 48bd
000003c0: 04a8 9f3e 6747 083e bc66 5c3e f8cf 83be
000003d0: b93d 043e e139 b83e 0563 e4bd bf63 f9be
000003e0: 76ea 543e 6762 a53e 559b 46be 8c39 f73d
000003f0: 9a54 6abe 4750 2c3e 4796 55ba 65fb 3ebf
0.28891462 0.16204005 0.054503787 -0.44556472 -0.24037927 0.2846735 0.017169593 0.55023056
0.48934627 -0.4666671 0.19514549 -0.21917143 0.38607186 0.8265207 0.23137566 0.36916116
-0.10819963 0.20355828 -0.60290974 0.20980574 0.022581821 0.28795585 -0.058287118 0.26010245
0.44253322 0.34793553 0.33489215 0.006569956 -0.055499524 -0.15816177 -0.078890055 -0.009134227
0.56080455 0.49238786 -0.4946264 0.06049563 -0.37489384 0.37351206 0.4696612 0.031443726
0.19480726 -0.04600775 0.3134858 -0.37098363 0.4331192 0.25593922 0.3866673 -0.47522303
0.055873547 0.3472902 0.16952449 0.29735726 0.043067575 -0.06328851 -0.13003959 -0.20550044
-0.12250672 0.39484388 0.50376326 -0.40309492 0.10293666 -0.5040831 0.1517013 0.4808153
0.11643944 0.35522363 0.20299628 0.10543297 -0.50567317 0.421238 0.109036036 0.21923727
-0.5153984 0.13625224 0.21738105 0.3017156 -0.035051264 0.32712767 0.012463996 0.27815294
-0.07549783 0.18111932 -0.25659204 -0.33471572 0.12827021 -0.4752227 0.025906699 -0.15663156
0.08970618 -0.17481045 0.20636642 -0.2991106 0.48868203 -0.030635722 -0.109725386 0.37819487
-0.19002852 -0.44051975 -0.19450065 0.020450614 0.13578826 -0.44745678 0.2124291 0.17595129
0.18643339 -0.042677946 -0.0338856 -0.587284 -0.122215495 0.34989494 0.35645312 -0.93897474
-0.037425328 -0.85700744 -0.33048216 -0.12224804 -0.093782835 -0.15121488 0.25625423 -0.2515823
0.090409376 -0.03460281 0.464982 0.31306365 -0.29767188 -0.14202721 0.06876158 0.11528658
-0.18094352 -0.10377931 0.049419545 -0.112440236 -0.16766396 0.080275 -0.12793705 0.12473973
-0.18768354 -0.106591925 0.0027436316 -0.19182512 0.11155651 -0.20510136 -0.14818461 0.12929559
0.04868236 -0.044716965 -0.062553026 -0.034282297 -0.22801305 -0.07801416 -0.12351201 0.013769047
-0.16251181 0.06886615 -0.04756161 -0.007082241 -0.14533688 -0.053005368 0.01359801 -0.17215836
-0.07068139 0.14266156 0.0005526008 0.13896665 0.12338243 -0.18001118 -0.07736178 -0.140316
0.16039257 0.06903214 -0.09609942 0.026617656 -0.16099373 -0.1411037 -0.07698593 -0.07135188
-0.65390384 0.5055636 -0.085528724 0.23809338 -0.17222741 -0.15663141 -0.2638425 -0.031784438
0.1862679 0.39127013 -0.5960812 0.124108545 -0.63547426 -0.22434102 -0.46143767 -0.17122243
-0.10303405 0.51043737 -0.43551913 0.14086105 0.10890223 -0.5685662 0.25647727 -0.18918996
-0.28304154 0.22475903 -0.11043985 0.5018636 -0.039865106 -0.17337021 0.14573915 -0.42339185
0.056346953 0.15052773 -0.13744357 0.13519646 0.10182471 -0.5978036 -0.261386 -0.4318269
0.16065447 0.1501288 -0.18667269 -0.5377563 -0.27743685 -0.5494006 0.27865312 0.2157096
-0.5342283 0.09682147 0.20804465 -0.013285263 -0.2838808 -0.25736246 -0.060468577 -0.00064372405
0.7466926 0.39820364 -0.08118529 0.33752015 -0.34508488 0.32375687 0.5380372 -0.048862267
0.31182873 0.13308488 0.21523565 -0.25744605 0.1291417 0.35981658 -0.11151699 -0.48708913
0.20792565 0.32301638 -0.19395192 0.12071523 -0.22883835 0.16827498 -0.0008147698 -0.7460235

fc2.bias f4 [25]
00000000: cafa 45be f69a a8bd 1a90 8e3d b546 88be
00000010: cde7 19be 3307 febd 3b4d 18be b7c8 51be
00000020: 4040 ba3e d08c b8bd 13aa 213e 28ba 98bd
00000030: b202 9c3e cc52 e7bd cc84 0e3d 809e 333e
00000040: ed17 1dbe cea1 403d a6b9 f93d 9b29 d4bd
00000050: 7549 713c adee 763b 3b6e 2dbe db4e b13d
00000060: 491b eb3c
-0.1933395 -0.082326815 0.06961079 -0.26616445 -0.15029831 -0.12403717 -0.14873211 -0.20486723
0.36377144 -0.09011233 0.15787534 -0.074573815 0.30470806 -0.11295089 0.034794614 0.17540932
-0.15341158 0.04702931 0.12193613 -0.10359498 0.014726986 0.0037678883 -0.16936581 0.086576186
0.028699534

ps_out.weight f4 [2, 25]
00000000: 9345 683f 56ad 4a3f 1831 4a3f 2cf8 923f
00000010: 1b01 1dbf d7e3 12be 805f e6bb 9008 0dbf
00000020: 8915 62bf 489d 803e c153 86bf 5f76 153f
00000030: a909 47be 8c93 303f 296e d23e 3387 20bf
00000040: 5f3b 973f 4172 883e 2981 363f 0804 bc3e
00000050: 22d3 a63f beaf 47bc 31f6 bbbd 2816 0e3e
00000060: 3643 25be 724b 49bf c007 23bf 783e 44bf
00000070: 5bb1 6dbf 6d5c fa3e f146 9abd 4bc9 cf3d
00000080: 2e66 213f e9b9 823f 31e8 11bf fdfa 843f
00000090: 159f 22bf c550 c93e a0e0 fabe 4b8e dcbe
000000a0: dd1c 173f 4080 a5bf 59e9 5cbe 9827 39bf
000000b0: 3587 37be 0c33 a1bf 74da 15bc 44b6 363e
000000c0: 99cd 8cbe a605 eabd
0.9073116 0.7917074 0.7898116 1.1481986 -0.6132981 -0.14344727 -0.0070304275 -0.5509119
-0.8831411 0.25119996 -1.049431 0.58383745 -0.19437279 0.6897514 0.4109967 -0.627063
1.1814994 0.2664967 0.7129083 0.36721826 1.3033183 -0.012187896 -0.09177817 0.1387564
-0.1613892 -0.78630745 -0.636837 -0.7665782 -0.9284875 0.4889864 -0.07533062 0.101458155
0.6304654 1.0212985 -0.5699492 1.0389096 -0.6352399 0.39319435 -0.489995 -0.4307731
0.59028417 -1.2929764 -0.2157339 -0.7232604 -0.17922671 -1.2593703 -0.009146322 0.17842966
-0.2750061 -0.114268586

ps_out.bias f4 [2]
00000000: 6fd4 063d 80fb 9c3d
0.032917436 0.07665157
