Propensity_Model/DCN_PD_NN_Models/NN_PS_model_iter_id_38_epoch_100_lr_0.001.pth (torch_old, 6445 bytes, 6 tensors)

fc1.weight f4 [25, 25]
000000 0d 98 12 3e a2 78 03 3e 46 75 e0 be d2 f9 44 3e
       0.14315815 0.12838987 -0.43839473 0.19235924
000010 47 13 eb bc ef d2 9c bd d9 ea 61 be cb d9 c9 bd
       -0.028695716 -0.0765742 -0.22062244 -0.09855994
000020 d0 cb 9e bc 1a a5 01 3e 4a 63 e3 3d e0 74 52 bd
       -0.019384295 0.12660637 0.11102922 -0.051380992
000030 45 15 a7 be 7c 4f 81 3e 02 06 89 bd 5a 84 19 3d
       -0.32633415 0.25255954 -0.06690599 0.037479736
000040 a4 e2 a9 3d 9a 08 d8 3c 0d 28 4b 3e 6d 51 5a be
       0.082951814 0.026371289 0.19839497 -0.21320124
000050 b1 c6 d4 3e 26 44 b0 3e e0 06 d4 be f7 01 4f be
       0.4155784 0.34426993 -0.41411495 -0.20215593
000060 85 db ec 3e 5a 52 e8 bd c7 07 9d 3e 61 55 1f be
       0.4626123 -0.11343832 0.30669996 -0.15559913
000070 5a 8a f0 3d d5 38 9c 3d 50 8a 50 be 4e 02 f0 bd
       0.117451385 0.07628027 -0.20365262 -0.117191896
000080 bd 1f df bc 09 96 2d be fc a5 fb bd 6a 3f c3 bd
       -0.027236814 -0.16951765 -0.122875184 -0.0953358
000090 55 2d d5 3d 0a e1 6b 3d 69 74 ce 3d 6a f4 24 bf
       0.10409037 0.05758766 0.10080797 -0.64435446
0000a0 dd 18 72 3d 54 04 0b 3e af 07 80 bd 17 15 49 bd
       0.059105743 0.1357587 -0.062514655 -0.04909238
0000b0 cb 12 d2 3e 96 3b aa 3b f8 89 eb ba 37 82 84 3e
       0.41029963 0.0051950915 -0.0017970195 0.25880596
0000c0 cc b5 4b 3e e1 8f b5 be 1d f4 e6 3d 74 85 82 3d
       0.19893569 -0.35461333 0.1127703 0.063731104
0000d0 73 53 c9 be 14 be c8 3d fd 62 19 3d 81 7e 43 be
       -0.3932148 0.098018795 0.03744792 -0.19091226
0000e0 a1 a9 d6 3d a5 9f 89 be f7 80 85 be fb 00 33 3c
       0.10481573 -0.26879612 -0.26074955 0.010925527
0000f0 e0 37 bf 3d 06 77 82 be 62 35 bc bd ab 28 09 be
       0.09336829 -0.25481433 -0.091898695 -0.1339442
000100 98 ee 82 be 13 3b c3 bc 73 3e ce 3c ef 97 b6 bd
       -0.25572658 -0.02383188 0.025176262 -0.08915698
000110 54 fa b9 bd ad ed 88 3d a8 bf 62 3e 34 50 c2 3b
       -0.090809494 0.06685958 0.22143424 0.005929971
000120 db 0e d8 be 98 d2 e1 3e 58 d0 df 3d 9b 7d 36 3e
       -0.42198834 0.44105983 0.1092841 0.17821352
000130 d1 7d 81 be 05 89 81 3d c6 98 8e 3d 7c e5 38 3e
       -0.25291303 0.063249625 0.06962733 0.18056291
000140 d4 7d 84 be 2b 67 8d 3e 0e b3 7d 3d b9 2c 95 be
       -0.2587725 0.27617773 0.061938338 -0.29135683
000150 84 a6 01 3e 71 4f ba bc 68 ac 73 3d d4 64 9b bd
       0.12661177 -0.022742959 0.05949059 -0.07587591
000160 19 2a 70 bd 4b 7f a0 3e 01 54 e8 bd 11 f4 b5 3d
       -0.058633897 0.31347117 -0.113441475 0.088844426
000170 de 2b e5 3d 4e 3f b2 3d ed b8 83 3e 25 23 2c be
       0.111900076 0.08703481 0.25727025 -0.16810282
000180 f1 18 69 bd 86 30 44 3f 31 4f 83 bd de 37 02 be
       -0.05690855 0.7663654 -0.06411589 -0.12716624
000190 6a 5d 91 bd ba 61 eb 3d eb c6 f7 bd ab 1a 67 be
       -0.070978954 0.11493249 -0.120984875 -0.22568767
0001a0 b1 95 21 be fc 80 63 3e dd 79 e4 3e c1 4f 18 3d
       -0.15779759 0.22217172 0.44624224 0.037185434
0001b0 d8 b2 3b be 2d c4 35 be 95 fb 9f be a2 4e 28 3e
       -0.18329942 -0.17750616 -0.3124663 0.16436246
0001c0 42 3f 10 bd 11 67 08 3e 4d 69 9d be af 72 26 3d
       -0.035216577 0.13320567 -0.307444 0.040636715
0001d0 b0 ef cf 3b e3 50 0b be 89 39 f0 3e 3e e9 1f be
       0.0063457116 -0.13605075 0.46918896 -0.15616319
0001e0 b0 70 88 3e 21 c1 c1 3e 61 0a 0e bf d6 d1 e9 bd
       0.26648474 0.37842658 -0.55484587 -0.11416976
0001f0 e8 f9 af 3d d5 5d 52 3e 42 ca 03 be 74 3b 92 3e
       0.08592588 0.20543607 -0.12870124 0.28560984
000200 32 2e 4b 3e 11 da 3b 3e 8a 89 3a be ca f0 00 be
       0.19841841 0.18344904 -0.1821653 -0.12591854
000210 ab 05 3d 3e 68 c5 39 be a9 0e 80 bd da 12 1b 3e
       0.18459193 -0.18141711 -0.06252796 0.1514391
000220 9d d8 b3 3b 94 f6 10 be 7a c2 7d bd a5 8a b4 3d
       0.005488469 -0.14156562 -0.061953045 0.08815507
000230 2b 5c 80 3e 4f 8e d1 3c c3 d1 b5 39 af 96 f2 bd
       0.2507032 0.025580553 0.00034679295 -0.11845147
000240 9e b9 26 3d 74 4c dc be 28 46 61 be 73 ba 20 3f
       0.040704362 -0.4302708 -0.21999419 0.627845
000250 5c 47 63 be 15 b7 a1 bd d6 3b 02 3e c1 bd 74 be
       -0.2219519 -0.07896248 0.12718138 -0.2390051
000260 70 c0 6f be 59 12 98 3e bd 6a 36 3e e3 86 17 3e
       -0.23413253 0.29701498 0.17814155 0.14797549
000270 df d8 c5 3d ff 56 16 3e 7b 6d d3 3d 79 c0 c8 3e
       0.096605055 0.14681624 0.10323616 0.39209345
000280 37 ba a1 3d 1d 46 fa 3d d8 d7 95 3d 83 5c 8d be
       0.07896846 0.12220404 0.073165596 -0.27609643
000290 22 85 3e 3e 2f db 47 3e 10 fd 3e be 08 b9 07 be
       0.18605474 0.19517206 -0.18651223 -0.13254178
0002a0 37 fd 3c 3e f2 7b b0 3e 55 2d 54 bc 21 84 9d 3e
       0.18455969 0.34469563 -0.012950261 0.3076487
0002b0 01 29 cb bc 19 7d db 3d b6 fa 4f 3e d9 74 b6 3d
       -0.024799826 0.1071722 0.20310482 0.08909006
0002c0 1f 4d 98 bc 1b 09 91 3e cc 08 2d bd db 08 84 3d
       -0.018591462 0.2832726 -0.042244717 0.064470015
0002d0 7b 51 66 3e fe 84 ca be 3a d5 41 3e 60 1e 1a be
       0.2249202 -0.3955459 0.18928996 -0.1505065
0002e0 ee 6b b2 be 2e 4e cf 3e 36 ce e4 bd 6c 2d 91 bd
       -0.3484797 0.40489334 -0.11172144 -0.07088742
0002f0 83 2b f8 3c 67 28 05 3e 92 0b 4a 3e 9d 9f 97 be
       0.030294186 0.13003694 0.19730976 -0.29613963
000300 ef 04 a4 bd c2 27 09 3d 66 e4 99 3e a9 e7 c0 3c
       -0.080087535 0.03348518 0.30057067 0.023547964
000310 a3 54 20 3e 18 5d 3e 3d fd cd 5f be 44 9e 17 3d
       0.15657286 0.0464755 -0.21855922 0.03701617
000320 69 ee a9 3e 9a e3 9a 3e da ee fa 3d c3 5e cd 3b
       0.33189705 0.3025177 0.122525886 0.0062674
000330 03 39 50 3d f2 c1 01 3e 9c 98 97 3e 87 06 83 3e
       0.05083562 0.1267164 0.2960862 0.25590917
000340 4a 73 0d 3d 75 16 f0 3d 56 ad 26 bd 1f 87 db bd
       0.034533776 0.11723033 -0.04069265 -0.10719132
000350 9c 75 d3 bd a0 88 4d 3c 05 8f 4e 3e b7 15 83 3d
       -0.103251666 0.012544781 0.20171745 0.06400626
000360 9f 56 44 be ab e7 92 3e 94 ae 68 3b b5 21 88 3e
       -0.19173668 0.28692374 0.0035504447 0.26588216
000370 9c d4 2d be 33 a0 d5 be f3 cb 74 3e d3 dc a3 3e
       -0.16975635 -0.41723785 0.23905925 0.32004413
000380 0b d0 da be 2b 68 80 be e0 b9 6f be e7 90 0b 3d
       -0.4273685 -0.25079474 -0.2341075 0.034073737
000390 e1 7b 46 be 64 b7 24 3e f4 91 2c be 0e 85 ac bd
       -0.19383194 0.16085583 -0.16852552 -0.08423816
0003a0 eb a7 3e 3c d5 4c 47 3e 3a 68 07 3e a2 18 f2 bc
       0.011636714 0.19462903 0.13223353 -0.029552761
0003b0 5a d9 0b be 23 55 8b 3e cf 8f b1 bd a9 c0 ba 3e
       -0.13657132 0.27213392 -0.086700074 0.36475113
0003c0 fb 9e 27 3e 47 3f 8c 3c f4 0b 4e bd 6c 5a 2b be
       0.1636924 0.017120017 -0.05030437 -0.16733712
0003d0 63 42 36 3e 46 59 04 be 69 3d 8e be 28 c1 06 3e
       0.17798762 -0.1292468 -0.27781227 0.13159621
0003e0 16 12 55 3d a9 b4 0a be cb 91 81 3e e9 e1 f5 3d
       0.0520192 -0.13545479 0.25306544 0.120059796
0003f0 f1 5b 2b bd 05 44 a6 3e 9d 9d 79 3e 2f b3 ba be
       -0.04183573 0.3247377 0.24376531 -0.3646483

fc1.bias f4 [25]
000000 e4 de d5 3d b9 9b ea bd c8 79 18 3d 75 a6 93 bd
       0.10442904 -0.11455483 0.037225515 -0.072094835
000010 5b a4 26 be 9e 28 b8 bc 75 0a f3 3c 37 30 03 3d
       -0.16273634 -0.022480305 0.029668072 0.032028403
000020 56 a3 97 3c 6e 0c f4 3b b8 86 e6 bd bd 43 19 3e
       0.018510502 0.007447771 -0.11256164 0.14967246
000030 03 d0 a0 bd fb dc b2 3d b3 81 5a 3d 94 af 51 3d
       -0.07852175 0.08733555 0.053346347 0.051192835
000040 81 43 48 3e 19 48 8b bd a7 a2 0b 3e 33 13 01 3e
       0.19557 -0.06800861 0.13636266 0.1260498
000050 ba d6 c7 bd e8 fb 11 be 42 c5 9f 3d 6a 48 8f bc
       -0.09757753 -0.14256251 0.07801296 -0.017490584
000060 c4 93 d1 3c
       0.025583155

fc2.weight f4 [25, 25]
000000 ca f1 50 be 56 0c bc 3e 79 a0 10 3f 82 6c 05 3f
       -0.20404735 0.36728162 0.5649486 0.52118695
000010 d5 a7 38 bd 35 96 29 3f a0 c2 36 3e ce 2f a3 3e
       -0.045081932 0.6624482 0.17847681 0.3187241
000020 fd 40 f5 bd e9 b7 47 3d a0 7a 9c bd e8 7a c8 bd
       -0.11975286 0.048759375 -0.07640576 -0.097890675
000030 69 23 38 3f a6 65 73 3e b1 1c a3 bc 06 96 bb 3e
       0.7192903 0.23769245 -0.019911142 0.36637896
000040 09 d9 b0 bd ca 3e ff 3e 9f 8b f0 3e b9 ad 21 be
       -0.08635146 0.49852592 0.46981522 -0.15788926
000050 05 41 71 3e d3 64 af 3e 46 33 29 3f b8 aa 0b 3f
       0.23559959 0.3425661 0.6609386 0.5455737
000060 b2 f1 09 3d 93 90 21 3e d0 95 b0 3e bb 72 a3 3e
       0.033677764 0.15777807 0.34489298 0.3192347
000070 67 dc 0b 3f cc ad a5 3e 7f 6c e0 3e 20 7f 8f 3e
       0.5463318 0.3235916 0.43832776 0.28026676
000080 59 12 8f 3e f3 eb 77 be 70 b9 da 3d e7 9e 8b be
       0.27943686 -0.24211101 0.10679901 -0.2726967
000090 a3 9f ac be b3 d9 4f 3f 44 f8 44 bd d6 c3 91 bd
       -0.33715543 0.8119156 -0.048088327 -0.07117431
0000a0 13 e5 34 bc 9c b9 a3 be 99 52 e2 3e d6 97 18 3f
       -0.011040944 -0.31977546 0.44203642 0.59606683
0000b0 ae 92 96 bd d2 16 0c 3e a7 6c f3 3d 1f 76 fa 3e
       -0.07352196 0.1368058 0.11885958 0.48918244
0000c0 10 b3 c1 3e c3 32 3f 3c 05 7d b4 3d d8 11 a4 3e
       0.37831926 0.011669817 0.08812908 0.32044864
0000d0 b8 53 1c 3f f8 36 a1 3e cf 0c f7 3e ea 4f e5 3e
       0.61065245 0.3148725 0.4825196 0.44787532
0000e0 f2 b5 c0 3e c6 17 90 3e 2c fb 10 bd 5b 49 af 3e
       0.37638813 0.28143138 -0.035395786 0.34235653
0000f0 a9 1b 58 be 29 33 da be d7 43 43 3f c0 a4 a0 be
       -0.21104302 -0.42617157 0.7627539 -0.31375694
000100 e7 40 a4 bd c1 f8 27 bd cd 99 fb bd 57 90 25 3e
       -0.08020192 -0.041008715 -0.122851945 0.16168343
000110 7d 77 da 3e fa 26 b8 bc 1b 7f c5 3c 3a 0c 84 3e
       0.42669287 -0.022479523 0.02410846 0.25790578
000120 fd 02 ce 3e e9 13 4d bb 52 22 bb 3c df 4c 08 3e
       0.40236655 -0.0031292385 0.022843514 0.13310574
000130 97 61 03 3f b0 9a 92 3e 92 4b 7d 3e d7 42 84 3d
       0.51320785 0.28633642 0.24735859 0.06458061
000140 0a a2 26 3f 56 a7 91 3e 55 d0 f8 3e 7f e6 11 be
       0.65091 0.2844798 0.48596445 -0.14248084
000150 1e a1 d3 3d 09 14 9e be e0 28 a5 be ce c7 28 3f
       0.10333465 -0.3087466 -0.32257748 0.6592988
000160 04 32 1a 3d 41 fa b0 bd bd e7 55 3e 2b cd 6a be
       0.037645355 -0.08641482 0.20889182 -0.22929828
000170 a8 cf 98 3e d1 35 fd 3e bf 2d 88 bc 13 65 41 bd
       0.2984593 0.4945512 -0.016623376 -0.047215533
000180 2d 38 aa 3e a0 d9 51 3f fc 7f ce 3e ab 2b 34 bc
       0.33245984 0.81972694 0.4033202 -0.010996739
000190 d6 25 08 be ea a6 72 3e dc 3d aa 3e 3a a7 80 3e
       -0.13295683 0.23696485 0.3325032 0.25127584
0001a0 a7 d3 95 3e e0 db c6 3e 5a 35 2f 3e c8 bb b0 3e
       0.2926304 0.38839626 0.17110196 0.34518266
0001b0 2a a8 fa 3d 59 a3 6d 3d 11 62 25 be 48 05 36 be
       0.12239106 0.05801711 -0.1615069 -0.17775452
0001c0 31 83 38 3f c3 43 04 3e bc 7a 29 3d 82 66 15 3e
       0.7207518 0.12916474 0.041376814 0.14589885
0001d0 c4 73 71 be 48 b5 65 3e da 32 c4 3e e0 7c 89 be
       -0.23579317 0.22432435 0.38320047 -0.26853085
0001e0 21 26 32 3c 21 1c 99 3e ee 2c 2e 3e 14 07 a4 3e
       0.010873348 0.29904273 0.17009327 0.3203665
0001f0 df ce b2 3d 58 43 c1 bc d0 bd ac 3e b8 ab c6 3e
       0.08730864 -0.023591682 0.33738565 0.38802886
000200 82 ef f3 3e 9e 83 fa 3d 8b fc 12 3f 85 18 a2 3e
       0.47643667 0.12232135 0.574166 0.31659332
000210 ef 9a 00 3f 23 74 42 be 30 96 80 3e 38 46 3d be
       0.5023641 -0.18989615 0.25114584 -0.18483818
000220 26 be 4d be 02 3a 77 3f 5a c5 80 3e 2c 8a 1b be
       -0.20092067 0.9657289 0.25150567 -0.15189427
000230 33 05 10 3e 3c 6d c9 3b d5 70 e0 3e ad fb c0 3e
       0.14064483 0.006147055 0.43836084 0.37692013
000240 f3 6d 4d be 22 44 dd 3d 61 fd 87 3e 58 d0 5e 3f
       -0.20061474 0.10804011 0.265605 0.8703666
000250 10 d9 61 3e 5d d6 12 be a5 41 e8 3d d9 73 a7 ba
       0.22055459 -0.14339586 0.11340646 -0.0012775614
000260 a0 8b 2c be ec 20 2e 3d eb 94 41 bd e4 cd 55 3d
       -0.16850138 0.042511865 -0.04726116 0.052198306
000270 f0 40 81 bd bc 03 33 be c0 eb be 3c d4 e1 4b be
       -0.06311214 -0.17481893 0.023305774 -0.19910365
000280 34 6b c0 bd b6 8b 18 3e a8 a2 0d be db fb ba 3d
       -0.093954474 0.14897045 -0.1383158 0.09130069
000290 f9 bf 3f bd 30 a8 5b be 99 53 40 3d e0 c4 f0 bd
       -0.04681394 -0.21450877 0.046954725 -0.11756301
0002a0 52 74 12 be 5f 16 a3 bc 56 2b 64 be 82 50 b7 3d
       -0.14302185 -0.019908128 -0.22282156 0.089509025
0002b0 40 40 6f bd db a7 af bc 2e 8e 09 be 9a 95 a1 3d
       -0.058410883 -0.021442344 -0.13433143 0.07889862
0002c0 20 1d 44 bf 71 52 fe be bb b6 1e bf 3a ff 78 be
       -0.7660694 -0.49672273 -0.61997575 -0.24316111
0002d0 bf d0 db be 9b a3 08 be a3 af 2f be ef dd 87 3e
       -0.42932698 -0.1334366 -0.17156844 0.2653651
0002e0 d1 fc f1 bc a5 ae e0 3e 94 63 c8 3e b9 3f 0f bf
       -0.029539498 0.43883243 0.39138472 -0.5595661
0002f0 97 ba 5b bd 6e 74 f6 3c 59 6b 52 3e a8 17 dd 3d
       -0.053644743 0.030084815 0.20548762 0.10795528
000300 ed f7 7a be 31 ae c1 be 4b fd a8 3d ba 31 e4 3d
       -0.24508639 -0.3782821 0.08251437 0.11142297
000310 0b 51 ef be 07 00 7b bf 6c e0 ae be 80 d8 0d 3e
       -0.46741518 -0.98046917 -0.34155595 0.1385212
000320 5c 40 91 be d3 aa 94 be 61 57 3d be 4b 45 96 be
       -0.28369415 -0.2903658 -0.18490364 -0.2934974
000330 6e 45 1b be bc 4c af be 27 43 5f be 3b 83 95 3c
       -0.15163204 -0.3423823 -0.2180296 0.018251052
000340 0b f5 a6 3e 77 52 23 be d6 1d eb 3e 3d 34 e5 bd
       0.32608828 -0.15949427 0.459212 -0.11191604
000350 fd f8 c0 3d 0d cd 51 3e cc f7 e8 be 58 e1 6a bc
       0.09422491 0.20488377 -0.45501554 -0.014335953
000360 37 b9 2a 3e 50 b0 c9 bd 8d ff dc be 01 e4 a7 3e
       0.16672216 -0.09848082 -0.4316372 0.3279114
000370 0a 88 e6 3e 94 45 22 bf 7b a2 28 bf 96 df b5 be
       0.45025665 -0.6338742 -0.65872926 -0.35522145
000380 81 d5 0e bf 30 26 a2 3d c0 4e 34 3e 12 ed 96 3e
       -0.5579453 0.0791744 0.17608166 0.29477745
000390 35 25 12 3e 20 65 c9 3d 46 ff e1 3e 51 c0 90 3e
       0.14272006 0.09833741 0.4414007 0.28271726
0003a0 32 da 8c 3e 2c dc 76 bd 5a 2a be 3d b3 ed 4b be
       0.2751022 -0.060268566 0.09285422 -0.19914894
0003b0 97 18 96 be 59 61 f0 3e 37 89 dc 3d 78 87 1a 3d
       -0.29315636 0.4694927 0.10768359 0.03772685
0003c0 22 67 10 3d 33 76 aa be 87 4f c0 3e 3a 88 0c 3f
       0.035254605 -0.33293304 0.37560675 0.54895365
0003d0 60 d0 99 bd 35 8f 11 3e 62 42 b9 3e 5d e0 33 3f
       -0.075104475 0.14214785 0.3618346 0.70264226
0003e0 91 61 c3 3e 54 af 50 3d db 6e 18 3d b3 48 23 3e
       0.38160375 0.050948456 0.037215095 0.15945701
0003f0 89 06 87 3e 3f 6b 81 3e c5 dc a8 3e f3 19 1b 3e
       0.26372173 0.25277135 0.32980934 0.15146618

fc2.bias f4 [25]
000000 46 2e 1b be 35 a6 0e 3e 98 17 b2 3d 67 63 b1 3d
       -0.1515437 0.1393059 0.086959064 0.086615376
000010 78 14 65 3d 29 48 ae bb 8f 53 1d be b4 d2 52 3e
       0.055927724 -0.0053186608 -0.15363906 0.2058819
000020 6f 99 60 3e f7 9f e6 3c 19 23 00 3e 00 23 89 3e
       0.2193353 0.028152449 0.12513389 0.26784515
000030 09 c4 be 3d 69 69 3f 3e 9b 11 cc bd 40 45 8c 3e
       0.093147345 0.18692555 -0.099642955 0.27396584
000040 b6 dc b6 bd d8 b3 43 be 9a 6a 19 be 5e ce 72 bd
       -0.08928816 -0.19111574 -0.14982072 -0.05927884
000050 76 54 b5 bd 49 14 e6 3b d4 78 0a be f0 1f 60 be
       -0.08854 0.007021461 -0.13522655 -0.21887183
000060 49 0d c8 3e
       0.39072636

ps_out.weight f4 [2, 25]
000000 46 90 4f 3f 29 eb 14 3f 92 9a f6 3e 23 5f 12 3f
       0.8107952 0.58171326 0.48164803 0.5717642
000010 1f 1d da 3e e9 b9 54 3f 34 a8 1c be 72 e3 12 bf
       0.42600343 0.83096176 -0.1529854 -0.57378304
000020 2e 7f 98 bf ef ff 26 3e 05 d2 95 3e 98 5b 5e bf
       -1.1913812 0.16308568 0.29261795 -0.8685851
000030 a0 d8 b3 3e 65 26 2e bf c6 f6 23 be 6b 6f 0a bf
       0.3512621 -0.68027335 -0.16012105 -0.5407626
000040 3b 27 66 bf 8a 81 5c 3f a6 a1 11 3f c4 da 68 3f
       -0.8990361 0.8613516 0.5688728 0.9095881
000050 a4 7b fd 3e 77 33 db 3e 7d c6 05 be 72 15 91 be
       0.49508393 0.42812702 -0.13063999 -0.28336674
000060 54 9d 08 bf ba bb 2f bf c9 3d 97 be 2a d1 08 bf
       -0.53365064 -0.68645823 -0.29539326 -0.5344416
000070 30 86 ba be 4b 42 b1 be 54 ef 47 bf ab 18 23 3e
       -0.36430502 -0.3462089 -0.7809956 0.15927379
000080 46 d8 2f 3f 2b 85 99 3f 7d 8b ae be 22 63 ad be
       0.6868938 1.1993765 -0.34090796 -0.33864695
000090 b5 77 75 3f 13 e7 1e bf 9e 69 d6 3e 33 7d da 3d
       0.95885783 -0.6207134 0.41877455 0.10668411
0000a0 9a e2 bb 3e a9 c9 63 3f ed 7d 1d bf bf 5f 8d be
       0.3669632 0.88979584 -0.6152027 -0.2761211
0000b0 38 46 19 bf 46 c2 b6 be 64 a3 a6 be 52 49 52 3c
       -0.5987277 -0.35695094 -0.32546532 0.012834864
0000c0 c8 27 07 3f 7b fd bb 3e
       0.52795076 0.36716828

ps_out.bias f4 [2]
000000 f2 4f 09 3e ac 6f 96 bd
       0.13409403 -0.073455185
