Propensity_Model/DCN_PD_NN_Models/NN_PS_model_iter_id_5_epoch_250_lr_0.001.pth (torch_old, 6445 bytes, 6 tensors)

fc1.weight f4 [25, 25]
0.06615717 0.039124727 -0.2584448 -0.10747882 0.077441044 -0.1886215 0.0068614935 0.28610036
-0.15446918 0.01615891 -0.20287426 0.28932035 0.19706699 0.06940484 -0.520219 -0.07779105
-0.15905114 -0.07967918 0.09045545 0.36194956 0.015725253 0.15072896 0.46407208 0.33422294
-0.4874813 -0.26105666 -0.5460021 -0.15943223 0.39626375 -0.5025599 0.038066965 0.4038886
0.1806779 -0.011715116 -0.074676715 -0.31116998 -0.50639504 0.13269724 -0.036373734 0.10587745
-0.020130094 0.30609244 0.1281004 0.36052626 -0.33755806 0.40781182 0.48448974 -0.26614875
-0.24688496 0.088602625 -0.19080591 0.020454261 0.22671257 -0.13159135 -0.086045 0.2747493
-0.5411977 0.79706967 -0.100609 0.0068870527 0.16361588 0.01825874 -0.0035633503 -0.1466482
0.35112295 -0.041980647 -0.22493568 0.0593613 0.2373056 0.111182265 0.40293184 -0.021596964
0.025746303 -0.5214899 -0.042943444 -0.11276562 0.23388149 -0.17861776 -0.002964911 -0.20077534
-0.060177576 0.16760501 -0.36715096 0.106218904 -0.12694652 0.52370334 0.192852 0.099073194
-0.010750532 0.11033671 -0.029099673 0.027218105 0.009705783 -0.062353004 -0.060591996 0.47317666
0.3344037 -0.26680836 -0.153756 0.43243918 0.17290093 -0.35850066 -0.1476368 0.047063593
0.27460784 0.0003145212 0.2317896 0.1777133 -0.28300792 0.018477177 -0.07556223 -0.08175571
-0.24138562 -0.17199978 0.53420126 0.13643229 0.03564742 -0.018816262 0.25474235 0.043901123
-0.00049547036 0.115594454 0.68158937 0.095399566 -0.04534471 -0.26677868 -0.14640823 0.47601435
0.16513553 -0.37108302 -0.0109506445 -0.19167301 -0.13357943 -0.17989469 0.040523775 -0.7671997
0.6349776 0.088327676 -0.07387096 -0.08224652 0.21630812 -0.18313381 0.23884566 0.24509402
0.2788282 0.209932 -0.31330696 -0.42653203 0.28688008 -0.37078875 0.074470036 0.1543861
-0.015274994 0.37666446 0.2544909 -0.2142847 -0.43449974 0.20550433 -0.1121632 -0.5770765
0.3566662 -0.10525575 -0.24231447 -0.06278442 -0.0552637 0.1496976 -0.03692861 -0.14893304
0.16583297 0.45008028 -0.102447405 -0.22902082 0.21348108 -0.19245462 0.077583544 -0.21434161
0.050545257 -0.11685458 -0.15085833 -0.29703572 -0.028658468 0.121536456 0.23620868 -0.24049336
-0.16352405 -0.23655036 0.11387256 0.389141 0.003901242 0.31528622 0.07419565 0.28038105
0.24717732 0.25655505 -0.067810915 0.29113552 0.36987945 0.6133736 0.13239402 0.005812922
-0.40788594 0.31194746 0.003395346 0.12230407 -0.16732623 0.047266524 0.116114095 0.13767806
-0.48200426 0.1722117 0.035949685 0.24313489 -0.36359337 0.051646113 -0.22004683 0.052308377
0.22402026 -0.085631296 0.13006295 0.04190229 -0.12942699 0.31327465 -0.15973687 0.32142523
-0.031370945 -0.1985589 0.34490547 -0.1287125 0.064923786 -0.036152318 0.038269717 0.055113226
-0.5520985 -0.06938943 0.038412433 -0.38035658 -0.025719788 0.061773565 0.14501919 -0.92198527
-0.18174224 0.25142246 -0.084208466 0.25098696 0.28533405 0.44235024 0.19653976 -0.50121534
0.17975521 -0.059628 0.079591356 0.198051 0.3038538 0.27961078 -0.13171984 -0.18838102
00000000: 697d 873d 4041 203d e052 84be db1d dcbd
00000010: 6999 9e3d ff25 41be 61d6 e03b bf7b 923e
00000020: 2b2d 1ebe b15f 843c 45be 4fbe cc21 943e
00000030: eecb 493e 2024 8e3d 132d 05bf ea50 9fbd
00000040: 4dde 22be d72e a3bd b540 b93d 7451 b93e
00000050: 3fd2 803c b158 1a3e db9a ed3e 451f ab3e
00000060: 2697 f9be 38a9 85be cbc6 0bbf 3442 23be
00000070: 15e3 ca3e c4a7 00bf 1bec 1b3d 7dca ce3e
00000080: a103 393e c2f0 3fbc 1bf0 98bd ac51 9fbe
00000090: 1ba3 01bf c9e1 073e a0fc 14bd 47d6 d83d
000000a0: dee7 a4bc 26b8 9c3e c02c 033e e696 b83e
000000b0: 69d4 acbe b6cc d03e 0a0f f83e a644 88be
000000c0: 69cf 7cbe 4b75 b53d a062 43be b28f a73c
000000d0: 5727 683e e2bf 06be 5c38 b0bd f1ab 8c3e
000000e0: ef8b 0abf c20c 4c3f 170c cebd c9ac e13b
000000f0: ec8a 273e 5a93 953c 1987 69bb f22a 16be
00000100: 63c6 b33e e6f3 2bbd 8a55 66be d624 733d
00000110: 3d00 733e 87b3 e33d 154d ce3e 1eec b0bc
00000120: e9e9 d23c 5d80 05bf 77e5 2fbd a9f1 e6bd
00000130: a17e 6f3e 93e7 36be f44e 42bb 0d98 4dbe
00000140: c37c 76bd a6a0 2b3e 36fb bbbe 4c89 d93d
00000150: 45fe 01be 6c11 063f ff7a 453e e3e6 ca3d
00000160: 0023 30bc 37f8 e13d 7062 eebc 81f8 de3c
00000170: 0105 1f3c dd65 7fbd 502f 78bd 3644 f23e
00000180: f636 ab3e 1b9b 88be 3672 1dbe ab68 dd3e
00000190: f10c 313e 668d b7be 1a2e 17be c1c5 403d
000001a0: 6699 8c3e 52e6 a439 415a 6d3e 7afa 353e
000001b0: 6ae6 90be 735d 973c 5fc0 9abd 8a6f a7bd
000001c0: cb2d 77be b620 30be 6ac1 083f e8b4 0b3e
000001d0: 0703 123d 9024 9abc 976d 823e aad1 333d
000001e0: 74e2 01ba c9bc ec3d a47c 2e3f d960 c33d
000001f0: 60bb 39bd 3797 88be 0aec 15be 27b8 f33e
00000200: 4a19 293e 98fe bdbe 556a 33bc ee45 44be
00000210: 0cc9 08be 5036 38be 42fc 253d 3367 44bf
00000220: e48d 223f 24e5 b43d a849 97bd dd70 a8bd
00000230: e07f 5d3e 6e87 3bbe f593 743e edf9 7a3e
00000240: 92c2 8e3e 6af8 563e c569 a0be 6862 dabe
00000250: f2e1 923e 06d8 bdbe bf83 983d 6417 1e3e
00000260: f843 7abc 2ada c03e a24c 823e 736d 5bbe
00000270: c076 debe ba6f 523e d2b5 e5bd 49bb 13bf
00000280: f49c b63e 5490 d7bd 4921 78be 1e95 80bd
00000290: 315c 62bd 544a 193e 7442 17bd e781 18be
000002a0: 1ed0 293e ec70 e63e f2cf d1bd 6f84 6abe
000002b0: c99a 5a3e d312 45be 1fe4 9e3d 5e7c 5bbe
000002c0: 8b08 4f3d 7451 efbd 9b7a 1abe 1115 98be
000002d0: 2ac5 eabc 1be8 f83d b0e0 713e e443 76be
000002e0: d972 27be 423a 72be 0436 e93d 7d3d c73e
000002f0: fbab 7f3b 326d a13e e4f3 973d 1b8e 8f3e
00000300: 0d1c 7d3e 2f5b 833e 73e0 8abd b70f 953e
00000310: d760 bd3e 0d06 1d3f 4c92 073e 537a be3b
00000320: 6dd6 d0be 94b7 9f3e 7484 5e3b 8e7a fa3d
00000330: 9157 2bbe 8b9a 413d 3acd ed3d 7afb 0c3e
00000340: 43c9 f6be 4458 303e fa3f 133d 5af8 783e
00000350: e928 babe e08a 533d f553 61be 4f41 563d
00000360: 9165 653e 765f afbd 392f 053e bca1 2b3d
00000370: 8288 04be 8965 a03e 1092 23be d991 a43e
00000380: d27e 00bd 0653 4bbe 7397 b03e 36cd 03be
00000390: c3f6 843d 7414 14bd b5c0 1c3d 68be 613d
000003a0: 5456 0dbf 0c1c 8ebd 5b56 1d3d 19be c2be
000003b0: 4eb2 d2bc 4706 7d3d e97f 143e 3a07 6cbf
000003c0: a31a 3abe 72ba 803e 7d75 acbd 5d81 803e
000003d0: 4e17 923e bb7b e23e b841 493e a64f 00bf
000003e0: c011 383e 7d3c 74bd cb00 a33d e2cd 4a3e
000003f0: ba92 9b3e 2529 8f3e 91e1 06be f4e6 40be

fc1.bias f4 [25]
-0.035173923 0.1233006 -0.07337114 -0.10002062 -0.101470664 0.09437103 -0.13732843 0.35443515
-0.13321142 -0.2787937 -0.06240996 -0.05830649 -0.07243964 0.14400013 -0.20221265 -0.18098211
-0.16849983 -0.11537692 0.24943985 0.09335733 -0.07546397 0.1968304 0.091206156 0.22381987
0.119854406
00000000: 8812 10bd 0685 fc3d 9c43 96bd 9cd7 ccbd
00000010: dacf cfbd 9945 c13d d39f 0cbe 8678 b53e
00000020: 9368 08be 0cbe 8ebe 96a1 7fbd c9d2 6ebd
00000030: 3c5b 94bd c574 133e d510 4fbe 6053 39be
00000040: 388b 2cbe bc4a ecbd 296d 7f3e 2132 bf3d
00000050: db8c 9abd e98d 493e 4bca ba3d 0931 653e
00000060: 3a76 f53d

fc2.weight f4 [25, 25]
0.08415391 0.5588902 0.42146 0.4232702 0.57202286 -1.1461062 1.3509808 -0.1506824
0.09648281 0.62385064 -0.2988596 0.22047263 -0.15032232 0.19077493 0.7884056 0.5043714
0.26609904 0.5389069 -0.9272551 0.033580292 0.34069753 -0.06553645 0.31039494 -0.6931868
0.27993765 0.43492812 -0.21355098 0.849694 0.3481998 0.5636071 0.12158947 1.4359713
-0.15719187 0.44797933 0.94775295 -0.45452377 0.2018041 -0.11607515 0.6196179 0.1547067
0.5420858 0.4832216 -0.20727646 -0.13358375 1.0522633 0.21337368 0.0527661 0.909677
-0.00259522 0.3951716 0.4058176 -0.37014925 0.16193268 -0.057434317 0.39374894 0.1743901
0.8672853 0.12149833 0.35763112 0.34750926 -0.24783391 0.23819713 -0.0017608652 0.15600102
0.060598824 0.29999793 0.38695377 -0.42265475 0.056536786 0.7276984 0.14890708 -0.09827493
0.492792 0.23675184 0.22864656 0.6713238 -0.27257523 0.67170584 0.1155128 0.28613794
0.30585498 1.6500193 -0.18405645 0.47029662 0.94531775 -0.3275406 0.28776234 0.052792978
0.5309189 -0.2024757 0.36615175 0.5353415 -0.12596098 -0.05888084 0.914011 0.51520526
0.00067967747 1.1200714 0.19560915 0.28233767 0.5889149 -0.22475182 0.76350784 0.34089082
0.790006 0.117184006 1.4779721 0.13214509 0.512412 0.6883169 -0.4038537 0.30999678
-0.25956616 0.6294692 0.10684847 0.5900741 0.19093506 -0.3927441 -0.17326452 0.9507722
0.29361185 -0.07381786 0.8670826 0.08243362 0.38914597 -0.10225649 -0.35189956 -0.61182535
-0.1495221 -0.17975637 -0.7302908 -1.0518531 0.114332855 -0.8992248 -0.23617838 0.3186894
-1.1496928 0.5373544 0.19478735 -0.88895416 -0.6967991 -0.89470446 0.48614535 0.6103746
-0.6455476 0.0001603837 -1.054103 -0.509283 0.15563348 0.051712375 0.5526585 -0.30039203
0.44177583 -0.052276917 0.5634914 0.28392285 1.5371373 -0.14631401 0.6075022 0.87610734
-0.39156795 0.32617092 -0.08907136 0.263155 -0.14878024 0.3572198 0.3798765 -0.48764974
0.06555946 0.81009465 0.25543615 0.030122764 0.99706846 0.2966091 0.34626517 0.5211432
-0.089916185 0.7424651 0.33804637 0.7676162 0.14772679 1.4631745 -0.1926389 0.52523845
0.801586 -0.44985983 0.28197202 -0.23132084 0.48118067 0.032808732 0.3787107 0.42416713
-0.19025484 -0.16596824 0.86830133 0.30111653 -0.03647983 0.90754765 -0.023525426 0.4874318
0.1115483 -0.27229574 0.4960282 -0.014142869 0.4322721 0.25767434 1.2810856 -0.20051692
0.66453975 0.8557343 -0.48748454 0.09991698 -0.011361205 0.56650674 -0.1975961 0.3206476
0.24339135 -0.07009895 0.086105 0.9714552 0.3613793 0.16047332 0.74898297 0.16628352
0.39059004 -0.21888636 -0.54723597 -0.49311808 -0.27085721 -0.17563468 -0.23935884 -1.3718371
0.18665026 -0.08697079 -0.24163991 0.40045866 -0.16532145 0.5373322 0.11399244 -0.012719892
-1.1301309 -1.5427151 0.6992889 0.53932184 -0.98801595 0.3271998 -0.20970449 -1.8503847
-0.108814575 0.17757896 -0.75113475 -0.083698414 -0.20235822 0.09958783 -0.5482537 -1.2144045
00000000: e358 ac3d 6e13 0f3f 9bc9 d73e dfb6 d83e
00000010: 1770 123f 9cb3 92bf f0ec ac3f 7d4c 1abe
00000020: c898 c53d adb4 1f3f 2004 99be 94c3 613e
00000030: 18ee 19be 815a 433e f3d4 493f 7c1e 013f
00000040: 223e 883e cdf5 093f 9760 6dbf 7d8b 093d
00000050: e86f ae3e f937 86bd 16ec 9e3e b174 31bf
00000060: fd53 8f3e e6ae de3e 1cad 5abe 8c85 593f
00000070: 3f47 b23e 8e48 103f e603 f93d e8cd b73f
00000080: e8f6 20be 8c5d e53e f09f 723f 57b7 e8be
00000090: bca5 4e3e cfb8 edbd 479f 1e3f 6f6b 1e3e
000000a0: 23c6 0a3f d268 f73e 4840 54be 2eca 08be
000000b0: 90b0 863f a17e 5a3e 4421 583d 98e0 683f
000000c0: 9114 2abb ef53 ca3e 53c7 cf3e 3484 bdbe
000000d0: aed1 253e 3f40 6bbd 7699 c93e 5293 323e
000000e0: 6906 5e3f 1ed4 f83d 6d1b b73e bcec b13e
000000f0: 2cc8 7dbe f3e9 733e d5cc e6ba bbbe 1f3e
00000100: 7936 783d 5499 993e ce1e c63e 3466 d8be
00000110: 1e93 673d 714a 3a3f 197b 183e 5e44 c9bd
00000120: 3c4f fc3e 136f 723e 5322 6a3e e0db 2b3f
00000130: fb8e 8bbe eaf4 2b3f fa91 ec3d ac80 923e
00000140: 0699 9c3e d533 d33f 4b79 3cbe b8ca f03e
00000150: 5800 723f 67b3 a7be 9655 933e 733d 583d
00000160: 4dea 073f ca55 4fbe 3e78 bb3e 240c 093f
00000170: eafb 00be 092d 71bd a0fc 693f 7ee4 033f
00000180: 622c 323a 805e 8f3f c44d 483e 908e 903e
00000190: 20c3 163f 5725 66be 4075 433f 3e89 ae3e
000001a0: d53d 4a3f 2bfe ef3d 312e bd3f 0b51 073e
000001b0: 6f2d 033f 8935 303f eac5 cebe e6b7 9e3e
000001c0: dbe5 84be e524 213f 5fd3 da3d 190f 173f
000001d0: 7b84 433e c115 c9be 416c 31be cf65 733f
000001e0: 4b54 963e d12d 97bd 20f9 5d3f f5d2 a83d
000001f0: 243e c73e da6b d1bd 2e2c b4be 96a0 1cbf
00000200: 521c 19be 0e12 38be 56f4 3abf 1fa3 86bf
00000210: 5827 ea3d 9933 66bf bfd8 71be 422b a33e
00000220: 2229 93bf 0f90 093f 5676 473e 8092 63bf
00000230: 6d61 32bf 5a0b 65bf 0be8 f83e 8341 1c3f
00000240: 9c42 25bf ac2c 2839 d9ec 86bf 5f60 02bf
00000250: 625e 1f3e 5bd0 533d 077b 0d3f fccc 99be
00000260: 7130 e23e 5220 56bd f940 103f 565e 913e
00000270: eac0 c43f 57d3 15be 4485 1b3f 9248 603f
00000280: 987b c8be e0ff a63e 0c6b b6bd 41bc 863e
00000290: d959 18be 83e5 b63e 2c7f c23e 3aad f9be
000002a0: 0a44 863d 5d62 4f3f 87c8 823e 04c4 f63c
000002b0: e13f 7f3f 26dd 973e ab49 b13e a469 053f
000002c0: fa25 b8bd 3112 3e3f 6a14 ad3e 7f82 443f
000002d0: b145 173e 4d49 bb3f 2243 45be 0776 063f
000002e0: bd34 4d3f 0754 e6be a35e 903e 5fdf 6cbe
000002f0: 505d f63e 7362 063d 5ee6 c13e 6f2c d93e
00000300: 2ad2 42be 94f3 29be ff48 5e3f f22b 9a3e
00000310: e06b 15bd 0b55 683f 65b8 c0bc a990 f93e
00000320: 6f73 e43d 596a 8bbe 69f7 fd3e 7eb7 67bc
00000330: c552 dd3e e4ed 833e 9dfa a33f 4f54 4dbe
00000340: 471f 2a3f 6711 5b3f 9397 f9be 46a1 cc3d
00000350: 5924 3abc 9606 113f a256 4abe ec2b a43e
00000360: 953b 793e 0a90 8fbd d157 b03d 4ab1 783f
00000370: b506 b93e 1e53 243e 59bd 3f3f 3a46 2a3e
00000380: 6bfb c73e bf23 60be a817 0cbf f979 fcbe
00000390: ccad 8abe 94d9 33be 7c1a 75be 5c98 afbf
000003a0: 3f21 3f3e be1d b2bd 7470 77be eb08 cd3e
000003b0: 074a 29be 9a8e 093f de74 e93d 1867 50bc
000003c0: 21a8 90bf b077 c5bf 9904 333f ff10 0a3f
000003d0: 9dee 7cbf bb86 a73e c6bc 56be 68d9 ecbf
000003e0: 2dda debd 42d7 353e 5e4a 40bf 136a abbd
000003f0: fe36 4fbe b4f4 cb3d 5b5a 0cbf 9b71 9bbf

fc2.bias f4 [25]
0.05673026 -0.01807249 -0.16449964 -0.19381677 -0.21465456 0.5931271 -0.16657712 -0.003735893
-0.21220273 0.39968184 -0.08811855 -0.13301322 -0.22134438 0.03718 -0.05449552 -0.23270468
-0.108508624 -0.15959105 -0.08061341 -0.18274155 -0.12176459 0.3411374 0.35965323 0.1266953
-0.18459357
00000000: fd5d 683d c20c 94bc 9872 28be e777 46be
00000010: 68ce 5bbe 2dd7 173f 3193 2abe e2d5 74bb
00000020: ac4b 59be 19a3 cc3e 8077 b4bd 9e34 08be
00000030: 1aa8 62be 0e4a 183d b236 5fbd 234a 6ebe
00000040: c539 debd d66b 23be a518 a5bd 9a20 3bbe
00000050: b75f f9bd 90a9 ae3e 7824 b83e 6abc 013e
00000060: 1906 3dbe

ps_out.weight f4 [2, 25]
2.2242374 0.6937554 0.59565353 0.81606466 0.8990286 -1.5782942 0.5463083 0.53812563
0.8126965 -1.1037593 -1.4082639 -1.1434342 -0.015533812 0.36138564 -0.73744166 0.9242525
0.39953303 0.7143852 0.90153414 1.3575845 -0.18997617 -0.9019637 -1.4592954 1.4384773
1.3843825 -2.324588 -0.33199942 -0.5908652 -1.104567 -0.6852045 1.5487202 -0.88460386
-0.6010194 -0.68441236 1.1301993 1.4819539 1.1448922 0.17510022 -0.71285486 0.6117386
-1.0000092 -0.644403 -0.6879631 -0.56496173 -1.458129 0.17719997 0.7673536 1.705535
-1.4321288 -1.242871
00000000: e859 0e40 f499 313f c07c 183f 9de9 503f
00000010: bd26 663f 8b05 cabf dcda 0b3f 9ac2 093f
00000020: e10c 503f fc47 8dbf fe41 b4bf 0d5c 92bf
00000030: 8881 7ebc 8a07 b93e fac8 3cbf d09b 6c3f
00000040: 988f cc3e f3e1 363f f1ca 663f 54c5 ad3f
00000050: 1d89 42be 18e7 66bf 31ca babf 0620 b83f
00000060: 7233 b13f 0dc6 14c0 d4fb a9be f142 17bf
00000070: 7462 8dbf 9069 2fbf 773c c63f 6675 62bf
00000080: 68dc 19bf a635 2fbf 5faa 903f aab0 bd3f
00000090: d48b 923f 794d 333e a87d 36bf e79a 1c3f
000000a0: 4d00 80bf 98f7 24bf 5a1e 30bf 55a1 10bf
000000b0: f9a3 babf e973 353e 4971 443f f94e da3f
000000c0: ff4f b7bf 6616 9fbf

ps_out.bias f4 [2]
-0.1556668 0.10648572
00000000: 1e67 1fbe 2f15 da3d
