Propensity_Model/DCN_PD_NN_Models/NN_PS_model_iter_id_95_epoch_100_lr_0.001.pth (torch_old, 6445 bytes, 6 tensors)

fc1.weight f4 [25, 25]
00000000: 1c73 2fbd 5a6e 3abe d7ee dc3e 8501 4dbd
00000010: 20a8 673e 9bdf 54be 5552 6dbd 438c 06be
00000020: 25a3 3a3d 59ba 273e 7506 8ebe 27b3 583e
00000030: 4e6a 2f3e 699b cebd 9833 72bd f762 d139
00000040: 3394 9b3d 8f8f 22bd 6ec7 2cbe 9a00 a23e
00000050: 1b88 293e 00ee fabd 3476 ae3c 752a 503d
00000060: 3b50 84be ed24 9cbe 6baf 993d 9595 ba3d
00000070: d951 833e ddbe 0c3e 8952 b73d bfde a83d
00000080: f2f9 723e 2249 02be e576 cc3d 453f 01be
00000090: 97ab 6f3e 8acc 3bbc cef0 aa3d 7612 a7be
000000a0: c019 6f3e b0df 083e 1e7d 733e 3773 ab3d
000000b0: d533 ddbc 1330 743e 7c8f b23d 9fb6 723e
000000c0: 53aa b83d b706 57be 20e7 433e cbec 003e
000000d0: a75a 0bbe 155c 8abe 5303 c53d 29de fcbb
000000e0: 38e9 ae3e fe3c 50be 0937 833c 7cd3 92be
000000f0: 8d9c ecbe 7595 9c3e 4b5d 763e 1506 cebd
00000100: d75d 75be dded 27be cd92 3e3e 7086 37be
00000110: 723d 7c3e 5654 13bd 0b51 013f 4625 8d3e
00000120: 2938 e9bd 8457 49be 0b88 a0be f31e 29be
00000130: b831 a03e 508b b53c 5b11 983d 7d36 2dbe
00000140: c835 89bd 8cee 293e 9f40 b9bd e7f2 82be
00000150: 5bc3 f9bd 9e1a 56be eb9a 863d 0eb0 7bbe
00000160: eab5 343e 00e7 243c 6724 36bd 598c 363e
00000170: 6a72 da3d 8792 803d b7ae af3d 1251 883e
00000180: 74d7 3a3d 3e10 c5bd e5b6 46bd b379 fb3d
00000190: 6ec4 d63e 2e03 e0bd 1dc0 8bbd 248a 1f3e
000001a0: 572d 8e3e 24e5 4abe eac2 59be 5098 ce3e
000001b0: ec39 b7be 0507 25bd 5399 b23e ef7d 803b
000001c0: dcb6 8cbe 3c31 debd 0d4e 33bd cafe e8bc
000001d0: dc85 9c3b 9488 9ebd f819 9abd 5e2e c2bc
000001e0: 67ab 91bb e0d2 bfbe 6b48 113f 19ee 903e
000001f0: aae9 2d3c 659d a6be 73e4 85be 0dbf 153e
00000200: 8b43 1abd 67fd 1e3e b6ea b33e 013d 1abe
00000210: 14e0 823c 8996 0f3f 5538 36bd 0bea 93bd
00000220: 425a 1bbe 43aa 6a3b 9485 023e 1ef1 073e
00000230: a575 72bd d291 763e 1bfc f7bc a70d 00bf
00000240: 416a 313f c491 753e 429e cc3e 8262 7c3e
00000250: 1bb1 a6bd fbe8 b53e f10e b1bd cda6 abbd
00000260: 8ce4 c4be f4e6 053c 2505 2cbe 01a0 1d3e
00000270: 3c39 b83e 6adb b63d 5022 a73e 7f92 8fbd
00000280: d3ac 67be 350c 4cbe e9c5 b53d c665 49be
00000290: 55cd 47be cd4b fd3c 0855 37be c6a0 ba3c
000002a0: 1fb2 083e 519d dcbe e28e 1f3e 02c9 d33e
000002b0: 2ded fabe 680b adbc 25c7 e43e 7286 9bbd
000002c0: 4903 3f3e d7ad 03bd 8e71 fd3d 556a 8a3d
000002d0: cfd5 cfbd 4204 e8bd 39dd 8e3a 9cb6 6dbe
000002e0: aa2e 183e 231c c6bd 8387 bb3d 3f89 0f3e
000002f0: 372b 1dbe 1d1d 2fbe 12da e63d 9fe0 213e
00000300: 0159 3cbe c5c0 cfbe 7c71 133f 52f0 1c3e
00000310: 241c 81be 697f f13e ff73 353e af07 5bbe
00000320: 0b7b 51be 38e8 cc3e 06a2 b6be fc0f 7fbc
00000330: 1aff 1cbb da9a ad3d cc2a 64be b8d8 47be
00000340: 6421 81be 689e 8dbd bf17 3d3e a11f 483c
00000350: 1b62 193e 8993 4a3c 6db1 1bbf 7361 91bd
00000360: 9497 793d 95ab fcbd e385 3a3e 7009 3f3d
00000370: ce51 9d3d 1b90 0bbe 67f8 51be e2a7 353d
00000380: b132 86be f38c 89be 965e b93c ec24 533e
00000390: a55f f8bc 9111 583d 21af 1bbe 40b6 543d
000003a0: 5b87 513e fa49 643e bc16 0f3e 30d9 d83d
000003b0: 1ca7 333d 8cc6 103e 5697 0abe 3060 943e
000003c0: 813e f33d 3cc0 60be f755 8ebd aaff 71be
000003d0: f0ab 433e 082a 3ebe ce2a 9abe 2fb8 ac3e
000003e0: ec54 8f3c 78a1 bebe 3d72 3f3d 2d2c 7ebd
000003f0: 414f 2fbe 339a 59be c4c5 46bd 5d80 d13d
-0.042834386 -0.18206158 0.4315097 -0.050050277 0.22622728 -0.20788424 -0.057939846 -0.13139443
0.045565743 0.1637968 -0.277393 0.21162091 0.17130396 -0.10088236 -0.059131235 0.0003993732
0.07596626 -0.03968769 -0.16872951 0.31641084 0.16555826 -0.12252426 0.021296598 0.05082174
-0.2584246 -0.30496922 0.075041614 0.09110562 0.25648382 0.13744684 0.08951289 0.082456104
0.23728159 -0.1272321 0.09983615 -0.12621792 0.234053 -0.01146234 0.08346711 -0.32631272
0.23349667 0.1336658 0.23778197 0.08371585 -0.027002255 0.23846464 0.08718774 0.23702477
0.09016862 -0.20998655 0.19131136 0.1259033 -0.136088 -0.27023378 0.09619775 -0.0077169132
0.34162307 -0.20335767 0.016017454 -0.28676975 -0.4621319 0.30582777 0.24059026 -0.10059754
-0.23961578 -0.16399331 0.18610688 -0.17922378 0.24632815 -0.0359691 0.50514287 0.275675
-0.11387665 -0.19662291 -0.31353793 -0.16515712 0.31287932 0.022161156 0.07425185 -0.16915317
-0.06699711 0.16594905 -0.090455286 -0.25575945 -0.12195464 -0.20908591 0.06572517 -0.24578878
0.1764752 0.01006484 -0.04446831 0.17826976 0.10666354 0.06277948 0.08578246 0.26624352
0.04561563 -0.096222386 -0.048514266 0.12279072 0.4194674 -0.109381065 -0.06823752 0.1558004
0.27768967 -0.19813973 -0.2126576 0.4035058 -0.35786378 -0.040289897 0.34882602 0.0039212625
-0.2748326 -0.108492345 -0.043775607 -0.028441805 0.0047766995 -0.07740894 -0.075244844 -0.02370375
-0.0044454816 -0.37465572 0.56751126 0.28306654 0.010614792 -0.32541957 -0.26150855 0.14623661
-0.03766207 0.15526353 0.35140008 -0.15062334 0.01597599 0.56089073 -0.044487316 -0.072223745
-0.1517115 0.003580705 0.12746269 0.13275573 -0.059194226 0.24079064 -0.03027158 -0.5002083
0.69302756 0.23981386 0.3996449 0.24646953 -0.08139249 0.35529312 -0.08645428 -0.08381424
-0.38455617 0.008172739 -0.16798837 0.15393068 0.35981166 0.08928569 0.32643366 -0.07010364
-0.22624521 -0.19926532 0.08875639 -0.1966773 -0.19511922 0.030919934 -0.1790353 0.02278174
0.13349198 -0.43088773 0.15581849 0.41364294 -0.49009076 -0.021123603 0.44683185 -0.07594003
0.18653597 -0.03214821 0.123751745 0.067585625 -0.10148203 -0.11328937 0.001089967 -0.23214191
0.14861551 -0.096733354 0.09156706 0.14017199 -0.15348516 -0.1710095 0.11272062 0.15808342
-0.18393327 -0.4057676 0.5759504 0.1532605 -0.25216782 0.4716752 0.1772003 -0.2138965
-0.20457093 0.4002092 -0.3567049 -0.015567776 -0.0023955763 0.08476801 -0.2228195 -0.19516265
-0.25220788 -0.06914979 0.1846609 0.012214572 0.1497883 0.012364277 -0.60817605 -0.07098665
0.06093557 -0.12337414 0.18215136 0.04663986 0.07681619 -0.1362919 -0.20504914 0.04434956
-0.2621055 -0.26865348 0.02262811 0.20619553 -0.030319044 0.052751128 -0.15203525 0.05193162
0.2046179 0.22293845 0.13973516 0.105883 0.04386054 0.1413824 -0.13534293 0.28979635
0.11877156 -0.21948332 -0.0694999 -0.23632684 0.19108558 -0.18570721 -0.30110782 0.3373427
0.017496549 -0.37232566 0.046739805 -0.062053848 -0.17120077 -0.21250229 -0.048528448 0.102295615

fc1.bias f4 [25]
00000000: f71d 623c 2e7e 3e3e 121c b1bd 3440 76bd
00000010: 1974 ff3d 30fb 9abc 42aa 2f3e 2573 a83c
00000020: 1614 0d3e e3fa e73d 762b d23d 9744 fabd
00000030: 82e3 d3bd bde4 19be 6815 02bc 7bbe 2e3d
00000040: cb40 09bd 8e14 173d 5a83 30bd ee44 833e
00000050: 249a 503e d887 26bd ae4f 193e 9afd eebd
00000060: 1615 8b3d
0.0138010895 0.18602821 -0.08647932 -0.060119823 0.12473316 -0.018918604 0.17154792 0.020562718
0.13777193 0.1132715 0.10262196 -0.12220114 -0.10346128 -0.15028663 -0.007939674 0.042662125
-0.033509057 0.036884837 -0.043094017 0.25638527 0.203713 -0.040656894 0.14971802 -0.116694644
0.06791131

fc2.weight f4 [25, 25]
00000000: 8eb0 193e 4cdc 13be 9ced fc3d 02dd 29bd
00000010: e116 413d 6a34 e8bd a025 e23d 1a75 dc3d
00000020: f897 c8bc d810 0e3e 8679 babd 0002 61bd
00000030: 649b 52be 2ad6 06be bac2 c13d 9c66 bfbc
00000040: 1eec 89bd 3f02 8fbd a547 c1bd c230 5ebd
00000050: ad3d 88bd 7924 7b3d 2ac7 9b3d 4e61 eb3c
00000060: e384 a53d 9359 943e 478d 10bc 4013 d73e
00000070: c4ab 753e af9f 583f 1125 5a39 2906 693e
00000080: 5af1 133f 40f5 a53e 7b15 a03e f3da 43bc
00000090: 3225 ad3e aad4 5d3e 7e99 b03f b50b 9cbd
000000a0: 0720 0c3f 7172 4c3e abad 153f 17de be3e
000000b0: 0578 5cbe 092f e93d e73e 893e 5dc3 aa3e
000000c0: 18d8 15bf 29bc 3c3e e28f 7a3e 67cf 073e
000000d0: 1408 223e 9c91 743e c433 313f 39b0 f23c
000000e0: 9f7b 943e 817b 133f 69b4 fe3e 1f0f 003e
000000f0: b42d 133e 9398 a93e f180 b53e 339e 953f
00000100: 58e1 f4bd 2679 3d3f 21f7 8c3e f2a7 d43e
00000110: 25be 753e 45c9 a1bc 3699 d3ba e625 ad3e
00000120: 49ae dc3d 87a1 02bf e054 613d d5e1 b9bc
00000130: 804e 5a3e c53b c0be 0274 a3bb 8059 36bf
00000140: 312e 2b3e b814 ae3c 39a8 e7be e6c4 b1be
00000150: 1b96 b3bd 740b 93ba d23e b9be 755c 30be
00000160: f6df 93bf 4b97 9a3e 5c23 a0be 490d 2abe
00000170: 32ca a8be 215c 17bd ceaa a43e 09cd 233d
00000180: 154d cabe 7a3d 3bbd e31c 0e3f 53db bfbc
00000190: 3201 083e 71e7 143e b2af a4bf 7d67 30be
000001a0: 528d dabe ed26 a53e 99b3 89be 90fd 23bf
000001b0: 800a 9a3e 956d 13be 77da e93c 43c4 01be
000001c0: d9a4 e3be b8fc 12bf c826 ed3e 7f0e 88bf
000001d0: f4d7 afbb 824c d4be 464a 0bbf 4ed2 9e3d
000001e0: 37ee ec3e 8150 e2bd d022 17bf ccf3 bb3e
000001f0: 58c8 dbbe 137e 82bd 09c4 c2bb f59d f6bd
00000200: 43f3 15be 8f09 60be ef89 a83d a966 223d
00000210: 8f58 023e 42ee b2bd 3acb 033d 4eba 2d3d
00000220: e083 c93b 147c 39be 8980 a1bd 4932 7b3d
00000230: f78f 233e 25e6 52be ce36 1cbd 2426 e1bd
00000240: 7e38 2cbe dccf 1e3d 196e 3b3c a927 10be
00000250: 55c2 3b3c 2ff2 54be 1fd0 1dbe 0d09 0a3d
00000260: 145c 043e f129 0e3e 8c55 28bf 4bc8 8dbf
00000270: d78c 203e 87b9 8dbe 7436 35bf 8a53 223d
00000280: 78ba 82be b56a 98be 3e80 72bf fa4b 9ebe
00000290: 56cd 773d 27c8 1abb 07d3 87bd 3d13 fcbd
000002a0: 2b3a a1be d6dd b23e bfa8 6abe 34f9 033e
000002b0: 29e2 993e 86dc df3d 662d 0a3e d9a4 633e
000002c0: b1b9 013e da53 513e 4444 0e3e 8aa8 4f3f
000002d0: 507a 2cbe 617b 4fbe c76b 333f 21c7 a33e
000002e0: 2d61 a73e 9e14 0e3e bed8 383e 45e5 0d3f
000002f0: 871f 773f e6f3 2c3e a555 2a3f ff43 763e
00000300: 2ba7 093f e105 533e 6165 49be caf8 153e
00000310: 9c04 bb3e e286 a23e c154 0bbf b2c8 8b3e
00000320: 8b8e dd3e 02c3 053e bbad 103e a96a 25bd
00000330: 939a 323f 6f9a 96bd 8097 1b3e 0b13 143f
00000340: 0651 b53d f595 a03e 1e23 80bd 9c02 de3e
00000350: 4c5f 5e3e 4b7f 953f 354b e8bd 3bac 2e3f
00000360: 6d96 ee3e 86c1 8e3e b6cc e23e 6934 1abe
00000370: b305 68bd 12f3 703e 65eb ce3d b299 03bf
00000380: 07c3 ff3d ef30 143e c94e fabd 1fc9 5a3e
00000390: 3197 2cbd fa1e c7bd e729 d5bd dc17 f43d
000003a0: aad1 fdbd eaec 343c b894 81bc f43f 383e
000003b0: 06be d43d e92d 253c 69cc 443e 8d5d a4bd
000003c0: 5bfe 13be d79f 74bc 1a55 8dbd 02a7 09bc
000003d0: cc59 3ebe 1e4e 943d 0887 6d3d 7d79 19be
000003e0: ea96 39be f607 3cbe a52a 933e 52f8 8ebd
000003f0: 5bb2 0f3e 4070 1b3e 46d4 8c3e 3b50 16be
0.15008757 -0.14439505 0.12350008 -0.041470535 0.04714096 -0.11338122 0.11042333 0.10764523
-0.024486527 0.13873613 -0.0910521 -0.054933548 -0.2056709 -0.13167635 0.09460969 -0.023364358
-0.06734489 -0.0698285 -0.09437493 -0.054245718 -0.06652389 0.06131408 0.07606347 0.028732922
0.08081987 0.2897459 -0.008822746 0.42006874 0.23991305 0.8461866 0.00020803908 0.22756256
0.5779015 0.32413673 0.31266388 -0.011954057 0.3381744 0.21663156 1.3796842 -0.076194204
0.5473637 0.19965531 0.5846812 0.37278816 -0.21530159 0.11385924 0.26805803 0.33352175
-0.5853286 0.18431152 0.2446895 0.13262711 0.15823394 0.2388367 0.69219613 0.029625045
0.29000565 0.57610327 0.49747017 0.12505768 0.14372903 0.33124217 0.35449937 1.1688904
-0.119570434 0.7401298 0.27532294 0.41534382 0.23998316 -0.019749293 -0.0016143683 0.33817977
0.1077543 -0.5102772 0.055012584 -0.022690693 0.21319008 -0.375456 -0.0049881944 -0.71230316
0.1671684 0.021250114 -0.4524553 -0.34720534 -0.08768865 -0.0011218623 -0.3618074 -0.1722277
-1.1552722 0.30193552 -0.31276977 -0.1660663 -0.32966763 -0.036953095 0.32161564 0.03999046
-0.39511934 -0.045712925 0.5551283 -0.023420012 0.13281706 0.14541413 -1.2866118 -0.17226978
-0.42685944 0.3225626 -0.26894835 -0.6405878 0.30086136 -0.14397271 0.028546555 -0.12672524
-0.44461706 -0.5741687 0.4631865 -1.0629424 -0.00536632 -0.4146462 -0.5441021 0.07754956
0.46275494 -0.11050511 -0.59037495 0.3670944 -0.42926288 -0.06371703 -0.0059437794 -0.12041847
-0.14643578 -0.21878646 0.08229434 0.039648686 0.12729095 -0.0873685 0.032176234 0.042414002
0.006149754 -0.18113738 -0.07885844 0.061327253 0.15972887 -0.20595606 -0.038138203 -0.10993603
-0.16818425 0.03877245 0.011439824 -0.14077629 0.011459907 -0.2079551 -0.15411423 0.033700038
0.1292575 0.13883187 -0.65755534 -1.107675 0.15678726 -0.2768061 -0.70786214 0.03963045
-0.2553289 -0.2976891 -0.9472693 -0.3091734 0.060498558 -0.0023617835 -0.06632047 -0.12308357
-0.3148969 0.34934872 -0.22915934 0.12888032 0.3005536 0.109307334 0.1349388 0.22230853
0.12668492 0.20442143 0.13893229 0.81116545 -0.16843534 -0.20261909 0.7008633 0.3198786
0.32691327 0.13875052 0.1805143 0.5542796 0.9653248 0.16889915 0.66536933 0.24049376
0.53770703 0.20607711 -0.19667579 0.14645687 0.36526954 0.31743532 -0.544262 0.27301556
0.43272814 0.13062671 0.14128773 -0.040384922 0.6976711 -0.073536746 0.15194511 0.5784156
0.088533446 0.31364408 -0.06256698 0.43361366 0.2171604 1.1679472 -0.113424696 0.6823155
0.4659914 0.27882022 0.44296807 -0.15059055 -0.05664606 0.23530224 0.10103492 -0.51406395
0.124883704 0.14471792 -0.12222058 0.21365784 -0.042136375 -0.09722705 -0.10408383 0.11918613
-0.12393506 0.011042813 -0.015817985 0.17993146 0.103878066 0.010081747 0.19218601 -0.08025656
-0.14452498 -0.014930687 -0.069009975 -0.008401634 -0.18588942 0.07241462 0.057990104 -0.1498775
-0.18123975 -0.18362412 0.28743473 -0.06980957 0.14032881 0.15179539 0.27505702 -0.14679043

fc2.bias f4 [25]
00000000: c344 e3bd 4fa0 853d 8ca6 90be 7116 7d3e
00000010: a381 383c 3c21 8abc e81f 3c3e 75fa 473d
00000020: b512 bf3d 6008 a6bd d692 4a3c f045 b3bd
00000030: 7ca3 1fbe 3db8 963d 566d ac3c 831d 02be
00000040: 5a3f 5e3e 58a8 02be 670b 513e 7159 4fbe
00000050: c08c e6bd 0f9b 0bbe f56e 73be 1351 d0bb
00000060: b19f 2ebe
-0.110971 0.06524717 -0.28252065 0.24715592 0.011261377 -0.01686155 0.18371546 0.04882284
0.0932974 -0.08107066 0.01236411 -0.08753574 -0.15589708 0.073593594 0.02104823 -0.1270657
0.21703854 -0.1275953 0.20414506 -0.20248963 -0.11257315 -0.13633369 -0.23772795 -0.006357321
-0.17053105

ps_out.weight f4 [2, 25]
00000000: db73 e23c 40a6 103f 2b4d 773e d1ed 05bf
00000010: 1b86 77bf 5a2e 2d3e 5e7f 5cbf add5 d93d
00000020: bd33 db3e 8b2b 473d c580 8d3e 1c8b 8c3e
00000030: fb30 ea3e f15f 03bf fb5b 02bf 5e27 1d3f
00000040: 24bf 37bf 28a7 de3e bbc8 7ebe efd7 f9bd
00000050: 2c13 ba3f b1f0 1dbe ce52 a43f 0ce3 893c
00000060: 30ea 5c3f 6978 2f3e 299c cbbe 4716 c3be
00000070: 71ef 9c3e a61e 8f3f 00e4 433d c11d 913f
00000080: 830f e3be 8946 0fbf 2d38 cfbd d644 aebd
00000090: 431c cfbd f22a babe 51cf e03e bd41 093f
000000a0: 803c 31bf 5502 2f3f 685f 2fbe a225 4e3e
000000b0: e35b 033e 9314 b3bf 2590 20bc a9ec b8bf
000000c0: 1d13 32be a6ec 14bf
0.027643135 0.5650368 0.24150531 -0.52316004 -0.96689004 0.16912213 -0.86131847 0.106364585
0.4281291 0.04862551 0.27637306 0.27449882 0.45740494 -0.5131827 -0.509216 0.61388195
-0.7177603 0.43486905 -0.2488126 -0.12199389 1.4537101 -0.15423848 1.283777 0.016831897
0.8629484 0.17135777 -0.39767578 -0.38102934 0.3065143 1.1181228 0.04782486 1.1337205
-0.44347772 -0.55967003 -0.101181366 -0.08509223 -0.10112812 -0.3636089 0.4390817 0.53615934
-0.6923294 0.68362933 -0.17126238 0.20131543 0.12828021 -1.3990654 -0.009799992 -1.4447223
-0.17390104 -0.58173597

ps_out.bias f4 [2]
00000000: d089 07bd cfcc c13d
-0.033090413 0.09462892
