Propensity_Model/DCN_PD_NN_Models/NN_PS_model_iter_id_14_epoch_250_lr_0.001.pth (torch_old, 6441 bytes, 6 tensors)

fc1.weight f4 [25, 25]
0.08907169 -0.37580422 -0.058517173 -0.35404533 0.1220664 -0.014186977 0.10575293 0.2791255
-0.3651167 0.28522104 -0.17921373 0.0054350775 0.016002838 -0.15598266 0.1501365 -0.0024091573
0.22131096 -0.023395954 0.14488149 -0.29853827 0.41203895 0.19780849 0.089020975 0.04745964
-0.036422107 -0.03502908 0.13258213 -0.06365699 -0.35757953 0.18877861 0.024591973 -0.52365154
-0.36727175 -0.31576547 0.3762361 -0.5551757 0.34053203 -0.46421343 0.0280062 -0.06393872
0.045138706 0.30816177 -0.12828322 -0.29171067 -0.5766557 -0.41493964 -0.06189431 -0.3584706
-0.47719362 0.3716158 0.11383355 0.28261247 0.41956514 0.043053836 0.08507284 0.17766441
-0.4779994 0.183039 0.066312745 0.085270904 0.3731559 0.15842564 -0.31206045 0.19215786
0.27505034 0.2074061 -0.08460298 0.03079397 -0.052433167 -0.0066912123 -0.010367996 -0.1754421
0.0015703635 -0.26420552 -0.13952978 -0.11573143 0.3586008 -0.20220466 0.0048492155 0.33082628
-0.079313554 -2.267072e-06 -0.5292882 -0.18103512 0.071521245 0.19579914 -0.10307872 -0.08176786
0.23654263 -0.49310166 -0.22212471 0.22529438 -0.3058033 -0.08258233 0.17738566 0.2427616
0.46893442 -0.009815934 0.18731058 -0.24796282 -0.45664474 -0.42528328 0.62016 0.041353647
0.16095732 -0.3122843 0.19049886 -0.57805336 0.1817023 0.11048891 -0.13944806 -0.029050384
0.061653033 -0.11403138 -0.31779757 0.015161738 -0.048269533 0.1285434 -0.33410373 0.4857066
0.17328514 0.37580535 0.3194995 0.074423045 -0.3118817 -0.40102497 0.057755332 0.33570582
0.04892475 -0.111717686 -0.06647268 -0.122200675 0.044379923 -0.052493956 0.021424262 0.3094845
-0.22925675 0.115549885 0.043628614 0.089651935 0.26931345 0.06711815 0.287042 0.2652496
0.33431485 0.45857018 0.08327796 0.19159968 0.17430389 -0.34631094 0.016187502 -0.053982317
-0.052594006 -0.33246174 -0.12876524 0.20314136 0.35939708 0.15540946 0.096204855 -0.44475663
-0.098703295 0.14391588 -0.10069471 -0.13335127 0.032626085 -0.039970346 0.30720907 0.057650007
0.04907457 0.056720126 0.016553206 0.050202988 -0.04686902 -0.3205793 0.22267199 0.18583341
-0.18145284 -0.4440745 0.23104179 -0.0020753043 -0.35869616 -0.19369458 0.5474144 -0.40179834
-0.26019362 0.13503304 0.10199887 0.127425 0.09392664 -0.2607275 -0.1575261 0.08710213
-0.18587528 -0.055130173 -0.103350356 -0.064719394 -0.17494221 -0.045206115 -0.01654285 0.065486625
0.10527953 0.043548416 0.019146767 0.04741384 0.34317276 -0.20876983 -0.3176195 -0.16790344
0.037244987 0.052844148 0.09780573 -0.0016153301 -0.06862461 0.00058743573 -0.16246708 -0.12023451
0.24170546 -0.21664797 -0.4391962 0.38230196 0.007494968 -0.34790942 0.45815387 0.42279306
-0.261624 0.008642514 -0.040103905 0.23760577 0.30918854 -0.019095412 -0.29920527 0.12371672
-0.11689991 -0.23273984 0.085051715 0.16403246 0.3600949 -0.42210105 -0.0934009 -0.13463227
0.1945959 0.19895183 0.015820391 0.014053323 0.3909794 -0.59345704 -0.38365978 0.4509316
-0.40840805 0.0510518 -0.07495189 0.264978 0.45489532 -0.05849107 0.13088892 -0.08709891
00000000: 386b b63d 6969 c0be b4af 6fbd 6e45 b5be
00000010: f3fd f93d 7f70 68bc fe94 d83d 8ae9 8e3e
00000020: 93f0 babe 7e08 923e ce83 37be bc18 b23b
00000030: 6218 833c ebb9 1fbe 62bd 193e f4e2 1dbb
00000040: 579f 623e dfa8 bfbc d05b 143e 02da 98be
00000050: c5f6 d23e 4f8e 4a3e a150 b63d 0a65 423d
00000060: 592f 15bd a77a 0fbd 9cc3 073e 995e 82bd
00000070: aa14 b7be 2e4f 413e 1b75 c93c 070e 06bf
00000080: 0b0b bcbe 03ac a1be 05a2 c03e ff1f 0ebf
00000090: 375a ae3e 62ad edbe 426d e53c 4ef2 82bd
000000a0: 5de3 383d 61c7 9d3e ad5c 03be 1a5b 95be
000000b0: b59f 13bf f872 d4be e384 7dbd 7589 b7be
000000c0: b952 f4be 6d44 be3e 9021 e93d 95b2 903e
000000d0: 3ed1 d63e 3859 303d ab3a ae3d a9ed 353e
000000e0: 56bc f4be 936e 3b3e face 873d 83a2 ae3d
000000f0: 4a0e bf3e 553a 223e 63c6 9fbe 08c5 443e
00000100: 66d3 8c3e 4462 543e 5444 adbd a343 fc3c
00000110: 29c4 56bd f541 dbbb 87de 29bc 18a7 33be
00000120: a8d4 cd3a f245 87be e5e0 0ebe 9a04 edbd
00000130: 869a b73e bd0e 4fbe 2be6 9e3b 1062 a93e
00000140: 256f a2bd 0024 18b6 6e7f 07bf 4561 39be
00000150: bb79 923d 927f 483e f01a d3bd e875 a7bd
00000160: 3b38 723e d277 fcbe a974 63be 92b3 663e
00000170: 4092 9cbe ed20 a9bd 96a4 353e 7f96 783e
00000180: 2c18 f03e 03d3 20bc 58ce 3f3e f7e9 7dbe
00000190: 57cd e9be bbbe d9be cec2 1e3f 7162 293d
000001a0: ffd1 243e bae3 9fbe 2212 433e 4efb 13bf
000001b0: 2b10 3a3e 0248 e23d 79cb 0ebe 12fb edbc
000001c0: e487 7c3d 4989 e9bd 5db6 a2be f068 783c
000001d0: 46b6 45bd e2a0 033e a50f abbe 89ae f83e
000001e0: a971 313e 8f69 c03e 7095 a33e 1c6b 983d
000001f0: f5ae 9fbe 2553 cdbe db90 6c3d a2e1 ab3e
00000200: 5265 483d 3ecc e4bd d422 88bd 5944 fabd
00000210: b9c7 353d e703 57bd ef81 af3c c174 9e3e
00000220: 48c2 6abe 6ba5 ec3d ebb3 323d 6f9b b73d
00000230: 74e3 893e 3e75 893d 2bf7 923e ccce 873e
00000240: 512b ab3e b6c9 ea3e a38d aa3d b532 443e
00000250: b87c 323e ab4f b1be a79b 843c 901c 5dbd
00000260: d06c 57bd 6d38 aabe 09db 03be 4a04 503e
00000270: e502 b83e a823 1f3e 0d07 c53d 24b7 e3be
00000280: f424 cabd af5e 133e 0739 cebd 3c8d 08be
00000290: eea2 053d f2b7 23bd 824a 9d3e 6a22 6c3d
000002a0: 6b02 493d 5d53 683d 979a 873c a6a1 4d3d
000002b0: bbf9 3fbd f822 a4be 2004 643e 1d4b 3e3e
000002c0: c6ce 39be bc5d e3be 3896 6c3e d401 08bb
000002d0: 06a7 b7be df57 46be 5a23 0c3f 83b8 cdbe
000002e0: 1938 85be 1a46 0a3e c9e4 d03d b37b 023e
000002f0: 9c5c c03d 137e 85be 864e 21be 9a62 b23d
00000300: 1756 3ebe 2dd0 61bd 5aa9 d3bd 9a8b 84bd
00000310: 0d24 33be 0c2a 39bd df84 87bc da1d 863d
00000320: cb9c d73d d35f 323d aed9 9c3c 0435 423d
00000330: 57b4 af3e c2c7 55be 069f a2be e1ee 2bbe
00000340: 338e 183d 1b73 583d 5f4e c83d 7cb9 d3ba
00000350: 0f8b 8cbd 25fe 193a c55d 26be 833d f6bd
00000360: a381 773e f7d8 5dbe 53de e0be 15bd c33e
00000370: 5998 f53b 2f21 b2be 2593 ea3e 5578 d83e
00000380: 95f3 85be 5599 0d3c fe43 24bd ed4e 733e
00000390: f64d 9e3e fb6d 9cbc 6f31 99be 315f fd3d
000003a0: 3869 efbd 5a53 6ebe 982f ae3d 20f8 273e
000003b0: 5c5e b83e a11d d8be f948 bfbd 0bdd 09be
000003c0: 2644 473e 07ba 4b3e c499 813c e93f 663c
000003d0: 742e c83e cdec 17bf 0e6f c4be 82e0 e63e
000003e0: dc1a d1be b11b 513d 6080 99bd 32ab 873e
000003f0: 0ae8 e83e 5594 6fbd bf07 063e ea60 b2bd

fc1.bias f4 [25]
0.09651161 0.024338266 0.01505046 0.13260593 0.072900146 0.3100973 0.03087364 -0.10770947
-0.022391424 -0.15519571 0.08734444 -0.18480803 0.048584573 0.04448341 0.22309445 0.3158888
-0.0072855037 0.0008718976 0.046969935 0.023557857 0.06494701 0.01220017 0.024727695 0.25714517
0.05770507
00000000: e1a7 c53d 0b61 c73c 3496 763c d9c9 073e
00000010: ac4c 953d 13c5 9e3e b7ea fc3c c896 dcbd
00000020: 386e b7bc a0eb 1ebe a4e1 b23d 513e 3dbe
00000030: 9e00 473d 3c34 363d df72 643e 2dbc a13e
00000040: 3cbb eebb 0f90 643a 8c63 403d 68fc c03c
00000050: f002 853d 39e3 473c bc91 ca3c 88a8 833e
00000060: 275c 6c3d

fc2.weight f4 [25, 25]
0.47634983 -0.92441887 0.093490586 0.018356191 -0.05649719 0.060090482 -0.07915926 1.1265734
0.35791028 0.88232124 0.4977637 0.83648235 -0.5779644 0.4223379 -0.36678106 -0.19206694
0.45430103 -0.09362315 0.21446201 0.04292381 0.2194985 -0.5497233 0.16988982 0.12690005
0.4138733 0.34815446 -0.8053833 0.026433462 0.20436119 -0.08896365 -0.073283665 -0.08197574
1.1444228 0.52440715 0.67997414 0.42341498 1.1183039 -0.5967973 0.44766617 -0.18437535
0.096105784 0.77737623 -0.38155803 0.26976186 0.12432891 0.20673786 -0.29752293 0.09380515
0.14377344 0.3592155 -0.076520585 0.7368963 -0.048629988 0.25702867 0.18732397 0.12535888
0.17179722 -1.0371383 -0.68634087 -0.62199044 0.012822588 -0.7639961 1.0456033 -0.74035317
0.38689944 0.3841977 -0.9775381 0.2022666 -0.07391253 -0.064514406 -0.424444 0.66926265
-0.47916692 -0.034760837 -0.19370484 0.15108702 -0.4894751 0.2952267 0.33755332 0.02138265
-0.02350864 -0.3129053 1.2368009 0.4954208 0.87659746 0.25732717 1.0997155 -0.46053
0.38779587 -0.5737284 0.10790965 0.41178697 -0.6493356 0.34629923 0.17832312 0.02541316
-0.3595953 0.3634855 0.024517583 0.19552894 -0.47406405 -0.052443497 0.13244349 -0.14160232
-1.054169 0.20136747 -0.11445433 -0.7433872 -0.7827032 -0.47580042 -0.8729789 -0.7236059
0.6704654 -0.3089338 0.23991013 0.16697955 -0.99680805 0.48916277 -0.52450544 -0.48683694
0.4521698 -0.17304608 -0.09682926 0.3564909 -1.0659097 -0.23681554 0.7180254 0.03008744
-0.17309503 0.09267077 0.32704973 0.17470524 -0.9487427 -0.84488136 -0.74673355 -0.5618637
-1.1082562 0.60661167 -0.6886981 0.4839823 0.38502738 -0.73177457 0.61772233 -0.30578187
-0.12579046 -0.043808542 0.5904528 -0.17908886 -0.24045369 -0.24132867 0.43055508 -0.4988618
-0.15737097 0.23847404 0.11686953 -0.34101272 -0.028857099 1.3921471 1.0076972 0.7081401
0.4171111 1.4835263 -0.639983 0.2942838 -0.08415005 0.09511099 0.8241141 -0.26098633
0.24509636 0.18904574 0.16796978 -0.41896006 0.39730677 -0.20008206 0.4893807 0.01893052
-0.33914897 0.5155731 0.61836416 0.0877695 0.03260381 -0.35739478 0.9451984 0.78111476
0.9394113 0.25198707 1.2843072 -0.5773543 0.7760643 -0.47732624 0.18077771 0.39134094
-0.38415438 0.29607865 0.0007262529 -0.03584123 -0.37487802 0.22460273 0.015488577 0.23294339
0.3944906 -0.3588994 -0.010269619 0.29975137 0.08381846 -0.14605537 -0.10368994 0.8697802
0.44770676 0.77520126 0.13453287 1.031037 -0.63753396 0.3855758 -0.12177168 -0.08933523
0.63407147 -0.507177 0.18514289 0.1376024 0.28001562 -0.48916453 0.34002474 0.15486847
0.23897997 -0.36562857 0.7810641 0.06291629 -0.00042290502 0.13433948 0.20523363 0.038047444
-1.2374057 -0.5080725 -0.6163318 -0.09260833 -1.0120469 0.8037455 -0.4059408 0.5105803
0.089045234 -0.4430955 0.6931647 -0.14721692 -0.04045836 -0.050057866 0.5254366 -0.08894842
0.075099036 -0.48786178 0.25604576 -0.48719752 0.04786808 0.18348344 0.058455717 -0.15162493
00000000: 20e4 f33e b7a6 6cbf fe77 bf3d b95f 963c
00000010: 9969 67bd 7021 763d 401e a2bd 8f33 903f
00000020: 0440 b73e cedf 613f e2da fe3e b523 563f
00000030: 7af5 13bf ac3c d83e baca bbbe 32ad 44be
00000040: 259a e83e 7ebd bfbd ee9b 5b3e e1d0 2f3d
00000050: 37c4 603e abba 0cbf 99f7 2d3e 16f2 013e
00000060: 34e7 d33e 4d41 b23e 9a2d 4ebf fd8a d83c
00000070: 0f44 513e 9332 b6bd bf15 96bd e6e2 a7bd
00000080: 727c 923f 8c3f 063f c912 2e3f d9c9 d83e
00000090: 9524 8f3f b5c7 18bf 8034 e53e e4cc 3cbe
000000a0: 1cd3 c43d 2102 473f 935b c3be 3a1e 8a3e
000000b0: 28a0 fe3d 17b3 533e ed54 98be ea1c c03d
000000c0: 5839 133e 18eb b73e d3b6 9cbd 3ca5 3c3f
000000d0: 3d30 47bd 4399 833e dbd1 3f3e 145e 003e
000000e0: 9ceb 2f3e f3c0 84bf 09b4 2fbf c43a 1fbf
000000f0: d515 523c 4095 43bf 54d6 853f c987 3dbf
00000100: af17 c63e 90b5 c43e f03f 7abf fa1e 4f3e
00000110: 745f 97bd 2120 84bd b950 d9be cc54 2b3f
00000120: 5e55 f5be 6161 0ebd 905a 46be 8eb6 1a3e
00000130: 7b9c fabe f427 973e cad3 ac3e ab2a af3c
00000140: 3195 c0bc 2035 a0be 7e4f 9e3f cca7 fd3e
00000150: b168 603f 63c0 833e 7ac3 8c3f 97ca ebbe
00000160: 2e8d c63e dddf 12bf bcff dc3d bed5 d23e
00000170: dc3a 26bf 224e b13e 569a 363e 422f d03c
00000180: e01c b8be c51a ba3e 19d9 c83c bd38 483e
00000190: 86b8 f2be fece 56bd 449f 073e 3300 11be
000001a0: 03ef 86bf 4633 4e3e 0867 eabd a04e 3ebf
000001b0: 3d5f 48bf 1d9c f3be 8c7b 5fbf 3c3e 39bf
000001c0: 9fa3 2b3f 922c 9ebe 00ab 753e b0fc 2a3e
000001d0: d02e 7fbf 8b73 fa3e fd45 06bf b142 f9be
000001e0: cd82 e73e fe32 31be 6b4e c6bd fa85 b63e
000001f0: bb6f 88bf c67f 72be 83d0 373f ef79 f63c
00000200: d33f 31be 2cca bd3d 1073 a73e eee5 323e
00000210: cde0 72bf 254a 58bf ee29 3fbf 4dd6 0fbf
00000220: 57db 8dbf e74a 1b3f 854e 30bf 87cc f73e
00000230: 4f22 c53e 9455 3bbf 0d23 1e3f 718f 9cbe
00000240: 37cf 00be 9670 33bd ea27 173f 1263 37be
00000250: 7e39 76be dd1e 77be b771 dc3e d06a ffbe
00000260: db25 21be 8a32 743e 4b59 ef3d 3899 aebe
00000270: b965 ecbc e031 b23f 39fc 803f ab48 353f
00000280: 968f d53e 31e4 bd3f edd5 23bf 5eac 963e
00000290: dd56 acbd 8dc9 c23d 24f9 523f 00a0 85be
000002a0: 8afa 7a3e 3595 413e 4500 2c3e ef81 d6be
000002b0: cb6b cb3e 50e2 4cbe 1b90 fa3e 2e14 9b3c
000002c0: efa4 adbe 99fc 033f 1d4d 1e3f 7fc0 b33d
000002d0: 938b 053d 73fc b6be 86f8 713f 23f7 473f
000002e0: 427d 703f 7304 813e 2e64 a43f 7ecd 13bf
000002f0: 26ac 463f 1b64 f4be cb1d 393e d75d c83e
00000300: e2af c4be 9f97 973e 0262 3e3a 41ce 12bd
00000310: 03f0 bfbe 42fe 653e cdc3 7d3c b688 6e3e
00000320: acfa c93e aac1 b7be e741 28bc 0379 993e
00000330: 03a9 ab3d 8a8f 15be 645b d4bd eaa9 5e3f
00000340: d239 e53e 9773 463f fcc2 093e 05f9 833f
00000350: 6d35 23bf 316a c53e 6e63 f9bd 64f5 b6bd
00000360: 8252 223f 5ad6 01bf 1996 3d3e a5e7 0c3e
00000370: 355e 8f3e c673 fabe b917 ae3e d795 1e3e
00000380: 2ab7 743e ab33 bbbe d1f3 473f 41da 803d
00000390: 5ab9 ddb9 4a90 093e c428 523e a3d7 1b3d
000003a0: 4f63 9ebf 0a11 02bf ecc7 1dbf 70a9 bdbd
000003b0: c18a 81bf 44c2 4d3f 79d7 cfbe 64b5 023f
000003c0: 595d b63d 6add e2be 3e73 313f 08c0 16be
000003d0: aab7 25bd 7a09 4dbd 0383 063f 972a b6bd
000003e0: 86cd 993d 05c9 f9be 6e18 833e f471 f9be
000003f0: 5211 443d 15e3 3b3e 436f 6f3d 9143 1bbe

fc2.bias f4 [25]
0.08747867 -0.09540799 0.34779406 -0.014451977 0.41755667 0.2625103 0.08469425 -0.15036017
-0.057953287 0.22444063 0.06582953 -0.07295046 -0.2176536 -0.16382712 0.45616964 -0.004337347
0.065445185 -0.00443593 -0.15090008 -0.19588679 0.13965684 0.23749003 0.10379271 0.33768216
-0.12662762
00000000: 0428 b33d 4465 c3bd 1012 b23e fcc7 6cbc
00000010: fdc9 d53e c067 863e 2e74 ad3d 04f8 19be
00000020: 6d60 6dbd c4d3 653e a2d1 863d 0d67 95bd
00000030: 96e0 5ebe 4cc2 27be 118f e93e 4e20 8ebb
00000040: 2008 863d 475b 91bb 8d85 1abe 8c96 48be
00000050: 3402 0f3e 9630 733e 4691 d43d ade4 ac3e
00000060: acaa 01be

ps_out.weight f4 [2, 25]
0.5277723 0.48439723 -1.231179 0.6274917 -1.4999619 -0.86393327 0.7939447 1.1462998
0.5237335 -0.5428863 0.84547776 1.275568 1.1123049 1.1996157 -1.7055516 1.0162601
0.5958458 -0.6161263 -0.047671515 0.1867522 0.57802606 -0.95804006 0.46177608 -0.6508785
0.14178361 -0.45236787 -0.6488409 0.970198 -0.47003365 1.5078387 0.659207 -0.8349185
-1.1619605 -0.53418845 0.6265849 -0.7505726 -1.2308191 -0.99970865 -1.2267427 1.4897984
-0.9323668 -0.46700817 0.9345226 0.08782498 0.14452136 -0.62876534 1.0325518 -0.50308704
0.76492065 -0.12343025
00000000: 161c 073f ea02 f83e 4697 9dbf 4ca3 203f
00000010: c0fe bfbf bb2a 5dbf f63f 4b3f f4b9 923f
00000020: 6613 063f 99fa 0abf 3b71 583f d045 a33f
00000030: 0260 8e3f 028d 993f 844f dabf d014 823f
00000040: 5a89 183f 74ba 1dbf 3543 43bd f83b 3f3e
00000050: 84f9 133f 1d42 75bf ea6d ec3e f99f 26bf
00000060: b92f 113e c39c e7be 701a 26bf e55e 783f
00000070: 40a8 f0be dc00 c13f cac1 283f 38bd 55bf
00000080: 1fbb 94bf 93c0 08bf de67 203f 8725 40bf
00000090: 7b8b 9dbf e8ec 7fbf e805 9dbf b7b1 be3f
000000a0: 97af 6ebf b21b efbe e03c 6f3f 95dd b33d
000000b0: 68fd 133e c4f6 20bf a82a 843f 50ca 00bf
000000c0: d7d1 433f 00c9 fcbd

ps_out.bias f4 [2]
-0.06255132 0.048837785
00000000: e81a 80bd 210a 483d
