Propensity_Model/DCN_PD_NN_Models/NN_PS_model_iter_id_89_epoch_100_lr_0.001.pth (torch_old, 6445 bytes, 6 tensors)

fc1.weight f4 [25, 25]
000000 f4 78 d3 bb fd be 19 bd ef 21 79 be 69 97 86 bd
       -0.0064536277 -0.037535656 -0.24329351 -0.06571848
000010 7e 8b de 3b b0 d9 10 3e e6 86 b2 bd 4d 17 80 be
       0.006791531 0.14145541 -0.08717136 -0.25017777
000020 79 9c 20 3e 9f 57 04 be 3e cc 5d be a1 f2 0b be
       0.1568469 -0.1292405 -0.21659943 -0.13666774
000030 23 fe 74 be 6f 53 92 3c 3b c5 07 be d8 5e 54 3d
       -0.2392507 0.01786205 -0.13258831 0.051848263
000040 63 ce 8a 3e 63 f3 92 3d c9 b7 b8 bd 5c f2 c8 bc
       0.27110586 0.071753286 -0.09019429 -0.024529628
000050 9a 5d 80 3e d7 aa 91 bd 78 dd 4a be 28 22 39 3e
       0.25071412 -0.07112663 -0.19811046 0.18079436
000060 8e 03 58 3e 80 6f 38 3e df 0b 0e be 25 70 8c be
       0.21095106 0.18011284 -0.13871716 -0.2742931
000070 bb a6 62 3e d0 0f 9c 3c 96 58 68 be 68 23 a5 bd
       0.22133915 0.019050509 -0.22690043 -0.08063394
000080 83 d2 26 3e 90 ae 84 bd 48 3f 8e be 10 af 9f 3e
       0.16291241 -0.06478608 -0.27782655 0.3118825
000090 47 64 94 3c 14 0a 94 bd e2 32 95 bd b9 53 56 be
       0.018114222 -0.07228485 -0.07285096 -0.20930375
0000a0 19 30 98 bd 2f 17 86 3d 7a f6 38 3d 7f 8e 8a 3e
       -0.07431049 0.06547391 0.045156933 0.2706184
0000b0 38 fa 3b 3e 8f 79 df bd d2 0d 6d be 48 cb af be
       0.1835717 -0.10911857 -0.23149803 -0.3433478
0000c0 cc b0 93 bb 6f 4e 95 3e bd 6b 08 3e 98 e9 d4 be
       -0.00450716 0.29161403 0.13322349 -0.41584468
0000d0 52 59 39 be 2e 35 5e 3d 8f 5f c1 bc b0 3e 6d be
       -0.18100479 0.054249935 -0.023605136 -0.23168445
0000e0 2c c0 40 3e f6 85 2a be 62 95 09 3d b1 6e 82 be
       0.18823308 -0.16652665 0.03358973 -0.25475076
0000f0 e4 82 72 3e be 75 91 be f8 50 16 bd 04 d4 ad 3d
       0.23682743 -0.28410143 -0.03669831 0.084877044
000100 61 93 33 3e 3d f0 52 3d d3 d6 a5 bd eb 0b 37 bd
       0.1753669 0.05149864 -0.08097615 -0.0446891
000110 f0 7d 88 3e 67 a2 03 be b1 aa fc be 61 bb ac 3c
       0.26658583 -0.1285492 -0.49348977 0.021085443
000120 91 71 26 be 2c 23 67 be bd 47 8f 3e a8 2b 82 bd
       -0.1625426 -0.22572011 0.2798442 -0.06355983
000130 0e a0 16 3e 09 05 7c 3e 86 0b 06 3e 23 cd cb 3d
       0.14709494 0.24611296 0.13090333 0.09951236
000140 34 4f 87 be 82 d2 26 be 3a 8e c4 3d a1 3f 1b 3d
       -0.26427615 -0.1629124 0.0959744 0.037902478
000150 b4 d8 6f bd d2 7f ac bc 3b 79 9f bd c4 44 22 be
       -0.058556274 -0.021057043 -0.07786795 -0.15846545
000160 c0 b7 bd bd 0e 3d 9a 3e dd e0 88 3e 29 c2 4b bd
       -0.09263563 0.30124706 0.26734057 -0.049745712
000170 f4 0a d0 3b ca b4 df bd c6 c2 f4 3d c8 56 e7 be
       0.006348962 -0.10923155 0.119512126 -0.45183396
000180 07 d2 4e 3d 56 95 c7 3e f3 cd 18 be 69 a7 12 be
       0.050493266 0.38981122 -0.14922313 -0.14321674
000190 49 f4 1e bd 30 96 81 bc 29 a5 f3 3d 5c 0f 42 be
       -0.038807187 -0.015818685 0.11896736 -0.18951172
0001a0 84 f5 71 be 4e 50 b8 be c3 13 17 3e 1b 7e 4c 3e
       -0.23628813 -0.35998768 0.14753632 0.1996998
0001b0 57 27 df bd ed c7 86 3e 60 af 0c bf cb 59 08 3e
       -0.10896175 0.26324406 -0.549551 0.13315503
0001c0 68 43 88 3d 91 81 3a 3d 97 2b 9f bd 3d 06 d3 bc
       0.06653482 0.04553372 -0.07771986 -0.02575981
0001d0 ed 0d d3 bd ab 24 92 3d 3f 60 62 3e 1b 04 3c bd
       -0.103053905 0.071359 0.22107027 -0.045902353
0001e0 22 40 80 be c0 68 ee 3d 0b b9 a9 bd bd 17 bd 3b
       -0.2504893 0.11641073 -0.08287247 0.005770652
0001f0 83 78 e1 be 16 9c 22 3e 5a f0 eb 3d 99 a8 47 3c
       -0.44037256 0.15879855 0.11520453 0.012186193
000200 80 f6 df bd a1 8e 42 bd f7 ff 78 3e 89 c3 86 be
       -0.10935688 -0.047499303 0.24316393 -0.26321056
000210 97 5b f5 3d 20 5e 23 3d b2 df 31 3e 4e 9c 3c be
       0.1198036 0.039884686 0.17370489 -0.18419
000220 1b 88 ce 3d 58 8e 21 bd 28 82 a5 bd 9d be 4f bd
       0.10084554 -0.03944239 -0.08081466 -0.050718892
000230 31 5a ef 3d d9 d6 fc 3e 8a 1c 82 3a 75 36 52 3e
       0.116871245 0.49382666 0.0009926718 0.20528586
000240 19 86 3c 39 8a 22 dd 3d dd 4a 3a be ed e0 e6 bd
       0.00017979032 0.107976034 -0.1819262 -0.1127337
000250 c7 78 7c 3c da 5c d1 bd e2 97 fa 3d 5c b9 f5 bc
       0.015409655 -0.10222788 0.122360006 -0.029995613
000260 e3 2c 33 bc fb c5 40 3e 3c 4e 80 be cc d0 ba be
       -0.010935995 0.18825524 -0.25059688 -0.36487424
000270 d9 59 8e 3d 61 53 1a bf ac 98 79 be b7 0a 93 bd
       0.06950731 -0.60283476 -0.24374646 -0.07179778
000280 91 9d 1c be fe eb a1 3d 05 de 24 3e 26 a4 03 3e
       -0.15294482 0.0790634 0.16100319 0.12855586
000290 9d ed 9a 3e 07 0e bc bc 41 c2 ee bd 13 3b ac 3d
       0.3025941 -0.022955908 -0.11658145 0.08409705
0002a0 74 25 90 3e 57 d5 17 be f5 7a a3 3c 3b 0a 88 bd
       0.28153574 -0.14827476 0.019956091 -0.06642576
0002b0 99 48 e6 3e fa 03 f5 3d 9b 38 1f bd fc 90 b2 bb
       0.44977263 0.11963649 -0.038872343 -0.0054494124
0002c0 42 94 a8 bd b5 19 c1 be 90 87 c3 3d a1 69 cf bd
       -0.08231403 -0.37714925 0.09547341 -0.10127569
0002d0 16 5f 56 be 0f 64 b7 3e dc 8d 97 bc 80 22 e0 be
       -0.2093471 0.35818526 -0.018500261 -0.4377632
0002e0 25 8a 99 3c 59 4c 4d 3d 0e da 4c 3d a7 eb bf bd
       0.01874263 0.05012164 0.05001264 -0.09371119
0002f0 52 ed 29 be 0d 83 8e be af 29 a3 3d 01 28 98 3d
       -0.16594437 -0.2783436 0.07966935 0.07429505
000300 f9 dd 48 be e1 ed 28 3e 04 fd 15 3e 86 61 8f 3d
       -0.19615926 0.16496994 0.14647299 0.07001023
000310 63 ee 43 bc 6f a5 a5 b8 04 29 2f 3e 3a 3c 7f be
       -0.011958691 -7.8986275e-05 0.1710549 -0.24925318
000320 46 f0 93 bd b4 f6 19 bd 51 7e a2 3e 6d 24 b6 3d
       -0.07223563 -0.03758879 0.31736997 0.088936664
000330 b0 de 0b 3e 05 21 1a bd 8a e3 d2 be bc d7 ad bc
       0.13659167 -0.037629146 -0.41189224 -0.021221034
000340 cd 1b 62 bd be 7c 47 3e e5 68 d2 3d 11 84 c7 3d
       -0.055202294 0.19481179 0.10273913 0.097419865
000350 40 ff 73 be f7 6b 6b be 1a c5 d8 3e d7 79 6f 3e
       -0.23827839 -0.22990404 0.42337877 0.23386322
000360 3c 69 be 3d 2a 74 2b 3e d3 7f c8 3c 44 27 98 3e
       0.092974156 0.16743532 0.024475014 0.29717457
000370 87 6c 4f be 49 da 98 be cd fc 44 3f 01 52 37 bd
       -0.20256244 -0.29854038 0.76948243 -0.04475594
000380 46 c5 f0 bd 6d 99 01 bd d8 6a ce 3d d9 b8 d8 bd
       -0.11756377 -0.03164046 0.100789726 -0.10582132
000390 47 14 09 be b1 8f 2a 3e 24 3d 53 bd af 88 1e 3e
       -0.13386641 0.16656376 -0.05157198 0.15481828
0003a0 e7 3f d8 3c 76 e9 27 be ac 6b 90 3e 8f 46 fa bd
       0.026397659 -0.16397652 0.28207147 -0.12220489
0003b0 07 36 95 3e 57 e6 74 3e 96 5e f5 bc 73 1d f1 be
       0.29142782 0.23915993 -0.029952329 -0.4709278
0003c0 e2 38 51 be 14 d3 3a 3e 0d 88 6e 3b 8d 7f b0 bd
       -0.20431855 0.18244582 0.003639701 -0.086180784
0003d0 61 19 62 3e cb 7d 8b 3e bf eb 13 3e 01 13 c4 3e
       0.22079994 0.2724441 0.14445399 0.3829575
0003e0 57 b2 a1 3e 92 1c a4 be c3 7c b0 3c c8 a5 0f bc
       0.31581375 -0.32053047 0.021543866 -0.008767553
0003f0 3a 0f 7b 3e 5b be 2c bc 64 b4 92 be 26 6e 6b be
       0.24517527 -0.010543431 -0.28653252 -0.22991237

fc1.bias f4 [25]
000000 98 22 19 3d bc 3b 4d be 63 11 4d be 99 d1 f1 3d
       0.037386507 -0.20042318 -0.20026164 0.11807556
000010 58 01 aa 3d 32 1f 36 3e 08 9d 8b 3e 5f 2f 1f 3d
       0.083010375 0.17785338 0.27268243 0.038863536
000020 46 32 15 be ac 43 32 be ef f2 94 3d 3c db 3c bd
       -0.14569959 -0.17408627 0.072728984 -0.046107516
000030 14 01 2e 3e cb 90 47 3e 2c 82 b6 bd 2a 06 4d 3e
       0.16992599 0.19488828 -0.08911547 0.20021883
000040 83 5b 58 be 84 48 96 bc be f6 22 be 48 03 c7 bd
       -0.21128659 -0.018345125 -0.15914437 -0.09717423
000050 7d 9c 9d bd 93 51 39 bc 69 25 dd 3d 43 41 21 be
       -0.076958634 -0.011310953 0.10798151 -0.15747552
000060 2c 23 24 be
       -0.16029042

fc2.weight f4 [25, 25]
000000 5a 3f c8 bd 33 7a 8e bc 76 1a 52 3e 3d d8 65 be
       -0.09777708 -0.017392254 0.20517907 -0.2244577
000010 c6 41 f2 be bc a1 73 3e 3e ab d1 3e c5 74 90 be
       -0.47315806 0.23792166 0.4095096 -0.28214088
000020 ec 7c f1 be d8 3b 45 bf 95 ed 62 bc 83 61 a7 be
       -0.4716562 -0.7704444 -0.013850589 -0.32691583
000030 2e 7a 02 bf a5 45 63 3e 13 4d bd bd 7c 28 b1 3e
       -0.5096768 0.22194536 -0.09243216 0.346012
000040 69 09 cf be d7 bb 24 be 39 c5 cd be c1 77 90 3d
       -0.40436867 -0.1608728 -0.4018953 0.07054091
000050 8e 60 45 bd ba c3 33 bf 83 19 fc 3d 4e f8 8a be
       -0.048187785 -0.7022053 0.123095535 -0.27142566
000060 41 dd 53 be 6c 18 2b 3e 0f f7 ae 3e 69 5d bd 3e
       -0.2068987 0.16708535 0.34172866 0.3698533
000070 f6 84 c8 3e 18 3e 3a bd 1f c9 61 3e 04 45 90 be
       0.3916394 -0.045469373 0.22049378 -0.28177655
000080 5e 64 c8 3e 4a 1d 06 3f 25 43 fc 3c f8 26 04 3f
       0.39139074 0.5238844 0.030793736 0.5162196
000090 30 42 2b 3c 7a 7a 98 3e a1 29 30 3e 63 01 d2 be
       0.010452792 0.29780942 0.1720338 -0.41016683
0000a0 cb 83 8c be f1 ee 9f 3c 03 0c 52 3e 96 88 8f 3e
       -0.274443 0.019523116 0.20512395 0.28033894
0000b0 4c 6c 86 3e 3c a7 ea 3e 85 67 89 3e 5a 6f 32 be
       0.262545 0.45830715 0.26836792 -0.1742529
0000c0 01 67 2d 3f 54 e7 6e bd 8b 38 d0 bd f6 4c e1 3e
       0.67735296 -0.05832608 -0.10167035 0.4400403
0000d0 4e d2 5c be 37 d9 90 3e e9 a9 33 3e f7 cd 8f 3e
       -0.215646 0.28290722 0.17545284 0.28086826
0000e0 e5 46 13 be 96 6c c9 3e 6a 9a df 3e d6 f8 c2 3e
       -0.14382513 0.39340657 0.43672496 0.38080472
0000f0 f9 62 ad 3e 73 83 c1 bd e5 14 87 bd 99 06 81 3e
       0.33864573 -0.094489 -0.06595782 0.25200346
000100 fc 33 29 be 1b 9e 90 bd 1f a8 ed 3d ce 30 c3 3e
       -0.16523737 -0.07061406 0.11604332 0.38123173
000110 41 a6 02 3f bf 8e 44 3e 5b 1e fe 3e 6d f2 98 3d
       0.51034933 0.19195078 0.49632534 0.07468114
000120 d9 41 07 3e 0a 40 55 3f e9 6c 3f be 50 db 84 be
       0.13208713 0.8330084 -0.1869389 -0.25948572
000130 52 6f 2b be 5d a2 12 be 92 38 46 bd 79 6f 85 3c
       -0.16741684 -0.14319749 -0.048393793 0.016288506
000140 ec 46 a6 be c9 fa e2 3e 50 c5 fe be 40 ec 6b be
       -0.32475984 0.4433196 -0.49759912 -0.23039341
000150 6e 78 b2 bd a2 55 0b be 1b 92 d9 3d 84 ff 3d 3e
       -0.087143764 -0.13606885 0.106235705 0.18554503
000160 88 12 72 3d eb 8c d9 be 16 b3 60 3e 54 74 91 be
       0.059099704 -0.42490324 0.21943316 -0.28409064
000170 c6 d1 bc bd 85 39 b7 be ff 5d 89 be 42 38 2d bf
       -0.092196986 -0.3578607 -0.26829526 -0.6766397
000180 81 94 fe bc f7 2c c8 3d c5 d3 3a bf e7 7b af 3d
       -0.031076672 0.09774201 -0.72979385 0.08568554
000190 bb 10 86 3e df e7 ef be f8 f3 44 bf a0 5f bb bd
       0.2618464 -0.4685659 -0.76934767 -0.091490984
0001a0 31 d0 11 bd 2f 5d a1 3d 1d 22 ee 3e b3 41 33 be
       -0.035598937 0.078791015 0.465104 -0.17505531
0001b0 69 06 64 bf 54 e0 40 bf 15 3a f8 3d 05 dd 97 bd
       -0.8907228 -0.753423 0.12120453 -0.07415203
0001c0 49 11 0c bf 63 22 12 bf c8 66 d9 bd e6 11 fb 3d
       -0.54713875 -0.5708372 -0.10615307 0.12259273
0001d0 a3 2a 38 be 84 52 23 be af 0d 27 bf a4 e2 be be
       -0.17985015 -0.15949446 -0.65255255 -0.37282288
0001e0 d7 4c e0 3d 94 8c 51 bf 16 f3 ae 3e d9 b7 0c bc
       0.10952156 -0.8185513 0.34169835 -0.008588755
0001f0 eb fd 7c bd d3 82 03 bd d3 ec e3 3e db 30 0a be
       -0.061765593 -0.032107186 0.4451662 -0.134952
000200 25 7a 96 3d c1 9f 88 3d 00 2d 0e 3e c8 8f b0 bd
       0.07347516 0.06671096 0.13884354 -0.08621174
000210 4e d8 56 3e 81 48 25 3f 04 79 dc 3e fd aa f3 3e
       0.20980951 0.6456376 0.43061078 0.4759139
000220 50 74 5f be 89 02 47 3d c2 c9 c0 3d 20 01 90 be
       -0.21821713 0.048586402 0.09413482 -0.28125858
000230 64 74 76 bd e6 8d 65 3e 2c 86 de 3e 92 2a 22 3f
       -0.060169592 0.22417411 0.4346174 0.6334621
000240 dc d4 b0 3e 87 f2 60 3e 9c 60 be 3e a1 41 3e 3e
       0.345374 0.21967517 0.37183082 0.18579723
000250 bf 6c 89 3f 6b 5a 86 be 64 09 45 3e d7 37 ea 3e
       1.0736312 -0.26240858 0.19241863 0.45745727
000260 ca 33 96 3e 8b d2 dd 3e 7f 2d 3b 3e fb db 67 3c
       0.29336387 0.43324694 0.18279074 0.0141515685
000270 8b 5f 88 be 63 bb 6f 3e 46 6e a6 3e 1d 4d ba 3e
       -0.26635394 0.23411326 0.32506007 0.36386958
000280 9c 50 39 3e 15 d8 f8 bb 5b 4e 00 3e 40 fa 67 3d
       0.18097156 -0.0075941184 0.1252989 0.05663514
000290 d8 96 8f be de 83 43 be 30 fb fd 3d 9d ef b4 3e
       -0.28044772 -0.19093272 0.12401426 0.3533906
0002a0 37 4d cf 3e 14 e7 90 3e 9e 3a 51 3e c7 a8 9f 3e
       0.40488598 0.283013 0.20432517 0.31183454
0002b0 0c 73 41 be ff b8 05 3f 76 3f 03 be b3 d1 db bd
       -0.18891543 0.52235407 -0.12817177 -0.10733356
0002c0 bd 42 0d 3b fa 9b 8f 3d 98 85 bd bc 9e c7 13 bd
       0.0021554672 0.07012172 -0.023134992 -0.03607904
0002d0 e5 4e 62 be d0 36 4d be 22 1c 88 3d 40 17 5b bd
       -0.22100408 -0.2004044 0.06645991 -0.05348897
0002e0 a0 f3 2c bd e7 6f 43 be b5 a6 41 bd c7 87 c3 bd
       -0.042224526 -0.19085656 -0.047278125 -0.09547382
0002f0 6e 6c 2d be ea c8 37 3d 1b 73 95 3c 11 0a 21 be
       -0.16935894 0.04486934 0.018243363 -0.15726496
000300 f0 10 e7 3c 6c 96 a5 3d f9 69 59 bd 40 b0 14 be
       0.028206319 0.08085331 -0.05307958 -0.14520359
000310 7d b5 18 be 39 aa 8b bd 73 fd 05 3e 82 4b 2a 3e
       -0.14912982 -0.06819577 0.13084964 0.16630366
000320 b1 02 73 3e 19 38 09 3f 80 87 bc 3e a9 52 46 3e
       0.23731495 0.53601223 0.36822128 0.1936747
000330 86 96 31 3d cc c0 08 bd 06 85 10 be 76 30 6f 3e
       0.04335644 -0.03338699 -0.14113244 0.2335833
000340 81 69 bb 3d 9b ba 9f 3e c9 3f 20 3e c7 3e 83 3e
       0.09150983 0.31197056 0.15649332 0.25633833
000350 db 6d 9e bc 50 e1 d5 3d 9f 30 81 bc 9c 34 57 bd
       -0.019339493 0.104433656 -0.015770255 -0.052540407
000360 9f 47 71 3c 5f f3 ba 3e 2f 1a e9 3e f7 b1 01 3c
       0.014726548 0.36513802 0.4552779 0.007915965
000370 80 53 d0 3e d1 32 c9 3e 22 03 84 be 01 a8 2f 3f
       0.40688705 0.39296582 -0.2578364 0.6861573
000380 0f cc a7 bd 62 3b 26 be b5 34 45 3e 6f f2 6f 3d
       -0.08193218 -0.1623359 0.19258387 0.058580812
000390 0d de 95 3e 0b 39 8e 3e b5 72 40 3e f5 10 1d be
       0.29270974 0.27777895 0.18793757 -0.153385
0003a0 d5 ad ae 3e 97 9d 7b 3e 7f 8c 95 3e 70 63 7a 3e
       0.34116998 0.24571835 0.29208753 0.24451995
0003b0 46 7e c2 3d c8 1d a7 3d 44 a8 11 3d 62 fb c4 bd
       0.09496741 0.08159977 0.03556086 -0.0961826
0003c0 b5 57 e4 3b 78 e2 3c 3d 69 ab 85 3e 91 b9 6c 3e
       0.0069684633 0.046114415 0.26107338 0.23117663
0003d0 e9 dd 20 3e 8f ab 4c 3e 27 ea f6 3d ba 08 3f be
       0.15709652 0.1998732 0.1205638 -0.18655673
0003e0 0a 5c 17 3f c9 66 4c be 58 ac 1c be d8 ec a4 3c
       0.59124815 -0.19961084 -0.15300119 0.020132467
0003f0 b0 39 bd bd e8 8b 1e be ea 40 43 be 80 3b 47 3d
       -0.09239519 -0.15483057 -0.19067731 0.048640728

fc2.bias f4 [25]
000000 bf a4 29 3e 24 bd 2b 3e 04 85 47 be 79 77 ab 3e
       0.16566752 0.1677137 -0.19484335 0.33489588
000010 d2 71 10 3e 7e 9d 03 be 96 eb 25 3e 92 e2 4c be
       0.14105919 -0.12853047 0.1620315 -0.20008305
000020 fc c5 be 3d dd 85 bf 3d 03 0d b4 bd b4 b0 b0 3d
       0.09315106 0.09351704 -0.08791544 0.086274534
000030 09 b1 99 bc 4d ed e7 bd 9c b1 9a 3d 86 63 8d bd
       -0.018761175 -0.113245584 0.075534075 -0.06903748
000040 5c 1d 39 bd 76 8a a6 bc 01 c0 1e bc 22 51 67 3d
       -0.045194015 -0.020329695 -0.009689332 0.05647386
000050 19 cf 34 be a6 26 9a 3e 7f 8f 91 3d e1 6d be 39
       -0.17657126 0.3010761 0.07107448 0.0003632149
000060 94 58 93 3e
       0.28778517

ps_out.weight f4 [2, 25]
000000 8d d7 6b bf 9a bc 22 3f 5e 3d 37 3f 4a 8f 15 bf
       -0.9212578 0.63569033 0.71578014 -0.58421767
000010 f9 22 79 bf 11 45 17 3f 49 02 e8 3e 91 e3 b7 bd
       -0.9731899 0.5908976 0.45314243 -0.08978952
000020 0a a7 cb 3e cf c6 74 3e 1a 12 10 be a5 f4 6e 3e
       0.39775878 0.23903964 -0.14069405 0.23335512
000030 05 1c f1 3d a6 95 ee 3e 87 3e 5b 3f 49 a7 4a 3f
       0.117729224 0.46598548 0.85642284 0.79161507
000040 f7 32 22 3f 0a ff 04 3f 0a 9d b3 3e cc 5c 1f 3f
       0.63359016 0.5195166 0.3508075 0.6225097
000050 bb 53 f9 3e bb 74 24 bf 7c 86 d2 3e d5 25 2f bf
       0.48696694 -0.64240617 0.41118228 -0.684171
000060 d2 32 6c bf 2c 25 7b 3f ad f3 32 bf b7 b0 3b bf
       -0.92265046 0.98103595 -0.6990307 -0.7331652
000070 74 0e 24 3f f8 a3 28 3f 79 3e 5f bf 83 30 b8 be
       0.64084554 0.65875196 -0.872047 -0.35974512
000080 42 52 91 bd ac ce 8a be 89 72 01 3c 80 99 af 3a
       -0.070957676 -0.27110803 0.007900842 0.0013397187
000090 2e 31 6a bd 76 26 ab be af 49 03 bf 65 54 3e bf
       -0.057175808 -0.3342778 -0.5128431 -0.74347526
0000a0 06 36 f8 be 40 fa ac be 24 f0 25 bf af 7c 6e be
       -0.48478717 -0.33784676 -0.6481955 -0.2328975
0000b0 68 97 55 bf dc 68 28 be 8b 12 5d 3f 67 fd d3 be
       -0.8343415 -0.1644625 0.8635642 -0.41404268
0000c0 7b d3 35 3f aa 31 85 3f
       0.7102582 1.0405781

ps_out.bias f4 [2]
000000 aa ca cf 3d 6a 07 73 3d
       0.10146077 0.059333242
