Propensity_Model/DCN_PD_NN_Models/NN_PS_model_iter_id_36_epoch_250_lr_0.001.pth (torch_old, 6445 bytes, 6 tensors)

fc1.weight f4 [25, 25]
-0.44599336 -0.0096230535 -0.24559534 -0.06779517 0.03674547 0.18734737 -0.27777144 0.118815504
-0.13292214 -0.069766305 0.015983937 0.10171398 0.3161183 -0.092755765 0.33983347 0.0072600543
-0.22868632 0.026083227 -0.17139375 0.013432875 -0.42863712 -0.05829428 0.7258364 -0.15427706
-0.01780208 0.046291187 0.013885657 0.7182374 -0.5029949 -0.016372662 0.4465837 0.2223329
-0.29177433 -0.00034613954 -0.42133927 -0.21201773 0.03477448 -0.41121647 -0.035423167 -0.095180534
0.2689106 -0.036848906 -0.2954756 0.73636025 0.4419676 -0.7419839 -0.22931026 0.042790346
0.5524868 -0.27757 0.0775979 -0.17174208 -0.38471717 0.1738108 0.20367841 -0.24015044
-0.19601431 0.051275905 0.011359456 0.070650175 0.33113167 0.24559386 0.27637556 -0.09946273
0.019554392 -0.31820944 0.21772887 -0.2651729 -0.3238 0.31349984 0.06772404 -0.17436674
0.43520352 0.10481165 -0.2798026 0.060782995 0.190833 0.36285096 -0.06389466 0.12958302
-0.04068568 -0.5275502 -0.15682809 0.32731786 -0.10247454 0.077426985 0.1111578 -0.33977297
0.02707772 -0.00065044354 0.35869235 -0.039822377 -0.08408679 0.13829546 0.31498146 -0.024057576
-0.20296691 0.28545287 -0.2148045 0.19188477 -0.09148912 0.1313084 0.48953265 0.026180353
-0.10110867 -0.060913507 -0.3499863 -0.0075712902 0.24261461 0.16347401 -0.3200967 0.11000099
-0.19063081 0.18156217 0.27667904 -0.040765632 0.026186103 -0.24108702 0.26810247 0.48716697
-0.15604496 -0.3460095 -0.0658024 0.40343627 -0.67008543 -0.37186477 -0.38255638 0.17291208
0.07535467 0.050539684 -0.08273147 -0.07341879 0.026820384 0.16007745 -0.0006755523 0.17077208
0.059960514 0.1921027 -0.02879557 0.35436535 0.14247869 -0.43722066 0.16460161 -0.14632632
0.060869284 -0.06649841 0.05319585 0.6401146 -0.03798844 -0.0871924 -0.10327308 -0.179599
-0.055586487 -0.17534667 0.120053865 0.1985113 0.24720034 -0.17137145 0.3038007 0.0013139828
-0.003938392 -0.22814594 0.58675134 0.12135566 0.30426493 0.37028494 -0.63923985 0.12700383
-0.15115602 0.3660141 -0.28781322 -0.41494033 0.28493366 -0.20250787 -0.065172575 0.24073052
0.0630157 -0.18924591 -0.13590918 0.16034818 0.18860778 0.50530314 0.51383847 0.43522
0.33828166 -0.20734341 0.15740237 0.37346584 0.09472179 0.27786133 0.15090814 -0.052932646
0.23840962 -0.01242736 -0.05377729 -0.13384508 -0.20328987 -0.10752472 0.080539085 -0.21917613
-0.030014493 -0.22215165 -0.5396796 0.33784914 0.018644426 0.27736038 -0.11653594 -0.04683679
-0.39639887 0.17660357 0.36423633 -0.19296722 -0.23266943 0.18333381 -0.15385492 -0.3319605
0.16049469 0.13527076 0.37403747 -0.029117113 0.24753194 0.15230444 0.26273343 0.0052128993
0.22326759 0.094755895 -0.23784213 0.22227 0.086115345 0.04792432 0.11823735 -0.22658549
-0.27937147 -0.10270771 0.34960607 -0.5869944 0.027983386 0.29890546 0.15612124 -0.31471077
0.12652129 0.05359085 0.1612456 0.062454022 -0.3825674 -0.60346663 0.13920549 -0.10429484
-0.10800255 0.06236072 0.34012705 0.1718982 0.16228236 0.107583664 -0.17469849 -0.46587187
00000000: 3e59 e4be 03aa 1dbc 587d 7bbe 32d8 8abd
00000010: 6b82 163d fdd7 3f3e 0f38 8ebe 8b55 f33d
00000020: be1c 08be a3e1 8ebd bff0 823c 6b4f d03d
00000030: 42da a13e bcf6 bdbd a7fe ad3e c0e5 ed3b
00000040: bf2c 6abe 7eac d53c d881 2fbe 9015 5c3c
00000050: 5376 dbbe fcc5 6ebd 6ad0 393f cefa 1dbe
00000060: abd5 91bc d49b 3d3d ab80 633c 68de 373f
00000070: 46c4 00bf f61f 86bc 9ea6 e43e 3cab 633e
00000080: 7263 95be 107a b5b9 c8b9 d7be 2d1b 59be
00000090: af6f 0e3d f78a d2be e217 11bd 03ee c2bd
000000a0: a6ae 893e e1ee 16bd 9448 97be 1b82 3c3f
000000b0: 9449 e23e a8f2 3dbf 4fd0 6abe ee44 2f3d
000000c0: c66f 0d3f a81d 8ebe a6eb 9e3d 28dd 2fbe
000000d0: a6f9 c4be 75fb 313e 1391 503e ffe9 75be
000000e0: fab7 48be af06 523d 031d 3a3c 0ab1 903d
000000f0: 178a a93e f57c 7b3e 1981 8d3e 1eb3 cbbd
00000100: 8830 a03c 59ec a2be 51f4 5e3e bec4 87be
00000110: 1dc9 a5be 0d83 a03e e7b2 8a3d 328d 32be
00000120: ffd2 de3e 7ea7 d63d 4942 8fbe 97f7 783d
00000130: ba69 433e 9ac7 b93e 34db 82bd 69b1 043e
00000140: 07a6 26bd 880d 07bf 8b97 20be 3596 a73e
00000150: 2cde d1bd 0a92 9e3d b3a6 e33d b9f6 adbe
00000160: 18d2 dd3c 8782 2aba 86a6 b73e ca1c 23bd
00000170: b235 acbd 539d 0d3e 4045 a13e 6514 c5bc
00000180: 8fd6 4fbe e126 923e b6f5 5bbe 717d 443e
00000190: a65e bbbd b675 063e 06a4 fa3e 2e78 d63c
000001a0: 1012 cfbd 7180 79bd 6831 b3be 9618 f8bb
000001b0: f76f 783e bb65 273e b7e3 a3be 3348 e13d
000001c0: b934 43be 6feb 393e e0a8 8d3e ddf9 26bd
000001d0: 3d84 d63c 84df 76be ba44 893e f36d f93e
000001e0: 40ca 1fbe 2828 b1be 69c3 86bd 338f ce3e
000001f0: b88a 2bbf 0f65 bebe 6ede c3be dd0f 313e
00000200: 8d53 9a3d b302 4f3d 1e6f a9bd 975c 96bd
00000210: 6cb6 db3c 58eb 233e 8c17 31ba e0de 2e3e
00000220: 2899 753d 92b6 443e b0e4 ebbc 606f b53e
00000230: efe5 113e 63db dfbe 538d 283e 91d6 15be
00000240: 1252 793d 5230 88bd e4e3 593d 8dde 233f
00000250: c499 1bbd ee91 b2bd d680 d3bd cde8 37be
00000260: a8ae 63bd 148e 33be cdde f53d 8c46 4b3e
00000270: 1622 7d3e ff7b 2fbe c48b 9b3e f239 ac3a
00000280: a00d 81bb 179f 69be 5635 163f 5189 f83d
00000290: 9dc8 9b3e fd95 bd3e 39a5 23bf 4b0d 023e
000002a0: a5c8 1abe 3366 bb3e 415c 93be 0f73 d4be
000002b0: d3e2 913e 395e 4fbe 3379 85bd 1082 763e
000002c0: 600e 813d aec9 41be c72b 0bbe 5032 243e
000002d0: 6622 413e 8c5b 013f eb8a 033f 28d5 de3e
000002e0: 4133 ad3e d551 54be 162e 213e ea36 bf3e
000002f0: 7ffd c13d d743 8e3e aa87 1a3e e7cf 58bd
00000300: a721 743e 209c 4bbc 9345 5cbd af0e 09be
00000310: 382b 50be ec35 dcbd adf1 a43d b56f 60be
00000320: f4e0 f5bc b97b 63be 7128 0abf 90fa ac3e
00000330: 32bc 983c 2e02 8e3e 65aa eebd efd7 3fbd
00000340: cbf4 cabe 91d7 343e 2f7d ba3e 3399 45be
00000350: e540 6ebe dcbb 3b3e 258c 1dbe baf6 a9be
00000360: b858 243e 6b84 0a3e d781 bf3e 0387 eebc
00000370: 0379 7d3e b2f5 1b3e ff84 863e f8d0 aa3b
00000380: 42a0 643e 610f c23d e38c 73be bf9a 633e
00000390: 3e5d b03d 4b4c 443d 6c26 f23d 0706 68be
000003a0: c709 8fbe 6b58 d2bd 91ff b23e 4445 16bf
000003b0: 6a3d e53c 230a 993e 3fde 1f3e c521 a1be
000003c0: cc8e 013e 1482 5b3d 911d 253e cacf 7f3d
000003d0: e0df c3be ca7c 1abf e28b 0e3e 8898 d5bd
000003e0: 7130 ddbd f46d 7f3d 2225 ae3e 1506 303e
000003f0: 592d 263e d354 dc3d 29e4 32be c286 eebe

fc1.bias f4 [25]
0.24881577 0.067628734 0.114704445 -0.13880011 -0.15409942 0.13006416 -0.16232422 0.14348152
0.15880501 0.2279179 -0.053448107 -0.0060403086 0.11834117 0.05458677 0.01122467 0.21586134
0.22135171 0.24212667 -0.26737452 -0.06017693 0.1639706 0.1800027 -0.026949892 -0.17404023
-0.21283916
00000000: 90c9 7e3e ef80 8a3d 2aea ea3d 9e21 0ebe
00000010: 3dcc 1dbe 8a2f 053e 5238 26be d2ec 123e
00000020: c89d 223e 4f63 693e 67ec 5abd c8ed c5bb
00000030: db5c f23d 6096 5f3d aee7 373c c10a 5d3e
00000040: 06aa 623e 0ef0 773e 50e5 88be 167c 76bd
00000050: e9e7 273e a152 383e 05c6 dcbc 9a37 32be
00000060: 82f2 59be

fc2.weight f4 [25, 25]
0.371133 0.30466115 -0.95478517 -0.37850383 -0.24540326 0.40756708 -0.2298876 -0.5361069
0.8364781 0.24965188 0.5090026 0.58576316 -0.53471124 -0.63390356 0.24584061 -0.9383994
-0.51283985 0.370938 0.50808114 -0.63157195 0.5193419 -0.1561236 -1.2400655 -0.2315513
-0.18627875 0.37703434 -0.2792295 0.7224619 0.46054766 0.59589595 0.23227768 0.2424774
-0.015707236 -0.29474676 -0.102982216 -0.22917801 0.28862914 0.9449601 0.28035107 0.14040957
-0.07928795 -0.16924746 0.15808883 -0.14791 0.2678268 -0.40013927 0.078572795 -0.0124350535
0.0806979 0.055809163 0.083270624 -0.16440201 -0.19043992 -0.18473613 -0.18513854 -0.10671347
-0.0008803159 -0.10063243 -0.072857335 0.050142094 0.07834934 0.03764656 -0.06417112 -0.15480117
-0.10832038 0.053886607 -0.09370768 -0.15427248 -0.08269005 0.094738826 -0.19333999 -0.16614056
-0.16008845 0.04544036 -0.16815822 0.27675208 -0.41466466 0.5043245 0.82446194 1.0692651
0.33739272 0.09419773 -0.023934362 -0.09201033 -0.3150253 0.024530312 -0.09044549 1.529148
0.5629984 -0.32974643 0.22882417 0.46182308 0.16838424 -0.05880627 -0.21749175 0.0037336675
-0.26427463 0.32801092 0.23048833 0.020303847 0.6825518 -0.18021303 0.29592294 0.41102782
0.5293836 0.27022702 0.03834035 -0.3922203 0.28691447 -0.4610555 -0.041776117 -0.07885143
0.63920695 0.41838586 -0.1468457 0.15262555 0.0770028 0.4393049 -0.33264747 0.0423894
-0.019299053 0.09199401 0.2471362 0.2064962 0.26622415 0.30243006 0.19069815 -1.3496835
-0.47789636 -0.3855661 0.04240898 -0.2658651 -0.34860685 0.026044859 0.41401455 0.3267186
0.23361443 -1.4093467 -1.328019 -0.022018721 -0.11733101 -0.0076296646 0.58220744 -0.050821275
-0.89810663 -0.54949415 -0.04406688 -0.4338187 0.035279904 0.54538196 0.42452076 -0.5225495
0.7892021 0.39605165 0.460189 0.13786452 0.41303393 -0.09508895 -0.24514575 -0.08338866
-0.14932403 0.07803935 1.174975 0.30374816 0.04581258 0.098302454 0.050735157 0.09925355
-0.30065376 0.5288267 -0.37501776 -0.053523477 0.25116208 0.29143834 0.18673894 0.25624934
-0.49496508 0.839899 0.43475708 0.7534744 0.14499183 0.31998858 0.28406668 0.08748168
-0.07261587 -0.37396067 0.22856884 1.255511 0.31200328 0.29129204 -0.231683 0.10285402
0.3132255 -0.38514128 0.48690966 -0.36666107 -0.26575986 0.30153435 0.19999433 0.21940264
0.8768981 0.27627087 0.805386 0.37157702 0.6889712 -0.0017831792 -0.38599658 -0.01564744
0.25039387 -0.49713445 -0.12468279 0.34484628 1.4156252 0.39017838 0.1928119 0.12701604
-0.22121796 0.3797391 -0.31367356 0.40501335 -0.160412 -0.2278692 0.31267977 0.08112111
0.4978457 0.8286046 0.34397694 0.9175914 0.6777279 0.6956748 -0.08503873 -0.37651792
-0.30167136 0.37475333 -0.20306177 -0.1537336 0.010580147 1.5808278 0.77478206 0.33894122
0.35317904 -0.050799362 0.47943816 -0.38240826 0.34186745 -0.050416358 -0.3080604 0.26556316
0.125435 0.30433214 0.009201808 0.48165366 -0.2705431 -0.21896163 -0.2907244 -0.08945911
00000000: 2505 be3e 8cfc 9b3e cd6c 74bf 41cb c1be
00000010: fe4a 7bbe a2ac d03e a867 6bbe 4d3e 09bf
00000020: 6e23 563f bea4 7f3e ff4d 023f 93f4 153f
00000030: d6e2 08bf 8147 22bf a4bd 7b3e f13a 70bf
00000040: 7949 03bf 96eb bd3e 9b11 023f b3ae 21bf
00000050: 97f3 043f ddde 1fbe 77ba 9ebf c91b 6dbe
00000060: dbbf 3ebe a50a c13e 2bf7 8ebe 43f3 383f
00000070: e7cc eb3e a38c 183f 33da 6d3e ff4b 783e
00000080: 76ac 80bc 0ce9 96be 57e8 d2bd a4ad 6abe
00000090: 33c7 933e e8e8 713f 2d8a 8f3e 87c7 0f3e
000000a0: b961 a2bd 354f 2dbe 0ae2 213e b875 17be
000000b0: 9820 893e 0edf ccbe c6ea a03d 65bc 4bbc
000000c0: f144 a53d 2698 643d ca89 aa3d 0059 28be
000000d0: af02 43be 782b 3dbe f594 3dbe 978c dabd
000000e0: 00c5 66ba 6018 cebd 3a36 95bd cc61 4d3d
000000f0: 9e75 a03d 4833 1a3d 266c 83bd 3384 1ebe
00000100: 13d7 ddbd 34b8 5c3d d0e9 bfbd 9bf9 1dbe
00000110: 6759 a9bd 6e06 c23d ebfa 45be c020 2abe
00000120: 3aee 23be ac1f 3a3d ab31 2cbe 73b2 8d3e
00000130: ed4e d4be 691b 013f f00f 533f aedd 883f
00000140: bdbe ac3e bdea c03d ff11 c4bc e96f bcbd
00000150: ff4a a1be cbf3 c83c 7c3b b9bd 1fbb c33f
00000160: aa20 103f 86d4 a8be e250 6a3e 1374 ec3e
00000170: eb6c 2c3e d8de 70bd 28b6 5ebe 8cb0 743b
00000180: 014f 87be 0cf1 a73e 2205 6c3e 4154 a63c
00000190: b7bb 2e3f c489 38be 3683 973e 3d72 d23e
000001a0: af85 073f 325b 8a3e c50a 1d3d 19d1 c8be
000001b0: 74e6 923e 770f ecbe 6f1d 2bbd dc7c a1bd
000001c0: 11a3 233f ac36 d63e b85e 16be df49 1c3e
000001d0: a5b3 9d3d 92ec e03e c550 aabe 82a0 2d3d
000001e0: 0c19 9ebc 5b67 bc3d 4611 7d3e bd73 533e
000001f0: 884e 883e 1dd8 9a3e 6046 433e 6ec2 acbf
00000200: d5ae f4be eb68 c5be 0ab5 2d3d 781f 88be
00000210: 997c b2be 075c d53c b7f9 d33e a947 a73e
00000220: 9f38 6f3e 7965 b4bf 87fc a9bf 9b60 b4bc
00000230: 3e4b f0bd 4402 fabb 8c0b 153f f829 50bd
00000240: 51ea 65bf a6ab 0cbf 797f 34bd 7c1d debe
00000250: a981 103d 279e 0b3f c95a d93e cec5 05bf
00000260: 2609 4a3f 48c7 ca3e e59d eb3e 5b2c 0d3e
00000270: 2f79 d33e ffbd c2bd 7d07 7bbe acc7 aabd
00000280: 66e8 18be 18d3 9f3d 9565 963f e184 9b3e
00000290: f9a5 3b3d cc52 c93d abcf 4f3d 7245 cb3d
000002a0: 4aef 99be 3061 073f 5402 c0be 6f3b 5bbd
000002b0: 5198 803e 6837 953e 7e38 3f3e 1d33 833e
000002c0: 106c fdbe 9f03 573f 7b98 de3e b3e3 403f
000002d0: bd78 143e 8bd5 a33e 3071 913e 9829 b33d
000002e0: a1b7 94bd c677 bfbe f30d 6a3e 96b4 a03f
000002f0: e5be 9f3e 3b24 953e 4f3e 6dbe 21a5 d23d
00000300: 185f a03e 3d31 c5be 394c f93e 00bb bbbe
00000310: ad11 88be b662 9a3e 50cb 4c3e 16ab 603e
00000320: 657c 603f 6073 8d3e c72d 4e3f 583f be3e
00000330: 6b60 303f 91b9 e9ba 58a1 c5be 0f2f 80bc
00000340: a033 803e 6888 febe b159 ffbd b18f b03e
00000350: 3533 b53f 76c5 c73e 7c70 453e 7e10 023e
00000360: f686 62be 2a6d c23e d299 a0be e95d cf3e
00000370: 0b43 24be 8b56 69be 9017 a03e d322 a63d
00000380: a2e5 fe3e 6e1f 543f bf1d b03e 45e7 6a3f
00000390: 937f 2d3f be17 323f c928 aebd f5c6 c0be
000003a0: ab74 9abe abdf bf3e 6def 4fbe 576c 1dbe
000003b0: 5a58 2d3c 9158 ca3f 1e58 463f b489 ad3e
000003c0: e2d3 b43e fe12 50bd eb78 f53e 04cb c3be
000003d0: 4009 af3e 6281 4ebd 18ba 9dbe e5f7 873e
000003e0: 0872 003e 6cd1 9b3e 2ec3 163c 4f9b f63e
000003f0: a084 8abe 7a37 60be d4d9 94be 5636 b7bd

fc2.bias f4 [25]
-0.017693186 0.08852404 -0.19228852 -0.1001125 0.091147274 0.022035364 0.1372307 -0.115953565
-0.07741255 0.08908959 0.035439644 0.055278804 0.34278053 -0.1374826 -0.1796742 0.06503408
0.17365864 -0.045800406 0.1049203 0.33647648 0.00078191987 0.055090297 -0.18832237 -0.2219549
0.258555
00000000: 4df1 90bc 184c b53d 48e7 44be c807 cdbd
00000010: 6cab ba3d 8283 b43c 3486 0c3e 1079 edbd
00000020: 798a 9ebd 9a74 b63d 2929 113d 076c 623d
00000030: ee80 af3e 3dc8 0cbe 83fc 37be 9630 853d
00000040: 92d3 313e 3599 3bbd 74e0 d63d a546 ac3e
00000050: c1f9 4c3a 5da6 613d 94d7 40be 2548 63be
00000060: 5261 843e

ps_out.weight f4 [2, 25]
-1.5834606 0.60466474 -0.09970754 1.1503863 0.50549704 -1.6143334 0.43881544 0.889282
1.9220691 1.393475 -1.3723627 -1.1167728 -1.5252485 0.9205055 1.093277 0.7426579
-1.2666807 1.06859 0.56150466 -1.4073194 -0.09609684 0.9163442 0.8454203 -0.06818653
-1.3998579 1.290784 -0.40962973 0.07952736 -1.1165266 -0.58302724 1.4477546 -0.32043055
-0.840595 -2.0003817 -1.6787468 1.3932332 1.0901936 1.4498378 -1.0489787 -1.1176187
-0.6293952 1.4886931 -1.0545112 -0.47551507 1.4305634 -0.035561837 -0.5953059 -0.631861
0.1414552 1.5199622
00000000: d6ae cabf 4fcb 1a3f 7733 ccbd dc3f 933f
00000010: 4168 013f 7aa2 cebf 6bac e03e fca7 633f
00000020: 5c06 f63f 645d b23f 95a9 afbf 69f2 8ebf
00000030: 583b c3bf 40a6 6b3f 80f0 8b3f d41e 3e3f
00000040: 9822 a2bf 8fc7 883f c5be 0f3f 0b23 b4bf
00000050: 6cce c4bd 8995 6a3f 776d 583f 61a5 8bbd
00000060: 8b2e b3bf 6938 a53f fdba d1be 3edf a23d
00000070: 58ea 8ebf 4641 15bf 0650 b93f 790f a4be
00000080: 3c31 57bf 4106 00c0 2de1 d6bf 7755 b23f
00000090: 778b 8b3f 4994 b93f ef44 86bf 210e 8fbf
000000a0: 0b20 21bf 7f8d be3f 39fa 86bf b676 f3be
000000b0: b41c b73f 4aa9 11bd f865 18bf a4c1 21bf
000000c0: a2d9 103e 1f8e c23f

ps_out.bias f4 [2]
0.112128764 0.10658044
00000000: c4a3 e53d d946 da3d
